Models/model22.pth (torch, 151631 bytes, 6 tensors)

oconv1.weight f4 [1, 1, 3, 3]
0.44224498 -0.15196447 -0.5101021 0.18435456 0.16497053 -0.18712837 0.34494254 -0.46011737
-0.20767246
00000000: ef6d e23e 939c 1bbe 0d96 02bf 71c7 3c3e
00000010: 09ee 283e 949e 3fbe 4f9c b03e 8194 ebbe
00000020: 17a8 54be

conv1.weight f4 [63, 1, 3, 3]
-1.5546565 0.29502758 0.18663597 -0.037113 -0.90017986 0.3345924 -0.1280632 0.14485593
-0.19368516 -0.1672234 -0.41403475 -0.117466204 -0.43846083 1.2563258 0.31797418 0.2261918
-0.7659488 0.27615836 0.22494291 -0.55283576 0.5285558 -0.6899811 0.46446225 0.31444058
-0.29720074 0.68084633 -0.12671228 0.3291227 -0.5887956 0.48099554 1.0742589 0.0028329396
0.6322036 -0.5766736 0.17579857 0.68043727 -0.9573491 -0.21675563 0.54200333 0.18235275
0.11392476 -0.043427814 -0.11324483 -0.20469584 0.3230439 -0.13774982 -0.6216678 -0.34946406
-0.6783216 -0.083108306 0.5721365 1.0493537 0.018880898 -0.36216712 0.086856216 -0.27422744
0.12107913 -0.22786267 0.41459662 -0.08949121 -0.5590271 0.32974908 0.01150289 0.32556456
0.43227986 -0.061396163 0.121993616 -0.38530886 0.7852328 -0.790052 0.47834784 0.17327812
0.500876 0.36811566 -1.1733083 -0.011193672 -0.5091516 1.122608 0.14081602 0.1431926
0.030208116 0.39290437 0.07739748 -0.6150366 -0.39806557 -0.0032582795 0.2762194 -0.45714158
-0.019446513 -0.14650184 0.61269194 -0.14888829 -0.72335905 -0.45534885 -0.5233288 -0.25854397
0.7878439 -0.28265554 -0.45349035 -0.18408053 -0.037981365 0.18590756 0.7135391 0.11161305
-0.8562244 0.52826923 0.5128756 0.54729 0.819625 0.32275364 -0.5225843 -0.44444412
0.19465384 0.81602794 0.5099749 0.0779142 1.4571761 0.7324857 -0.0939005 -0.26025033
-0.7792942 -0.089871354 0.0916275 0.5141406 0.11299803 0.2592678 0.18472832 -0.028070891
-0.554777 0.03937763 0.0029481398 -0.0942108 0.179504 -0.49673423 0.41325736 -0.018680122
0.21570002 -0.46561754 0.45958146 0.38200942 -0.23465216 -0.6132513 -0.7157868 -0.55846083
0.3773112 0.18034701 0.6738817 0.5858549 -0.72563416 0.45281836 0.06393642 0.3698168
-0.094532534 -0.08921537 -0.2910621 -0.7221093 0.10874155 -0.7741329 -0.9879211 0.5544685
0.8543655 -0.8105553 0.15139256 0.98454094 -1.1014224 0.6895178 -0.1779647 0.20027238
-0.26182503 -0.104604505 -0.30639705 -0.07067141 0.119992755 0.53480625 -0.7213475 0.21410611
0.355131 0.1018968 0.40668884 0.6011755 0.45267367 0.28533337 -0.3063276 0.11183712
0.945165 0.14910212 0.40230533 -0.24358103 -0.17314754 -0.20934843 -0.31727737 -0.34794244
0.26937124 0.59787786 0.010091407 -0.027347172 -0.16859606 -0.055707626 -0.5103964 -0.18852769
-0.5274902 0.47321355 0.121649384 0.25892532 0.5349711 -0.1558775 -0.25315103 -0.16778088
-0.8367419 0.91693646 0.10932714 0.27717727 -0.015337102 -0.42761353 0.3492192 0.49500763
-0.1718343 0.44579998 0.1708423 0.04536969 0.382336 -0.017064795 -1.2575798 -0.41030622
0.34802988 0.12734449 0.17476527 -0.3904716 0.31991976 0.40272638 -0.19682468 0.14136785
0.5661553 0.11752455 -0.7902903 -0.33129534 -0.37085563 -0.6899254 -0.24208681 -0.38842508
0.24781778 0.07482663 -0.87749654 0.19730364 0.50719607 0.6810389 0.22528684 -0.12002519
-0.532223 -0.35124475 0.02553898 0.2212006 0.13488805 -0.14262226 -0.6905616 -0.8766649
00000000: fcfe c6bf db0d 973e 801d 3f3e cd03 18bd
00000010: 3072 66bf b24f ab3e 0023 03be 1d55 143e
00000020: 6755 46be 9c3c 2bbe 5dfc d3be 1f92 f0bd
00000030: f07d e0be 49cf a03f 83cd a23e d39e 673e
00000040: 3815 44bf a164 8d3e 6f57 663e a586 0dbf
00000050: 6f4f 073f 9aa2 30bf ffcd ed3e 5bfe a03e
00000060: b22a 98be f24b 2e3f ddc0 01be c582 a83e
00000070: 4fbb 16bf 0c45 f63e 5181 893f d7a8 393b
00000080: 18d8 213f e2a0 13bf 8a04 343e 2331 2e3f
00000090: d514 75bf 30f5 5dbe bbc0 0a3f aeba 3a3e
000000a0: 6251 e93d 5de1 31bd e8ec e7bd c99b 51be
000000b0: 0366 a53e 4a0e 0dbe 9f25 1fbf f4ec b2be
000000c0: 7ca6 2dbf b034 aabd 8a77 123f 3951 863f
000000d0: 1dac 9a3c f86d b9be ace1 b13d 8a67 8cbe
000000e0: 56f8 f73d d554 69be 0246 d43e 2b47 b7bd
000000f0: 661c 0fbf dfd4 a83e 9e76 3c3c 66b0 a63e
00000100: c953 dd3e 8b7a 7bbd cad7 f93d 3447 c5be
00000110: 0405 493f d940 4abf 02ea f43e d26f 313e
00000120: 6939 003f a879 bc3e f72e 96bf aa65 37bc
00000130: c257 02bf 9eb1 8f3f 1332 103e 15a1 123e
00000140: 0377 f73c c32a c93e 9282 9e3d 0a73 1dbf
00000150: 40cf cbbe dc88 55bb a16c 8d3e 760e eabe
00000160: 4b4e 9fbc 9404 16be 61d9 1c3f 2c76 18be
00000170: 0f2e 39bf 7c23 e9be e0f8 05bf e05f 84be
00000180: 23b0 493f 3ab8 90be e32f e8be 9b7f 3cbe
00000190: 5992 1bbd 8d5e 3e3e 80aa 363f 6295 e43d
000001a0: 8631 5bbf a73c 073f d14b 033f 331b 0c3f
000001b0: f2d2 513f f73f a53e 16c8 05bf 2e8e e3be
000001c0: 5653 473e 35e7 503f b78d 023f 7b91 9f3d
000001d0: bf84 ba3f 2f84 3b3f e84e c0bd 883f 85be
000001e0: d37f 47bf 790e b8bd 33a7 bb3d b89e 033f
000001f0: 836b e73d c0be 843e 6c29 3d3e edf4 e5bc
00000200: de05 0ebf 704a 213d 9435 413b 98f1 c0bd
00000210: e6cf 373e f353 febe 7896 d33e 0e07 99bc
00000220: 77e0 5c3e 6c65 eebe 434e eb3e bd96 c33e
00000230: a848 70be 0afe 1cbf ce3d 37bf 4af7 0ebf
00000240: ef2e c13e e3ac 383e 8383 2c3f 96fa 153f
00000250: 29c3 39bf cfd7 e73e 19f1 823d a158 bd3e
00000260: 469a c1bd 8cb6 b6bd 1706 95be 28dc 38bf
00000270: e4b3 de3d 932d 46bf 66e8 7cbf a6f1 0d3f
00000280: b3b7 5a3f 8d80 4fbf a706 1b3e e00a 7c3f
00000290: 69fb 8cbf 3d84 303f 613c 36be 3414 4d3e
000002a0: ee0d 86be e33a d6bd 13e0 9cbe 2cbc 90bd
000002b0: c3be f53d 10e9 083f 3baa 38bf a23e 5b3e
000002c0: bbd3 b53e 45af d03d 8539 d03e a3e6 193f
000002d0: d8c4 e73e 3717 923e f9d6 9cbe dc0a e53d
000002e0: 55f6 713f 3aae 183e f7fa cd3e 4e6d 79be
000002f0: 974d 31be 6f5f 56be 2e72 a2be 8325 b2be
00000300: 07eb 893e 860e 193f 6e56 253c 2d07 e0bc
00000310: 72a4 2cbe ae2d 64bd 57a9 02bf 670d 41be
00000320: 9909 07bf 0c49 f23e 5023 f93d dc91 843e
00000330: def3 083f 5a9e 1fbe 039d 81be c0ce 2bbe
00000340: b834 56bf 59bc 6a3f e8e6 df3d 2eea 8d3e
00000350: 7848 7bbc 29f0 dabe dccc b23e a471 fd3e
00000360: 55f5 2fbe e53f e43e 49f1 2e3e 91d5 393d
00000370: 8bc1 c33e 78cb 8bbc 60f8 a0bf a813 d2be
00000380: f930 b23e 9866 023e abf5 323e e5eb c7be
00000390: 86cc a33e 2732 ce3e 698c 49be bcc2 103e
000003a0: 8eef 103f b6b0 f03d 7750 4abf 8b9f a9be
000003b0: cae0 bdbe f39e 30bf 9be5 77be a7df c6be
000003c0: f2c3 7d3e b43e 993d 9da3 60bf f709 4a3e
000003d0: 9ad7 013f 9158 2e3f 98b1 663e c4cf f5bd
000003e0: c43f 08bf 5ad6 b3be 1f37 d13c 6982 623e
000003f0: 1820 0a3e 920b 12be a5c8 30bf 1c6d 60bf

conv1.bias f4 [63]
0.0025505705 0.00013078404 0.0028246883 0.0031176463 0.004034649 0.004227914 0.0012157557 0.0026026387
-0.0070892773 0.0035212727 0.0021352256 0.0007782619 -0.0051280297 0.0047960207 -0.0031773914 -0.0038336325
-0.0042486577 -0.0036602924 -0.003926427 -0.003534474 -0.0044210223 -0.0031013028 -0.003975888 0.0033649614
0.0021923005 -0.0038226198 -0.0023269514 -0.004026747 -0.0025267468 -0.005317679 -0.004740929 -0.003012166
0.0022246677 -0.0044190125 0.00097412895 -0.0006025804 0.0025604547 -0.004149155 -0.0035941799 -0.002544873
-0.0038640972 -0.00069815415 -0.0026877415 -0.0038733534 -0.0054135025 -0.004427393 -0.0015123081 -0.0041234344
0.0012418571 -0.0041332496 -0.0036228215 0.003331407 -0.0050753984 -0.0010522926 0.004629679 0.0029765395
-0.003310537 0.0028622258 0.0018136962 -0.003937599 -0.0034515841 -0.0051711327 -0.0050718156
00000000: 7927 273b 1323 0939 681e 393b 6d51 4c3b
00000010: 1735 843b 508a 8a3b fe59 9f3a 0891 2a3b
00000020: 2b4d e8bb 27c5 663b 24ef 0b3b 4604 4c3a
00000030: 0809 a8bb f027 9d3b c83b 50bb ae3d 7bbb
00000040: 5338 8bbb 84e1 6fbb 42a9 80bb a2a2 67bb
00000050: 39de 90bb 3a3f 4bbb 2a48 82bb af86 5c3b
00000060: b3ac 0f3b eb84 7abb c47f 18bb cdf2 83bb
00000070: c797 25bb ed3f aebb cc59 9bbb c267 45bb
00000080: bbcb 113b 5dcd 90bb b05c 7f3a 7cf6 1dba
00000090: 4dcd 273b a3f5 87bb 558c 6bbb e2c7 26bb
000000a0: cb3c 7dbb 5504 37ba d224 30bb 16d8 7dbb
000000b0: c063 b1bb aa13 91bb a438 c6ba e01d 87bb
000000c0: cfc5 a23a 3670 87bb dc6c 6dbb bc53 5a3b
000000d0: 874f a6bb 15ed 89ba 90b4 973b 0c12 433b
000000e0: 98f5 58bb 2e94 3b3b 8cb9 ed3a f906 81bb
000000f0: f933 62bb 9b72 a9bb 7931 a6bb

vgg.0.weight f4 [63, 63, 3, 3]
0.024327617 -0.04621365 -0.080297664 0.00755506 -0.042912446 -0.02372528 0.042685542 -0.021835316
0.012494823 0.086786926 0.051449772 0.09182023 0.039790384 -0.07942493 -0.0063137594 -0.0035669303
-0.06617852 -0.08711443 0.024984667 -0.04713996 0.027606964 -0.004320533 0.008807184 0.07325266
0.04006718 0.0066557415 0.00095407176 0.07746047 0.07185592 0.050074156 0.018412665 -0.020551452
-0.035955068 -0.016862238 -0.11123534 0.016835215 -0.0022610095 0.0118865445 -0.03304843 -0.069818124
-0.04634741 -0.06542674 -0.102967925 -0.010721931 0.029220184 -0.026191838 -0.013825738 0.097991094
0.09742077 0.074722745 -0.028888015 -0.010732593 -0.00045914284 0.069082506 0.07829816 0.09032403
0.11453298 -0.10007724 -0.0038699913 0.013826951 -0.07598504 -0.028659388 -0.02152766 -0.059908528
0.12148803 0.010786674 0.028388446 0.03243253 0.036736522 -0.08244962 0.0651502 -0.00495493
-0.030712336 -0.024490966 0.010135889 -0.05821056 0.110393435 0.03561474 0.01593601 0.01212386
-0.05515088 0.052148752 0.055717744 -0.06862928 0.03110607 0.016545562 0.030017003 -0.008874503
-0.011120733 -0.020355117 -0.023005668 0.0068490077 0.0090289675 0.054019134 0.101366766 -0.045122255
0.027678795 0.08915068 -0.03858984 -0.04434577 -0.018604495 0.022226147 -0.030660901 -0.067174986
-0.16429767 -0.02598762 -0.011782933 -0.025695812 -0.0062173083 0.033664886 -0.111090824 0.03666233
0.0060450193 0.05840238 -0.013638424 -0.03988027 -0.026404524 0.026596041 0.022560894 -0.0013619496
0.026361229 -0.008676766 -0.046262883 -0.096714824 0.12688039 -0.027203808 -0.0062915543 -0.04657189
-0.064985454 -0.04821601 -0.06746165 -0.08415304 -0.03288744 0.11631343 0.02721202 -0.010385839
-0.10507274 -0.009725134 -0.015076744 0.09314502 -0.01145808 0.059883974 0.01934139 0.12889817
0.015096137 0.059336215 -0.16085735 -0.013109995 -0.009004651 0.03700746 -0.031622287 -0.031656012
0.029860217 -0.027915072 0.069884546 -0.05949779 -0.024660647 0.03271184 0.033262927 0.024289027
-0.06209073 0.0032366668 0.06068485 0.035786983 -0.06503004 -0.027734254 -0.11500481 -0.013651756
0.01287117 0.016167842 -0.049858265 0.03615821 -0.01877735 0.036081847 0.020124797 0.070739545
-0.052373998 0.044612147 0.016937895 0.055813085 0.014239952 -0.05975148 -0.062470924 -0.013955919
-0.020809269 -0.0065031694 0.013508 -0.035309028 -0.01224013 -0.0073439907 -0.0028717218 0.038663346
-0.064898305 0.02951317 0.10890782 -0.014090335 0.039294727 0.010004513 -0.010757088 -0.016389687
-0.086384535 0.015360695 -0.042285655 -0.04791665 -0.0023869444 -0.06736941 0.07912176 -0.01932038
0.0672127 0.06031024 -0.13197629 0.011648527 0.013149991 -0.119823515 -0.05356648 0.112163
-0.018992675 0.0072154594 0.042893436 0.048857156 -0.026455844 -0.05864077 -0.037425876 -0.010802064
0.012801114 -0.049741086 0.007101082 0.033279873 0.035514675 -0.069518074 -0.038664542 -0.008754507
-0.055538785 0.07048264 -0.08549343 0.030593397 -0.08119967 0.034942698 0.07390671 -0.02689981
0.123235874 -0.015659068 -0.00067983224 0.023974938 -0.07759633 -0.01071695 0.022351092 0.015296418
0.06269971 0.08022867 -0.0019919472 -0.0438688 0.005230315 -0.044560354 -0.0632562 0.15415776
00000000: b64a c73c 864a 3dbd 1a73 a4bd 7090 f73b
00000010: f6c4 2fbd 855b c2bc 09d7 2e3d fadf b2bc
00000020: 16b7 4c3c 58bd b13d ffbc 523d 3f0c bc3d
00000030: 3efb 223d 8aa9 a2bd a7e3 cebb 29c3 69bb
00000040: 9b88 87bd 0d69 b2bd a5ac cc3c d515 41bd
00000050: 0028 e23c 4293 8dbb 024c 103c 7e05 963d
00000060: 7c1d 243d 6818 da3b ac1a 7a3a 98a3 9e3d
00000070: 3229 933d 8f1a 4d3d 28d6 963c 855b a8bc
00000080: 9f45 13bd ad22 8abc 5bcf e3bd 01ea 893c
00000090: 722d 14bb c8bf 423c ca5d 07bd cefc 8ebd
000000a0: c8d6 3dbd 74fe 85bd d9e0 d2bd 0aab 2fbc
000000b0: 2b5f ef3c 4490 d6bc 5985 62bc 8eaf c83d
000000c0: 8a84 c73d 3d08 993d 8fa6 ecbc c2d7 2fbc
000000d0: 1cb9 f0b9 217b 8d3d c95a a03d cefb b83d
000000e0: 4490 ea3d 4cf5 ccbd ae9f 7dbb 708a 623c
000000f0: 0b9e 9bbd 18c7 eabc c65a b0bc a562 75bd
00000100: b7ce f83d 97ba 303c e38e e83c f9d7 043d
00000110: 0979 163d 59db a8bd 786d 853d f75c a2bb
00000120: 7098 fbbc 47a1 c8bc 0011 263c 326e 6ebd
00000130: f415 e23d c3e0 113d 3c8c 823c 28a3 463c
00000140: e4e5 61bd ee99 553d 4a38 643d 828d 8cbd
00000150: 28d2 fe3c 8f8a 873c 38e6 f53c 5d66 11bc
00000160: bc33 36bc c6bf a6bc 6276 bcbc a46d e03b
00000170: 3cee 133c 2b43 5d3d 6199 cf3d 1dd2 38bd
00000180: a4be e23c a294 b63d 6110 1ebd e9a3 35bd
00000190: 7468 98bc 9c13 b63c 922c fbbc 0a93 89bd
000001a0: a63d 28be fde3 d4bc 340d 41bc 0680 d2bc
000001b0: 90ba cbbb 31e4 093d 9683 e3bd 3d2b 163d
000001c0: 4c15 c63b 5637 6f3d b273 5fbc 7e59 23bd
000001d0: 4d4e d8bc f1df d93c a0d1 b83c 7283 b2ba
000001e0: 81f3 d73c ff28 0ebc 267e 3dbd 6c12 c6bd
000001f0: efec 013e 85da debc 6229 cebb 2bc2 3ebd
00000200: 1817 85bd 277e 45bd 5529 8abd 6e58 acbd
00000210: fbb4 06bd bc35 ee3d beeb de3c 5e29 2abc
00000220: 6030 d7bd 2b56 1fbc 7304 77bc d1c2 be3d
00000230: acba 3bbc e648 753d d671 9e3c e2fd 033e
00000240: ca55 773c 880a 733d cab7 24be 4ecb 56bc
00000250: 3e88 13bc 2295 173d 5f86 01bd bca9 01bd
00000260: 6a9d f43c 26ae e4bc a11f 8f3d f4b3 73bd
00000270: 2005 cabc dafc 053d b53e 083d c8f9 c63c
00000280: d952 7ebd 421e 543b ad90 783d 5f95 123d
00000290: 782e 85bd f232 e3bc a487 ebbd 9dab 5fbc
000002a0: 9ae1 523c 6c72 843c 2e38 4cbd a21a 143d
000002b0: f5d2 99bc 8fca 133d c2dc a43c e5df 903d
000002c0: 1e86 56bd 3abb 363d 57c1 8a3c 439c 643d
000002d0: b04e 693c f8bd 74bd 83e1 7fbd 5ea7 64bc
000002e0: 3378 aabc 8a18 d5bb a950 5d3c 33a0 10bd
000002f0: d48a 48bc dca5 f0bb 7f33 3cbb 755d 1e3d
00000300: 67e9 84bd 9ac5 f13c 100b df3d 26db 66bc
00000310: 82f3 203d f8e9 233c 7f3e 30bc aa43 86bc
00000320: 60ea b0bd 6dab 7b3c b933 2dbd 4044 44bd
00000330: 486e 1cbb f9f8 89bd 970a a23d c645 9ebc
00000340: d0a6 893d df07 773d cb24 07be 77d9 3e3c
00000350: 0f73 573c 0866 f5bd 8668 5bbd b7b5 e53d
00000360: 8796 9bbc a96f ec3b 07b1 2f3d 711e 483d
00000370: edb9 d8bc 4e31 70bd e04b 19bd 24fb 30bc
00000380: c3bb 513c 4fbd 4bbd 31b0 e83b 7a50 083d
00000390: d677 113d 7e5f 8ebd b65e 1ebd 106f 0fbc
000003a0: a37c 63bd 3459 903d 2e17 afbd 019f fa3c
000003b0: 034c a6bd 1320 0f3d 675c 973d fe5c dcbc
000003c0: 1763 fc3d 7247 80bc c536 32ba 1767 c43c
000003d0: d3ea 9ebd 2596 2fbc a319 b73c d49d 7a3c
000003e0: b568 803d ee4e a43d 548b 02bb c5af 33bd
000003f0: 1063 ab3b eb84 36bd 778c 81bd 88db 1d3e

vgg.0.bias f4 [63]
-0.003266119 0.0038574198 -0.0004559149 -0.0020698605 -0.004403748 -0.0018807154 -0.0002156361 -0.0014027484
-0.0027083356 -0.0012366731 -0.0019795974 -0.0037084038 -0.003541049 -0.004751477 -0.0044336617 -0.00024246436
0.0004510568 -0.0040035183 -0.0016036318 -0.004265849 -0.0020620625 -0.004165908 0.0003667075 -0.0019086516
-0.005487812 -0.00359903 -0.004031957 -0.0021701977 -0.004400476 -0.0022001085 -0.0036450755 -0.003109914
-0.0027263605 0.00060283917 -0.003176135 -0.00010311561 -0.0039257756 0.0027240368 0.00337248 0.008123555
-0.0035371755 0.0018385466 -0.0018574094 -0.0024146442 -0.00545294 0.0041005574 -0.0012404058 -0.0039613727
-0.0003123798 -0.0039355303 -0.000828923 0.0020642288 -0.0010405035 -0.002017307 -0.0006225995 -0.0036379832
-0.00037289856 0.0007109807 0.0004895335 -0.004094073 0.000577766 -0.0041805287 0.0018435854
00000000: 620c 56bb c4cc 7c3b dd07 efb9 7fa6 07bb
00000010: 514d 90bb 5682 f6ba 601c 62b9 6ddc b7ba
00000020: 557e 31bb dd17 a2ba 22bc 01bb b108 73bb
00000030: f210 68bb 47b2 9bbb 4048 91bb 083e 7eb9
00000040: d27b ec39 f22f 83bb f430 d2ba 89c8 8bbb
00000050: ab23 07bb 2b82 88bb a642 c039 b82b faba
00000060: 1bd3 b3bb b4dd 6bbb 821e 84bb e039 0ebb
00000070: de31 90bb b22f 10bb 38e2 6ebb b3cf 4bbb
00000080: bdac 32bb da07 1e3a b426 50bb c63f d8b8
00000090: cba3 80bb c185 323b d304 5d3b a918 053c
000000a0: f5cf 67bb 63fb f03a 5174 f3ba 023f 1ebb
000000b0: 93ae b2bb f85d 863b 1d95 a2ba 67ce 81bb
000000c0: e8c6 a3b9 9ff5 80bb 154c 59ba 0348 073b
000000d0: 8161 88ba cc34 04bb f235 23ba 3b6b 6ebb
000000e0: 9981 c3b9 1b61 3a3a 0954 003a 9327 86bb
000000f0: 3875 173a d1fc 88bb 76a4 f13a

oconv2.weight f4 [1, 63, 3, 3]
0.017912831 0.0673765 0.0075820033 -0.14183654 -0.044599988 -0.07061651 -0.044651892 -0.031864107
-0.029382205 0.038258627 0.04486313 0.068579935 -0.058829416 0.0064609246 -0.011737629 -0.010769758
0.055680025 -0.02062664 0.023744876 0.11995201 -0.0045749736 0.027166886 0.0836489 -0.034439683
-0.031599663 0.102081865 -0.018076602 -0.07569439 0.084910184 -0.00786644 -0.05561955 -0.053501505
0.07797227 0.011136216 0.11532957 -0.049505606 0.080884695 0.022589084 -0.04682103 -0.006692454
-0.0035474305 -0.024246907 -0.08154174 0.032531675 0.070834845 0.05206443 0.061810788 -0.09729321
0.046410166 0.048058327 0.054037943 0.074569084 -0.004865994 0.054540347 -0.05993152 0.057230502
0.024376225 0.12158643 0.046769537 0.14991795 0.10867256 0.03315295 0.018214118 -0.017321065
0.038327206 0.027237702 0.056282066 -0.013172567 0.074523024 -0.027410364 0.02826596 -0.033105746
0.029758036 0.05940456 0.05029816 0.029898984 -0.0019616033 -0.05759587 -0.11887173 0.1306619
0.09806606 0.006464821 -0.05904799 0.05844333 0.10146887 0.011449171 -0.045989964 -0.016795961
0.011036103 0.035551976 0.16704765 0.09012993 0.111678265 -0.010666648 -0.07607909 0.1010287
0.04132053 -0.05913248 -0.10688443 -0.013192254 -0.014539256 0.067115664 -0.05705046 -0.062385872
-0.03814256 -0.041301537 -0.07928491 0.06682867 0.07323733 0.09497736 0.067084074 -0.051284593
-0.023140756 0.06596851 0.001628753 -0.035362687 -0.04041853 -0.00027338712 -0.12129021 0.024991583
-0.04596944 -0.12456485 0.05880223 0.03205011 -0.034759622 0.0010137603 0.023112359 -0.07292259
-0.088102624 0.03293723 -0.0815491 -0.056930866 0.0083468715 0.07383934 0.17962441 -0.05612193
0.052821048 -0.017270697 0.050635107 0.10514867 0.07132468 -0.10690436 0.015191963 -0.011809355
0.038382564 0.04945271 -0.050994948 -0.044114526 -0.058915593 -0.04840611 -0.058270633 -0.0029898034
0.021914115 -0.09716336 -0.0056949775 0.025254535 -0.013734697 0.057800118 -0.06120228 0.036977112
0.08172913 0.013585004 0.016656158 -0.06306699 -0.08026177 0.09928213 -0.02846139 -0.037709877
0.038499583 0.049306244 0.027753586 0.09443652 -0.13767561 0.03724831 0.0037827012 0.031096911
0.102746986 -0.0033743586 0.016215466 0.01360373 0.044086907 -0.052253302 0.041297726 0.013792022
0.047726 0.057690866 0.06015989 -0.019331675 -0.009441023 0.0042978874 0.06929693 0.041047633
-0.057827685 -0.048700556 0.020331988 -0.053890754 -0.09561931 0.062076736 0.053158626 -0.052857738
-0.00910826 0.052991122 0.010711537 0.014315298 -0.03308443 0.02804669 0.00626305 -0.038926788
-0.008335127 -0.09381423 0.063750155 -0.069029786 -0.028603945 -0.06757096 -0.035770766 -0.0060873074
0.0013141987 0.014941421 0.22136469 -0.07163521 -0.07026428 -0.033233687 -0.105489165 0.02052639
0.061475053 0.002268696 0.03929533 0.055881955 -0.038426436 0.02920576 0.12191237 0.12672906
0.07899177 0.019999493 -0.024406983 -0.022276852 -0.020271787 -0.011438566 -0.01820449 -0.038708832
-0.033332504 -0.01631828 -0.033299662 0.08011283 -0.013370704 0.037448045 -0.048504997 -0.08332719
-0.009181978 -0.04732901 0.11410339 -0.064435676 0.010394749 -0.031524282 -0.03256643 -0.06606783
00000000: eebd 923c b1fc 893d 7472 f83b 993d 11be
00000010: 7aae 36bd 649f 90bd e7e4 36bd f083 02bd
00000020: f3b2 f0bc 14b5 1c3d 67c2 373d a373 8c3d
00000030: 1df7 70bd 2ab6 d33b 2f4f 40bc a473 30bc
00000040: bd10 643d 33f9 a8bc 9d84 c23c 66a9 f53d
00000050: a9e9 95bb 178d de3c 1d50 ab3d a010 0dbd
00000060: a66e 01bd 4c10 d13d 6215 94bc a905 9bbd
00000070: 64e5 ad3d 3ee2 00bc 53d1 63bd 6524 5bbd
00000080: edaf 9f3d ad74 363c e931 ec3d 64c6 4abd
00000090: e0a6 a53d be0c b93c 69c7 3fbd 604c dbbb
000000a0: 027c 68bb 73a1 c6bc 5bff a6bd ef3f 053d
000000b0: dc11 913d 8341 553d 4f2d 7d3d aa41 c7bd
000000c0: 9618 3e3d cfd8 443d e456 5d3d adb7 983d
000000d0: eb72 9fbb b365 5f3d c17a 75bd 886a 6a3d
000000e0: a6b0 c73c 4e02 f93d 6a91 3f3d 1784 193e
000000f0: b88f de3d 63cb 073d c635 953c e8e4 8dbc
00000100: fdfc 1c3d 9a21 df3c 0688 663d c0d1 57bc
00000110: 879f 983d b38b e0bc 048e e73c e499 07bd
00000120: 20c7 f33c 3252 733d 7205 4e3d b7ee f43c
00000130: 3e8e 00bb a6e9 6bbd 0673 f3bd 3ccc 053e
00000140: dcd6 c83d d9d6 d33b 4edc 71bd 4662 6f3d
00000150: e9ce cf3d 4e95 3b3c f95f 3cbd af97 89bc
00000160: c5d0 343c f39e 113d 8a0e 2b3e 0a96 b83d
00000170: 93b7 e43d 2ac3 2ebc 5bcf 9bbd 23e8 ce3d
00000180: b73f 293d e634 72bd 39e6 dabd 5324 58bc
00000190: 0f36 6ebc f073 893d bead 69bd 5488 7fbd
000001a0: 5f3b 1cbd cd2b 29bd 2060 a2bd 78dd 883d
000001b0: 74fd 953d 7d83 c23d 6063 893d cb0f 52bd
000001c0: af91 bdbc 801a 873d e27b d53a 77d8 10bd
000001d0: e78d 25bd 6655 8fb9 0067 f8bd 26bb cc3c
000001e0: 744a 3cbd db1b ffbd 9bda 703d fa46 033d
000001f0: 1b60 0ebd 27e0 843a 2156 bd3c 7058 95bd
00000200: 266f b4bd 30e9 063d 3703 a7bd 5730 69bd
00000210: 51c1 083c 1439 973d 76ef 373e 1ce0 65bd
00000220: e25a 583d 477b 8dbc c266 4f3d 3058 d73d
00000230: ac12 923d acf0 dabd b6e7 783c 067c 41bc
00000240: 0937 1d3d ed8e 4a3d 14e0 50bd 6fb1 34bd
00000250: 7a51 71bd 7c45 46bd 30ad 6ebd 94f0 43bb
00000260: 3b85 b33c 95fd c6bd ef9c babb 99e2 ce3c
00000270: 7f07 61bc d1bf 6c3d 3eaf 7abd 5075 173d
00000280: 9a61 a73d a393 5e3c 7f72 883c 4429 81bd
00000290: 4860 a4bd 6e54 cb3d dc27 e9bc ac75 1abd
000002a0: bdb1 1d3d 58f5 493d 7d5b e33c ef67 c13d
000002b0: d6fa 0cbe af91 183d 32e7 773b f3be fe3c
000002c0: 036d d23d 5824 5dbb 4cd6 843c 2ee2 5e3c
000002d0: 7994 343d 8f07 56bd ce27 293d eff7 613c
000002e0: 577c 433d 424d 6c3d 386a 763d 765d 9ebc
000002f0: 85ae 1abc 4bd5 8c3b 8deb 8d3d 9021 283d
00000300: b9dc 6cbd 3c7a 47bd 458f a63c 8dbc 5cbd
00000310: 0fd4 c3bd 2d44 7e3d dcbc 593d 5b81 58bd
00000320: d03a 15bc 380d 593d 717f 2f3c b68a 6a3c
00000330: 8a83 07bd 2cc2 e53c 453a cd3b b271 1fbd
00000340: 0e90 08bc ad21 c0bd 718f 823d 7d5f 8dbd
00000350: d252 eabc a562 8abd 5e84 12bd 0978 c7bb
00000360: 3141 ac3a ddcc 743c 6dad 623e 7bb5 92bd
00000370: b8e6 8fbd 0c20 08bd b40a d8bd f626 a83c
00000380: 44cd 7b3d 67ae 143b 24f4 203d 7ae4 643d
00000390: 0a65 1dbd eb40 ef3c 31ad f93d 43c5 013e
000003a0: 70c6 a13d fad5 a33c 27f1 c7bc f27d b6bc
000003b0: 0511 a6bc d368 3bbc 9521 95bc 278d 1ebd
000003c0: aa87 08bd eaad 85bc 3a65 08bd 3212 a43d
000003d0: cc10 5bbc 1f63 193d 2dad 46bd 72a7 aabd
000003e0: 0270 16bc 10dc 41bd 0aaf e93d daf6 83bd
000003f0: bd4e 2a3c 9b1f 01bd 6064 05bd 924e 87bd
