Models/model27.pth (torch, 151823 bytes, 6 tensors)

oconv1.weight f4 [1, 1, 3, 3]
00000000: 694f e23e 9a60 1bbe d684 02bf abfe 3c3e
00000010: c6ae 283e 7661 3fbe 7f7e b03e 2474 ebbe
00000020: 8760 54be
0.4420121 -0.1517357 -0.5098394 0.18456523 0.16472921 -0.18689522 0.3447151 -0.45987046
-0.20739947

conv1.weight f4 [63, 1, 3, 3]
00000000: 3ef4 c6bf 722b 973e f2e3 3e3e 7ee3 16bd
00000010: d762 66bf df6b ab3e ece5 02be ad08 143e
00000020: a172 46be ddf1 2abe b6d5 d3be 80e8 efbd
00000030: 9756 e0be aad6 a03f 60f0 a23e 3be2 673e
00000040: dc28 44bf cd3c 8d3e 4219 663e c67b 0dbf
00000050: 9360 073f 0b90 30bf 49b4 ed3e 4ff3 a03e
00000060: 6838 98be 5357 2e3f 3f6d 01be 4ba0 a83e
00000070: 22a9 16bf 2c2a f63e 3b79 893f a04d 4a3b
00000080: 49eb 213f e98f 13bf 7945 343e 6f23 2e3f
00000090: de26 75bf 5145 5ebe fec6 0a3f e374 3a3e
000000a0: 36a8 e83d 242c 33bd 9e8d e8bd c4ee 51be
000000b0: 9444 a53e 3a4e 0dbe 0b30 1fbf 6d04 b3be
000000c0: edb5 2dbf d2cb aabd a165 123f 1c47 863f
000000d0: 1272 983c 784d b9be 1172 b13d 6640 8cbe
000000e0: 4f6d f73d ae8d 69be 4068 d43e 35a6 b7bd
000000f0: cf29 0fbf a1bf a83e 3bcb 413c 83b8 a63e
00000100: 305e dd3e 4a85 7abd 3857 fa3d 192b c5be
00000110: 16f5 483f 342d 4abf 2d11 f53e e32e 313e
00000120: c728 003f 2f54 bc3e b025 96bf 303e 3cbc
00000130: 2c57 02bf 80a8 8f3f 12ec 0f3e 0e5c 123e
00000140: 11ca f53c a707 c93e d309 9e3d c36c 1dbf
00000150: 59a7 cbbe e25e 61bb 794c 8d3e 5529 eabe
00000160: 25e9 a0bc 813e 16be 9aca 1c3f 0826 18be
00000170: 972a 39bf 0e43 e9be 0c09 06bf 3252 84be
00000180: 079f 493f 609a 90be ae09 e8be 07b9 3cbe
00000190: 5836 1bbd bda1 3e3e f4b4 363f 0c09 e43d
000001a0: ff38 5bbf 3723 073f 5a38 033f a70a 0c3f
000001b0: 9ac0 513f 805a a53e 96ba 05bf bda5 e3be
000001c0: d14a 473e 38f2 503f a57b 023f bb17 9f3d
000001d0: 7b7b ba3f d492 3b3f c5e1 bfbd 5919 85be
000001e0: cd6c 47bf 2c8d b7bd 2a16 bc3d e28c 033f
000001f0: e1f4 e73d ea92 843e 39dd 3c3e 07a0 e8bc
00000200: 5af8 0dbf 0008 223d d2ce 4f3b 366d c0bd
00000210: dca7 373e ff83 febe 496a d33e fe51 9bbc
00000220: 138e 5c3e a348 eebe ba1d eb3e 7971 c33e
00000230: 7d0b 70be 0def 1cbf 482f 37bf 30e7 0ebf
00000240: 0610 c13e 7c69 383e 1472 2c3f e0ea 153f
00000250: 11a9 39bf d2b7 e73e b45e 823d d53a bd3e
00000260: c8f9 c1bd 22b7 b6bd 5205 95be 57cf 38bf
00000270: 8934 de3d c91c 46bf 77d5 7cbf b8fc 0d3f
00000280: 6fa7 5a3f fb71 4fbf f445 1b3e daf9 7b3f
00000290: 03f0 8cbf 3d97 303f 3579 36be 90ee 4c3e
000002a0: cae6 85be 258c d5bd 39b5 9cbe 6126 90bd
000002b0: 3d2d f53d acd9 083f 159a 38bf c535 5b3e
000002c0: 25b5 b53e 7934 d03d 1553 d03e 8cd4 193f
000002d0: ded5 e73e eafc 913e 94b5 9cbe 0d8e e53d
000002e0: 38e6 713f 2173 183e 94eb cd3e d81c 79be
000002f0: 3507 31be cb92 56be 454a a2be ff31 b2be
00000300: 8ccb 893e 4f00 193f a0ae 213c 6d25 ddbc
00000310: 1ad6 2cbe 90c4 64bd db98 02bf e561 41be
00000320: 8403 07bf dc3d f23e 6474 f93d 686c 843e
00000330: d7e1 083f 537c 1fbe 3fc3 81be 6d85 2bbe
00000340: a118 56bf 4aa8 6a3f 7284 e03d b40c 8e3e
00000350: 0360 7fbc 7ec8 dabe a198 b23e b799 fd3e
00000360: d098 2fbe ea70 e43e df5d 2f3e 8807 3b3d
00000370: 74e7 c33e ed66 8dbc 37ec a0bf 07f3 d1be
00000380: ff0d b23e b04d 023e 9135 333e 78c3 c7be
00000390: 01b5 a33e e953 ce3e 1b52 49be a47c 103e
000003a0: 4dec 103f 3711 f03d 883d 4abf 52a4 a9be
000003b0: 3de5 bdbe b6a8 30bf c98e 77be 43ea c6be
000003c0: d185 7d3e d8ce 983d ef8d 60bf ac60 4a3e
000003d0: a3c6 013f 2d49 2e3f 08de 663e 452b f5bd
000003e0: fd2d 08bf 22a4 b3be a788 d33c e15a 623e
000003f0: 90ea 093e 43c9 11be 78b0 30bf 4071 60bf
-1.5543287 0.29525334 0.18641642 -0.036838047 -0.8999457 0.33480737 -0.1278302 0.14456435
-0.19379665 -0.16693826 -0.41373986 -0.11714268 -0.43816063 1.256551 0.31824017 0.22644894
-0.76624846 0.2758545 0.22470573 -0.5526699 0.52881736 -0.6896979 0.4642661 0.3143563
-0.29730535 0.68101996 -0.1263933 0.32934794 -0.58851826 0.4807905 1.0740122 0.0030869022
0.6324964 -0.57641464 0.17604627 0.6802282 -0.9576243 -0.2170613 0.5420989 0.18208651
0.11360209 -0.043743268 -0.11355136 -0.20501238 0.32278883 -0.13799372 -0.6218268 -0.34964314
-0.6785572 -0.08339657 0.57186323 1.0490451 0.01860908 -0.36191916 0.086643346 -0.27392882
0.12081396 -0.22807953 0.41485786 -0.08967248 -0.5592317 0.329587 0.011828239 0.32562646
0.43235922 -0.06116227 0.12223667 -0.38509443 0.7849897 -0.78975224 0.47864667 0.17303042
0.5006222 0.36782977 -1.1730251 -0.011489436 -0.50914264 1.1223297 0.14054897 0.14292929
0.03000358 0.3926365 0.077167176 -0.6149408 -0.39776114 -0.003438883 0.27597407 -0.4573466
-0.019642422 -0.14672281 0.61246645 -0.14858258 -0.7233061 -0.4555897 -0.52357554 -0.2584396
0.7875828 -0.2824278 -0.45319885 -0.18429957 -0.037893623 0.18616386 0.7136986 0.11134538
-0.85633844 0.5278811 0.5125786 0.54703754 0.8193451 0.3229561 -0.5223783 -0.44462386
0.19462134 0.81619596 0.50969917 0.07768198 1.4568933 0.73270917 -0.09369234 -0.259959
-0.7790039 -0.08962473 0.09183915 0.51386845 0.11326004 0.25893337 0.18443765 -0.02839662
-0.5545708 0.03955841 0.0031708968 -0.0939583 0.17935127 -0.4971008 0.41292027 -0.018959995
0.21538572 -0.46539792 0.45921117 0.3817251 -0.23441882 -0.6130226 -0.7155652 -0.55821514
0.37707537 0.18008989 0.6736157 0.58561516 -0.725236 0.4525743 0.063657194 0.36958948
-0.0947147 -0.089216486 -0.29105622 -0.72191375 0.10849864 -0.7738767 -0.9876322 0.55463743
0.85411733 -0.81033295 0.15163404 0.9842812 -1.1010746 0.6898077 -0.17819674 0.2001288
-0.2615264 -0.10427121 -0.30607012 -0.0703857 0.11971519 0.5345714 -0.7211011 0.2140723
0.35489765 0.10166258 0.40688387 0.60089946 0.45280355 0.2851327 -0.30607283 0.11208735
0.9449191 0.14887668 0.40218794 -0.2432741 -0.17287906 -0.20954435 -0.31697288 -0.3480377
0.26913106 0.59766096 0.009868294 -0.026995385 -0.16878548 -0.05585152 -0.5101449 -0.18885
-0.5273974 0.4731282 0.12180403 0.25863957 0.53469604 -0.1557477 -0.25344273 -0.16750117
-0.8363133 0.9166304 0.10962762 0.27744067 -0.015586856 -0.42731088 0.34882072 0.49531338
-0.17148137 0.44617397 0.17125653 0.04566148 0.38262522 -0.017260993 -1.2572087 -0.41005728
0.34776303 0.12724948 0.17500903 -0.39016318 0.31974033 0.40298393 -0.19660227 0.14110047
0.56610566 0.117220335 -0.7900014 -0.3313318 -0.37088957 -0.6900743 -0.24175562 -0.38850603
0.24758078 0.07461327 -0.87716573 0.1976344 0.5069372 0.6808041 0.22545636 -0.11971144
-0.5319517 -0.3508616 0.025821997 0.2210498 0.13468385 -0.14236932 -0.6901927 -0.87672806

conv1.bias f4 [63]
00000000: f0ee 363b 1e2f db39 32d8 493b 1a64 5f3b
00000010: 2f9a 8d3b 2e8b 923b 8aa2 c23a 1dcf 3a3b
00000020: 030e f1bb 1e35 5e3b eb54 1f3b 2089 813a
00000030: 2db0 b0bb 6158 a43b 8ef7 44bb f94d 85bb
00000040: 8170 93bb c41a 80bb 9f76 88bb 4ebf 78bb
00000050: 4107 98bb c781 5dbb 2a5f 89bb b2be 663b
00000060: abec 0f3b 5c58 81bb a4d8 2ebb 7c34 8cbb
00000070: 37ee 0ebb cbac b6bb 3066 a5bb 54be 56bb
00000080: b6d9 123b 8bea 98bb 49d9 2f3a ccef 5fb9
00000090: 6a06 373b f98c 8dbb e16e 7bbb d789 11bb
000000a0: 75b1 83bb 7214 dbb9 41c2 3cbb a1e5 86bb
000000b0: 12cb b8bb 95d7 98bb ce04 e7ba 0e30 8fbb
000000c0: d0ee 9e3a 9c7c 8ebb 3889 78bb a423 693b
000000d0: 9f6d abbb f49a 9aba d367 9f3b 0ad0 513b
000000e0: 7cfe 5dbb 7217 4b3b dad0 023b d8d1 88bb
000000f0: 9e3c 6ebb d414 b0bb d42b aebb
0.0027913414 0.0004180604 0.0030799028 0.0034086765 0.0043213586 0.004472158 0.0014849466 0.0028504797
-0.0073564067 0.0033906172 0.002431209 0.0009882785 -0.0053920955 0.0050154184 -0.003005478 -0.004068133
-0.0044994955 -0.0039094407 -0.0041645314 -0.0037955823 -0.0046395366 -0.0033799277 -0.0041922526 0.0035208878
0.0021961133 -0.003947301 -0.002667942 -0.0042787176 -0.0021809468 -0.0055747977 -0.005047582 -0.0032767253
0.0022407598 -0.0046666316 0.0006708098 -0.00021356269 0.0027927407 -0.0043197838 -0.003836565 -0.0022207403
-0.0040189573 -0.00041786168 -0.0028802308 -0.0041167294 -0.0056394422 -0.0046643713 -0.0017625333 -0.0043697422
0.0012125615 -0.0043483507 -0.0037923586 0.0035574222 -0.0052315737 -0.0011795447 0.0048646717 0.003201487
-0.0033873608 0.0030989316 0.001996091 -0.004175406 -0.0036352049 -0.0053735767 -0.0053152833

vgg.0.weight f4 [63, 63, 3, 3]
00000000: dd1f c53c dd37 3ebd cbfa a4bd 0897 f03b
00000010: 1ec1 30bd 9a4c c4bc c6f9 2d3d b9ba b4bc
00000020: 774e 483c 174d b13d 574e 533d 9890 bb3d
00000030: e06b 223d fb00 a3bd 4296 d7bb eb6b 7bbb
00000040: 9212 87bd d9bb b2bd edff ca3c 6ad7 41bd
00000050: fa00 e13c 39bf 94bb aa41 0d3c 43a0 953d
00000060: 6f4e 233d 2543 d53b a2e0 4e3a 042d 9e3d
00000070: 66ba 923d cfde 4b3d b1ac 943c c0f3 a8bc
00000080: ed30 14bd d0ab 8bbc 8215 e4bd 7648 883c
00000090: 3691 22bb c0db 3f3c 8b27 08bd 7f6a 8fbd
000000a0: c9ce 3ebd 7774 86bd 0647 d3bd b71f 33bc
000000b0: a684 ed3c 6a2b d7bc 411c 61bc aa43 c83d
000000c0: fd1e c73d f77c 983d e4b9 edbc 2857 33bc
000000d0: c963 2eba 54f2 8c3d d5f1 9f3d 6693 b83d
000000e0: 86cc ea3d 995a cdbd 9b01 77bb 73d2 633c
000000f0: 310c 9cbd 09ad eabc de45 afbc 05a1 75bd
00000100: 438c f83d bf75 2e3c 0aab e63c 0be6 043d
00000110: bb86 153d a808 a9bd 3afb 843d 5fd3 a5bb
00000120: b845 fdbc ae26 cabc 62be 223c bf37 6fbd
00000130: 5dac e13d 35fc 103d 3d3c 813c a387 433c
00000140: 0ba8 62bd 15b2 543d 4a53 633d 0e05 8dbd
00000150: adf1 fc3c 3ec3 853c 3f15 f43c aa56 15bc
00000160: e1f1 39bc 5392 a8bc 4076 bebc 8856 e13b
00000170: a7ed 103c 9644 5c3d a31a cf3d 88b2 39bd
00000180: ccbd e03c d83b b63d 7000 1fbd 445d 36bd
00000190: a31f 9abc 1f4f b43c d711 fdbc 38d9 89bd
000001a0: 3833 28be c745 d6bc 5166 44bc 973c d1bc
000001b0: 19ca d2bb 025f 0a3d 6800 e4bd c94b 153d
000001c0: bad5 c03b 3f59 6e3d 4860 62bc 9b6d 23bd
000001d0: 37fe d7bc dd7e d83c e7ac ba3c fee0 c8ba
000001e0: 8b77 d63c 8ea3 11bc 62a5 3ebd b1d6 c5bd
000001f0: 013a 023e 5d0b e0bc e320 d4bb b984 3fbd
00000200: 2179 85bd 3b45 46bd f59e 8abd c980 acbd
00000210: 5f89 07bd eecb ed3d 75bd dd3c 8424 2ebc
00000220: deae d7bd 5e40 1ebc b8de 7abc 7f51 be3d
00000230: 3d47 3bbc fa2d 743d ae70 9c3c 82d1 033e
00000240: ce7c 793c 703f 723d 84f1 24be 6630 5bbc
00000250: 8b1f 16bc afaa 163d 1777 01bd 9b5d 02bd
00000260: 4aad f23c 31fb e5bc 6696 8e3d c12a 74bd
00000270: e331 ccbc 88df 043d f01c 073d d71c c53c
00000280: 8659 7fbd dbf2 403b e15d 773d d799 113d
00000290: fece 85bd fb06 e5bc 0249 ebbd bf5d 60bc
000002a0: ed35 4f3c 6189 823c 2283 4bbd 1147 133d
000002b0: 450c 9bbc 35f1 123d 1037 a33c 6580 903d
000002c0: 0d67 57bd b5fb 353d 4a9f 893c 94cc 633d
000002d0: 81f7 653c 9a9c 75bd 944d 7fbd bd97 67bc
000002e0: 5a2b acbc 6051 d9bb 9db0 593c 811d 11bd
000002f0: fb1a 4abc c052 f6bb d484 4ebb bac9 1e3d
00000300: 5fee 84bd 1489 ef3c 809f de3d 0d33 6bbc
00000310: 12ea 1f3d 1707 213c 1498 33bc cde0 87bc
00000320: d54d b1bd 6494 783c 4712 2ebd 8e2a 45bd
00000330: 43c6 27bb 1a5d 8abd 8ca8 a13d 1997 9dbc
00000340: 181e 893d 5009 763d fef3 06be d8cd 3e3c
00000350: 6e1a 533c 4dcd f5bd 5443 5cbd c737 e53d
00000360: a042 9dbc bdcd e53b 2cdc 2e3d 1141 473d
00000370: 823a dabc 3d1a 71bd 9d33 1abd 618f 34bc
00000380: 1943 4e3c 358d 4cbd 9c95 e23b 4e13 093d
00000390: f991 103d 4ab9 8ebd 50a2 1dbd 43ab 12bc
000003a0: 6919 64bd 780d 913d 8b8f afbd 9ebd f83c
000003b0: 1fbf a6bd 8032 0e3d f1e3 963d 0646 debc
000003c0: d4ed fb3d 4f0c 82bc c216 70ba 212e c33c
000003d0: 4948 9fbd 98eb 33bc 46e3 b43c 2c00 783c
000003e0: 3005 803d 86ed a33d e751 0fbb 89a6 34bd
000003f0: 5274 a43b 21a4 37bd 650a 82bd 379f 1d3e
0.024063045 -0.046439994 -0.080556475 0.007342223 -0.04315292 -0.023962308 0.04247453 -0.022061693
0.012225739 0.08657282 0.051588383 0.091584384 0.03965366 -0.079591714 -0.0065791914 -0.0038363885
-0.06595339 -0.08727235 0.024780238 -0.047324575 0.027466286 -0.004539397 0.008621613 0.07305958
0.039869722 0.0065082484 0.0007891749 0.0772343 0.07164459 0.049773034 0.018148752 -0.020624042
-0.03617947 -0.0170497 -0.11136915 0.016636115 -0.002480579 0.011710107 -0.033240836 -0.070027344
-0.046583924 -0.06565183 -0.10316281 -0.010932854 0.028993916 -0.026265819 -0.013739646 0.09778531
0.097227074 0.0744571 -0.029019304 -0.010946073 -0.00066524424 0.06882158 0.07809798 0.09012489
0.11464791 -0.10027046 -0.0037690166 0.0139051555 -0.07619513 -0.028646963 -0.02139562 -0.059968013
0.12136128 0.01064819 0.02815773 0.03244595 0.036505442 -0.08253604 0.0649323 -0.005060598
-0.030917034 -0.024676647 0.009933086 -0.058402773 0.11019204 0.035396773 0.015775794 0.011934194
-0.05533604 0.051927645 0.055499353 -0.0688573 0.030876959 0.01632845 0.029795287 -0.009114901
-0.011349172 -0.020577585 -0.023249745 0.0068767704 0.008845723 0.053776346 0.101125024 -0.045336276
0.027434252 0.08898133 -0.038818777 -0.04452254 -0.018813914 0.022010384 -0.030892296 -0.06730884
-0.16425788 -0.02615632 -0.011987285 -0.025541587 -0.0064327833 0.033782013 -0.1113289 0.036449227
0.005884853 0.05819058 -0.013816901 -0.03989945 -0.026366336 0.02642768 0.022787524 -0.0015325842
0.02618005 -0.008889092 -0.04654444 -0.0966009 0.12717439 -0.027349168 -0.006473647 -0.046757434
-0.06517244 -0.048405867 -0.067686 -0.08423001 -0.03308999 0.11611162 0.02706788 -0.010628823
-0.105314 -0.009658901 -0.015311889 0.09292888 -0.011430559 0.05961416 0.019096699 0.1287289
0.01522751 0.05914253 -0.16107756 -0.013378238 -0.009162794 0.03678387 -0.031607714 -0.03182755
0.029623646 -0.028073879 0.0696228 -0.059611086 -0.024926132 0.03243974 0.03298658 0.024061603
-0.062341236 0.0029441628 0.060392264 0.035547104 -0.06533621 -0.02795743 -0.114885345 -0.013694226
0.012647134 0.015934648 -0.049685605 0.035956446 -0.018926749 0.035874564 0.019923717 0.07055739
-0.05258851 0.0444295 0.016799588 0.055615023 0.01403606 -0.0599638 -0.062329844 -0.014135298
-0.021016765 -0.006632015 0.013286737 -0.035428528 -0.012335534 -0.007517189 -0.0031512277 0.0387666
-0.06490778 0.029240169 0.10870266 -0.014355433 0.039041586 0.0098283505 -0.010961551 -0.016586686
-0.086574234 0.015172098 -0.0424979 -0.048136286 -0.002560035 -0.06756039 0.07893476 -0.019237088
0.06695193 0.060067475 -0.13179013 0.011645757 0.012884719 -0.12002049 -0.053775147 0.11192279
-0.019196808 0.0070130513 0.04269044 0.048646037 -0.026639227 -0.058862913 -0.03764688 -0.011020512
0.0125892395 -0.049939353 0.0069148075 0.033465676 0.03529546 -0.06968935 -0.03848487 -0.008951965
-0.055688296 0.07082647 -0.085723005 0.030363854 -0.08141922 0.03471613 0.07367695 -0.027133
0.123012215 -0.01587501 -0.00091586646 0.023825707 -0.07777459 -0.010981463 0.022081029 0.01513676
0.062509894 0.080042884 -0.0021868886 -0.044104133 0.0050187493 -0.04483426 -0.06349639 0.15392767

vgg.0.bias f4 [63]
00000000: bc3d 64bb f939 6a3b bb66 adb9 7b7c 00bb
00000010: f792 98bb ad47 05bb 69a8 f0b8 ba95 b5ba
00000020: cee1 35bb 2121 b6ba 5b2b 0fbb d831 7dbb
00000030: fb73 67bb c4cc a0bb 37e0 94bb 355c 89b9
00000040: 74b7 d839 55ad 89bb e2b5 baba 51ad 91bb
00000050: 5b24 10bb d436 87bb 6d32 7539 4c7d 0ebb
00000060: 98d6 babb 3ade 7abb e863 8dbb 7799 16bb
00000070: 9d80 95bb 916d 0fbb 7827 79bb 8447 5dbb
00000080: be1a 39bb 95ce ba39 fda4 5cbb 0c7d d4b9
00000090: fee9 86bb 703a 2b3b 57f9 593b 5399 063c
000000a0: 238d 76bb 4966 093b b0fb 09bb 0fbc 2fbb
000000b0: 4f4c b9bb ec38 8b3b b89f c1ba 956b 88bb
000000c0: dcf8 c1b9 ee4b 87bb f9c4 98ba 924f 093b
000000d0: 8bd9 8cba 6b6c 12bb a2c6 0aba 1196 7dbb
000000e0: 566d 4ab8 1ca9 3d3a b2ea 1a3a e424 8fbb
000000f0: 7fb8 073a 5a33 92bb 34cf 053b
-0.0034826836 0.003574012 -0.00033073672 -0.0019605446 -0.0046561914 -0.0020336912 -0.000114754606 -0.0013853826
-0.0027752998 -0.0013895371 -0.002184591 -0.0038634446 -0.0035316932 -0.0049072225 -0.00454333 -0.00026199376
0.00041335414 -0.004201571 -0.0014244879 -0.0044457098 -0.0021994326 -0.004126409 0.00023383806 -0.0021742163
-0.005701851 -0.003827943 -0.0043148883 -0.0022979656 -0.004562451 -0.0021885375 -0.003801791 -0.003376455
-0.00282447 0.000356306 -0.0033667677 -0.00040528958 -0.0041172495 0.002612736 0.003326019 0.008215266
-0.0037620745 0.0020965508 -0.0021054558 -0.0026814973 -0.0056548486 0.004248729 -0.0014772331 -0.0041632154
-0.00036997243 -0.0041289246 -0.0011655382 0.0020951969 -0.0010745985 -0.0022342454 -0.0005293881 -0.0038694183
-4.826238e-05 0.0007234977 0.0005909606 -0.0043684114 0.00051773334 -0.004461688 0.0020417692

oconv2.weight f4 [1, 63, 3, 3]
00000000: a3cd 943c 0390 893d bf21 fa3b 4123 11be
00000010: c3b7 35bd 4b0d 91bd 6cbd 35bd 6c11 03bd
00000020: db2b eebc f0c2 1b3d 3dae 383d b7d3 8b3d
00000030: f428 70bd 19c4 ce3b fdcd 44bc ab6a 34bc
00000040: 1be9 643d 4f9f a6bc b404 c43c bb28 f53d
00000050: 9ec8 98bb 3d62 e03c 85f6 aa3d e17a 0cbd
00000060: 8ab5 00bd 755c d13d f399 94bc 5e98 9abd
00000070: 5372 ad3d c88f fcbb 0bdb 62bd 3230 5abd
00000080: 2a2a 9f3d 66f9 323c 9236 ec3d 3f98 4bbd
00000090: 6c13 a53d c7db ba3c 3815 40bd 5d49 e2bb
000000a0: 46b4 5dbb 91b8 c8bc f875 a6bd dc5a 063d
000000b0: 446e 903d 5f25 543d 8363 7e3d 7eb6 c7bd
000000c0: 0019 3d3d c6f1 433d 5123 5e3d 3807 983d
000000d0: 7b0a a3bb 57b2 603d 3588 74bd 774f 693d
000000e0: d152 c63c c22e f93d 2a89 3f3d a541 193e
000000f0: 37ba de3d db7d 083d 1f2e 973c 8824 8dbc
00000100: 0d27 1c3d 518c dd3c c600 663d 5119 59bc
00000110: f824 983d 275b debc 2949 e53c 2705 08bd
00000120: 4fa6 f13c 013f 723d de04 4d3d 2ef3 f23c
00000130: ed41 0fbb 0ec4 6bbd 95f3 f2bd 428e 053e
00000140: e651 c83d 044b d93b b27a 70bd ca2e 703d
00000150: cab8 cf3d dc19 363c 4437 3bbd c201 88bc
00000160: 8b8a 323c 2ea8 103d a7bb 2a3e d010 b83d
00000170: 4028 e43d 98e7 2abc 7a4c 9cbd 9e9a ce3d
00000180: 2137 293d 3918 71bd e34a dbbd 7031 56bc
00000190: 08ab 72bc 7e19 893d e3e4 68bd d98e 7ebd
000001a0: 0f76 1dbd 6a1c 2abd 86e5 a1bd 4252 893d
000001b0: 9f7a 953d 090a c33d d2e0 883d 295f 51bd
000001c0: 4104 bcbc 3693 863d e3e8 f43a 6620 10bd
000001d0: 1573 26bd 3bb8 09ba 1538 f8bd d278 ca3c
000001e0: 6052 3bbd 5f37 ffbd 8a8f 713d 4df0 013d
000001f0: 13bd 0dbd a7cb 453a fc87 bd3c a7f1 94bd
00000200: 7fb7 b4bd 19ed 053d 4880 a6bd 6716 6abd
00000210: a7c3 0c3c 2dc1 963d dd9d 373e 0bf3 64bd
00000220: 0b75 573d 0895 8bbc 5aa3 4f3d 74bc d63d
00000230: 5f8a 913d 8b69 dabd 9590 7c3c a11d 3ebc
00000240: 3246 1e3d e0e6 493d 1a66 51bd 8ba1 33bd
00000250: 2981 70bd 1221 47bd 40d1 6dbd 1442 35bb
00000260: 89df b13c ff79 c6bd f1e5 c1bb 908b cc3c
00000270: 775d 63bc 66da 6c3d 8092 79bd eea0 163d
00000280: 35e7 a63d 8be7 623c 32cd 893c 2886 81bd
00000290: ef27 a4bd d1cf ca3d 8fac e7bc 6809 1bbd
000002a0: 6d90 1e3d 57ee 483d ea35 e13c 12df c03d
000002b0: 69b0 0cbe afa0 183d e320 823b dd95 fd3c
000002c0: 81e7 d13d 3e49 50bb a6e3 833c 1bd9 5d3c
000002d0: 2280 333d ba0d 55bd 8baa 293d 16d5 5d3c
000002e0: 6269 423d 7232 6d3d 2674 753d 455d 9cbc
000002f0: bdc2 19bc c8b6 853b 8cd7 8d3d 903f 273d
00000300: 2fd1 6bbd b775 48bd 32a8 a73c 93a2 5dbd
00000310: dd63 c3bd 7a61 7f3d 44ce 583d ff6d 58bd
00000320: 82fb 15bc 684d 593d 5ebc 2d3c af32 663c
00000330: cf56 07bd e167 e53c a2ce c43b 4172 1ebd
00000340: 31e1 0bbc b656 bfbd 97eb 823d 05bd 8cbd
00000350: f72e ecbc b0af 89bd c25b 12bd 205a d0bb
00000360: a879 913a d798 783c b467 623e b64b 92bd
00000370: 8c65 8fbd ad4b 09bd cd85 d7bd 3eea a53c
00000380: 0611 7d3d 05b2 033b a8ff 1f3d dfa9 653d
00000390: 5aa3 1cbd 9384 ef3c 5e38 f93d 8193 013e
000003a0: cc26 a23d 2343 a63c 3814 c6bc a1c8 b4bc
000003b0: 3f6e a5bc 2218 38bc 26bb 93bc 1085 1dbd
000003c0: c38d 07bd 64e5 83bc b855 07bd f47b a33d
000003d0: ccd4 5ebc b968 1a3d 34ce 45bd 8b31 aabd
000003e0: 9fbd 14bc 0bfe 42bd d115 e93d e49d 83bd
000003f0: cdd4 263c b73b 00bd 97e2 05bd 09cb 86bd
0.018164461 0.06716921 0.0076334174 -0.14173605 -0.044364702 -0.070826136 -0.0443701 -0.031999037
-0.029073646 0.038027704 0.04508804 0.06827491 -0.058632806 0.0063099978 -0.012012002 -0.01101176
0.05588637 -0.020339636 0.023928024 0.11970659 -0.0046625873 0.027390594 0.08347801 -0.034296874
-0.03142313 0.10222713 -0.018139815 -0.07548593 0.08469071 -0.0077075697 -0.055384677 -0.05326862
0.07771714 0.010923719 0.11533846 -0.04970574 0.08060345 0.022809876 -0.046895236 -0.0069057182
-0.0033829375 -0.02450207 -0.081279695 0.032801494 0.070522815 0.051793452 0.06210662 -0.097516045
0.04616642 0.047837995 0.0542329 0.07423252 -0.0049756146 0.054857578 -0.05970021 0.05696055
0.024209412 0.121671215 0.04676167 0.14966448 0.108753614 0.03332315 0.01845461 -0.017229334
0.03812318 0.027044447 0.05615308 -0.013250665 0.07428926 -0.027143074 0.027988987 -0.03320804
0.029498247 0.059142116 0.05005347 0.029656973 -0.0021859363 -0.05756002 -0.11862866 0.13042548
0.09781246 0.006631257 -0.05871076 0.05863837 0.101426676 0.011114564 -0.045707002 -0.0166024
0.010897289 0.03531664 0.16673146 0.08987582 0.111404896 -0.010431193 -0.07631774 0.10088085
0.04131234 -0.05886099 -0.10707643 -0.01307331 -0.014811285 0.066943154 -0.05685891 -0.06214795
-0.038442668 -0.041531004 -0.07905106 0.067051426 0.07298779 0.095233984 0.06683506 -0.051116142
-0.022951247 0.06571047 0.0018685128 -0.035187148 -0.040637095 -0.0005253588 -0.12120072 0.024715815
-0.045732856 -0.12461733 0.05897478 0.03172331 -0.034604143 0.00075453 0.023136131 -0.07272654
-0.088240616 0.032696817 -0.081299365 -0.05715027 0.008591569 0.07361064 0.17931314 -0.055895846
0.052601855 -0.017038837 0.050692894 0.10485163 0.0710647 -0.10664662 0.01541533 -0.011603744
0.038641162 0.049292445 -0.051122762 -0.04385523 -0.058716927 -0.048615523 -0.058060884 -0.0027657794
0.021713035 -0.09691238 -0.0059173037 0.024968892 -0.013877264 0.05782547 -0.06093073 0.03677457
0.08149568 0.013849149 0.016821478 -0.063244164 -0.08015429 0.09902919 -0.028280525 -0.037850767
0.038711954 0.049055424 0.027491529 0.09417547 -0.1373917 0.037262615 0.0039712056 0.03095525
0.10249234 -0.0031781937 0.016099762 0.0135405315 0.04382337 -0.052015044 0.041422408 0.013539573
0.047463782 0.057909437 0.05992522 -0.019087443 -0.009384808 0.004080627 0.06925878 0.040832102
-0.05757254 -0.048940387 0.020465944 -0.05411012 -0.09540532 0.06234882 0.052931085 -0.052839275
-0.009154202 0.053052336 0.010603992 0.01405017 -0.03304177 0.028003635 0.006006078 -0.03868318
-0.0085375765 -0.09342711 0.063925914 -0.0687199 -0.028830988 -0.06722963 -0.03573204 -0.0063584
0.0011098878 0.015173159 0.22109872 -0.07143347 -0.070017904 -0.033519436 -0.10523567 0.020253297
0.061783813 0.0020095122 0.039062172 0.056070205 -0.03824172 0.029238021 0.12168954 0.12653925
0.07917556 0.020295685 -0.024179563 -0.022068324 -0.020194171 -0.011236222 -0.018033575 -0.038456976
-0.03309418 -0.016100593 -0.033040732 0.079826266 -0.013600539 0.037697528 -0.048292354 -0.08310231
-0.009078412 -0.047605556 0.11381114 -0.064265996 0.010182572 -0.03130695 -0.032686796 -0.06581695
