Models/model37.pth (torch, 152335 bytes, 6 tensors)

oconv1.weight f4 [1, 1, 3, 3]
0	0x3ee21451	0.44156125
1	0xbe1aef9e	-0.15130469
2	0xbf0264c0	-0.5093498
3	0x3e3d5d81	0.184927
4	0x3e28361a	0.16426888
5	0xbe3eef4f	-0.18645976
6	0x3eb04366	0.3442642
7	0xbeeb34d7	-0.4593875
8	0xbe53d603	-0.20687108

conv1.weight f4 [63, 1, 3, 3]
0	0xbfc6de84	-1.5536656
1	0x3e9763d7	0.2956836
2	0x3e3e69b0	0.18595004
3	0xbd14b9df	-0.036310073
4	0xbf6644be	-0.8994864
5	0x3eaba0d6	0.33521146
6	0xbe026f22	-0.12737706
7	0x3e1375e2	0.14400437
8	0xbe46d96a	-0.19418874
9	0xbe2a606d	-0.16638346
10	0xbed38ac8	-0.4131682
11	0xbdee9d53	-0.11651101
12	0xbee008e0	-0.4375677
13	0x3fa0e323	1.2569317
14	0x3ea333a0	0.31875324
15	0x3e685f18	0.22692525
16	0xbf445273	-0.7668831
17	0x3e8ced69	0.2752488
18	0x3e659d9d	0.22423406
19	0xbf0d56be	-0.55210483
20	0x3f07825e	0.529333
21	0xbf306d4c	-0.68916774
22	0x3eed8dec	0.4639734
23	0x3ea0fec0	0.3144436
24	0xbe98424c	-0.2973808
25	0x3f2e6c66	0.6813415
26	0xbe00b76b	-0.12569968
27	0x3ea8d778	0.3297689
28	0xbf16850f	-0.5879678
29	0x3ef6004a	0.48047096
30	0x3f8969b2	1.0735381
31	0x3b6b35e9	0.0035890287
32	0x3f2210ed	0.63307077
33	0xbf136edb	-0.5759103
34	0x3e34c4b9	0.17653169
35	0x3f2e0ec1	0.6799126
36	0xbf7546b3	-0.95811003
37	0xbe5ed7cc	-0.21762007
38	0x3f0acc01	0.54217535
39	0x3e39e730	0.18154597
40	0x3de760ab	0.11297735
41	0xbd359ed9	-0.044340942
42	0xbde9c5c3	-0.11414673
43	0xbe528b51	-0.20560957
44	0x3ea5036d	0.32229176
45	0xbe0dce26	-0.1384817
46	0xbf1f4576	-0.62215364
47	0xbeb34459	-0.35013083
48	0xbf2dd627	-0.67904896
49	0xbdac099a	-0.08400269
50	0x3f124148	0.5713086
51	0x3f863229	1.0484058
52	0x3c94165b	0.018077066
53	0xbeb916be	-0.36150163
54	0x3db08d07	0.08620649
55	0xbe8bfa5d	-0.2733945
56	0x3df64e8d	0.12026701
57	0xbe69fbde	-0.22849986
58	0x3ed4a506	0.41532153
59	0xbdb85ecc	-0.09002456
60	0xbf0f486f	-0.559699
61	0x3ea89974	0.32929575
62	0x3c4bec0f	0.0124464175
63	0x3ea6e830	0.3259902
64	0x3edd7039	0.43249682
65	0xbd78c320	-0.06073296
66	0x3dfb4317	0.12268656
67	0xbec4f099	-0.3846481
68	0x3f48d5d3	0.7845127
69	0xbf4a064f	-0.78915876
70	0x3ef55f2f	0.47924182
71	0x3e30b925	0.17258127
72	0x3f000839	0.50012547
73	0x3ebc0b26	0.36727256
74	0xbf961489	-1.1725017
75	0xbc465314	-0.012104768
76	0xbf0257b1	-0.50915056
77	0x3f8f9633	1.1217712
78	0x3e0f56e6	0.13997993
79	0x3e11cdf4	0.14238721
80	0x3cf29d70	0.029616088
81	0x3ec8be0f	0.39207503
82	0x3d9d141b	0.076698504
83	0xbf1d5c1e	-0.61468685
84	0xbecb5fcc	-0.39721525
85	0xbb7793d9	-0.0037777333
86	0x3e8d0cd9	0.27548864
87	0xbeea605c	-0.4577664
88	0xbca42139	-0.020035373
89	0xbe16b190	-0.14716172
90	0x3f1ca1db	0.6118447
91	0xbe17908f	-0.14801238
92	0xbf391f1d	-0.723131
93	0xbee988da	-0.45612222
94	0xbf0629e8	-0.52407694
95	0xbe845035	-0.25842443
96	0x3f497d98	0.78707266
97	0xbe9064e2	-0.28201967
98	0xbee7c518	-0.45267558
99	0xbe3d1e62	-0.18468621
100	0xbd1adc6d	-0.03780787
101	0x3e3f210f	0.18664955
102	0x3f36c5e0	0.71395683
103	0x3de2f8ef	0.110826366
104	0xbf5b3d50	-0.8564043
105	0x3f06eeb3	0.52707976
106	0x3f0314c5	0.51203567
107	0x3f0bea49	0.54654366
108	0x3f519c89	0.8187948
109	0x3ea57f2f	0.32323596
110	0xbf05a3fb	-0.5220334
111	0xbee3d591	-0.44498876
112	0x3e4738ed	0.19455309
113	0x3f50fc1c	0.8163469
114	0x3f0258e8	0.5091691
115	0x3d9e2f99	0.07723922
116	0x3fba690e	1.456331
117	0x3f3badb1	0.7331191
118	0xbdbf29bd	-0.09334133
119	0xbe84bc83	-0.25925073
120	0xbf474790	-0.7784357
121	0xbdb69fa9	-0.089171715
122	0x3dbcd275	0.09219829
123	0x3f036a88	0.5133443
124	0x3de8ef34	0.113737494
125	0x3e843b49	0.2582648
126	0x3e3c4a1b	0.18387644
127	0xbcedae0f	-0.029013662
128	0xbf0ddcbf	-0.55414957
129	0x3d23584c	0.03987913
130	0x3b6d3d73	0.0036199957
131	0xbdbf3a55	-0.09337298
132	0x3e370da2	0.17876294
133	0xbefedc0f	-0.49777266
134	0x3ed319e3	0.41230687
135	0xbca0ad1e	-0.019613799
136	0x3e5be0f6	0.21472535
137	0xbeee154b	-0.4650062
138	0x3eeab9a7	0.45844766
139	0x3ec320a3	0.38110837
140	0xbe6fa276	-0.23401818
141	0xbf1cd5f7	-0.61263984
142	0xbf371532	-0.71516716
143	0xbf0ec946	-0.5577587
144	0x3ec0d7ee	0.3766474
145	0x3e37ebe0	0.17961073
146	0x3f2c4f0b	0.6730811
147	0x3f15cca4	0.5851538
148	0xbf397700	-0.72447205
149	0x3ee77b97	0.4521148
150	0x3d814e07	0.06313711
151	0x3ebd0601	0.36918643
152	0xbdc2991e	-0.09501861
153	0xbdb665ac	-0.08906111
154	0xbe9512dd	-0.29115954
155	0xbf38b5c9	-0.7215238
156	0x3ddd6456	0.10810153
157	0xbf45fbc0	-0.77337265
158	0xbf7cb04a	-0.98706496
159	0x3f0e0e2a	0.5549036
160	0x3f5a8753	0.8536274
161	0xbf4f5662	-0.80991185
162	0x3e1bc6d6	0.15212569
163	0x3f7bd847	0.9837689
164	0xbf8cd838	-1.1003485
165	0x3f30bb3a	0.69035685
166	0xbe36e32f	-0.17860101
167	0x3e4cdb3d	0.20005508
168	0xbe859ba6	-0.26095313
169	0xbdd43424	-0.103615075
170	0xbe9c5dae	-0.30540222
171	0xbd8f04ed	-0.069833614
172	0x3df41136	0.11917345
173	0x3f08bb11	0.5341044
174	0xbf387b21	-0.7206288
175	0x3e5b4866	0.21414337
176	0x3eb57cb3	0.354467
177	0x3dcf4f0f	0.10122501
178	0x3ed07c4a	0.40719825
179	0x3f19b196	0.600366
180	0x3ee80c32	0.45321804
181	0x3e91bd9e	0.2846498
182	0xbe9c7835	-0.3056046
183	0x3de68cb8	0.11257309
184	0x3f71c6e1	0.9444409
185	0x3e17f638	0.14840019
186	0x3ecdde97	0.40208885
187	0xbe788016	-0.24267611
188	0xbe30803a	-0.17236415
189	0xbe56eb34	-0.2098816
190	0xbea1fc63	-0.31637868
191	0xbeb23b04	-0.3481065
192	0x3e8990f6	0.2686841
193	0x3f18e707	0.5972752
194	0x3c1afcfc	0.00945973
195	0xbcd78cd6	-0.026312273
196	0xbe2d2b1b	-0.16910975
197	0xbd658050	-0.05603057
198	0xbf0278e9	-0.50965744
199	0xbe420734	-0.1894806
200	0xbf07001c	-0.5273454
201	0x3ef2246d	0.47293416
202	0x3df9edc4	0.12203553
203	0x3e8426b3	0.25810775
204	0x3f08c00b	0.53418034
205	0xbe1f4647	-0.15554152
206	0xbe8210a8	-0.25403333
207	0xbe2af410	-0.16694665
208	0xbf55de44	-0.83542275
209	0x3f6a80e2	0.9160291
210	0x3de1b246	0.11020331
211	0x3e8e4f7a	0.2779501
212	0xbc837ddf	-0.016051231
213	0xbeda7e9f	-0.4267473
214	0x3eb22772	0.3479572
215	0x3efdebd7	0.49593994
216	0xbe2ee446	-0.17079267
217	0x3ee4d186	0.44691104
218	0x3e3026af	0.17202257
219	0x3d3d6353	0.0462373
220	0x3ec42fd8	0.38317752
221	0xbc90afa9	-0.017661886
222	0xbfa0d485	-1.2564856
223	0xbed1b693	-0.40959606
224	0x3eb1c976	0.34724015
225	0x3e021f84	0.12707335
226	0x3e33ad46	0.17546567
227	0xbec774b4	-0.38956225
228	0x3ea38da9	0.31944016
229	0x3ece9684	0.4034921
230	0xbe48e21c	-0.19617504
231	0x3e1007a0	0.14065409
232	0x3f10ebf9	0.56610066
233	0x3deecf3d	0.11660621
234	0xbf4a19e1	-0.7894574
235	0xbea98f05	-0.33116928
236	0xbebddba8	-0.37081647
237	0xbf30b82e	-0.69031036
238	0xbe76eb58	-0.24113214
239	0xbec7062e	-0.38871902
240	0x3e7d09ee	0.24710819
241	0x3d9803c4	0.07422593
242	0xbf60646f	-0.8765325
243	0x3e4b0145	0.19824703
244	0x3f01a6e1	0.5064526
245	0x3f2e2bb7	0.68035454
246	0x3e676f6e	0.22601101
247	0xbdf3ec1c	-0.11910269
248	0xbf080cd0	-0.5314455
249	0xbeb344e4	-0.35013497
250	0x3cd7fec8	0.026366606
251	0x3e62232f	0.22083734
252	0x3e098fc4	0.13433748
253	0xbe1149c0	-0.1418829
254	0xbf30832f	-0.6895017
255	0xbf607fbd	-0.87694913

conv1.bias f4 [63]
0	0x3b524cd4	0.003208925
1	0x3a8028a8	0.0009777742
2	0x3b69bd53	0.0035665825
3	0x3b840e28	0.004030008
4	0x3b9f2cc2	0.0048576305
5	0x3ba308b3	0.0049754023
6	0x3b05dfa1	0.0020427483
7	0x3b5ab056	0.0033369265
8	0xbc011416	-0.007878324
9	0x3b488cab	0.0030601423
10	0x3b4b3c1d	0.0031011172
11	0x3ab549db	0.0013831215
12	0xbbc19338	-0.0059074424
13	0x3bb1c1a6	0.005424696
14	0xbb3772f6	-0.0027992106
15	0xbb93886e	-0.0045023477
16	0xbba369fc	-0.0049869996
17	0xbb8fe1cf	-0.004390932
18	0xbb97bb89	-0.00463051
19	0xbb8cf42b	-0.004301568
20	0xbba5766f	-0.005049519
21	0xbb7f3ac0	-0.003894493
22	0xbb95d905	-0.00457299
23	0x3b76f1fe	0.003768086
24	0x3b0f2d8d	0.0021847219
25	0xbb8701cc	-0.0041200873
26	0xbb580bee	-0.0032966095
27	0xbb9c0235	-0.0047610053
28	0xbabd63c8	-0.0014449293
29	0xbbc67007	-0.006055835
30	0xbbb960d5	-0.005657295
31	0xbb7ecdb8	-0.0038879942
32	0x3b078689	0.0020679554
33	0xbba80205	-0.005127194
34	0x391ad1cd	0.00014764741
35	0x3a03a657	0.000502204
36	0x3b528cf6	0.0032127476
37	0xbb978d31	-0.0046249856
38	0xbb8d4ee6	-0.004312384
39	0xbac3ed22	-0.001494799
40	0xbb8b1ba2	-0.0042452374
41	0x38e62f39	0.000109760505
42	0xbb5700cb	-0.003280687
43	0xbb975372	-0.0046181018
44	0xbbc6c685	-0.006066146
45	0xbba74b7b	-0.0051054335
46	0xbb127c7a	-0.0022352026
47	0xbb9ee1d4	-0.004848698
48	0x3a9caf10	0.0011954028
49	0xbb9b687d	-0.0047426806
50	0xbb85fd0c	-0.0040890034
51	0x3b82773c	0.003981499
52	0xbbb2c066	-0.0054550646
53	0xbac4d3dc	-0.0015016752
54	0x3badf4cf	0.0053087245
55	0x3b6d5236	0.0036212332
56	0xbb67a98b	-0.0035348858
57	0x3b68d65a	0.0035528154
58	0x3b1a3bfd	0.002353429
59	0xbb9772f1	-0.0046218564
60	0xbb818d9a	-0.003953648
61	0xbbb99abe	-0.0056641987
62	0xbbbd5c57	-0.00577883

vgg.0.weight f4 [63, 63, 3, 3]
0	0x3cc215d5	0.023692051
1	0xbd3fb122	-0.046799786
2	0xbda5cc21	-0.08095575
3	0x3be5333e	0.006994634
4	0xbd323d16	-0.043515287
5	0xbcc7af4c	-0.02437558
6	0x3d2c8bc8	0.042125493
7	0xbcb7c681	-0.022433521
8	0x3c40b71e	0.011762409
9	0x3db07d9a	0.086177066
10	0x3d53e0b5	0.05172797
11	0x3dba940a	0.091102675
12	0x3d212e5f	0.039350864
13	0xbda3aa99	-0.07991523
14	0xbbe8ff22	-0.0071104923
15	0xbb8e68cf	-0.0043459903
16	0xbd8640bf	-0.06555318
17	0xbdb38896	-0.08766286
18	0x3cc7e7c2	0.024402503
19	0xbd434586	-0.047673725
20	0x3cdea58f	0.027178554
21	0xbba3207a	-0.0049782367
22	0x3c07c12e	0.008285804
23	0x3d94d72b	0.072676025
24	0x3d21c764	0.039496794
25	0x3bcc35f0	0.006232016
26	0x39fd8ddb	0.0004836161
27	0x3d9d3cad	0.076775886
28	0x3d91f0ce	0.07126008
29	0x3d497f25	0.04919352
30	0x3c908556	0.017641705
31	0xbca973ca	-0.020685095
32	0xbd15f3ce	-0.036609463
33	0xbc8e684e	-0.01738372
34	0xbde4aa80	-0.11165333
35	0x3c8517c6	0.016246688
36	0xbb3b61a7	-0.002859214
37	0x3c3b6b96	0.011439225
38	0xbd097f05	-0.0335684
39	0xbd902a38	-0.070393026
40	0xbd407f24	-0.04699625
41	0xbd874880	-0.06605625
42	0xbdd3f9fc	-0.10350415
43	0xbc392d60	-0.011302322
44	0x3cea0f5e	0.02857178
45	0xbcd70e32	-0.026251886
46	0xbc5ed7e2	-0.013601275
47	0x3dc78ee6	0.097440526
48	0x3dc67243	0.096897624
49	0x3d978db3	0.07400074
50	0xbcefb28f	-0.029259948
51	0xbc3942f1	-0.011307464
52	0xba877a5e	-0.0010336151
53	0x3d8bfb0c	0.06834993
54	0x3d9f27a4	0.07771233
55	0x3db7c560	0.08973193
56	0x3deb114e	0.1147791
57	0xbdce2d5f	-0.100672476
58	0xbb6c466b	-0.0036052715
59	0x3c6679e2	0.014067145
60	0xbd9ce7e2	-0.07661416
61	0xbceb0ce6	-0.028692674
62	0xbcad2961	-0.021137895
63	0xbd769e6c	-0.060209677
64	0x3df81d43	0.12114956
65	0x3c26bb7b	0.010176535
66	0x3ce30f0e	0.02771714
67	0x3d0538e9	0.032524977
68	0x3d139c07	0.03603747
69	0xbda975f9	-0.082744546
70	0x3d8424d2	0.064523354
71	0xbbacf26c	-0.0052779224
72	0xbd002bb9	-0.031291697
73	0xbccce4fc	-0.025011532
74	0x3c1caca4	0.009562645
75	0xbd70a58b	-0.058751624
76	0x3de0eaa7	0.109822564
77	0x3d0f4e49	0.034986768
78	0x3c7ddf80	0.015495181
79	0x3c3dcccc	0.011584472
80	0xbd6400c5	-0.055664796
81	0x3d531495	0.0515333
82	0x3d61c64b	0.055120748
83	0xbd8dd8c0	-0.069261074
84	0x3cf99262	0.030465309
85	0x3c82b57c	0.01595568
86	0x3cf0e4e9	0.029406028
87	0xbc1c7613	-0.009549635
88	0xbc40b311	-0.011761443
89	0xbcabb239	-0.020959007
90	0xbcc1edaa	-0.023672897
91	0x3be155c2	0.006876678
92	0x3c0bde93	0.008536953
93	0x3d5a8b56	0.053355537
94	0x3dce3e79	0.100705095
95	0xbd3b883a	-0.045784213
96	0x3cdd4ac4	0.02701319
97	0x3db5a3fe	0.0886917
98	0xbd209730	-0.039206684
99	0xbd37b050	-0.04484588
100	0xbc9d3081	-0.019188168
101	0x3cb134fc	0.02163171
102	0xbd004fb4	-0.03132601
103	0xbd8a3eab	-0.06750234
104	0xbe27e94d	-0.16397591
105	0xbcd86fa5	-0.026420424
106	0xbc4a4b33	-0.01234703
107	0xbccd06d8	-0.025027677
108	0xbbe062bc	-0.0068477076
109	0x3d0adc4f	0.03390151
110	0xbde5055c	-0.11182663
111	0x3d139b34	0.036036685
112	0x3bb68ecf	0.0055712233
113	0x3d6c8535	0.057744224
114	0xbc681257	-0.014164529
115	0xbd236089	-0.039886985
116	0xbcd7385e	-0.026271995
117	0x3cd64355	0.026155153
118	0x3cbe0006	0.02319337
119	0xbaf2437d	-0.0018483248
120	0x3cd3b191	0.025841506
121	0xbc17f371	-0.00927435
122	0xbd40dbc5	-0.04708459
123	0xbdc58503	-0.096445106
124	0x3e02e081	0.12780954
125	0xbce1ea32	-0.027577493
126	0xbbdecae2	-0.006799088
127	0xbd4101ab	-0.04712073
128	0xbd8631a4	-0.06552437
129	0xbd47ac17	-0.048748102
130	0xbd8b85d5	-0.06812636
131	0xbdac98cc	-0.08427581
132	0xbd090b90	-0.033458292
133	0x3ded0d5c	0.11574814
134	0x3cdc1386	0.026864778
135	0xbc35073a	-0.011049086
136	0xbdd89070	-0.10574424
137	0xbc1d25f6	-0.00959157
138	0xbc810bf1	-0.015752764
139	0x3dbd8412	0.09253706
140	0xbc3a4846	-0.01136977
141	0x3d7232fc	0.059130654
142	0x3c98d96f	0.018658368
143	0x3e038a42	0.1284571
144	0x3c7cdcf8	0.015433542
145	0x3d70e0e7	0.058808234
146	0xbe254cd2	-0.16142586
147	0xbc63440d	-0.013871205
148	0xbc19f2b2	-0.009396242
149	0x3d14fc0d	0.036373187
150	0xbd00766d	-0.03136294
151	0xbd039bd1	-0.03213102
152	0x3cef317e	0.029198404
153	0xbce832e5	-0.02834458
154	0x3d8dab48	0.06917435
155	0xbd74d7a7	-0.059775975
156	0xbccfd45f	-0.025369821
157	0x3d02fd75	0.031979997
158	0x3d055f24	0.032561436
159	0x3cc20d34	0.023687936
160	0xbd809038	-0.062775075
161	0x3b2392a7	0.0024959238
162	0x3d74cf50	0.05976802
163	0x3d0fb831	0.035087768
164	0xbd8726b8	-0.06599182
165	0xbce87e27	-0.028380467
166	0xbdeb18d5	-0.11479346
167	0xbc61a2cb	-0.013771723
168	0x3c47b659	0.012189471
169	0x3c7ddf25	0.015495096
170	0xbd4a6c99	-0.049419973
171	0x3d11ca93	0.03559358
172	0xbc9cfbf7	-0.019163115
173	0x3d116715	0.035498697
174	0x3ca0437a	0.019563425
175	0x3d8fd95d	0.07023881
176	0xbd590644	-0.05298449
177	0x3d34a865	0.044105906
178	0x3c87f352	0.016595516
179	0x3d625231	0.055254165
180	0x3c600570	0.013673171
181	0xbd771f18	-0.060332388
182	0xbd7de282	-0.061983593
183	0xbc6c6fa8	-0.014430918
184	0xbcaf2bfe	-0.021383282
185	0xbbddd499	-0.0067697284
186	0x3c530a2a	0.012880841
187	0xbd119ed7	-0.035551872
188	0xbc4b7ae9	-0.012419441
189	0xbbff6108	-0.0077935494
190	0xbb722fb1	-0.0036954696
191	0x3d202bcf	0.03910428
192	0xbd851584	-0.064982444
193	0x3ceb6aeb	0.028737506
194	0x3dddd65a	0.108319
195	0xbc72a64f	-0.014810159
196	0x3d1dcd77	0.038526025
197	0x3c1cbae3	0.009566042
198	0xbc39a3ec	-0.011330586
199	0xbc8adbbe	-0.016950484
200	0xbdb1fa9b	-0.08690377
201	0x3c732ff3	0.014842975
202	0xbd2f93f4	-0.04286571
203	0xbd46e5d6	-0.048559032
204	0xbb3aba4b	-0.0028492387
205	0xbd8b1074	-0.067902476
206	0x3da0f71e	0.07859634
207	0xbc9b4824	-0.018955298
208	0x3d88261d	0.066478945
209	0x3d743e89	0.05962995
210	0xbe069dae	-0.13146088
211	0x3c41fb4a	0.011839697
212	0x3c4a952f	0.01236467
213	0xbdf66eb9	-0.120328374
214	0xbd5de16a	-0.05417005
215	0x3de44102	0.11145212
216	0xbca036a6	-0.019557308
217	0x3bdba30c	0.0067027863
218	0x3d2d6304	0.042330757
219	0x3d45a91f	0.04825699
220	0xbcdcd65e	-0.026957687
221	0xbd72c711	-0.059271876
222	0xbd1be01b	-0.03805552
223	0xbc3b1867	-0.011419392
224	0x3c47d5f7	0.012197009
225	0xbd4e089d	-0.050301183
226	0x3bd7dbdd	0.006587489
227	0x3d0a7348	0.033801347
228	0x3d0ee2af	0.03488415
229	0xbd8f4d26	-0.06997137
230	0xbd1bb17f	-0.03801107
231	0xbc189d3d	-0.009314832
232	0xbd64e0f9	-0.055878613
233	0x3d928723	0.071546815
234	0xbdb05a43	-0.08610966
235	0x3cf598e3	0.029980129
236	0xbda77832	-0.08177222
237	0x3d0c9eef	0.03433126
238	0x3d961988	0.073290884
239	0xbce167e4	-0.02751536
240	0x3dfb257f	0.12263011
241	0xbc84f99b	-0.016232302
242	0xbaac8a26	-0.001316373
243	0x3cc1511d	0.023598248
244	0xbd9fd03d	-0.0780339
245	0xbc3b46f1	-0.011430488
246	0x3cb0ab2a	0.021565992
247	0x3c73d2c2	0.014881792
248	0x3d7eb1bf	0.06218123
249	0x3da347e6	0.07972698
250	0xbb259ccd	-0.0025270463
251	0xbd366b45	-0.044535894
252	0x3b98f9ef	0.0046684663
253	0xbd394396	-0.04523047
254	0xbd82d304	-0.06387904
255	0x3e1d3934	0.15353853

vgg.0.bias f4 [63]
0	0xbb7d7201	-0.0038672688
1	0x3b469305	0.0030300033
2	0xb8975ce2	-7.217542e-05
3	0xbad4c442	-0.0016232806
4	0xbba9a4f9	-0.005177137
5	0xbb0f1ffd	-0.0021839135
6	0x38a0a734	7.6605385e-05
7	0xbab53ab6	-0.0013826701
8	0xbb3c5c71	-0.0028741623
9	0xbaf0c610	-0.0018369574
10	0xbb2dfc97	-0.002654826
11	0xbb870501	-0.0041204696
12	0xbb5cea10	-0.0033708848
13	0xbba95f12	-0.005168804
14	0xbb94c601	-0.0045402055
15	0xb9f9bf75	-0.00047635628
16	0x39934ae5	0.00028093826
17	0xbb95fb4d	-0.0045770765
18	0xba92dc80	-0.001120463
19	0xbb9d839d	-0.0048069493
20	0xbb210407	-0.002456905
21	0xbb7ce5c7	-0.0038589106
22	0xb83421b5	-4.2946736e-05
23	0xbb2c6a03	-0.0026308305
24	0xbbc8269c	-0.006108118
25	0xbb8b4f04	-0.0042513628
26	0xbb9f3a33	-0.004859233
27	0xbb22008b	-0.0024719562
28	0xbb9fdb6d	-0.0048784525
29	0xbb103c85	-0.0022008729
30	0xbb84f213	-0.004057178
31	0xbb7e490e	-0.0038800868
32	0xbb42778d	-0.0029673309
33	0xb9004b75	-0.00012235141
34	0xbb73e0fc	-0.0037212959
35	0xba80a245	-0.0009813985
36	0xbb928cbc	-0.0044723433
37	0x3b249714	0.0025114464
38	0x3b4bb967	0.003108585
39	0x3c0a0a7f	0.008425354
40	0xbb899256	-0.004198353
41	0x3b2acdfd	0.002606272
42	0xbb289932	-0.0025726077
43	0xbb507f07	-0.0031813995
44	0xbbc6ba82	-0.006064714
45	0x3b9691bc	0.0045950096
46	0xbafa41fc	-0.0019093151
47	0xbb94bcbd	-0.004539101
48	0xb9f580b6	-0.0004682594
49	0xbb92970f	-0.004473574
50	0xbaec0ca6	-0.0018009141
51	0x3b0de578	0.0021651667
52	0xba9cfd57	-0.0011977357
53	0xbb2c8173	-0.0026322275
54	0xb9befdb1	-0.0003642864
55	0xbb8d16c5	-0.004305693
56	0x3a0a44b1	0.0005274518
57	0x3a25d487	0.00063259195
58	0x3a55e60e	0.0008159586
59	0xbba1f346	-0.0049423305
60	0x39c42892	0.0003741426
61	0xbba352dc	-0.004984243
62	0x3b1cbdbd	0.0023916804

oconv2.weight f4 [1, 63, 3, 3]
0	0x3c98d357	0.018655462
1	0x3d88d93b	0.066820584
2	0x3bff0599	0.0077826497
3	0xbe10b895	-0.14132912
4	0xbd33e2e7	-0.043917563
5	0xbd91c8e8	-0.07118398
6	0xbd3380fa	-0.043824174
7	0xbd03b4bd	-0.032154787
8	0xbce9496a	-0.02847739
9	0x3d19f1e1	0.03758419
10	0x3d3a715a	0.045518257
11	0x3d8a8d26	0.06765203
12	0xbd6ea780	-0.05826521
13	0x3bc73204	0.0060789604
14	0xbc4d5fda	-0.01253506
15	0xbc3bed7b	-0.011470194
16	0x3d669e0f	0.05630308
17	0xbca20efc	-0.019782536
18	0x3cc69013	0.024238622
19	0x3df435b9	0.11924309
20	0xbb9cb56c	-0.0047823694
21	0x3ce3d149	0.027809756
22	0x3daa4b3e	0.083151326
23	0xbd0b2faa	-0.033981003
24	0xbcfe5533	-0.031046486
25	0x3dd1d5ab	0.10245832
26	0xbc954d85	-0.01822544
27	0xbd99ca74	-0.07509318
28	0x3dac941d	0.08426688
29	0xbbf3d4b6	-0.0074411286
30	0xbd6110e6	-0.054947756
31	0xbd5858ff	-0.05281925
32	0x3d9e231d	0.07721541
33	0x3c2cf5f1	0.010556684
34	0x3dec1848	0.11528069
35	0xbd4d2d57	-0.050092068
36	0x3da3ee2f	0.08004414
37	0x3cbdfdb6	0.023192268
38	0xbd40e88a	-0.047096767
39	0xbbeda6e9	-0.0072525633
40	0xbb4a22cc	-0.0030843494
41	0xbcccc893	-0.024997985
42	0xbda56f0d	-0.08077822
43	0x3d086ad4	0.033305004
44	0x3d8f2414	0.06989303
45	0x3d520b19	0.051280115
46	0x3d806005	0.06268314
47	0xbdc889d4	-0.09791914
48	0x3d3b1f89	0.04568437
49	0x3d424e56	0.04743799
50	0x3d5f9b13	0.05459125
51	0x3d96c00c	0.07360849
52	0xbba8ae78	-0.0051477514
53	0x3d63480c	0.05548863
54	0xbd72babf	-0.059260126
55	0x3d672c6c	0.05643885
56	0x3cc386f4	0.023868062
57	0x3df96d9a	0.12179108
58	0x3d3ea702	0.04654599
59	0x3e18c2a0	0.14917994
60	0x3ddf4658	0.10902089
61	0x3d09a4b3	0.033604335
62	0x3c9afe05	0.018919954
63	0xbc8b328c	-0.016991876
64	0x3d1a9d56	0.037747703
65	0x3cda526c	0.02665063
66	0x3d6513a2	0.055926926
67	0xbc58d5b5	-0.0132345455
68	0x3d971bef	0.07378375
69	0xbcda2bc1	-0.026632192
70	0x3ce0d10f	0.027443437
71	0xbd0838c6	-0.03325727
72	0x3ced820e	0.028992679
73	0x3d70287f	0.05863237
74	0x3d4af348	0.049548417
75	0x3cef1b78	0.029187903
76	0xbb2a4106	-0.0025978698
77	0xbd6b36f8	-0.05742547
78	0xbdf1fb55	-0.11815516
79	0x3e0519d1	0.1299813
80	0x3dc75427	0.09732848
81	0x3be336ac	0.0069340076
82	0xbd6dcd21	-0.058056954
83	0x3d719855	0.058983166
84	0x3dcf6e13	0.10128417
85	0x3c2ba00c	0.01047517
86	0xbd38ff54	-0.045165375
87	0xbc84f2c3	-0.016229039
88	0x3c3071f0	0.010769352
89	0x3d0efb78	0.034907788
90	0x3e2a1eb0	0.16613269
91	0x3db70beb	0.0893782
92	0x3de319ff	0.11088943
93	0xbc240840	-0.010011733
94	0xbd9d2a46	-0.07674079
95	0x3dce1792	0.100630894
96	0x3d28aba5	0.041179318
97	0xbd6ed596	-0.05830916
98	0xbddbf5d3	-0.107402466
99	0xbc517840	-0.0127850175
100	0xbc7b2f4f	-0.0153311035
101	0x3d888929	0.06666786
102	0xbd678235	-0.05652066
103	0xbd7cc4a1	-0.061710957
104	0xbd1f87cc	-0.038947865
105	0xbd2c182e	-0.042015247
106	0xbda0f10a	-0.078584746
107	0x3d8a2c50	0.06746733
108	0x3d947609	0.07249076
109	0x3dc40ff6	0.09573357
110	0x3d87dbb3	0.06633701
111	0xbd5030ae	-0.050827675
112	0xbcb8df26	-0.022567343
113	0x3d858d7d	0.065211274
114	0x3b189c9f	0.0023286713
115	0xbd0ee644	-0.034887567
116	0xbd28141f	-0.041034814
117	0xba83ee4c	-0.0010065525
118	0xbdf7fd5e	-0.12108873
119	0x3cc60978	0.024174437
120	0xbd397c1a	-0.045284368
121	0xbdfec64d	-0.124401666
122	0x3d72dbce	0.059291653
123	0x3cfeba92	0.031094823
124	0xbd0cbc6c	-0.03435938
125	0x398100a6	0.0002460528
126	0x3cbce9ca	0.023060698
127	0xbd944322	-0.07239367
128	0xbdb525c9	-0.088450976
129	0x3d041a1d	0.032251466
130	0xbda586de	-0.080823645
131	0xbd6baf82	-0.057540424
132	0x3c1457f2	0.009054171
133	0x3d95e033	0.07318153
134	0x3e3700d3	0.17871408
135	0xbd63327e	-0.055468075
136	0x3d55a3d5	0.052158196
137	0xbc87ee5e	-0.016593155
138	0x3d501808	0.050804168
139	0x3dd593e4	0.104285985
140	0x3d90836e	0.07056318
141	0xbdd960ae	-0.10614143
142	0x3c81d4b8	0.015848503
143	0xbc361655	-0.011113723
144	0x3d20637c	0.039157376
145	0x3d47e591	0.048802916
146	0xbd521737	-0.05129167
147	0xbd3173b9	-0.043323252
148	0xbd6f0d6b	-0.058362406
149	0xbd48bb0c	-0.049006507
150	0xbd6c24bb	-0.057652216
151	0xbb1b98d1	-0.0023742209
152	0x3caecf76	0.02133916
153	0xbdc57454	-0.096413285
154	0xbbceef5c	-0.006315155
155	0x3cc815ba	0.024424423
156	0xbc6714b6	-0.014104059
157	0x3d6d62ad	0.057955433
158	0xbd774bdb	-0.060375076
159	0x3d14ebfd	0.03635787
160	0x3da6050e	0.08106433
161	0x3c6b1a84	0.014349584
162	0x3c8bff00	0.017089367
163	0xbd82248f	-0.06354629
164	0xbda3b96a	-0.07994349
165	0x3dc9d047	0.09854179
166	0xbce4f72a	-0.027949888
167	0xbd1be489	-0.038059745
168	0x3d202a34	0.039102748
169	0x3d46f629	0.0485746
170	0x3cdcc883	0.02695108
171	0x3dbfcca9	0.09365208
172	0xbe0c1cd7	-0.13682877
173	0x3d18320a	0.037157096
174	0x3b8d1a1f	0.0043060924
175	0x3cfbafa5	0.030723402
176	0x3dd0dc18	0.101982296
177	0xbb393a14	-0.0028263377
178	0x3c8259e7	0.01591201
179	0x3c5ac322	0.013352187
180	0x3d31686f	0.043312486
181	0xbd531eef	-0.051543172
182	0x3d2ab213	0.04167373
183	0x3c55bba4	0.013045225
184	0x3d404fe4	0.04695119
185	0x3d6f07ad	0.05835693
186	0x3d7358a6	0.059410714
187	0xbc9886dd	-0.018618995
188	0xbc1562a6	-0.009117758
189	0x3b71087e	0.0036778743
190	0x3d8d5875	0.069016375
191	0x3d258e74	0.040419057
192	0xbd69c9d0	-0.05707723
193	0xbd4a5eed	-0.049406935
194	0x3ca990ce	0.020698931
195	0xbd5f1afe	-0.0544691
196	0xbdc292fc	-0.09500691
197	0x3d80bf76	0.06286518
198	0x3d56eb52	0.052470513
199	0xbd5889c0	-0.052865744
200	0xbc1860b3	-0.009300399
201	0x3d593f17	0.053038683
202	0x3c2b0d19	0.010440134
203	0x3c5dfeda	0.013549531
204	0xbd077ec2	-0.03307987
205	0x3ce3fecb	0.027831456
206	0x3bb45eee	0.0055044806
207	0xbd1c96c2	-0.03822971
208	0xbc13fc7b	-0.009032364
209	0xbdbdddf7	-0.09270852
210	0x3d838460	0.06421733
211	0xbd8b737d	-0.06809137
212	0xbcefcddb	-0.029272964
213	0xbd88283b	-0.06648298
214	0xbd12482c	-0.03571336
215	0xbbe1b45c	-0.0068879556
216	0x3a3d7bf7	0.000722825
217	0x3c7f98a0	0.0156003535
218	0x3e61dcff	0.2205696
219	0xbd91836f	-0.07105147
220	0xbd8e6e11	-0.06954587
221	0xbd0bc69d	-0.03412496
222	0xbdd685bc	-0.104747266
223	0x3ca18d15	0.019720593
224	0x3d7fa620	0.06241429
225	0x3abf7069	0.0014605644
226	0x3d1e3ecc	0.038634107
227	0x3d6703c4	0.056400076
228	0xbd1b66bd	-0.037939776
229	0x3ceffc65	0.029295156
230	0x3df86815	0.12129227
231	0x3e01202c	0.12609929
232	0x3da2d0e7	0.07950001
233	0x3cab8337	0.020936592
234	0xbcc23e92	-0.023711476
235	0xbcb13dbb	-0.02163588
236	0xbca44364	-0.020051666
237	0xbc31b54e	-0.010846449
238	0xbc90f302	-0.017694
239	0xbd1b8cdb	-0.037976127
240	0xbd05a680	-0.03262949
241	0xbc807ccf	-0.015684513
242	0xbd0537d9	-0.032523964
243	0x3da25747	0.07926803
244	0xbc65f9b9	-0.014036589
245	0x3d1c40c2	0.038147695
246	0xbd4430fd	-0.04789828
247	0xbda91c95	-0.08257405
248	0xbc12fb0a	-0.008970985
249	0xbd45273d	-0.048133124
250	0x3de7f723	0.113264345
251	0xbd82835a	-0.063727096
252	0x3c20c4ec	0.009812575
253	0xbcfd168f	-0.030894546
254	0xbd067b18	-0.032832235
255	0xbd85c444	-0.06531575
