Models/model03.pth (torch, 150863 bytes, 6 tensors)

oconv1.weight f4 [1, 1, 3, 3]
0	0x3ee2f4b9	0.44327334
1	0xbe1cb05a	-0.15301648
2	0xbf02e372	-0.51128304
3	0x3e3bb878	0.18332088
4	0x3e29f917	0.16598926
5	0xbe40a7be	-0.18813989
6	0x3eb11e6e	0.34593529
7	0xbeec1c4c	-0.4611534
8	0xbe55d558	-0.20882165

conv1.weight f4 [63, 1, 3, 3]
0	0xbfc7228b	-1.5557417
1	0x3e968ac9	0.2940276
2	0x3e402f87	0.1876813
3	0xbd1cb0d6	-0.03825458
4	0xbf66b41c	-0.90118575
5	0x3eaad01c	0.333619
6	0xbe043083	-0.12909131
7	0x3e154221	0.14576007
8	0xbe46b948	-0.19406617
9	0xbe2c6764	-0.16836315
10	0xbed496cc	-0.415213
11	0xbdf2a67b	-0.1184816
12	0xbee113a8	-0.4396031
13	0x3fa0b27f	1.2554473
14	0x3ea2434c	0.31691968
15	0x3e66862e	0.22512123
16	0xbf43c3d7	-0.764707
17	0x3e8e09e1	0.27741912
18	0x3e675f5e	0.22594973
19	0xbf0d796f	-0.5526342
20	0x3f070887	0.52747387
21	0xbf30eb8d	-0.6910942
22	0x3eee495f	0.46540353
23	0x3ea160f1	0.31519273
24	0xbe97c196	-0.29639882
25	0x3f2e2844	0.6803019
26	0xbe02c6ab	-0.12771098
27	0x3ea7f88d	0.32806817
28	0xbf170730	-0.5899534
29	0x3ef6ce1b	0.4820412
30	0x3f89a48d	1.0753342
31	0x3ae97b64	0.0017813263
32	0x3f218a52	0.63101685
33	0xbf13e6b1	-0.5777388
34	0x3e32f034	0.17474443
35	0x3f2e6851	0.68127924
36	0xbf74ca5f	-0.95621294
37	0xbe5cc173	-0.2155817
38	0x3f0a8a2c	0.54117084
39	0x3e3ba154	0.1832326
40	0x3debac70	0.11507499
41	0xbd2d3974	-0.04229112
42	0xbde5c412	-0.11219038
43	0xbe508c54	-0.20366031
44	0x3ea5e8b6	0.32404107
45	0xbe0c073a	-0.13674632
46	0xbf1ef168	-0.62087107
47	0xbeb2a46e	-0.34891075
48	0xbf2d66ac	-0.6773479
49	0xbda80af8	-0.08205217
50	0x3f12bc11	0.57318217
51	0x3f8677aa	1.0505269
52	0x3ca3bcba	0.019987453
53	0xbeba021e	-0.3632974
54	0x3db3c46d	0.087776996
55	0xbe8d13b8	-0.27554107
56	0x3dfa0c1d	0.12209342
57	0xbe685707	-0.22689448
58	0x3ed3aa22	0.4134074
59	0xbdb583fa	-0.08863063
60	0xbf0ee36a	-0.55815756
61	0x3ea944b8	0.3306024
62	0x3c2ae855	0.010431369
63	0x3ea6fa14	0.3261267
64	0x3edcfbd0	0.43160868
65	0xbd7fdb26	-0.062464856
66	0x3df86e25	0.121303834
67	0xbec5cb04	-0.3863145
68	0x3f4948fd	0.78626996
69	0xbf4a90eb	-0.7912738
70	0x3ef44adc	0.47713363
71	0x3e328a02	0.17435458
72	0x3f007e75	0.5019296
73	0x3ebd1125	0.36927143
74	0xbf96556e	-1.1744821
75	0xbc24b7fb	-0.01005363
76	0xbf024339	-0.50883824
77	0x3f8fd530	1.1236935
78	0x3e112ead	0.14177962
79	0x3e13ad60	0.14421606
80	0x3cff3c00	0.03115654
81	0x3ec9b9f0	0.39399672
82	0x3da098e5	0.07841662
83	0xbf1d58f9	-0.61463886
84	0xbecc723f	-0.39930913
85	0xbb18faee	-0.0023342925
86	0x3e8df577	0.27726337
87	0xbee992d5	-0.45619836
88	0xbc97abb7	-0.018514497
89	0xbe150341	-0.14552023
90	0x3f1cd41f	0.6126117
91	0xbe19b99a	-0.15012208
92	0xbf39157f	-0.72298425
93	0xbee8a86c	-0.45440996
94	0xbf05b492	-0.52228653
95	0xbe84d088	-0.25940347
96	0x3f49f75d	0.7889307
97	0xbe914265	-0.28370968
98	0xbee89dc0	-0.45432854
99	0xbe3c14a9	-0.18367256
100	0xbd1e6029	-0.038665924
101	0x3e3dbf46	0.18529996
102	0x3f3671f7	0.71267647
103	0x3de6bc35	0.112663664
104	0xbf5aedf7	-0.85519356
105	0x3f077ace	0.5292176
106	0x3f03a48a	0.5142294
107	0x3f0c62e8	0.5483842
108	0x3f521d8d	0.8207634
109	0x3ea4b2cb	0.32167658
110	0xbf060b52	-0.52361023
111	0xbee33047	-0.4437277
112	0x3e47b828	0.19503844
113	0x3f50a284	0.8149798
114	0x3f02d650	0.51108265
115	0x3da188d6	0.078874275
116	0x3fbaa8ae	1.4582727
117	0x3f3b4044	0.73144937
118	0xbdc26846	-0.09492545
119	0xbe85290b	-0.26007876
120	0xbf47cca5	-0.7804664
121	0xbdba3432	-0.09091987
122	0x3db9b2ca	0.090673044
123	0x3f03eb3a	0.515308
124	0x3de518db	0.111863814
125	0x3e856260	0.26051617
126	0x3e3e5874	0.1858843
127	0xbcdb4b83	-0.026769405
128	0xbf0e435a	-0.5557152
129	0x3d1da293	0.03848512
130	0x3b01c5f7	0.0019801834
131	0xbdc2da1b	-0.095142566
132	0x3e375e9b	0.17907183
133	0xbefdb4be	-0.49551958
134	0x3ed451fc	0.414688
135	0xbc93758c	-0.018000387
136	0x3e5dbff2	0.21655253
137	0xbeeeef2e	-0.46666855
138	0x3eebbf24	0.46044266
139	0x3ec4099d	0.38288584
140	0xbe717086	-0.2357808
141	0xbf1d43c1	-0.6143151
142	0xbf3783bd	-0.7168539
143	0xbf0f40ea	-0.55958426
144	0x3ec1ba48	0.37837434
145	0x3e39db41	0.18150045
146	0x3f2ccde2	0.6750165
147	0x3f1641b1	0.5869399
148	0xbf3a0cc6	-0.7267574
149	0x3ee863b1	0.45388559
150	0x3d85742f	0.06516301
151	0x3ebde4f2	0.37088734
152	0xbdbfb92f	-0.09361493
153	0xbdb558d5	-0.08854834
154	0xbe9552e2	-0.29164797
155	0xbf3917da	-0.7230202
156	0x3de129db	0.109943114
157	0xbf467456	-0.77521265
158	0xbf7d3395	-0.9890683
159	0x3f0db71b	0.5535752
160	0x3f5afe6e	0.8554448
161	0xbf4fc1ee	-0.8115529
162	0x3e19f3ea	0.15034452
163	0x3f7c5175	0.98561794
164	0xbf8d24d9	-1.102687
165	0x3f304ea3	0.6886999
166	0xbe356b54	-0.17716724
167	0x3e4e027f	0.2011814
168	0xbe869b80	-0.26290512
169	0xbdd8bbf1	-0.10582722
170	0xbe9d78b0	-0.3075614
171	0xbd93280c	-0.07185373
172	0x3df8083e	0.12110947
173	0x3f092701	0.5357514
174	0xbf38f242	-0.72244656
175	0x3e5be643	0.21474557
176	0x3eb66054	0.35620368
177	0x3dd2da48	0.1029554
178	0x3ecfb900	0.4057083
179	0x3f1a2e9b	0.60227364
180	0x3ee7d373	0.4527851
181	0x3e924ebb	0.28575692
182	0xbe9d6477	-0.3074071
183	0x3de2da64	0.11076811
184	0x3f723b1a	0.9462143
185	0x3e194762	0.14968637
186	0x3ece697a	0.40314847
187	0xbe7a9c7b	-0.24473755
188	0xbe326c2a	-0.17424074
189	0xbe55636e	-0.2083871
190	0xbea310c0	-0.31848717
191	0xbeb1bc6d	-0.3471407
192	0x3e8a7601	0.27043155
193	0x3f195016	0.59887826
194	0x3c360419	0.011109375
195	0xbce7dcf5	-0.028303603
196	0xbe2bafe8	-0.16766322
197	0xbd60ac66	-0.054851912
198	0xbf02f132	-0.51149285
199	0xbe403d24	-0.18773323
200	0xbf073fe2	-0.5283185
201	0x3ef2157a	0.4728201
202	0x3df7389f	0.120713465
203	0x3e8522a5	0.26002994
204	0x3f093e99	0.5361114
205	0xbe20798b	-0.15671365
206	0xbe815af1	-0.25264695
207	0xbe2cf83b	-0.16891567
208	0xbf563f4d	-0.8369034
209	0x3f6b0f77	0.9182047
210	0x3dddc2b4	0.10828152
211	0x3e8d5bbd	0.27609053
212	0xbc69cf48	-0.014270611
213	0xbedb706a	-0.42859203
214	0x3eb2ee06	0.34947222
215	0x3efce7db	0.49395642
216	0xbe315365	-0.17316969
217	0x3ee3c398	0.44485164
218	0x3e2dacfd	0.16960521
219	0x3d34f345	0.044177312
220	0x3ec320aa	0.38110858
221	0xbc8441f4	-0.01614473
222	0xbfa11f9e	-1.2587774
223	0xbed2a243	-0.4113942
224	0x3eb2c2b0	0.3491416
225	0x3e031306	0.12800226
226	0x3e31d660	0.17366934
227	0xbec8920e	-0.3917393
228	0x3ea43ee3	0.3207923
229	0x3ecda0da	0.40161783
230	0xbe4a903f	-0.19781588
231	0x3e11528b	0.14191644
232	0x3f111112	0.5666667
233	0x3df32939	0.11873097
234	0xbf4aa002	-0.791504
235	0xbea948ff	-0.33063504
236	0xbebd9e13	-0.37034664
237	0xbf30664a	-0.6890608
238	0xbe794d14	-0.24345809
239	0xbec6a0b4	-0.38794482
240	0x3e7ed0b0	0.24884295
241	0x3d9b4687	0.075818114
242	0xbf60fe42	-0.87887967
243	0x3e48a252	0.1959317
244	0x3f022066	0.50830686
245	0x3f2e9ecb	0.6821105
246	0x3e671176	0.22565255
247	0xbdf849ad	-0.121234275
248	0xbf088bbc	-0.5333822
249	0xbeb48ba5	-0.3526279
250	0x3cc7acda	0.024374414
251	0x3e6366e6	0.22207221
252	0x3e0b40d1	0.13598944
253	0xbe12a0ae	-0.14319107
254	0xbf311155	-0.6916707
255	0xbf6076ba	-0.8768116

conv1.bias f4 [63]
0	0x3ac390df	0.0014920494
1	0xba88bef5	-0.0010432886
2	0x3ae11577	0.0017172535
3	0x3b153942	0.0022769724
4	0x3b396a98	0.0028292295
5	0x3b54e1d2	0.0032483232
6	0x391dacc2	0.00015037044
7	0x3ad19be2	0.0015991891
8	0xbbc4ce48	-0.006006036
9	0x3b53bca0	0.0032308474
10	0x3acd6352	0.0015669859
11	0xb9567b04	-0.00020454457
12	0xbb8511b6	-0.004060949
13	0x3b779e8b	0.0037783708
14	0xbb6ba294	-0.0035955058
15	0xbb354193	-0.0027657493
16	0xbb4e2fd8	-0.0031461623
17	0xbb2a4547	-0.0025981234
18	0xbb3dc0d1	-0.002895404
19	0xbb1fd778	-0.0024389904
20	0xbb603205	-0.0034209501
21	0xbafceee6	-0.0019297272
22	0xbb40e782	-0.0029434864
23	0x3b24718d	0.0025092096
24	0x3af95730	0.0019023176
25	0xbb4a1867	-0.00308373
26	0xba703cbd	-0.0009164324
27	0xbb400316	-0.0029298714
28	0xbb57cc26	-0.0032928078
29	0xbb8ac549	-0.004234944
30	0xbb6aab29	-0.0035807586
31	0xbb0978c7	-0.002097653
32	0x3ad46e1d	0.0016207133
33	0xbb59dd46	-0.0033243462
34	0x3afb1f2d	0.0019159071
35	0xbb05de37	-0.002042664
36	0x3ac759ef	0.0015209297
37	0xbb5718d5	-0.0032821198
38	0xbb2662a9	-0.0025388396
39	0xbb317cb0	-0.0027082376
40	0xbb43ad22	-0.0029857834
41	0xbb013207	-0.0019713657
42	0xbadfa484	-0.0017062579
43	0xbb3e3659	-0.0029024093
44	0xbb9008e7	-0.0043955925
45	0xbb5e1efd	-0.0033892982
46	0xba101900	-0.00054968894
47	0xbb49e85b	-0.003080866
48	0x3a909176	0.0011029679
49	0xbb49d160	-0.0030794963
50	0xbb343586	-0.0027497723
51	0x3b169e38	0.002298249
52	0xbb88e764	-0.0041779745
53	0xba108bcd	-0.0005513996
54	0x3b6bbaf3	0.0035969585
55	0x3affc4aa	0.0019513567
56	0xbb2d3c67	-0.0026433708
57	0x3aeed9b1	0.0018222836
58	0x3a867459	0.0010258063
59	0xbb3daed7	-0.0028943324
60	0xbb26b374	-0.0025436552
61	0xbb86d43b	-0.0041146553
62	0xbb838a97	-0.004014324

vgg.0.weight f4 [63, 63, 3, 3]
0	0x3ccfe4f0	0.02537772
1	0xbd38f1ee	-0.045152597
2	0xbda255de	-0.07926534
3	0x3c0cbf71	0.008590565
4	0xbd2b67d6	-0.041847073
5	0xbcb9b9db	-0.02267163
6	0x3d330a8e	0.043711238
7	0xbcaa10ac	-0.020759903
8	0x3c5f0615	0.01361229
9	0x3db3c4a4	0.087777406
10	0x3d4f4455	0.050602276
11	0x3dbe202e	0.092834815
12	0x3d260d26	0.040539883
13	0xbda0d6b7	-0.078534536
14	0xbbaa5634	-0.0051982645
15	0xbb1b05a1	-0.0023654478
16	0xbd8965d9	-0.06708879
17	0xbdb0dc1e	-0.08635734
18	0x3cd47891	0.025936397
19	0xbd3d8223	-0.046266686
20	0x3ce7eff1	0.028312655
21	0xbb5edb92	-0.0034005386
22	0x3c1f4312	0.009720581
23	0x3d97ceca	0.07412489
24	0x3d27dc5e	0.040981643
25	0x3bf3fb0b	0.007445698
26	0x3aec92ba	0.0018049099
27	0x3da06c9c	0.078332156
28	0x3d952b9f	0.07283711
29	0x3d51c040	0.051208735
30	0x3c9ec8c2	0.019382838
31	0xbca2f9b2	-0.019894455
32	0xbd0f328d	-0.03496032
33	0xbc82a007	-0.015945448
34	0xbde29317	-0.110632114
35	0x3c916200	0.017746925
36	0xbaa2a556	-0.0012408893
37	0x3c51f3da	0.012814486
38	0xbd0382bb	-0.032107096
39	0xbd8cf537	-0.068827085
40	0xbd39899f	-0.04529726
41	0xbd83e334	-0.0643982
42	0xbdd0eb36	-0.10201113
43	0xbc1f6b47	-0.009730167
44	0x3cf791ba	0.030220855
45	0xbcd92026	-0.026504587
46	0xbc702c35	-0.014658977
47	0x3dcaafdd	0.098968245
48	0x3dc97510	0.09836781
49	0x3d9b5b73	0.07585802
50	0xbceee71b	-0.029162934
51	0xbc1fa9d5	-0.009745081
52	0x39f36332	0.00046422478
53	0x3d8fab82	0.070151344
54	0x3da2320a	0.079197004
55	0x3dbab7ec	0.091171116
56	0x3de90085	0.11377052
57	0xbdcb46f9	-0.09925646
58	0xbb84d1b6	-0.00405332
59	0x3c6650f2	0.014057385
60	0xbd99a60a	-0.075023726
61	0xbceb1658	-0.028697178
62	0xbcafd82a	-0.02146538
63	0xbd76d93a	-0.060265757
64	0x3dfa5f4e	0.12225209
65	0x3c2deaa3	0.010615024
66	0x3cf0cff8	0.029396042
67	0x3d069388	0.03285554
68	0x3d1a741c	0.037708387
69	0xbda7ae04	-0.08187488
70	0x3d87748b	0.06614026
71	0xbb8c81f6	-0.0042879535
72	0xbcf3c5c4	-0.029757388
73	0xbcc12269	-0.023575978
74	0x3c354244	0.011063162
75	0xbd6aa47e	-0.05728578
76	0x3de4046c	0.11133656
77	0x3d15d274	0.036577657
78	0x3c8944b8	0.0167564
79	0x3c5555f4	0.013020981
80	0xbd5e3356	-0.054248177
81	0x3d59bcd3	0.053158592
82	0x3d683220	0.056688428
83	0xbd8a829f	-0.06763195
84	0x3d03a084	0.0321355
85	0x3c8fb9ad	0.017544592
86	0x3cfdbcce	0.030973818
87	0xbc006414	-0.0078363605
88	0xbc25c853	-0.010118562
89	0xbc9e704a	-0.019340653
90	0xbcb4f2de	-0.022088464
91	0x3bcecd3e	0.006311088
92	0x3c1c6075	0.0095444815
93	0x3d61601e	0.055023305
94	0x3dd1c842	0.10243274
95	0xbd371dd5	-0.044706184
96	0x3ceabe05	0.028655061
97	0x3db846db	0.089978896
98	0xbd19e24b	-0.037569325
99	0xbd321d19	-0.04348478
100	0xbc90509c	-0.017616563
101	0x3cbe5224	0.023232527
102	0xbcf32b43	-0.029683715
103	0xbd8816a5	-0.06644944
104	0xbe27bc5b	-0.16380446
105	0xbccd7718	-0.025081202
106	0xbc31a61c	-0.010842826
107	0xbcd0c425	-0.025484154
108	0xbbac9a05	-0.005267384
109	0x3d06b636	0.032888614
110	0xbde199ab	-0.11015638
111	0x3d1a0fdc	0.03761278
112	0x3bdeed1e	0.006803169
113	0x3d72d00b	0.059280436
114	0xbc51af9f	-0.012798219
115	0xbd215f53	-0.03939755
116	0xbcd56b90	-0.026052266
117	0x3ce139ac	0.02749332
118	0x3cb0539c	0.021524243
119	0xba01ef37	-0.0004956605
120	0x3cdf344e	0.02724662
121	0xbbfc144e	-0.00769285
122	0xbd391f14	-0.045195654
123	0xbdc7e6f9	-0.097608514
124	0x3e0194ec	0.12654465
125	0xbcd80a02	-0.02637196
126	0xbbb0b3ba	-0.005392519
127	0xbd3b6326	-0.045748852
128	0xbd83445d	-0.06409524
129	0xbd41ce7c	-0.04731606
130	0xbd884884	-0.06654456
131	0xbdaafdde	-0.083492026
132	0xbd02e3f7	-0.031955685
133	0x3df02777	0.11726277
134	0x3ce5bed7	0.028045101
135	0xbc1a6291	-0.009422914
136	0xbdd56445	-0.104195155
137	0xbc2b524b	-0.010456632
138	0xbc6cc24d	-0.014450622
139	0x3dc09c45	0.09404806
140	0xbc43d9e7	-0.011953807
141	0x3d7a007c	0.06103562
142	0x3ca73963	0.020413106
143	0x3e04ba23	0.1296163
144	0x3c6a0bb0	0.014285013
145	0x3d76e9aa	0.060281433
146	0xbe23b09e	-0.15985343
147	0xbc44d86c	-0.01201449
148	0xbc070f83	-0.008243444
149	0x3d1b944e	0.03798323
150	0xbcfef1c7	-0.031121148
151	0xbcfc87f9	-0.030826556
152	0x3cfd0e47	0.030890597
153	0xbce6dff9	-0.02818297
154	0x3d914adf	0.07094359
155	0xbd74fe22	-0.059812672
156	0xbcc09b2a	-0.023511488
157	0x3d0a7d07	0.03381064
158	0x3d0c4c11	0.03425223
159	0x3ccf7f3f	0.02532923
160	0xbd79e534	-0.0610096
161	0x3b8d446c	0.004311135
162	0x3d7c273c	0.061560854
163	0x3d16dd5d	0.036832202
164	0xbd845b11	-0.06462682
165	0xbcdafcd2	-0.026731882
166	0xbded502a	-0.11587556
167	0xbc56cdf2	-0.013110625
168	0x3c6219dd	0.013800112
169	0x3c8ceb22	0.017201964
170	0xbd4ff4e9	-0.050770674
171	0x3d180b30	0.037120044
172	0xbc937f2d	-0.018004978
173	0x3d17c43a	0.03705237
174	0x3cacb5b6	0.02108274
175	0x3d92b663	0.07163694
176	0xbd528819	-0.051399324
177	0x3d3a60e3	0.045502555
178	0x3c9168e5	0.017750213
179	0x3d686b70	0.056743085
180	0x3c792cde	0.015208451
181	0xbd70e7c7	-0.05881479
182	0xbd80e45e	-0.062935576
183	0xbc55ab52	-0.013041334
184	0xbca267e0	-0.019824922
185	0xbbbb4497	-0.0057149637
186	0x3c6cfa4e	0.014463974
187	0xbd0da75d	-0.03458344
188	0xbc3d00d0	-0.011535838
189	0xbbd34a3f	-0.00644806
190	0xbaeae9f6	-0.0017922509
191	0x3d1d8063	0.038452517
192	0xbd85e062	-0.06536938
193	0x3cfb2cd9	0.030661033
194	0x3ddfeb2f	0.109335296
195	0xbc532bd1	-0.012888865
196	0x3d250c2d	0.040294815
197	0x3c332a83	0.010935429
198	0xbc211dcf	-0.009833767
199	0xbc7dbfdf	-0.01548764
200	0xbdaf09e5	-0.08546809
201	0x3c855902	0.016277794
202	0xbd293e72	-0.041319318
203	0xbd409c81	-0.047024254
204	0xbac5bf37	-0.0015086894
205	0xbd881b74	-0.06645861
206	0x3da3cf74	0.07998553
207	0xbca02b22	-0.019551817
208	0x3d8be2eb	0.068303905
209	0x3d7b69b4	0.061380103
210	0xbe081b85	-0.13291748
211	0x3c475f3e	0.012168704
212	0x3c6897ae	0.0141963195
213	0xbdf36a6d	-0.118855335
214	0xbd57fb5b	-0.052729946
215	0x3de7b288	0.11313349
216	0xbc938355	-0.01800696
217	0x3c066ec2	0.008205118
218	0x3d3397a4	0.043845788
219	0x3d4c1aed	0.049830366
220	0xbcd1397c	-0.025540106
221	0xbd6c0eab	-0.057631176
222	0xbd154194	-0.036439493
223	0xbc2098e8	-0.009802081
224	0x3c617d29	0.013762751
225	0xbd47efa7	-0.048812535
226	0x3c0344ee	0.00801204
227	0x3d045a25	0.03231253
228	0x3d154b53	0.036448788
229	0xbd8ca3bd	-0.06867168
230	0xbd1e78cb	-0.038689416
231	0xbc0151cb	-0.007893036
232	0xbd603b68	-0.054744154
233	0x3d8f5b4b	0.069998346
234	0xbdad050a	-0.08448227
235	0x3d016abd	0.031595934
236	0xbda48afc	-0.08034322
237	0x3d1363e4	0.035983935
238	0x3d9979f0	0.07493961
239	0xbcd43459	-0.025903868
240	0x3dfe82d7	0.124272995
241	0xbc7012be	-0.014652906
242	0x39b48e71	0.00034438403
243	0x3ccba481	0.024858715
244	0xbd9cf82d	-0.07664523
245	0xbc1c4395	-0.009537597
246	0x3cc055c0	0.023478389
247	0x3c8453ce	0.016153242
248	0x3d825d38	0.06365436
249	0x3da636dd	0.08115933
250	0xba872e9a	-0.0010313571
251	0xbd2f7c8c	-0.042843387
252	0x3bcc9b98	0.006244134
253	0xbd325217	-0.04353532
254	0xbd7ee2f0	-0.062228143
255	0x3e1ee9a2	0.15518811

vgg.0.bias f4 [63]
0	0xbb12ff00	-0.0022429824
1	0x3b9de539	0.0048185852
2	0xba5c3e63	-0.00084016303
3	0xbb060cd1	-0.0020454417
4	0xbb66fff0	-0.0035247765
5	0xba8430f3	-0.0010085389
6	0xba3f0c56	-0.000728791
7	0xbaa206df	-0.0012361667
8	0xbb0fb7b9	-0.0021929576
9	0xbad25914	-0.0016048276
10	0xba9f22c6	-0.0012141101
11	0xbb388eb3	-0.0028161227
12	0xbb462162	-0.00302323
13	0xbb7f0c71	-0.0038917328
14	0xbb70f6bf	-0.0036768166
15	0xba1d73a7	-0.0006006308
16	0x39994c59	0.00029239318
17	0xbb4a48ba	-0.0030866102
18	0xbb255195	-0.0025225629
19	0xbb645c2b	-0.0034844975
20	0xbabadcd1	-0.0014256482
21	0xbb75272a	-0.0037407377
22	0x3a3c6f18	0.0007188185
23	0xba3c0530	-0.0007172404
24	0xbb961664	-0.004580306
25	0xbb29a76c	-0.0025887145
26	0xbb42627b	-0.002966075
27	0xbacc5564	-0.0015589413
28	0xbb6b401b	-0.0035896364
29	0xbb0faa60	-0.002192162
30	0xbb36b78b	-0.0027880396
31	0xbaff99c6	-0.0019500784
32	0xbb0772b5	-0.0020667736
33	0x3ad882b5	0.0016518446
34	0xbb1a595e	-0.0023551802
35	0x3a95d177	0.0011430223
36	0xbb4623ef	-0.003023382
37	0x3b516c2d	0.0031955347
38	0x3b367548	0.0027840901
39	0x3c024761	0.007951588
40	0xbb2766cf	-0.0025543456
41	0x3a4673d2	0.0007570359
42	0xba4d810c	-0.0007839359
43	0xbaad1e4c	-0.0013207882
44	0xbb964f4f	-0.004587091
45	0x3b6955e6	0.0035604178
46	0xb9205b35	-0.00015292766
47	0xbb45c97c	-0.0030179908
48	0x3931baeb	0.00016949668
49	0xbb48fab5	-0.003066701
50	0x3a03b46a	0.0005024137
51	0x3ae0aaf2	0.001714079
52	0xbaa3d218	-0.0012498526
53	0xba8c81eb	-0.0010719871
54	0xba6f566a	-0.0009130003
55	0xbb2b5e11	-0.0026148597
56	0xba99829d	-0.00117119
57	0x39f12b59	0.000459994
58	0x397aae98	0.00023906899
59	0xbb434150	-0.0029793568
60	0x3a3961f8	0.00070717884
61	0xbb454009	-0.0030097982
62	0x3a7c902a	0.0009634519

oconv2.weight f4 [1, 63, 3, 3]
0	0x3c8a1999	0.016857909
1	0x3d8c0e74	0.06838694
2	0x3bf10d83	0.007356347
3	0xbe115e2e	-0.14196083
4	0xbd3ae3c5	-0.045627374
5	0xbd8e80d3	-0.06958165
6	0xbd3bb337	-0.04582521
7	0xbcfe68b1	-0.03105578
8	0xbcf9959f	-0.030466853
9	0x3d20e7a4	0.03928341
10	0x3d33aaf2	0.043864198
11	0x3d8ea19a	0.06964417
12	0xbd74f792	-0.059806414
13	0x3bee275e	0.0072678765
14	0xbc2c3f4e	-0.01051314
15	0xbc1efeb5	-0.009704282
16	0x3d606d28	0.0547916
17	0xbcb2be84	-0.02181936
18	0x3cbb76a7	0.022883726
19	0x3df7d679	0.12101454
20	0xbb81082f	-0.003937743
21	0x3cd647a8	0.026157215
22	0x3dace79c	0.084426135
23	0xbd0ed5d4	-0.03487189
24	0xbd03dd6c	-0.032193586
25	0x3dcf6899	0.10127372
26	0xbc908b8a	-0.017644662
27	0xbd9cf6b5	-0.07664243
28	0x3dafe955	0.085894264
29	0xbc0e7911	-0.008695857
30	0xbd68338a	-0.056689776
31	0xbd5f561c	-0.05452548
32	0x3da1bce2	0.07897355
33	0x3c44c0be	0.012008844
34	0x3deb26b9	0.11481995
35	0xbd4773fb	-0.048694592
36	0x3da7e527	0.08198004
37	0x3cb0799c	0.021542363
38	0xbd3feeeb	-0.04685871
39	0xbbbb89b6	-0.0057232035
40	0xbb8cb94c	-0.00429455
41	0xbcbdb5fa	-0.023158062
42	0xbda948cf	-0.0826584
43	0x3d00b843	0.031425726
44	0x3d92e338	0.07172245
45	0x3d59e0f6	0.053193055
46	0x3d77ea55	0.06052621
47	0xbdc52ad0	-0.096273065
48	0x3d4241ed	0.047426153
49	0x3d491d6a	0.049100317
50	0x3d59bd1e	0.05315887
51	0x3d9b828b	0.075932585
52	0xbb8d0187	-0.0043031606
53	0x3d5bd814	0.053672865
54	0xbd79a1b9	-0.060945246
55	0x3d6efe3e	0.058347933
56	0x3cceb613	0.025233304
57	0x3df7869d	0.12086222
58	0x3d3d18d2	0.04616625
59	0x3e1a9d7c	0.15099138
60	0x3dde32fa	0.10849567
61	0x3d0413a2	0.032245286
62	0x3c8d31c4	0.017235644
63	0xbc90d7a8	-0.017680958
64	0x3d20d370	0.039264143
65	0x3ce60e87	0.028083099
66	0x3d68c0ed	0.056824613
67	0xbc4c26fd	-0.012460467
68	0x3d9a6ed6	0.075406715
69	0xbce9d099	-0.02854185
70	0x3cf02c54	0.029318012
71	0xbd0469af	-0.03232735
72	0x3cfcb136	0.03084622
73	0x3d77e71f	0.06052315
74	0x3d51d7c4	0.05123116
75	0x3cfcb55b	0.030848196
76	0xba750a5c	-0.0009347552
77	0xbd6bda39	-0.05758116
78	0xbdf57e98	-0.119870365
79	0x3e06cb26	0.13163432
80	0x3dcb05ff	0.09913253
81	0x3bb7e820	0.0056123883
82	0xbd772127	-0.06033435
83	0x3d6ba462	0.057529815
84	0x3dd06002	0.10174562
85	0x3c50cbb4	0.012743879
86	0xbd4131b7	-0.047166552
87	0xbc910a21	-0.017705025
88	0x3c41b8c3	0.011823836
89	0x3d162e5b	0.0366653
90	0x3e2c640d	0.16835041
91	0x3dbab9e3	0.09117486
92	0x3de711fe	0.112827286
93	0xbc3fe75e	-0.011712877
94	0xbd998233	-0.07495537
95	0x3dd05ff1	0.10174549
96	0x3d276c16	0.040874563
97	0xbd76308f	-0.060104903
98	0xbdd90341	-0.10596324
99	0xbc566fd4	-0.013088185
100	0xbc5b7e13	-0.013396758
101	0x3d8b443c	0.06800124
102	0xbd6d5b9c	-0.057948694
103	0xbd8201dd	-0.06348012
104	0xbd193e83	-0.03741313
105	0xbd257259	-0.040392254
106	0xbda44e9d	-0.08022807
107	0x3d86d404	0.065834075
108	0x3d980a56	0.074238464
109	0x3dc04c56	0.0938956
110	0x3d8b8111	0.06811727
111	0xbd559c9b	-0.052151304
112	0xbcc42803	-0.02394486
113	0x3d89539f	0.067054026
114	0x3a216c39	0.0006157789
115	0xbd147c7c	-0.03625153
116	0xbd217dc2	-0.039426573
117	0x3a5331fc	0.00080564595
118	0xbdf9de7c	-0.12200639
119	0x3cd5be01	0.026091577
120	0xbd40931e	-0.047015302
121	0xbdfd4196	-0.12366025
122	0x3d6dbf83	0.058043968
123	0x3d09429c	0.03351079
124	0xbd11dd2a	-0.03561131
125	0x3b071c98	0.0020616408
126	0x3cba4fde	0.022743162
127	0xbd976028	-0.07391387
128	0xbdb2dd34	-0.087335974
129	0x3d0b37de	0.033988826
130	0xbda92c6a	-0.082604244
131	0xbd64fe48	-0.055906564
132	0x3beff405	0.0073227906
133	0x3d9968fc	0.07490727
134	0x3e393c00	0.18089294
135	0xbd69f235	-0.057115752
136	0x3d5c32ce	0.05375939
137	0xbc95ae88	-0.0182717
138	0x3d4d368f	0.05010086
139	0x3dd9e320	0.10639024
140	0x3d9446cf	0.07240068
141	0xbddd2f02	-0.10799982
142	0x3c68fbf3	0.014220226
143	0xbc48092f	-0.012209221
144	0x3d18d2b6	0.037310325
145	0x3d4ab22b	0.04948632
146	0xbd4d6df5	-0.05015369
147	0xbd38b1b0	-0.04509133
148	0xbd751226	-0.05983176
149	0xbd426430	-0.047458827
150	0xbd728982	-0.05921317
151	0xbb849ced	-0.0040470273
152	0x3cb8de92	0.022567067
153	0xbdc91d29	-0.09820015
154	0xbb98e42d	-0.0046658725
155	0x3cd857c1	0.026409032
156	0xbc539606	-0.012914186
157	0x3d6cb268	0.05778733
158	0xbd7f1222	-0.062273152
159	0x3d193377	0.037402596
160	0x3da98a57	0.08278339
161	0x3c4c2bf3	0.01246165
162	0x3c8165fe	0.015795704
163	0xbd7e9dc6	-0.062162183
164	0xbda58faa	-0.08084042
165	0x3dcd88c2	0.1003585
166	0xbcf05e32	-0.02934179
167	0xbd171d3e	-0.036893122
168	0x3d19bffc	0.037536606
169	0x3d4e4e77	0.0503678
170	0x3ce691af	0.02814564
171	0x3dc38b03	0.09547999
172	0xbe0e2438	-0.13881004
173	0x3d16b7cc	0.036796376
174	0x3b3acc26	0.002850303
175	0x3d0231cd	0.031785775
176	0x3dd484a9	0.103768654
177	0xbb8de588	-0.004330341
178	0x3c89f67a	0.016841162
179	0x3c5e1f2c	0.013557237
180	0x3d39144a	0.045185365
181	0xbd583520	-0.05278504
182	0x3d269606	0.040670417
183	0x3c723b8f	0.014784708
184	0x3d47e303	0.04880048
185	0x3d688101	0.056763653
186	0x3d7a0b01	0.06104565
187	0xbca6fee2	-0.02038521
188	0xbc156879	-0.0091191465
189	0x3badcdd7	0.005304079
190	0x3d8cc5b1	0.06873644
191	0x3d2c1a3e	0.042017214
192	0xbd715048	-0.058914453
193	0xbd434569	-0.047673617
194	0x3ca04a56	0.019566696
195	0xbd58789c	-0.052849397
196	0xbdc5d723	-0.09660175
197	0x3d7979a7	0.060907032
198	0x3d5d26ce	0.053992085
199	0xbd58fda9	-0.052976284
200	0xbc12f39c	-0.008969214
201	0x3d5687da	0.052375652
202	0x3c3b1f0c	0.011420976
203	0x3c7db386	0.015484696
204	0xbd09ff10	-0.033690512
205	0x3ce3a11a	0.02778678
206	0x3be92782	0.0071153054
207	0xbd23e698	-0.040014833
208	0xbc0bbd7c	-0.008529063
209	0xbdc34545	-0.095346965
210	0x3d80abba	0.06282754
211	0xbd8fdd5a	-0.07024641
212	0xbce1f0e1	-0.02758068
213	0xbd8c0874	-0.0683755
214	0xbd147f9f	-0.03625452
215	0xbba92601	-0.005162001
216	0x3b13267e	0.0022453363
217	0x3c63be84	0.013900403
218	0x3e63cad6	0.22245345
219	0xbd94a632	-0.07258262
220	0xbd921d69	-0.07134516
221	0xbd03d058	-0.032181114
222	0xbdda517e	-0.10660075
223	0x3cb0d87c	0.021587603
224	0x3d772aa5	0.060343403
225	0x3b532604	0.0032218704
226	0x3d25410f	0.040345248
227	0x3d60f945	0.054925222
228	0xbd212f8c	-0.039351985
229	0x3ced119a	0.028939057
230	0x3dfbbba1	0.12291647
231	0x3e029949	0.12753786
232	0x3d9ff1c1	0.07809783
233	0x3ca09918	0.01960425
234	0xbccee1db	-0.02525418
235	0xbcbdd3ba	-0.023172248
236	0xbca92982	-0.020649675
237	0xbc47d1cd	-0.0121960165
238	0xbc9b7130	-0.01897487
239	0xbd22c5fe	-0.0397396
240	0xbd0cbeb6	-0.034361564
241	0xbc8dad89	-0.017294662
242	0xbd0c9ace	-0.03432732
243	0x3da6695d	0.08125565
244	0xbc4a264d	-0.012338233
245	0x3d14fe77	0.03637549
246	0xbd4a892e	-0.04944723
247	0xbdab7fe8	-0.083740056
248	0xbc241ff8	-0.010017388
249	0xbd3d5531	-0.046223823
250	0x3dec175c	0.11527893
251	0xbd836a5a	-0.06416769
252	0x3c3a94f7	0.011388055
253	0xbd052ab0	-0.032511413
254	0xbd022a57	-0.03177866
255	0xbd89755a	-0.06711836
