Models/model10.pth (torch, 151119 bytes, 6 tensors)

oconv1.weight f4 [1, 1, 3, 3]
000000 0d be e2 3e 02 40 1c be 49 c4 02 bf 65 29 3c 3e
       0.44285622 -0.15258792 -0.5108076 0.18375166
000010 ca 8e 29 3e d5 3d 40 be d7 e9 b0 3e f3 e6 eb be
       0.16558376 -0.18773587 0.34553406 -0.46074638
000020 12 60 55 be
       -0.20837429

conv1.weight f4 [63, 1, 3, 3]
000000 1d 16 c7 bf 2f c0 96 3e 71 c2 3f 3e 85 e0 1a bd
       -1.5553623 0.294435 0.18726517 -0.037811775
000010 78 99 66 bf f0 04 ab 3e 0a c3 03 be 73 f9 14 3e
       -0.90077925 0.33402205 -0.1286737 0.14548282
000020 8f 6a 46 be 02 f6 2b be dc 5c d4 be 8c f8 f1 bd
       -0.19376586 -0.16793063 -0.41477096 -0.11814985
000030 5e dc e0 be ed bc a0 3f 9e 77 a2 3e 77 f2 66 3e
       -0.43918127 1.2557656 0.31731886 0.2255343
000040 32 e3 43 bf 79 c9 8d 3e 45 f5 66 3e 25 88 0d bf
       -0.7651855 0.27692774 0.225545 -0.55285865
000050 92 24 07 3f 1a d1 30 bf 2c 17 ee 3e b7 34 a1 3e
       0.52790177 -0.69069064 0.46502054 0.3148553
000060 2f f2 97 be 75 32 2e 3f c5 6a 02 be a1 31 a8 3e
       -0.2967696 0.6804574 -0.12736042 0.32850364
000070 57 e9 16 bf 02 95 f6 3e ab 96 89 3f 6f b7 0f 3b
       -0.589498 0.4816056 1.0749105 0.0021929403
000080 2c a8 21 3f 5f cb 13 bf 96 5f 33 3e 44 58 2e 3f
       0.63147235 -0.57732195 0.17516932 0.6810343
000090 77 e5 74 bf 0d 2c 5d be 94 a4 0a 3f 80 4f 3b 3e
       -0.95662636 -0.21598835 0.54157376 0.18292046
0000a0 04 dc ea 3d 4c d6 2e bd c0 84 e6 bd 39 e6 50 be
       0.11467746 -0.04268484 -0.11255789 -0.20400323
0000b0 3b b6 a5 3e 21 71 0c be 33 09 1f bf cb c6 b2 be
       0.32365593 -0.1371503 -0.6212341 -0.34917292
0000c0 f9 80 2d bf 57 e1 a8 bd 81 a1 12 3f 15 69 86 3f
       -0.6777492 -0.08246105 0.57277685 1.0500818
0000d0 a6 34 a0 3c 4b c9 b9 be d4 fb b2 3d 6a d1 8c be
       0.019556355 -0.36286387 0.08739439 -0.2750352
0000e0 60 3f f9 3d 7a bf 68 be db e7 d3 3e a4 45 b6 bd
       0.12170291 -0.22729293 0.4138783 -0.08900002
0000f0 9d fb 0e bf 94 13 a9 3e 62 4f 30 3c 7e cd a6 3e
       -0.5585268 0.3302275 0.010761114 0.32578653
000100 66 28 dd 3e e4 12 7e bd ad 9c f8 3d 45 92 c5 be
       0.43194884 -0.062029734 0.121392585 -0.38588157
000110 e5 2d 49 3f 71 72 4a bf 77 87 f4 3e cc 18 32 3e
       0.78585654 -0.79080874 0.477596 0.17392272
000120 54 63 00 3f e1 d6 bc 3e 98 46 96 bf d7 f7 2b bc
       0.5015156 0.3688269 -1.1740294 -0.010496101
000130 ec 52 02 bf b7 c7 8f 3f 89 ce 10 3e 19 44 13 3e
       -0.5090778 1.1232823 0.14141287 0.14381446
000140 3d fd fb 3c 74 82 c9 3e 8a bf 9f 3d dd 6b 1d bf
       0.030760402 0.3935734 0.07800205 -0.6149271
000150 c8 33 cc be e2 81 32 bb 29 bf 8d 3e 8b c6 e9 be
       -0.39883256 -0.002723806 0.27684906 -0.4565929
000160 b4 d3 9a bc 6f 6c 15 be db e2 1c 3f 07 41 19 be
       -0.018899776 -0.14592145 0.61283654 -0.14966212
000170 3c 27 39 bf d2 da e8 be cf cf 05 bf bf 9c 84 be
       -0.7232549 -0.45479447 -0.52270216 -0.25900838
000180 29 db 49 3f 8e 09 91 be 3d 8e e8 be c4 09 3c be
       0.78850037 -0.28327602 -0.4542102 -0.183631
000190 b4 07 1d bd 1b e7 3d 3e a8 8a 36 3f ac f0 e5 3d
       -0.038337424 0.18545191 0.7130532 0.11227545
0001a0 97 0e 5b bf 2a 6b 07 3f b4 80 03 3f 31 46 0c 3f
       -0.8556914 0.52897894 0.5136826 0.54794604
0001b0 e1 00 52 3f f8 ee a4 3e 0c ef 05 bf 9d 56 e3 be
       0.8203259 0.3221357 -0.5231788 -0.44402018
0001c0 65 7d 47 3e 7d c0 50 3f b5 ba 02 3f bb c1 a0 3d
       0.19481428 0.81543714 0.5106614 0.07849451
0001d0 0f 9b ba 3f ea 5b 3b 3f ff 87 c1 bd 31 52 85 be
       1.457857 0.73187125 -0.09449767 -0.2603927
0001e0 62 af 47 bf 0a 5c b9 bd f2 79 ba 3d 10 cd 03 3f
       -0.7800199 -0.09050758 0.091052905 0.51484776
0001f0 17 03 e6 3d 93 26 85 3e 74 e5 3d 3e 56 42 df bc
       0.11231058 0.26005992 0.1854456 -0.027253311
000200 cd 29 0e bf aa 31 1f 3d bc 85 1b 3b 0f 16 c2 bd
       -0.5553253 0.038865723 0.0023730835 -0.094768636
000210 9b b4 37 3e 70 d7 fd be 22 0a d4 3e 0c 46 95 bc
       0.1793999 -0.49578428 0.4141398 -0.018221878
000220 9a 79 5d 3e c2 b6 ee be b3 9e eb 3e cf de c3 3e
       0.21628419 -0.46623808 0.46019515 0.38255927
000230 c4 f8 70 be f2 2a 1d bf 34 67 37 bf a3 23 0f bf
       -0.23532397 -0.61393654 -0.7164185 -0.5591375
000240 28 82 c1 3e f4 61 39 3e 47 b0 2c 3f ba 24 16 3f
       0.37794614 0.18103772 0.6745648 0.5864979
000250 4a fb 39 bf ee 2b e8 3e ff 77 84 3d dc ab bd 3e
       -0.7264906 0.45346016 0.064682 0.3704518
000260 59 87 c0 bd 5b 1d b6 bd 4c 29 95 be 9f fe 38 bf
       -0.094008155 -0.08892318 -0.2913307 -0.7226352
000270 d8 2e e0 3d 7e 58 46 bf 2b 17 7d bf 4c d0 0d 3f
       0.10946435 -0.7747878 -0.98863477 0.5539596
000280 1d e2 5a 3f 44 a7 4f bf c6 62 1a 3e dc 35 7c 3f
       0.8550127 -0.811146 0.15076742 0.9851968
000290 bb 15 8d bf f4 5e 30 3f bd a0 35 be 55 9d 4d 3e
       -1.1022257 0.68894887 -0.17737098 0.20079549
0002a0 49 67 86 be 7d cc d7 bd a4 40 9d be 7b 3a 92 bd
       -0.26250675 -0.1053705 -0.3071338 -0.071400605
0002b0 f5 27 f7 3d c8 0e 09 3f 44 d5 38 bf 70 8f 5b 3e
       0.12068168 0.5353818 -0.7220042 0.21441436
0002c0 b4 26 b6 3e 49 f9 d1 3d 9f ee cf 3e 28 13 1a 3f
       0.35576403 0.102526255 0.4061174 0.6018548
0002d0 76 bf e7 3e 15 46 92 3e 1a 2d 9d be 1c b8 e3 3d
       0.4526326 0.28569093 -0.30698472 0.111191005
0002e0 da 1f 72 3f 26 23 19 3e 35 39 ce 3e 00 2e 7a be
       0.9457985 0.14954814 0.4027802 -0.2443161
0002f0 91 fe 31 be fc cb 55 be 23 d4 a2 be 6c ed b1 be
       -0.17382266 -0.20878595 -0.31802472 -0.3475145
000300 c7 3e 8a 3e 77 35 19 3f 6f 45 2f 3c ff 9a e6 bc
       0.2700102 0.59847206 0.010697707 -0.02815008
000310 cb 16 2c be 71 30 62 bd 80 d4 02 bf a6 61 40 be
       -0.1680557 -0.05522198 -0.511055 -0.1878725
000320 07 26 07 bf ea 3c f2 3e c2 13 f8 3d 3f ed 84 3e
       -0.527924 0.473121 0.121131435 0.25962254
000330 cf 21 09 3f 8d 13 20 be a7 5f 81 be cd 85 2c be
       0.5356721 -0.15632458 -0.2526829 -0.16847916
000340 b5 51 56 bf ea ee 6a 3f b5 7a de 3d ae 92 8d 3e
       -0.83718425 0.91770804 0.10863248 0.2765097
000350 39 c0 70 bc 87 47 db be 82 06 b3 3e 4b 18 fd 3e
       -0.014694267 -0.4282801 0.34965903 0.49432597
000360 c8 d3 30 be 11 dc e3 3e 10 fc 2d 3e e4 d5 36 3d
       -0.17268288 0.44503835 0.16990685 0.044637576
000370 ab 5f c3 3e 6f 76 87 bc 77 16 a1 bf d1 69 d2 be
       0.38158926 -0.016535966 -1.2584981 -0.41096357
000380 b9 89 b2 3e 5e bd 02 3e f4 49 32 3e 86 52 c8 be
       0.348707 0.1276755 0.17411023 -0.3912546
000390 d5 0d a4 3e 83 da cd 3e 30 27 4a be 2d 57 11 3e
       0.32041803 0.40205774 -0.19741511 0.14193411
0003a0 ea ff 10 3f 21 3b f2 3d 26 84 4a bf aa 74 a9 be
       0.56640494 0.11827684 -0.7910789 -0.3309682
0003b0 cd c2 bd be 5d 7f 30 bf e6 c5 78 be c9 c4 c6 be
       -0.37062684 -0.6894434 -0.24294242 -0.3882201
0003c0 4d 64 7e 3e 7b 71 9a 3d 4b dc 60 bf e1 29 49 3e
       0.24842949 0.07541176 -0.8783614 0.19644882
0003d0 95 03 02 3f 31 82 2e 3f 12 bf 66 3e 1c 61 f7 bd
       0.50786716 0.68167406 0.22533825 -0.12079069
0003e0 1b 6e 08 bf 82 4f b4 be 9e 57 cb 3c 5c 02 63 3e
       -0.5329301 -0.3521691 0.024822053 0.22168869
0003f0 6c c7 0a 3e 25 6d 12 be fd fa 30 bf 8a 6b 60 bf
       0.13552636 -0.14299448 -0.6913298 -0.8766409

conv1.bias f4 [63]
000000 a4 76 f9 3a f3 45 1b ba e6 98 0d 3b 0c cd 26 3b
       0.001903255 -0.0005923204 0.0021606027 0.0025451807
000010 cc a8 57 3b cc 04 6f 3b e7 2a 14 3a 72 1e 02 3b
       0.0032907007 0.0036471365 0.0005652145 0.0019854573
000020 7c 81 d2 bb 22 b4 65 3b c8 23 d8 3a 36 d2 52 39
       -0.006424127 0.0035049994 0.0016490156 0.0002010547
000030 f0 93 92 bb 06 79 89 3b 3b ac 6a bb a5 58 51 bb
       -0.004473202 0.0041953353 -0.0035808224 -0.0031943705
000040 33 1c 6b bb 26 f4 45 bb 44 14 59 bb b8 10 3c bb
       -0.0035874962 -0.0030205338 -0.0033123652 -0.0028696489
000050 37 1c 7b bb d6 fc 1b bb ac e8 5c bb 5e ce 3c 3b
       -0.0038316378 -0.0023801825 -0.003370802 0.0028809528
000060 11 8a 0a 3b 4d b8 5f bb 53 d2 ba ba d0 b0 5c bb
       0.0021139423 -0.0034136951 -0.0014253355 -0.0033674724
000070 17 d2 52 bb 86 c1 98 bb c2 7b 83 bb b4 2b 21 bb
       -0.003216868 -0.0046617417 -0.004012556 -0.00245927
000080 8e fa fe 3a b9 64 76 bb bd 01 e0 3a 72 8a cb ba
       0.0019453333 -0.0037596656 0.0017090362 -0.0015528931
000090 91 aa fd 3a c8 eb 6f bb 51 45 42 bb ba 65 3f bb
       0.0019353201 -0.0036609042 -0.0029643367 -0.002920492
0000a0 87 df 5c bb 96 3a be ba ae b0 0c bb 9c f1 57 bb
       -0.0033702569 -0.001451331 -0.0021467614 -0.0032950407
0000b0 c5 ae 9d bb b1 4f 79 bb f7 bb 6e ba 01 12 65 bb
       -0.004812094 -0.0038041885 -0.00091069884 -0.0034953358
0000c0 1f 7c a7 3a ec af 66 bb 97 bc 4c bb df 73 32 3b
       0.001277808 -0.0035200072 -0.0031240338 0.002722971
0000d0 99 c0 95 bb 0a c0 48 ba a0 89 83 3b f7 a6 1a 3b
       -0.0045700786 -0.00076580106 0.004014209 0.0023598054
0000e0 3e 55 43 bb 78 fd 12 3b f1 5e b1 3a 67 2c 59 bb
       -0.0029805447 0.0022428911 0.0013532323 -0.0033138038
0000f0 b4 34 40 bb 52 93 94 bb 0a 5d 91 bb
       -0.0029328289 -0.0045341635 -0.00443614

vgg.0.weight f4 [63, 63, 3, 3]
000000 10 55 cd 3c 48 a3 3a bd c2 0d a3 bd 16 f4 05 3c
       0.025064975 -0.045565873 -0.079616085 0.00817587
000010 ec f4 2c bd 34 19 bd bc d7 5b 31 3d 0f 89 ad bc
       -0.042225763 -0.023083307 0.043300476 -0.021183519
000020 fa 62 58 3c 8b ee b2 3d eb c3 50 3d 89 47 bd 3d
       0.013207192 0.08736905 0.050968092 0.0924216
000030 53 94 24 3d cf a5 a1 bd f6 de b8 bb 45 93 3a bb
       0.040180515 -0.078929536 -0.0056418134 -0.0028469127
000040 e7 ba 88 bd 21 94 b1 bd 59 3d d1 3c 93 06 3f bd
       -0.06676274 -0.086708315 0.025541948 -0.04663713
000050 3b 56 e5 3c f2 eb 76 bb bc e8 18 3c fb 0f 97 3d
       0.02799522 -0.0037677255 0.009332832 0.07376095
000060 9a 4d 26 3d 5a 65 e8 3b 07 d4 bb 3a cc be 9f 3d
       0.04060135 0.00709216 0.0014330157 0.078000635
000070 42 58 94 3d 08 16 50 3d 6c ee 9b 3c 34 aa a5 bc
       0.07243396 0.05080226 0.019034587 -0.02022276
000080 d2 d9 10 bd 15 cd 85 bc 05 21 e3 bd e5 3e 8e 3c
       -0.03536398 -0.016333142 -0.11090282 0.017363975
000090 14 27 d8 ba a1 9b 4b 3c 56 1d 05 bd 11 c8 8d bd
       -0.0016491138 0.012427242 -0.03249868 -0.06922925
0000a0 51 29 3b bd 81 bc 84 bd 8d bb d1 bd ef e9 25 bc
       -0.0456937 -0.06481267 -0.102408506 -0.010126575
0000b0 5c 49 f4 3c f0 b3 d6 bc 71 3a 69 bc bd de c9 3d
       0.029820137 -0.026208848 -0.014235125 0.09856937
0000c0 87 a7 c8 3d d0 7d 9a 3d 5f a8 ec bc 56 22 26 bc
       0.09797578 0.07543528 -0.02888888 -0.010140022
0000d0 22 22 bd 38 48 d7 8e 3d 8a 6a a1 3d 1a fb b9 3d
       9.01858e-05 0.069746554 0.07881649 0.09081097
0000e0 b2 ad e9 3d 19 fe cb bd 9f f9 85 bb 8e 54 62 3c
       0.11410083 -0.09960575 -0.004088595 0.013814105
0000f0 2c 7a 9a bd a0 3e eb bc eb 73 b1 bc bb da 75 bd
       -0.07542834 -0.028716385 -0.02166172 -0.06002305
000100 c0 a5 f9 3d 1e 6c 30 3c e6 7b ed 3c 07 77 05 3d
       0.121898174 0.010767965 0.028989743 0.032584216
000110 6d d7 18 3d 68 49 a8 bd d1 a0 86 3d 80 4f 97 bb
       0.03731482 -0.08217126 0.06573642 -0.0046176314
000120 44 fc f6 bc a9 44 c4 bc 07 17 2f 3c 0f 3a 6c bd
       -0.030149586 -0.023958521 0.0106866425 -0.057672556
000130 56 38 e3 3d e3 3e 14 3d 48 5c 86 3c b3 30 4f 3c
       0.110947296 0.036192786 0.016401425 0.012645888
000140 c1 bf 5f bd 53 15 58 3d 94 a1 66 3d ae 4f 8b bd
       -0.05462623 0.05275471 0.056306437 -0.06802307
000150 13 f4 01 3d 91 77 8c 3c fa b8 fa 3c 8a f8 06 bc
       0.031726908 0.017146857 0.030605782 -0.008237967
000160 b4 42 2c bc 6b b6 a1 bc 72 a1 b7 bc 40 60 d7 3b
       -0.01051395 -0.019740304 -0.02241585 0.006572753
000170 ec ff 19 3c 46 d6 5f 3d 5f ef d0 3d 3f 70 37 bd
       0.009399395 0.054647706 0.102019064 -0.04478478
000180 45 d7 e7 3c 66 90 b7 3d b9 86 1b bd b1 9c 33 bd
       0.02830089 0.08963089 -0.03797028 -0.043850604
000190 95 9d 93 bc d7 08 bb 3c e8 53 f6 bc e6 b7 88 bd
       -0.018019477 0.022831364 -0.030069306 -0.06675701
0001a0 ba 08 28 be db a5 d0 bc a4 00 38 bc 30 a9 d2 bc
       -0.16409579 -0.025469711 -0.0112306215 -0.02571544
0001b0 e3 6f b9 bb ac 12 08 3d 65 5f e2 bd 25 74 18 3d
       -0.00565909 0.033220932 -0.11053351 0.03722014
0001c0 e6 ef d3 3b 24 53 71 3d e0 a8 57 bc d3 8e 22 bd
       0.006467807 0.05891718 -0.0131628215 -0.03968699
0001d0 e9 9e d7 bc 0e 11 de 3c d7 c1 b3 3c 32 4a 64 ba
       -0.026320891 0.027107742 0.021943016 -0.0008708566
0001e0 db 1d dc 3c 78 a4 04 bc ca b5 3a bd a8 10 c7 bd
       0.026869705 -0.008095853 -0.045583524 -0.09719974
0001f0 65 76 01 3e a6 14 db bc c7 2d bd bb 31 cc 3c bd
       0.1264282 -0.026743244 -0.0057732794 -0.04609317
000200 f5 09 84 bd 34 59 43 bd 61 06 89 bd 38 a6 ab bd
       -0.06447212 -0.047692493 -0.0669067 -0.08381313
000210 82 75 04 bd dd 59 ef 3d 55 c0 e2 3c 7f 37 20 bc
       -0.032338627 0.11687062 0.027679602 -0.009778856
000220 a7 09 d6 bd 39 34 25 bc e2 66 6f bc 77 e2 bf 3d
       -0.1045106 -0.010083252 -0.0146119315 0.093693666
000230 32 0e 3f bc 24 35 78 3d a3 ce a3 3c 58 71 04 3e
       -0.011661099 0.060597554 0.019995993 0.12933862
000240 d0 25 70 3c 3b 4e 75 3d d4 15 24 be e8 8e 4b bc
       0.014657453 0.05988906 -0.16023952 -0.012424208
000250 9b 02 0c bc 53 00 1a 3d e8 a1 00 bd 44 66 ff bc
       -0.008545543 0.037597965 -0.031404406 -0.031176694
000260 d0 be f9 3c 8e 53 e4 bc 3a 7e 90 3d cf b8 73 bd
       0.030486494 -0.027871873 0.07055326 -0.05950242
000270 e4 18 c4 bc 0f de 08 3d 94 14 0b 3d 65 30 cc 3c
       -0.02393765 0.033414897 0.03395517 0.02492542
000280 8b 96 7b bd 1b 17 83 3b e4 f4 7a 3d 9a 25 15 3d
       -0.061422866 0.004000557 0.061268702 0.036412813
000290 ab 3b 84 bd 18 5b de bc 2f 83 ec bd f1 cc 5b bc
       -0.06456693 -0.027143046 -0.11548459 -0.013415561
0002a0 4b e2 5b 3c b1 7d 89 3c 1a 5f 4e bd 69 6b 16 3d
       0.013420652 0.016783567 -0.050383665 0.036723528
0002b0 96 23 96 bc 29 22 16 3d d1 79 a9 3c 87 f1 91 3d
       -0.018327516 0.03665367 0.02068797 0.07126146
0002c0 f0 26 54 bd 57 d9 38 3d 78 72 8e 3c 1c d8 66 3d
       -0.051794946 0.045129146 0.017388567 0.05635844
0002d0 ab 9f 72 3c 97 5d 72 bd e0 82 80 bd 31 f9 5b bc
       0.014808576 -0.059171285 -0.062749624 -0.013426111
0002e0 af b5 a5 bc 5b 61 c6 bb 9c c3 66 3c c2 f8 0e bd
       -0.020228235 -0.006054086 0.014084723 -0.034905203
0002f0 89 71 42 bc 61 e8 df bb 21 37 10 bb 20 a8 1d 3d
       -0.011867889 -0.0068331216 -0.0022005516 0.038490415
000300 3b 4a 85 bd 23 82 f7 3c c3 cf df 3d 68 e2 5a bc
       -0.06508299 0.030213421 0.10928299 -0.0133596435
000310 fd 6c 23 3d 5f bc 2c 3c 14 44 27 bc 3f ea 81 bc
       0.03989886 0.010542958 -0.010209102 -0.015858768
000320 70 d3 af bd c4 31 82 3c 5e d7 2a bd 2d 0b 42 bd
       -0.085852504 0.01589287 -0.041709296 -0.04737394
000330 55 cb f6 ba 33 e3 88 bd f0 11 a3 3d 13 25 9f bc
       -0.0018828908 -0.0668396 0.07962406 -0.019426858
000340 96 07 8b 3d 22 ac 79 3d 56 b2 07 be d5 8d 42 3c
       0.06788556 0.060955174 -0.13251624 0.011874636
000350 52 f7 61 3c f8 3a f4 bd 6d 64 59 bd 1c ea e6 3d
       0.013791876 -0.1192531 -0.05307429 0.112751216
000360 4a d5 96 bc e5 2c 00 3c c1 ff 31 3d a3 7c 4a 3d
       -0.018412251 0.007823204 0.043456797 0.04943527
000370 21 59 d4 bc 73 b7 6d bd a3 dd 16 bd 85 32 27 bc
       -0.025921406 -0.05803628 -0.036832463 -0.010204916
000380 fe 2a 5b 3c 78 83 49 bd ea 17 fa 3b 93 19 06 3d
       0.013376949 -0.049197644 0.0076322453 0.032739233
000390 29 c5 13 3d 8e 5e 8d bd f0 18 1f bd 3a 19 07 bc
       0.0360767 -0.069028005 -0.03884214 -0.008245761
0003a0 51 9e 61 bd a3 2e 8f 3d 2b d2 ad bd ad a6 ff 3c
       -0.055082623 0.06991317 -0.08487352 0.031207407
0003b0 11 30 a5 bd e4 b4 11 3d 4d a6 98 3d 99 48 d7 bc
       -0.080658086 0.0355729 0.07453594 -0.026279734
0003c0 30 ab fd 3d a6 a3 76 bc b5 5b 44 b8 85 77 c8 3c
       0.12386167 -0.015053665 -4.681545e-05 0.024471054
0003d0 07 c7 9d bd 81 83 23 bc 3c d4 bc 3c e9 52 81 3c
       -0.07703977 -0.009980083 0.02305042 0.015786605
0003e0 e0 90 81 3d 20 6c a5 3d 12 26 bb ba ef 1d 31 bd
       0.06326461 0.08077264 -0.0014278314 -0.043241438
0003f0 41 3c bf 3b fb 8d 33 bd 05 38 80 bd 51 81 1e 3e
       0.0058360402 -0.043836575 -0.06260685 0.15479018

vgg.0.bias f4 [63]
000000 eb 43 2e bb fc 15 94 3b 1d 6d 41 ba 60 9f 0f bb
       -0.0026590775 0.0045192223 -0.0007378625 -0.0021915063
000010 14 55 7d bb 53 ce b4 ba d0 9a 09 ba 0f d4 b3 ba
       -0.0038655447 -0.00137944 -0.0005249204 -0.0013719815
000020 0a e5 20 bb e5 2e a7 ba 72 f2 c9 ba 77 53 52 bb
       -0.002455058 -0.0012755065 -0.0015407337 -0.0032093206
000030 14 d0 59 bb 4f dd 8b bb 73 a4 82 bb 08 e1 cf b9
       -0.0033235596 -0.0042683254 -0.003986889 -0.00039649778
000040 08 64 e1 39 db 62 63 bb ef ec 0b bb 2d 04 7a bb
       0.00042989873 -0.0034696374 -0.002135094 -0.0038149462
000050 87 94 df ba 77 dc 83 bb dd d6 29 3a 72 2b 9b ba
       -0.0017057814 -0.004024084 0.00064788555 -0.0011838509
000060 8c 1d a2 bb f7 24 44 bb 2f c9 5c bb 93 18 f1 ba
       -0.00494737 -0.002992926 -0.003368925 -0.0018394165
000070 bf 3d 81 bb 54 51 12 bb 98 f9 4e bb 96 f1 1d bb
       -0.0039441283 -0.0022326307 -0.0031581875 -0.0024100295
000080 ef 6b 1c bb 91 d7 a0 3a 3a 0b 30 bb 77 8c 30 3a
       -0.0023868044 0.0012271275 -0.002686216 0.0006734798
000090 a3 24 5f bb 7c 8c 48 3b 18 2d 4d 3b d3 72 03 3c
       -0.0034048937 0.0030601313 0.0031307396 0.008022982
0000a0 9b 6a 41 bb 39 fc 9a 3a 54 c4 9e ba fe 28 e3 ba
       -0.0029513005 0.0011824436 -0.0012112954 -0.0017330942
0000b0 f4 15 a2 bb 34 f3 79 3b 3d 51 1a ba 5f 8f 5f bb
       -0.0049464647 0.0038139345 -0.0005886739 -0.0034112555
0000c0 f2 8e ba b8 47 b5 60 bb 7f 26 a0 36 93 47 fb 3a
       -8.895797e-05 -0.0034287737 4.772853e-06 0.0019171111
0000d0 0d ec 90 ba 20 9d be ba 5f e6 5b ba 4d 1c 46 bb
       -0.0011056677 -0.0014542677 -0.0008388515 -0.003022927
0000e0 98 a3 96 ba b8 f2 0b 3a 23 ca 91 39 62 bf 5f bb
       -0.0011492847 0.0005338597 0.0002780716 -0.0034141173
0000f0 96 68 32 3a 96 b3 62 bb 13 f7 ab 3a
       0.00068057457 -0.0034591905 0.0013119899

oconv2.weight f4 [1, 63, 3, 3]
000000 dc 80 8d 3c 66 33 8b 3d a0 2c f5 3b 43 52 11 be
       0.017273359 0.06796913 0.0074821264 -0.14191537
000010 eb 31 39 bd a6 61 8f bd 0c d8 39 bd 37 b0 00 bd
       -0.04521362 -0.07001047 -0.045372054 -0.03141805
000020 96 73 f6 bc fc 31 1f 3d 2e 55 35 3d 22 da 8d 3d
       -0.030084413 0.03886603 0.044270687 0.06926371
000030 8f 44 73 bd 1b 85 e2 3b 9e 64 34 bc b6 fb 25 bc
       -0.059391554 0.00691284 -0.011010317 -0.010130813
000040 e8 e9 61 3d 98 f5 ae bc 3b 51 be 3c e6 f8 f6 3d
       0.05515471 -0.021357343 0.023232093 0.12059192
000050 a0 e3 8a bb 44 9f d9 3c 0a 3a ac 3d ab 44 0e bd
       -0.004238561 0.026565202 0.084095076 -0.034733456
000060 97 1a 03 bd bf 20 d0 3d 1b 5e 92 bc 0e 2b 9c bd
       -0.03200778 0.10162496 -0.017867139 -0.076253995
000070 fa 15 af 3d 83 96 08 bc 5e 71 66 bd 40 a6 5d bd
       0.085491136 -0.008336666 -0.05626046 -0.054113626
000080 e8 f2 a0 3d 9d 21 3f 3c c6 b5 eb 3d db ce 48 bd
       0.07858831 0.011665729 0.1150928 -0.049025398
000090 1e 07 a7 3d 12 fa b3 3c d0 87 3f bd 52 63 c8 bb
       0.08155654 0.021969829 -0.04676038 -0.0061153555
0000a0 03 24 83 bb e1 3d c1 bc ba 64 a8 bd 4f 71 02 3d
       -0.0040020957 -0.023589076 -0.08222337 0.03184634
0000b0 ca 72 92 3d 9d 16 58 3d 0e 09 7a 3d c0 05 c6 bd
       0.071508005 0.05275594 0.06104379 -0.096690655
0000c0 ad 9c 40 3d 1b 5c 47 3d 8f 3c 5b 3d aa 97 9a 3d
       0.047024418 0.048671823 0.05352455 0.07548459
0000d0 ee 5c 93 bb a4 bc 5c 3d b0 f9 77 bd 07 35 6d 3d
       -0.004497162 0.05389084 -0.060540855 0.0579119
0000e0 f7 b4 cb 3c d6 3c f8 3d 79 71 3e 3d e9 2e 1a 3e
       0.024866564 0.121209785 0.046494935 0.15056957
0000f0 a8 3c de 3d a8 a5 05 3d e5 02 90 3c 3d 9c 8f bc
       0.10851413 0.032628685 0.017579505 -0.017530555
000100 09 41 1f 3d 63 30 e3 3c 12 d0 67 3d 47 9f 51 bc
       0.03888038 0.027733034 0.056594916 -0.012794322
000110 4b b4 99 3d ce 3d e6 bc 85 ee ec 3c 06 e2 05 bd
       0.07505091 -0.028105643 0.028922329 -0.032686256
000120 5d 2a f9 3c 3f 17 76 3d 60 5e 50 3d 14 b7 f9 3c
       0.030415708 0.060080763 0.050871253 0.030482806
000130 5e 69 b1 ba 8e e9 6b bd 98 b3 f4 bd 69 69 06 3e
       -0.001353543 -0.057595782 -0.11948317 0.13126148
000140 48 2b ca 3d 84 25 c4 3b 67 3c 75 bd 81 2f 6d 3d
       0.098715365 0.0059859175 -0.059872057 0.05790663
000150 9b ff cf 3d 27 fe 48 3c 78 50 3f bd 99 e7 8d bc
       0.10156175 0.012267626 -0.0467076 -0.017322348
000160 d1 13 3c 3c 3e 4d 14 3d c0 e2 2b 3e 9e ef b9 3d
       0.011479334 0.036206476 0.16785717 0.090789065
000170 c0 28 e6 3d e0 1c 39 bc bc 70 9a bd 42 c2 cf 3d
       0.11238241 -0.011298388 -0.075410336 0.101444736
000180 a4 7d 28 3d 45 c7 74 bd 5c cb d9 bd 47 d7 59 bc
       0.041135445 -0.05976035 -0.10634491 -0.013295955
000190 b7 cd 62 bc e8 7b 8a 3d ce d5 6b bd ec 1a 81 bd
       -0.013842992 0.067619145 -0.057576947 -0.06303963
0001a0 ef 94 19 bd 4a e0 26 bd 34 89 a3 bd 61 a7 87 3d
       -0.03749555 -0.040741242 -0.07985154 0.06623722
0001b0 03 3c 97 3d 35 2b c1 3d de aa 8a 3d f8 1d 54 bd
       0.07384493 0.09432069 0.067708716 -0.051786393
0001c0 f5 7c c1 bc aa 73 88 3d 39 f4 84 3a 7f f2 12 bd
       -0.023619154 0.06662686 0.0010143585 -0.035875794
0001d0 90 1f 23 bd c3 42 c6 39 ec 26 f9 bd 70 47 d2 3c
       -0.039825022 0.00037815244 -0.12165627 0.02566883
0001e0 1a db 3e bd 3b 2c fe bd eb 0d 6f 3d c1 db 06 3d
       -0.04659567 -0.1241078 0.058362883 0.032924417
0001f0 5f 54 10 bd a6 72 d9 3a 54 96 bb 3c ed 84 96 bd
       -0.035236713 0.0016589954 0.02289883 -0.07349572
000200 0d 8e b3 bd 93 7d 09 3d 14 53 a8 bd 47 b5 66 bd
       -0.087673284 0.033567023 -0.08218971 -0.056325223
000210 35 16 fd 3b d3 82 98 3d dd be 38 3e 91 4f 68 bd
       0.0077235946 0.07446828 0.18041559 -0.056716505
000220 ae a0 5a 3d e5 5e 92 bc c2 55 4e 3d c6 e8 d8 3d
       0.053375892 -0.017867515 0.050374754 0.10591273
000230 e4 6a 93 3d 05 4c dc bd 86 67 6f 3c de 43 47 bc
       0.07198122 -0.10756687 0.014612084 -0.012162177
000240 18 89 1a 3d 22 09 4b 3d ce ff 4e bd 7b 42 37 bd
       0.0377284 0.049569257 -0.050536923 -0.044741135
000250 cc 86 73 bd a7 fe 43 bd 7c f8 70 bd cf 40 6d bb
       -0.059454724 -0.047850277 -0.058830723 -0.003620196
000260 17 a5 b7 3c ea 45 c8 bd c5 b8 a6 bb 6c dc d4 3c
       0.022417588 -0.0977896 -0.005087944 0.025984012
000270 6f f1 58 bc f0 dd 6c 3d 6b 5d 7d bd 3e 34 19 3d
       -0.013241156 0.057828844 -0.06185667 0.037403338
000280 cd ad a8 3d 02 63 53 3c cc 63 84 3c 29 19 80 bd
       0.08236275 0.012902023 0.016160868 -0.06254799
000290 45 00 a5 bd 0a a9 cc 3d e0 4d ed bc 91 97 18 bd
       -0.08056692 0.09993179 -0.028967798 -0.03725392
0002a0 1b 5d 1b 3d f7 96 4c 3d 93 0b e7 3c 15 b6 c2 3d
       0.03793059 0.04994866 0.028203761 0.09507386
0002b0 0d b3 0d be 21 ba 17 3d c2 41 54 3b a0 f6 00 3d
       -0.13837834 0.03704274 0.0032387828 0.0314852
0002c0 49 b3 d3 3d 3d db 80 bb f9 9f 87 3c c7 a0 5f 3c
       0.1033693 -0.0039323852 0.016555773 0.013649172
0002d0 46 50 37 3d 60 f9 57 bd c4 9c 27 3d 79 ec 6b 3c
       0.04475429 -0.052728057 0.040920988 0.014399641
0002e0 5b 29 46 3d c7 0b 6a 3d 23 97 78 3d c5 93 a3 bc
       0.048379283 0.057140138 0.06069101 -0.019967923
0002f0 8a 61 19 bc 21 05 a0 3b aa 74 8d 3d 4b 7d 2a 3d
       -0.009361634 0.004883424 0.069070175 0.041623395
000300 a4 8c 6f bd c5 f7 44 bd ec 2e a3 3c aa 2e 5a bd
       -0.058483735 -0.048087854 0.019919835 -0.05326716
000310 10 04 c5 bd 3a 5a 7b 3d 58 e1 5b 3d a3 d1 58 bd
       -0.096199155 0.061365344 0.0536817 -0.0529343
000320 2b f2 13 bc e3 bd 57 3d be a5 35 3c 34 1c 76 3c
       -0.009029905 0.052671324 0.011086879 0.015021373
000330 9e b3 08 bd 90 50 e5 3c b4 bd e0 3b 8a 29 22 bd
       -0.03337442 0.027992517 0.006858552 -0.039590396
000340 56 99 07 bc e5 24 c2 bd b0 7b 81 3d 0b f4 8e bd
       -0.008276304 -0.09479693 0.0632242 -0.06980141
000350 08 62 e5 bc c8 ad 8b bd b5 63 13 bd c9 51 b2 bb
       -0.028000847 -0.068202555 -0.03598376 -0.0054418785
000360 78 2d f3 3a de 98 6a 3c c7 5c 63 3e 38 d9 93 bd
       0.001855298 0.014318673 0.2220336 -0.072191656
000370 99 3e 91 bd 5d 6e 05 bd b8 69 d9 bd 99 8a ad 3c
       -0.07092018 -0.032575954 -0.106158674 0.021184253
000380 bd d8 78 3d e6 4c 3b 3b 93 83 23 3d 76 a2 62 3d
       0.060753573 0.002857977 0.0399204 0.055330716
000390 5b 99 1f bd 03 ee ed 3c b4 e7 fa 3d e3 40 02 3e
       -0.03896461 0.029044157 0.12251225 0.12720065
0003a0 52 b7 a0 3d 05 f4 9f 3c a9 3c cc bc 95 d0 ba bc
       0.078474656 0.019525537 -0.024931269 -0.022804538
0003b0 54 c6 a7 bc 36 44 43 bc 72 c7 98 bc 07 20 21 bd
       -0.020480312 -0.011918118 -0.01864979 -0.039337184
0003c0 61 0f 0b bd a1 75 8a bc 5c fa 0a bd 2c 86 a5 3d
       -0.033950213 -0.016901793 -0.033930168 0.08082232
0003d0 f9 08 51 bc b4 b8 16 3d 45 f9 48 bd 04 78 ab bd
       -0.012758487 0.03679724 -0.049065847 -0.083725005
0003e0 fe 97 1d bc d3 0d 3f bd 38 2e eb 3d f4 fb 83 bd
       -0.009618757 -0.046644043 0.11483425 -0.064445406
0003f0 96 e6 33 3c 08 84 03 bd 72 a3 03 bd 49 9c 88 bd
       0.010980269 -0.032108337 -0.032138295 -0.06670434
