Models/model16.pth (torch, 151375 bytes, 6 tensors)

oconv1.weight f4 [1, 1, 3, 3]
000000 56 94 e2 3e 65 ea 1b be 0d ac 02 bf 9d 7d 3c 3e
       0.44253796 -0.15226133 -0.5104378 0.18407293
000010 22 3c 29 3e 0c eb 3f be 28 c2 b0 3e cc bc eb be
       0.16526845 -0.18742007 0.3452313 -0.46042478
000020 c8 01 55 be
       -0.2080146

conv1.weight f4 [63, 1, 3, 3]
000000 f3 0a c7 bf ce e8 96 3e 36 6c 3f 3e e2 68 19 bd
       -1.5550216 0.2947449 0.18693623 -0.03745354
000010 2b 85 66 bf 38 2c ab 3e 94 6f 03 be 23 ac 14 3e
       -0.9004695 0.33432174 -0.12835532 0.1451879
000020 d6 4c 46 be 4a 98 2b be 0b 2c d4 be 04 52 f1 bd
       -0.19365248 -0.16757312 -0.41439852 -0.11783221
000030 33 ad e0 be f0 c5 a0 3f c5 a2 a2 3e d6 49 67 3e
       -0.4388214 1.2560406 0.31764808 0.2258676
000040 93 fd 43 bf b5 95 8d 3e 14 a4 66 3e a5 8b 0d bf
       -0.765588 0.2765328 0.22523528 -0.55291206
000050 8d 3a 07 3f 63 b9 30 bf 71 f0 ed 3e a3 15 a1 3e
       0.52823716 -0.6903288 0.46472505 0.3146182
000060 e0 11 98 be f9 3e 2e 3f 19 1a 02 be 50 5c a8 3e
       -0.29701138 0.6806484 -0.12705268 0.3288293
000070 b9 d1 16 bf 6d 6a f6 3e b1 8b 89 3f f8 2a 25 3b
       -0.5891376 0.4812807 1.0745755 0.0025202613
000080 a3 c0 21 3f a5 b5 13 bf 17 b5 33 3e e9 43 2e 3f
       0.63184565 -0.5769904 0.17549549 0.6807237
000090 83 fd 74 bf b1 8f 5d be 3b b5 0a 3f 6d 09 3b 3e
       -0.9569933 -0.21636845 0.54182786 0.18265314
0000a0 fb 1b ea 3d 65 4f 30 bd 57 31 e7 bd 9e 3b 51 be
       0.11431118 -0.043044467 -0.11288708 -0.20432898
0000b0 03 8e a5 3e db c1 0c be be 18 1f bf ea d9 b2 be
       0.3233491 -0.13745825 -0.6214713 -0.3493188
0000c0 64 94 2d bf ea 8a a9 bd 57 8c 12 3f 04 5d 86 3f
       -0.6780455 -0.08278449 0.5724539 1.0497136
0000d0 7e 60 9d 3c 2c 9a b9 be f3 68 b2 3d 46 9a 8c be
       0.01921105 -0.36250436 0.08711424 -0.2746145
0000e0 3d 9c f8 3d 71 0d 69 be 0d 19 d4 3e 49 ce b6 bd
       0.12139175 -0.22759034 0.41425362 -0.089260645
0000f0 a6 0c 0f bf 8c f1 a8 3e b4 2c 36 3c 3f b6 a6 3e
       -0.55878675 0.32996786 0.0111190565 0.32560918
000100 22 42 dd 3e 77 b6 7c bd 9f 35 f9 3d c7 69 c5 be
       0.43214518 -0.06169745 0.121684305 -0.38557264
000110 00 19 49 3f 10 59 4a bf 9d b9 f4 3e 27 c1 31 3e
       0.7855377 -0.7904215 0.47797862 0.17358838
000120 fa 4d 00 3f 5e a7 bc 3e 4d 3a 96 bf 59 c4 31 bc
       0.5011898 0.3684644 -1.1736542 -0.010850036
000130 13 58 02 bf aa bc 8f 3f 04 81 10 3e 8a f1 12 3e
       -0.5091564 1.1229451 0.14111716 0.14349952
000140 f8 9b f9 3c 75 55 c9 3e ee 19 9f 3d fb 73 1d bf
       0.03046988 0.3932301 0.077686176 -0.615051
000150 fb 00 cc be cc 5c 45 bb 8a 94 8d 3e 97 ec e9 be
       -0.39844498 -0.0030115126 0.2765239 -0.45688316
000160 ca 34 9d bc 6a bc 15 be 67 e2 1c 3f 29 db 18 be
       -0.01919021 -0.14622656 0.6128296 -0.14927353
000170 0d 2f 39 bf 0c 01 e9 be 0a e5 05 bf 1c 7a 84 be
       -0.7233742 -0.4550861 -0.5230261 -0.25874412
000180 02 c5 49 3f 5e df 90 be fa 61 e8 be 60 3d 3c be
       0.78816235 -0.28295416 -0.4538725 -0.18382788
000190 b5 31 1c bd 30 18 3e 3e c8 9b 36 3f 9a 41 e5 3d
       -0.03813334 0.18563914 0.71331453 0.11194153
0001a0 81 23 5b bf 45 57 07 3f cc 64 03 3f db 2f 0c 3f
       -0.8560105 0.5286754 0.5132568 0.5476052
0001b0 67 e9 51 3f f9 1a a5 3e 2a da 05 bf 77 72 e3 be
       0.8199677 0.3224714 -0.52286017 -0.44423267
0001c0 df 64 47 3e 30 d6 50 3f cb a3 02 3f 1a 26 a0 3d
       0.19472073 0.81576824 0.5103118 0.07819767
0001d0 e7 8f ba 3f 09 71 3b 3f 35 e0 c0 bd b6 58 85 be
       1.4575166 0.7321935 -0.09417764 -0.26044244
0001e0 23 97 47 bf 43 b0 b8 bd 75 15 bb 3d 0c b5 03 3f
       -0.7796499 -0.09017994 0.09134952 0.5144813
0001f0 7a bd e6 3d f2 f2 84 3e 73 86 3d 3e ff a5 e2 bc
       0.112666085 0.25966603 0.1850832 -0.027667044
000200 e7 16 0e bf 2a 50 20 3d f5 ee 2e 3b be 86 c1 bd
       -0.55503696 0.03913895 0.0026692722 -0.09449528
000210 6b d7 37 3e 64 16 fe be 50 ce d3 3e 5e fa 96 bc
       0.17953269 -0.49626458 0.4136834 -0.018429931
000220 da 32 5d 3e ca 8b ee be af 7c eb 3e 45 bc c3 3e
       0.2160143 -0.46591026 0.45993564 0.38229576
000230 96 9b 70 be 27 13 1d bf 63 51 37 bf 85 0c 0f bf
       -0.23496851 -0.6135735 -0.7160856 -0.5587848
000240 a3 56 c1 3e 67 03 39 3e f7 98 2c 3f 8f 0e 16 3f
       0.3776141 0.18067704 0.67420906 0.58615965
000250 f9 e1 39 bf 27 00 e8 3e 6a ac 83 3d 2e 80 bd 3e
       -0.7261043 0.45312616 0.0642937 0.37011856
000260 ea 1a c1 bd 0b 86 b6 bd 46 12 95 be 76 ec 38 bf
       -0.094289616 -0.089122854 -0.29115504 -0.7223581
000270 9b 66 df 3d 6a 42 46 bf 85 ff 7c bf 55 e2 0d 3f
       0.10908242 -0.7744509 -0.9882739 0.5542348
000280 27 cc 5a 3f 0b 93 4f bf 11 b8 1a 3e db 1f 7c 3f
       0.8546776 -0.81083745 0.15109278 0.9848611
000290 bc 08 8d bf 2b 70 30 3f f5 ee 35 be 97 50 4d 3e
       -1.101829 0.68921155 -0.17766936 0.20050274
0002a0 8b 3b 86 be ef 05 d7 bd ac 11 9d be 23 77 91 bd
       -0.26217303 -0.104991786 -0.30677545 -0.07102802
0002b0 d4 70 f6 3d 82 fb 08 3f f2 be 38 bf 8b 5c 5b 3e
       0.12033239 0.5350877 -0.7216636 0.21422021
0002c0 0d fb b5 3e ba 4c d1 3d 90 16 d0 3e a4 fc 19 3f
       0.355431 0.102197126 0.40642214 0.60151124
0002d0 9e ba e7 3e 61 32 92 3e e7 00 9d be 61 66 e4 3d
       0.45259565 0.2855406 -0.3066475 0.1115234
0002e0 86 0a 72 3f 86 ec 18 3e c8 15 ce 3e 6f cd 79 be
       0.9454731 0.14933977 0.40250993 -0.24394773
0002f0 d9 a4 31 be 73 1a 56 be ac a2 a2 be 3a 0e b2 be
       -0.1734804 -0.20908527 -0.31764734 -0.3477648
000300 2a 13 8a 3e 07 21 19 3f d0 0f 2a 3c ce 96 e3 bc
       0.26967746 0.5981602 0.010379747 -0.02778187
000310 7a 62 2c be 82 48 63 bd 18 be 02 bf d6 ab 40 be
       -0.16834441 -0.05548907 -0.5107131 -0.1881555
000320 50 15 07 bf 56 4b f2 3e fc aa f8 3d 9c bf 84 3e
       -0.52766895 0.47323102 0.12141988 0.25927436
000330 60 0a 09 3f 72 d0 1f be 95 75 81 be 90 28 2c be
       0.53531456 -0.1560686 -0.2528502 -0.16812348
000340 72 4d 56 bf 06 d5 6a 3f 14 2e df 3d 29 bf 8d 3e
       -0.8371192 0.917313 0.108974606 0.27684906
000350 b8 32 76 bc d6 1d db be 24 fa b2 3e 83 43 fd 3e
       -0.015026741 -0.427962 0.34956467 0.4946557
000360 d2 64 30 be 50 0a e4 3e 2b 74 2e 3e 77 5d 38 3d
       -0.1722596 0.44539118 0.17036502 0.04501101
000370 3b 92 c3 3e 64 bc 89 bc 78 07 a1 bf 30 3d d2 be
       0.38197502 -0.016813464 -1.2580404 -0.41062307
000380 5f 5c b2 3e 1a 89 02 3e 6d a3 32 3e 11 1e c8 be
       0.348361 0.12747613 0.17445154 -0.3908544
000390 0e eb a3 3e be 07 ce 3e b1 d6 49 be 89 16 11 3e
       0.3201527 0.40240282 -0.19710805 0.14168753
0003a0 28 f6 10 3f bf 72 f1 3d c2 69 4a bf 87 8f a9 be
       0.56625605 0.11789464 -0.79067624 -0.33117315
0003b0 ba d6 bd be f8 90 30 bf 02 53 78 be ce d5 c6 be
       -0.37077886 -0.68971205 -0.24250415 -0.38834995
0003c0 f7 10 7e 3e 1f d0 99 3d 55 bf 60 bf 41 9c 49 3e
       0.24811159 0.07510399 -0.8779195 0.19688512
0003d0 ca ec 01 3f 5c 6c 2e 3f f9 a1 66 3e de 97 f6 bd
       0.50751936 0.68134093 0.22522725 -0.12040685
0003e0 2a 56 08 bf 60 13 b4 be c7 56 ce 3c 6b bc 62 3e
       -0.53256476 -0.35171032 0.025187863 0.22142188
0003f0 b9 6c 0a 3e e1 45 12 be 7c e3 30 bf aa 6a 60 bf
       0.13518037 -0.14284469 -0.69097114 -0.87662756

conv1.bias f4 [63]
000000 c1 ba 12 3b 35 6c 6a b9 e8 0c 24 3b af 1a 38 3b
       0.0022389146 -0.00022356289 0.0025032107 0.0028092077
000010 dc 95 70 3b 41 36 81 3b 71 8b 6a 3a 27 d8 16 3b
       0.0036710417 0.003943235 0.000894717 0.002301702
000020 06 93 dd bb 47 f3 6a 3b 78 5b f2 3a 63 b0 03 3a
       -0.0067619113 0.003585057 0.0018490395 0.0005023537
000030 ef 7b 9d bb c1 ce 93 3b 27 aa 5e bb 0f 45 67 bb
       -0.004806034 0.004510731 -0.003397593 -0.0035288965
000040 5e d0 80 bb 73 8c 5b bb 4e d5 6d bb bc 6f 52 bb
       -0.0039310893 -0.0033500462 -0.003629047 -0.0032110056
000050 20 b2 87 bb 39 25 34 bb 01 e3 71 bb 08 03 4e 3b
       -0.004141107 -0.0027488007 -0.0036908987 0.0031434912
000060 b1 4e 0e 3b e6 97 6e bb 4a 49 f7 ba f6 18 73 bb
       0.0021714384 -0.0036406456 -0.0018866446 -0.0037093735
000070 6a a5 3e bb 07 d3 a3 bb 2a 5e 8f bb c3 b5 32 bb
       -0.0029090294 -0.0049995217 -0.004375239 -0.0027268983
000080 91 91 0b 3b 4a 64 86 bb 0c 88 b1 3a 39 9f 8c ba
       0.002129648 -0.004101311 0.0013544573 -0.0010728604
000090 be 2f 14 3b 85 9b 80 bb 02 a9 57 bb 85 94 39 bb
       0.0022611464 -0.0039247894 -0.0032907133 -0.0028317284
0000a0 f4 75 6e bb 26 de 8a ba 18 b0 20 bb ec 80 6b bb
       -0.0036386224 -0.001059477 -0.0024519023 -0.0035934998
0000b0 d3 fe a7 bb 66 3f 87 bb 72 7f 9e ba f1 32 7a bb
       -0.005126813 -0.0041274307 -0.0012092425 -0.0038177336
0000c0 a2 7d a8 3a d7 1a 7c bb 32 2a 5e bb 67 48 47 3b
       0.0012854824 -0.0038468146 -0.0033899662 0.0030408145
0000d0 9d d6 9e bb 7f e3 6a ba 5a 02 8e 3b 7c 83 2f 3b
       -0.0048473612 -0.0008960291 0.0043337764 0.0026781252
0000e0 7c 8a 50 bb b1 23 28 3b ec 01 d1 3a e3 6a 6e bb
       -0.0031820824 0.002565604 0.0015946007 -0.0036379627
0000f0 79 5c 52 bb e6 cb 9f bb 8c 1d 9c bb
       -0.0032098575 -0.0048766015 -0.0047642644

vgg.0.weight f4 [63, 63, 3, 3]
000000 37 88 ca 3c d3 ff 3b bd 4a b7 a3 bd a3 a8 00 3c
       0.024723155 -0.04589827 -0.07993944 0.007852706
000010 cc 56 2e bd b8 c8 bf bc 6e 0d 30 3d 95 4a b0 bc
       -0.042563245 -0.02341114 0.042981558 -0.021519938
000020 27 a3 52 3c a8 4e b2 3d aa d8 51 3d 6f a4 bc 3d
       0.012856281 0.08706409 0.051232018 0.09211051
000030 ae b3 23 3d 60 33 a2 bd 9a 21 c4 bb 30 30 53 bb
       0.039966278 -0.07919955 -0.005985451 -0.0032224767
000040 3a 1e 88 bd 9a 06 b2 bd 48 d6 ce 3c f5 1d 40 bd
       -0.0664639 -0.086926654 0.025248662 -0.04690357
000050 87 9c e3 3c d2 bf 84 bb 15 52 14 3c 94 84 96 3d
       0.027784599 -0.004051187 0.009052773 0.07349506
000060 d9 27 25 3d 3a 9e e0 3b 06 f5 99 3a 4d 31 9f 3d
       0.040321205 0.0068547996 0.0011745996 0.07773075
000070 58 b9 93 3d f2 98 4e 3d d2 6c 99 3c 11 40 a7 bc
       0.07213086 0.05043883 0.018728647 -0.020416291
000080 7e 1b 12 bd 3e 1a 88 bc 4a 7d e3 bd ee f8 8b 3c
       -0.03567075 -0.016614076 -0.11107881 0.017086472
000090 c1 e6 00 bb 54 e5 46 3c 9c 4d 06 bd 95 69 8e bd
       -0.001966879 0.012139637 -0.032788858 -0.06953732
0000a0 20 86 3c bd e2 63 85 bd b2 56 d2 bd 5d fd 2a bc
       -0.04602635 -0.06513192 -0.10270442 -0.010436383
0000b0 08 c0 f1 3c 11 d6 d5 bc 68 ea 64 bc 8b 41 c9 3d
       0.029510513 -0.026103051 -0.013971902 0.098269545
0000c0 8b 0e c8 3d 51 c1 99 3d 55 cb eb bc a7 23 2b bc
       0.09768399 0.07507575 -0.02878348 -0.010445512
0000d0 b6 6e 48 b9 c2 29 8e 3d f5 dc a0 3d 45 77 b9 3d
       -0.0001911473 0.069415584 0.07854644 0.09055952
0000e0 b7 2e ea 3d 17 7d cc bd b3 c3 82 bb ed be 61 3c
       0.114346914 -0.099847965 -0.0039906143 0.01377843
0000f0 fa 11 9b bd cc ff ea bc ea 48 b1 bc 75 69 75 bd
       -0.07571788 -0.028686427 -0.021641213 -0.059915025
000100 72 2e f9 3d 6d 78 31 3c b5 ef ea 3c b8 00 05 3d
       0.12167062 0.010831934 0.028678754 0.03247139
000110 6f 9f 17 3d 40 9e a8 bd 94 00 86 3d ca 94 9d bb
       0.037017282 -0.08233309 0.06543079 -0.004808997
000120 bf 68 f9 bc 29 97 c6 bc 8c 5e 2a 3c 83 64 6d bd
       -0.030445455 -0.024242 0.010398518 -0.057957184
000130 a3 9f e2 3d fa 04 13 3d b9 50 84 3c 9e ae 4a 3c
       0.110656045 0.035893418 0.016151773 0.012370734
000140 4b e3 60 bd 28 cc 56 3d 92 67 65 3d 6d f1 8b bd
       -0.054904263 0.052440792 0.056006975 -0.06833158
000150 e3 a4 00 3d 45 ed 89 3c 0b 4e f8 3c 42 47 0c bc
       0.03140725 0.016836772 0.030310651 -0.008561911
000160 15 57 31 bc 0d 4d a4 bc 5b e7 b9 bc 63 ee dd 3b
       -0.010823985 -0.020056272 -0.022693327 0.0067728027
000170 53 ad 17 3c 42 91 5e 3d 6e 41 d0 3d 84 df 37 bd
       0.009257632 0.054337747 0.1016873 -0.044890895
000180 ff 61 e5 3c 09 0f b7 3d 4d d0 1c bd 79 b0 34 bd
       0.02800083 0.089384146 -0.03828459 -0.04411361
000190 2c 21 96 bc 0b 74 b8 3c 4b d2 f8 bc 44 2d 89 bd
       -0.018326364 0.022516271 -0.030373713 -0.06698087
0001a0 e5 2e 28 be 70 f0 d2 bc 0e bc 3c bc f3 16 d3 bc
       -0.16424139 -0.025749415 -0.011519445 -0.025767779
0001b0 7b ee c2 bb df 19 09 3d d2 f2 e2 bd 39 43 17 3d
       -0.0059488392 0.03347194 -0.110814705 0.036929343
0001c0 44 9d cc 3b e4 3e 70 3d 7f c6 5b bc 8f 17 23 bd
       0.0062443335 0.058653727 -0.013414024 -0.03981739
0001d0 7a 50 d8 bc bb ce db 3c 15 6a b6 3c ec 78 94 ba
       -0.026405562 0.026831975 0.02226738 -0.0011327541
0001e0 9e e8 d9 3c 9a a1 09 bc 5a 17 3c bd b5 7a c6 bd
       0.026600178 -0.008400345 -0.045920707 -0.09691373
0001f0 ee 9f 01 3e 07 25 dd bc ae 2f c6 bb 86 cf 3d bd
       0.12658665 -0.026995195 -0.0060481643 -0.046340488
000200 76 97 84 bd c6 79 44 bd 8c 99 89 bd 1e 0d ac bd
       -0.064742014 -0.047967695 -0.0671874 -0.084009394
000210 c7 a1 05 bd 4e c0 ee 3d a4 aa e0 3c 3a 03 25 bc
       -0.032624986 0.11657773 0.027425118 -0.01007157
000220 16 93 d6 bd 21 62 21 bc 51 69 72 bc 34 55 bf 3d
       -0.10477273 -0.009850056 -0.014795617 0.09342423
000230 84 87 3c bc dc bb 76 3d 78 15 a1 3c 8d 3a 04 3e
       -0.011506919 0.06023775 0.019663557 0.1291296
000240 cf 29 74 3c d9 1b 74 3d c3 69 24 be 9e 42 51 bc
       0.014902546 0.05959687 -0.1605597 -0.01277223
000250 13 e2 0f bc 93 c0 18 3d 93 3c 01 bd 1e bb 00 bd
       -0.008781928 0.037293028 -0.03155191 -0.03142845
000260 97 1a f7 3c df 88 e3 bc 14 d3 8f 3d be 44 73 bd
       0.030164046 -0.027775226 0.07022682 -0.05939173
000270 82 10 c7 bc dd 76 07 3d c1 d0 09 3d 77 8a c9 3c
       -0.024299864 0.03307234 0.03364635 0.024602158
000280 04 f7 7c bd 4f 1d 6f 3b b5 d9 79 3d fb d1 13 3d
       -0.06175901 0.0036485975 0.060998637 0.036088925
000290 a2 94 84 bd c4 e1 e0 bc 98 f3 eb bd f1 4b 5e bc
       -0.06473662 -0.027451403 -0.11521071 -0.0135679105
0002a0 70 41 57 3c e6 dc 86 3c 53 36 4d bd 24 33 15 3d
       0.01313816 0.016462754 -0.050100636 0.036425725
0002b0 21 17 98 bc 28 e7 14 3d 7a 0a a7 3c 73 60 91 3d
       -0.018565716 0.03635326 0.020390738 0.07098474
0002c0 af 63 55 bd be b9 37 3d 03 6b 8c 3c 75 ab 65 3d
       -0.05209702 0.044854872 0.01714087 0.056071717
0002d0 0d b5 6d 3c 84 96 73 bd 1d 39 80 bd 8c 9d 60 bc
       0.014508498 -0.059469715 -0.062608935 -0.013709437
0002e0 11 37 a8 bc 53 5d ce bb e5 e2 61 3c f7 df 0f bd
       -0.02053407 -0.006297746 0.013787006 -0.0351257
0002f0 bb e3 45 bc 7f ce e8 bb 06 ee 25 bb 02 07 1e 3d
       -0.012078221 -0.0071046944 -0.0025318875 0.038580902
000300 cf fb 84 bd 98 96 f4 3c f2 87 df 3d 1e 13 61 bc
       -0.06493341 0.029856965 0.109146014 -0.013737468
000310 be 30 22 3d f1 16 28 3c e6 e8 2b bc ed 2d 84 bc
       0.039597265 0.010259376 -0.010492539 -0.01613518
000320 bb 66 b0 bd 98 c7 7f 3c f3 10 2c bd 2f 29 43 bd
       -0.08613344 0.015611552 -0.04200835 -0.047646698
000330 57 03 0d bb 6c 75 89 bd a7 88 a2 3d cb aa 9e bc
       -0.0021516883 -0.067118496 0.079362206 -0.01936855
000340 85 54 8a 3d dc 4d 78 3d 5b 66 07 be e5 28 40 3c
       0.06754402 0.060621127 -0.1322264 0.0117285
000350 60 b2 5c 3c 7d d8 f4 bd 0e 68 5a bd ce 4d e6 3d
       0.013470262 -0.11955354 -0.05332189 0.11245309
000360 7b 56 99 bc 00 f7 f5 3b df ca 30 3d 9e 40 49 3d
       -0.018717995 0.0075062513 0.043162223 0.04913389
000370 3f a9 d6 bc 8e 00 6f bd ef 1e 18 bd 0e 4b 2c bc
       -0.02620375 -0.05835014 -0.037138876 -0.010515941
000380 52 47 56 3c a7 ae 4a bd e2 e7 f0 3b 96 51 07 3d
       0.0130785275 -0.049482968 0.0073518613 0.03303679
000390 a4 96 12 3d 68 e6 8d bd bd e9 1e bd b6 64 0b bc
       0.035788193 -0.06928712 -0.03879713 -0.008507898
0003a0 36 9e 62 bd 40 9f 8f 3d d1 75 ae bd 2a 1f fd 3c
       -0.055326663 0.070127964 -0.085185654 0.03089865
0003b0 74 b4 a5 bd 6e 61 10 3d 1e fe 97 3d fe ca d9 bc
       -0.08091059 0.035249166 0.07421516 -0.026586052
0003c0 27 02 fd 3d a4 bc 7b bc f1 62 be b9 95 3a c6 3c
       0.12353926 -0.0153648 -0.0003631334 0.024197856
0003d0 d9 63 9e bd 8e cc 29 bc 1d e5 b9 3c ef 52 7e 3c
       -0.07733888 -0.010363711 0.022692258 0.015522703
0003e0 3e f3 80 3d e9 d4 a4 3d f8 42 e2 ba 51 70 32 bd
       0.06296395 0.08048422 -0.001726239 -0.043564145
0003f0 cd ee b4 3b 1d e6 34 bd 00 de 80 bd a1 2d 1e 3e
       0.0055216313 -0.044164766 -0.06292343 0.15447094

vgg.0.bias f4 [63]
000000 1c 2c 43 bb e0 44 89 3b f3 28 1e ba 87 93 0d bb
       -0.002978093 0.0041891187 -0.00060333236 -0.0021602826
000010 38 54 87 bb a8 52 d8 ba f8 fa bb b9 96 43 b8 ba
       -0.0041299127 -0.0016504126 -0.00035854406 -0.0014058228
000020 92 9c 2a bb ad b4 98 ba 00 d7 e6 ba 10 67 64 bb
       -0.0026033265 -0.0011650525 -0.0017611682 -0.003485147
000030 cb cd 63 bb 2f 7c 94 bb 2c 71 8a bb 1a a1 96 b9
       -0.0034760113 -0.0045314054 -0.004224917 -0.0002873026
000040 ab ea f3 39 bb e9 75 bb 01 86 f2 ba 56 a9 84 bb
       0.00046523413 -0.0037523347 -0.0018503071 -0.0040485067
000050 93 e1 f7 ba e1 c2 87 bb d1 50 07 3a 97 b8 cc ba
       -0.0018911831 -0.0041431044 0.0005161884 -0.0015618977
000060 78 33 ab bb d1 ac 58 bb 6d 70 72 bb 13 ef 03 bb
       -0.0052246414 -0.003306199 -0.003699328 -0.0020131513
000070 dd 43 89 bb db 2f 11 bb 3a 4f 60 bb 4c e5 35 bb
       -0.004188998 -0.0022153768 -0.003422691 -0.002775508
000080 6b 53 29 bb 25 f6 6c 3a a3 69 40 bb 37 7c 90 39
       -0.0025837074 0.0009039364 -0.002935984 0.00027558368
000090 e6 21 71 bb 16 11 3d 3b 0e 2c 59 3b d6 bd 03 3c
       -0.0036793887 0.0028849295 0.003313783 0.008040866
0000a0 a7 60 55 bb f0 44 c7 3a 5c 99 ca ba c5 45 08 bb
       -0.003255883 0.001520304 -0.0015457082 -0.002079354
0000b0 3f a9 aa bb 98 b8 81 3b 71 0a 74 ba d8 8b 72 bb
       -0.005208164 0.003958773 -0.0009309417 -0.0037009623
0000c0 bb 4b 68 b9 af 04 72 bb 55 97 da b9 f8 c5 03 3b
       -0.00022153456 -0.0036929061 -0.0004169295 0.0020107012
0000d0 60 65 88 ba d7 a9 e4 ba 49 10 41 ba ad f6 5a bb
       -0.0010406189 -0.0017445636 -0.00073647924 -0.003341119
0000e0 64 7a 51 ba 59 35 28 3a 06 f1 c5 39 08 8d 76 bb
       -0.0007990955 0.0006416641 0.00037754345 -0.0037620682
0000f0 c5 80 27 3a 21 f6 7a bb 72 05 d0 3a
       0.00063897326 -0.0038293677 0.0015870763

oconv2.weight f4 [1, 63, 3, 3]
000000 58 30 90 3c c1 8e 8a 3d 23 06 f7 3b 86 4e 11 be
       0.017601177 0.067655094 0.0075385734 -0.1419011
000010 c2 e3 37 bd 55 0a 90 bd 6a 56 38 bd 82 b3 01 bd
       -0.04489494 -0.07033221 -0.045004286 -0.031665333
000020 c4 9b f3 bc 5f e6 1d 3d fa 97 36 3d 54 2c 8d 3d
       -0.02973736 0.038549777 0.04457853 0.068932205
000030 d5 08 72 bd 7d 79 da 3b 1b a1 3a bc d2 5c 2b bc
       -0.059090454 0.0066673146 -0.01139095 -0.010459142
000040 79 05 63 3d 6d e6 ab bc 5e 88 c0 3c 80 4b f6 3d
       0.05542514 -0.020983899 0.023502525 0.12026119
000050 ac 29 91 bb 07 32 dc 3c 32 bf ab 3d cf b0 0d bd
       -0.0044300165 0.026879324 0.08386077 -0.034592446
000060 2a 49 02 bd 4d a3 d0 3d 06 59 93 bc 77 91 9b bd
       -0.031808056 0.10187397 -0.017986786 -0.075961046
000070 52 77 ae 3d f0 65 04 bc d8 11 65 bd bb 58 5c bd
       0.08518852 -0.008080944 -0.05592522 -0.053795557
000080 d4 50 a0 3d 89 bd 3a 3c a3 09 ec 3d 14 d0 49 bd
       0.07827917 0.011397728 0.115252756 -0.049270704
000090 12 55 a6 3d e4 a7 b6 3c c7 85 3f bd 81 31 d2 bb
       0.081216946 0.022296853 -0.04675844 -0.0064145927
0000a0 68 2d 76 bb a8 03 c4 bc da ac a7 bd a5 df 03 3d
       -0.0037563685 -0.023927525 -0.08187266 0.032195706
0000b0 34 cb 91 3d d6 a4 56 3d b4 ab 7b 3d 6d ab c6 bd
       0.07118836 0.052403294 0.061443046 -0.097006656
0000c0 4c 53 3f 3d 87 09 46 3d 15 54 5c 3d 2c 9c 99 3d
       0.046710297 0.04834893 0.053791124 0.075004905
0000d0 94 e6 99 bb d1 fa 5d 3d 53 ae 76 bd 96 c7 6b 3d
       -0.0046966765 0.054194275 -0.060224842 0.057563387
0000e0 b5 8a c9 3c 0d b1 f8 3d 64 31 3f 3d 35 d7 19 3e
       0.024602273 0.12143145 0.046677962 0.15023501
0000f0 04 61 de 3d b4 cc 06 3d f6 b2 92 3c e0 c0 8e bc
       0.10858348 0.032910064 0.0179076 -0.017425954
000100 15 11 1e 3d 50 1b e1 3c 33 23 67 3d 9a 32 55 bc
       0.03859051 0.027478844 0.056430053 -0.013012553
000110 e6 2a 99 3d fa 4f e3 bc ad 41 ea 3c 7e db 06 bd
       0.07478885 -0.027748097 0.02859577 -0.032924168
000120 63 69 f6 3c d0 a9 74 3d 46 30 4f 3d 28 4b f7 3c
       0.03007955 0.05973226 0.050583147 0.030187204
000130 01 30 db ba 52 f5 6b bd 26 10 f4 bd c0 18 06 3e
       -0.001672268 -0.057607003 -0.119171426 0.13095379
000140 7b 7c c9 3d f4 a3 cc 3b 10 89 73 bd 10 57 6e 3d
       0.09838196 0.0062451307 -0.059456885 0.058188498
000150 48 e2 cf 3d a3 32 42 3c db cd 3d bd 89 a3 8b bc
       0.101505816 0.011852893 -0.046338897 -0.017045753
000160 3d 0e 38 3c 1c e0 12 3d 6b 76 2b 3e fb 3d b9 3d
       0.011233863 0.03585826 0.16744392 0.09045025
000170 c5 6a e5 3d 31 c5 33 bc 82 29 9b bd 0d 4f cf 3d
       0.11202005 -0.010972307 -0.07576276 0.101224996
000180 c8 05 29 3d 4d 7c 73 bd b3 60 da bd 3d db 59 bc
       0.04126528 -0.059444714 -0.10662975 -0.013296899
000190 e2 a9 68 bc 90 ee 89 3d 18 b3 6a bd 5c 67 80 bd
       -0.0142006595 0.06734955 -0.057299703 -0.06269714
0001a0 28 c8 1a bd 4e 03 28 bd 37 f1 a2 bd d5 48 88 3d
       -0.03778854 -0.041018777 -0.07956164 0.066545166
0001b0 e4 9a 96 3d c8 dc c1 3d 56 03 8a 3d 77 02 53 bd
       0.07353762 0.09465939 0.067389175 -0.051516023
0001c0 bb 76 bf bc 82 c2 87 3d 49 4d ae 3a 67 d3 11 bd
       -0.023372045 0.06628896 0.0013298179 -0.035602
0001d0 8c 64 24 bd b2 84 33 38 f5 b6 f8 bd 54 76 cf 3c
       -0.04013495 4.2800508e-05 -0.12144271 0.025324978
0001e0 29 86 3d bd 33 c0 fe bd 23 f9 6f 3d 40 fc 04 3d
       -0.046270523 -0.12439003 0.058587205 0.032467127
0001f0 08 45 0f bd c9 85 ae 3a a3 a6 bc 3c 5b e2 95 bd
       -0.034977943 0.0013315018 0.023028677 -0.073185645
000200 a2 08 b4 bd e0 27 08 3d 50 a6 a7 bd 47 02 68 bd
       -0.08790709 0.033241153 -0.081860185 -0.056642797
000210 39 c5 03 3c 2d d5 97 3d 24 55 38 3e d9 0c 67 bd
       0.008042627 0.07413707 0.18001229 -0.056408737
000220 6b 70 59 3d 8b d7 8f bc 02 fb 4e 3d e6 1a d8 3d
       0.053085726 -0.017558834 0.05053235 0.105520055
000230 21 bb 92 3d 16 99 db bd 0b 56 74 3c 52 e2 44 bc
       0.07164598 -0.10722558 0.014913092 -0.01201685
000240 d1 e7 1b 3d 43 ff 4a 3d 0d 0d 50 bd 56 f9 35 bd
       0.038062874 0.049559843 -0.050793696 -0.04442724
000250 c8 5c 72 bd e0 2e 45 bd fc c5 6f bd 52 5d 57 bb
       -0.059170514 -0.048140407 -0.058538422 -0.003286202
000260 8c 9e b5 3c a4 9d c7 bd 5f 2f b1 bb 50 cb d1 3c
       0.022170328 -0.097468644 -0.0054072584 0.025609642
000270 36 5b 5d bc 25 c8 6c 3d f8 04 7c bd bd 6e 18 3d
       -0.013510516 0.05780806 -0.061528176 0.037214983
000280 5f 01 a8 3d f3 23 59 3c ab 91 86 3c 7a ab 80 bd
       0.082033865 0.0132532 0.016426882 -0.062827066
000290 db a9 a4 bd 96 f9 cb 3d 93 1b eb bc 00 9f 19 bd
       -0.0804021 0.09959714 -0.028699672 -0.03750515
0002a0 a3 94 1c 3d d6 3c 4b 3d cd a0 e5 3c 7f 0c c2 3d
       0.03822769 0.049618565 0.028030777 0.0947504
0002b0 7e 55 0d be 49 4d 18 3d be 48 67 3b c4 20 00 3d
       -0.13802144 0.03718308 0.003529116 0.031281248
0002c0 90 0e d3 3d 83 35 6e bb f9 1c 86 3c 08 9a 5f 3c
       0.10305512 -0.0036347813 0.016371237 0.013647564
0002d0 ab ea 35 3d 8e 1e 57 bd f0 74 28 3d 4f eb 66 3c
       0.04441325 -0.052519374 0.041127145 0.014094188
0002e0 91 cb 44 3d 84 36 6b 3d ff 84 77 3d 73 e2 a0 bc
       0.0480457 0.057425037 0.06042957 -0.01963923
0002f0 5a b8 1a bc 29 c7 95 3b c9 cd 8d 3d dc 42 29 3d
       -0.009443367 0.004570861 0.06924016 0.041323528
000300 db 29 6e bd 6e 44 46 bd c9 0b a5 3c 6f 84 5b bd
       -0.058145385 -0.048405103 0.020147221 -0.053593095
000310 25 65 c4 bd 28 d9 7c 3d 33 d1 5a 3d 2a a2 58 bd
       -0.09589604 0.061730534 0.053422164 -0.052889027
000320 73 86 14 bc 76 85 58 3d 1c 2b 32 3c 18 0c 70 3c
       -0.009065258 0.052861653 0.010874536 0.014651321
000330 6e f5 07 bd 3a d1 e5 3c a6 23 d7 3b 16 c0 20 bd
       -0.033193044 0.028053869 0.006565529 -0.039245687
000340 c1 9b 06 bc f5 1d c1 bd 57 10 82 3d c9 26 8e bd
       -0.008215846 -0.09429542 0.06350773 -0.069409914
000350 40 fa e7 bc 61 1d 8b bd a2 d6 12 bd 42 d0 bc bb
       -0.02831757 -0.06792713 -0.03584922 -0.005762131
000360 db b9 cd 3a 16 e7 6f 3c d0 03 63 3e e7 3f 93 bd
       0.0015695648 0.0146424975 0.22169423 -0.07189923
000370 65 8c 90 bd a6 c0 06 bd 97 b3 d8 bd c6 ce aa 3c
       -0.07058028 -0.032898568 -0.10581129 0.02085055
000380 ea 51 7a 3d cd 34 28 3b 3b 2d 22 3d b6 d9 63 3d
       0.061113276 0.0025666237 0.039593916 0.055627547
000390 f6 6b 1e bd ef b0 ee 3c cb 43 fa 3d 3d 02 02 3e
       -0.03867718 0.029137103 0.12219962 0.12696166
0003a0 2c 47 a1 3d 3e 5b a1 3c 4b 17 ca bc e5 91 b8 bc
       0.07874903 0.019696828 -0.02466931 -0.022530505
0003b0 91 da a6 bc 5b 56 3f bc 96 d9 96 bc 98 ce 1f bd
       -0.020367892 -0.011678304 -0.0184143 -0.039015383
0003c0 52 c0 09 bd 54 f6 87 bc 03 aa 09 bd 83 c9 a4 3d
       -0.033630677 -0.01659695 -0.0336094 0.08046248
0003d0 c7 45 56 bc 22 19 18 3d 7c c9 47 bd f6 20 ab bd
       -0.01307816 0.037133344 -0.048776135 -0.08355896
0003e0 9b 69 19 bc 61 78 40 bd b0 6c ea 3d 4b 1f 84 bd
       -0.009363557 -0.046989802 0.11446512 -0.06451281
0003f0 22 de 2e 3c af 43 02 bd 5b 9f 04 bd 0c f1 87 bd
       0.010673078 -0.03180283 -0.032378536 -0.06637773
