Models/model24.pth (torch, 151695 bytes, 6 tensors)

oconv1.weight f4 [1, 1, 3, 3]
00000000: 9e61 e23e ec83 1bbe ec8e 02bf c4dd 3c3e
00000010: ced4 283e d785 3fbe 1790 b03e 5787 ebbe
00000020: 2a8b 54be
0.442151 -0.15187043 -0.5099933 0.18443972 0.16487429 -0.187034 0.34484932 -0.46001694
-0.20756212

conv1.weight f4 [63, 1, 3, 3]
00000000: c0fa c6bf c519 973e e305 3f3e 738f 17bd
00000010: 086c 66bf 045b ab3e 640a 03be 9936 143e
00000020: 1e60 46be 5b1e 2bbe a0ec d3be 404f f0bd
00000030: 086e e0be 8bd2 a03f 8edb a23e baba 673e
00000040: 8d1c 44bf c954 8d3e e83d 663e 9982 0dbf
00000050: 5756 073f 799b 30bf 8cc3 ed3e 0ef9 a03e
00000060: 5031 98be c050 2e3f b49e 01be b98e a83e
00000070: bfb3 16bf 3a3a f63e 1c7e 893f 3e65 403b
00000080: f9df 213f 099a 13bf e41f 343e 0b2c 2e3f
00000090: 151c 75bf 4d15 5ebe a9c3 0a3f 439f 3a3e
000000a0: fb0d e93d 5166 32bd 232d e8bd dabc 51be
000000b0: a458 a53e 0028 0dbe c729 1fbf 1cf5 b2be
000000c0: a4ac 2dbf b270 aabd 7370 123f 264d 863f
000000d0: efc7 993c 5360 b9be eab4 b13d 4557 8cbe
000000e0: 1fc2 f73d d96b 69be 1054 d43e a46c b7bd
000000f0: bf21 0fbf 33cc a83e eb9b 3e3c 82b2 a63e
00000100: f558 dd3e bc16 7bbd e70c fa3d 923b c5be
00000110: 99fe 483f e338 4abf a4f9 f43e ed54 313e
00000120: af32 003f 9b6a bc3e 3f2b 96bf 6e5b 39bc
00000130: 8757 02bf f0ad 8f3f 1d16 103e b785 123e
00000140: ffc8 f63c b91c c93e 1152 9e3d f570 1dbf
00000150: 4bbf cbbe 396d 5abb c25f 8d3e 3819 eabe
00000160: adf5 9fbc e71b 16be 18d4 1c3f a455 18be
00000170: 8a2c 39bf 0630 e9be 5aff 05bf 5159 84be
00000180: 3ea9 493f 15ac 90be 1e20 e8be f494 3cbe
00000190: 826b 1bbd 2a77 3e3e daae 363f 035e e43d
000001a0: 2235 5bbf 3d33 073f c943 033f 8414 0c3f
000001b0: a4cb 513f 544b a53e 86c2 05bf 0c97 e3be
000001c0: 7c50 473e 3dec 503f 7086 023f 9760 9f3d
000001d0: 0781 ba3f 218a 3b3f a421 c0bd c431 85be
000001e0: 1578 47bf 4bda b7bd 8bd4 bb3d 9e97 033f
000001f0: 71a2 e73d 78ad 843e 9e0a 3d3e e80a e7bc
00000200: 7b00 0ebf c597 213d c005 473b 8cbe c0bd
00000210: f1c2 373e 9767 febe 9084 d33e 63da 99bc
00000220: 7ac1 5c3e 8559 eebe b53b eb3e cf88 c33e
00000230: 2f2f 70be aef7 1cbf c237 37bf a9f0 0ebf
00000240: 4f22 c13e 5491 383e 847c 2c3f 43f4 153f
00000250: d6b8 39bf c5ca e73e c0b4 823d 8a4c bd3e
00000260: 43c2 c1bd a4ba b6bd af04 95be ebd6 38bf
00000270: cc7e de3d c326 46bf d2e0 7cbf 4bf6 0d3f
00000280: 40b1 5a3f b37a 4fbf 501f 1b3e f703 7c3f
00000290: f9f6 8cbf ba8b 303f 2956 36be ea02 4d3e
000002a0: 76fe 85be f3f5 d5bd 3dcf 9cbe f57e 90bd
000002b0: 6c84 f53d 11e3 083f b1a3 38bf 7f39 5b3e
000002c0: 53c7 b53e c87d d03d 0044 d03e 72df 193f
000002d0: a0ca e73e 870c 923e 59c9 9cbe e63f e53d
000002e0: d6ef 713f 3f97 183e 43f4 cd3e 5c4d 79be
000002f0: 3331 31be 2574 56be 1062 a2be e62a b2be
00000300: 68de 893e d308 193f 36de 233c ecdd debc
00000310: c3b8 2cbe bb6d 64bd a3a2 02bf 1f2f 41be
00000320: e006 07bf 3445 f23e 3445 f93d da82 843e
00000330: 96ec 083f 6190 1fbe 56ab 81be 8eb1 2bbe
00000340: 372a 56bf 41b4 6a3f 8425 e03d f0f7 8d3e
00000350: 21f2 7cbc e4df dabe a0b8 b23e a881 fd3e
00000360: c0cf 2fbe 0f54 e43e ec1c 2f3e c551 3a3d
00000370: 36d1 c33e f56f 8cbc 5df3 a0bf 4e06 d2be
00000380: de22 b23e 4b5c 023e b70f 333e 55db c7be
00000390: 55c3 a33e ee3f ce3e 3a74 49be 63a7 103e
000003a0: 39ee 103f 8f72 f03d e548 4abf 44a2 a9be
000003b0: 9ee2 bdbe 37a3 30bf aac2 77be 40e3 c6be
000003c0: e4aa 7d3e 9410 993d d09a 60bf e52c 4a3e
000003d0: b8d0 013f 5652 2e3f 2fbe 663e 758d f5bd
000003e0: 9838 08bf 4cc2 b3be 4f24 d23c 6d72 623e
000003f0: 890a 0a3e 0ef1 11be fdbe 30bf 066e 60bf
-1.5545273 0.29511848 0.1865459 -0.03700204 -0.9000859 0.33467877 -0.12796932 0.14473952
-0.19372603 -0.16710798 -0.41391468 -0.11733866 -0.43833947 1.2564253 0.31808132 0.22629824
-0.76606065 0.27603748 0.22484553 -0.552774 0.5286612 -0.6898723 0.46438253 0.31440014
-0.29725122 0.68091965 -0.12658197 0.3292139 -0.5886802 0.48091298 1.074161 0.002935722
0.6323238 -0.57656914 0.1759029 0.68035954 -0.95745975 -0.21687813 0.54204804 0.18224816
0.1137962 -0.043554608 -0.11336734 -0.20482197 0.3229419 -0.1378479 -0.6217312 -0.3495263
-0.67841554 -0.08322276 0.57202834 1.0492294 0.018772094 -0.36206302 0.08677085 -0.2741033
0.120975725 -0.22795047 0.41470385 -0.089562684 -0.5591087 0.32968292 0.011633853 0.32558066
0.4323193 -0.061300978 0.12209492 -0.3852201 0.78513485 -0.7899305 0.4784671 0.17317553
0.5007734 0.36800084 -1.1731948 -0.011313302 -0.50914806 1.1224957 0.14070936 0.1430882
0.03012514 0.39279726 0.07730497 -0.61500484 -0.39794382 -0.0033329262 0.2761212 -0.45722365
-0.019526327 -0.14659081 0.6126113 -0.1487642 -0.72333586 -0.4554445 -0.5234276 -0.25849393
0.7877387 -0.28256288 -0.45337003 -0.18416196 -0.037944324 0.18600145 0.7136055 0.11150744
-0.8562795 0.5281256 0.51275307 0.54718804 0.81951356 0.32284033 -0.52249944 -0.44451177
0.19464296 0.8161047 0.50986385 0.07782095 1.4570626 0.73257643 -0.093814164 -0.2601453
-0.77917606 -0.08977183 0.09171399 0.51403224 0.1131028 0.25913596 0.18461081 -0.028203443
-0.55469483 0.03945138 0.0030368418 -0.09411344 0.17945458 -0.49688408 0.41312075 -0.018780893
0.2155818 -0.46552673 0.4594399 0.38190314 -0.23455499 -0.6131543 -0.71569455 -0.5583597
0.37721488 0.18024188 0.67377496 0.5857584 -0.7254766 0.45271888 0.063821316 0.36972457
-0.094608806 -0.089223176 -0.29105136 -0.7220294 0.10864028 -0.77402896 -0.9878055 0.5545394
0.8542671 -0.810466 0.15148664 0.9844355 -1.101287 0.68963206 -0.17806305 0.20020643
-0.261707 -0.10447302 -0.3062686 -0.07055465 0.11988148 0.53471476 -0.72124773 0.21408652
0.35503635 0.10180241 0.4067688 0.60106575 0.45271778 0.28525183 -0.30622366 0.11193828
0.94506586 0.14901446 0.4022542 -0.24345917 -0.17303924 -0.20942743 -0.3171544 -0.34798354
0.26927495 0.5977909 0.01000171 -0.02720543 -0.16867356 -0.05576871 -0.51029414 -0.18865632
-0.52744865 0.47318423 0.121714026 0.25881082 0.53486 -0.1558242 -0.2532603 -0.1676695
-0.83658165 0.91681296 0.109446555 0.27728224 -0.015438587 -0.4274894 0.34906483 0.49512982
-0.17169094 0.44595382 0.17100877 0.045488138 0.38245553 -0.017143229 -1.2574269 -0.41020435
0.34792227 0.1273052 0.17486463 -0.39034525 0.31984964 0.4028315 -0.19673243 0.14126353
0.566135 0.117406 -0.7901748 -0.3313161 -0.37086958 -0.68999046 -0.24195352 -0.38845253
0.24772221 0.07473865 -0.87736225 0.19743688 0.50709105 0.68094385 0.22533487 -0.119898714
-0.53211355 -0.35109174 0.025652079 0.22113962 0.13480581 -0.14252111 -0.69041425 -0.8766788

conv1.bias f4 [63]
00000000: e09b 2d3b 501e 8139 90f7 3f3b 6647 543b
00000010: ecfd 873b d4ab 8d3b a158 ad3a 89e5 303b
00000020: 09ce ebbb fdd2 633b e71a 133b 0f4f 623a
00000030: 1b82 abbb c20e a03b 9c9e 4bbb 1ac4 80bb
00000040: 5884 8ebb 4071 76bb 4cd2 83bb 0574 6ebb
00000050: 2fc3 93bb 4f9f 52bb 552d 85bb 35c7 603b
00000060: 11c1 0f3b 72e9 7dbb 4098 21bb b646 87bb
00000070: 7bdb 1cbb 4ea1 b1bb d94b 9fbb 1d62 4cbb
00000080: 8dfb 123b 181f 94bb 79ca 5f3a abe9 e9b9
00000090: 9ee8 2d3b 3340 8abb 23ee 71bb 53da 1ebb
000000a0: b9c6 80bb e7ef 18ba 965d 35bb de19 82bb
000000b0: 2c62 b4bb ab36 94bb 1d76 d2ba 4961 8abb
000000c0: 6945 a13a 755c 8abb e607 72bb b253 603b
000000d0: 226d a8bb d964 90ba b6d0 9a3b 4424 493b
000000e0: 6a0d 5bbb 0fba 413b 8cec f63a e629 84bb
000000f0: fa2b 67bb 482f acbb af67 a9bb
0.0026490614 0.00024627382 0.0029291846 0.003239119 0.004150143 0.004323462 0.0013225266 0.0026992282
-0.007196192 0.003476321 0.0022446455 0.00086329965 -0.0052340156 0.004884572 -0.003106988 -0.003929627
-0.0043492727 -0.0037604123 -0.004022872 -0.003638507 -0.0045093517 -0.0032138412 -0.004064242 0.0034298424
0.0021935145 -0.003874388 -0.0024657398 -0.0041283024 -0.0023934531 -0.0054208403 -0.0048613367 -0.003118641
0.0022427768 -0.004520308 0.00085369457 -0.0004461532 0.0026536356 -0.004219079 -0.0036915622 -0.0024239018
-0.0039299396 -0.0005834088 -0.002767419 -0.0039703688 -0.005504867 -0.0045231185 -0.0016056929 -0.004223023
0.0012304011 -0.0042224475 -0.0036930977 0.0034229574 -0.005139963 -0.0011016383 0.0047245873 0.0030691782
-0.0033424743 0.0029560362 0.0018838807 -0.004033315 -0.0035274015 -0.00525466 -0.0051698308

vgg.0.weight f4 [63, 63, 3, 3]
00000000: 395f c63c 32ad 3dbd 29ab a4bd 65aa f43b
00000010: 482f 30bd 3627 c3bc 0e7b 2e3d 07a5 b3bc
00000020: 70e7 4a3c e190 b13d fcfe 523d 27db bb3d
00000030: 4cc6 223d 44cc a2bd 0957 d2bb 17d9 70bb
00000040: d455 87bd 6488 b2bd defe cb3c dd63 41bd
00000050: dcb3 e13c 3072 90bb bf0f 0f3c 20dd 953d
00000060: c2c9 233d 4c25 d83b 1d99 683a 3b76 9e3d
00000070: 56fc 923d a59d 4c3d 3bfd 953c ed9c a8bc
00000080: cca3 13bd 8ec0 8abc 40ea e3bd c847 893c
00000090: 840f 1abb e788 413c 88b0 07bd c529 8fbd
000000a0: da3d 3ebd 792e 86bd b70a d3bd 7918 31bc
000000b0: 9c9e ee3c b1d0 d6bc ede7 61bc 5c83 c83d
000000c0: db5a c73d 0dcf 983d 3807 edbc 9746 31bc
000000d0: b64f 0eba e343 8d3d 1f31 a03d 1cd3 b83d
000000e0: a4ab ea3d 531d cdbd 51bf 7abb d10e 633c
000000f0: 2bca 9bbd 30b5 eabc 6deb afbc 3e71 75bd
00000100: 3bb4 f83d 8107 303c c5cc e73c d4dc 043d
00000110: fd18 163d 1aed a8bd 543f 853d e1ae a3bb
00000120: 8447 fcbc f53f c9bc 72b3 243c 46c0 6ebd
00000130: e5ea e13d 1d84 113d 2b03 823c 6460 453c
00000140: 8235 62bd be3a 553d d9d9 633d adbe 8cbd
00000150: 3d0d fe3c c3ce 863c 3226 f53c bb04 13bc
00000160: 1abc 37bc e480 a7bc bb44 bdbc 08fd e03b
00000170: a0bc 123c bddb 5c3d a865 cf3d c128 39bd
00000180: f6ed e13c 7270 b63d 7d72 1ebd 71eb 35bd
00000190: c418 99bc 3360 b53c 76ed fbbc 93ad 89bd
000001a0: ea39 28be 3373 d5bc b963 42bc 8a04 d2bc
000001b0: a185 cebb ed1c 0a3d 5ab3 e3bd 9ad2 153d
000001c0: 7b0d c43b 2fe3 6e3d 3d9a 60bc 5261 23bd
000001d0: 8a2a d8bc ae50 d93c c494 b93c 1456 bbba
000001e0: 8f5d d73c de91 0fbc 36f3 3dbd 4cf5 c5bd
000001f0: df0b 023e 2c58 dfbc 059a d0bb 5e10 3fbd
00000200: a23e 85bd 77cf 45bd 8758 8abd 776a acbd
00000210: 530b 07bd 6d0a ee3d 616c de3c b7c3 2bbc
00000220: b462 d7bd add1 1ebc bf8c 78bc 5a95 be3d
00000230: 8780 3bbc 82d5 743d c7a1 9d3c 29ec 033e
00000240: 2844 783c 58b8 723d ccce 24be 4389 58bc
00000250: 9c8c 14bc 6c38 173d a080 01bd 32f2 01bd
00000260: c2d8 f33c 402e e5bc b9e7 8e3d 5ce2 73bd
00000270: 49eb cabc d087 053d dec5 073d 2634 c63c
00000280: 4ebe 7ebd 1e1c 4c3b 5d19 783d f430 123d
00000290: ae6b 85bd 06ef e3bc 196b ebbd 91e8 5fbc
000002a0: b96e 513c 89ad 833c 0eeb 4bbd f5c4 133d
000002b0: 2955 9abc e671 133d 9c31 a43c f3b8 903d
000002c0: 93e1 56bd e06d 363d f447 8a3c 7d47 643d
000002d0: 14f4 673c 3815 75bd 72a1 7fbd 1fd8 65bc
000002e0: 8127 abbc 07d2 d6bb 0edd 5b3c e2d1 10bd
000002f0: 3e31 49bc e1fc f2bb 3886 43bb cb84 1e3d
00000300: 65ea 84bd a6dd f03c 98e0 de3d e1a5 68bc
00000310: f989 203d 7cb2 223c 0e9c 31bc faeb 86bc
00000320: 3513 b1bd fe66 7a3c 178f 2dbd 87a0 44bd
00000330: aa1c 21bb f721 8abd 94e2 a13d 38f1 9dbc
00000340: ce6f 893d 67a1 763d 4010 07be ccca 3e3c
00000350: ffb9 553c 2490 f5bd 0fbe 5bbd db83 e53d
00000360: ff45 9cbc 219c e93b 7459 2f3d 4bc4 473d
00000370: 9059 d9bc 9190 70bd 4faa 19bd 9a71 32bc
00000380: 1a4f 503c b410 4cbd 1f43 e63b 74a3 083d
00000390: 711c 113d ed82 8ebd 1912 1ebd 26b8 10bc
000003a0: d1b9 63bd f8a1 903d cd48 afbd 25d9 f93c
000003b0: 107b a6bd efbd 0e3d b02a 973d 6026 ddbc
000003c0: 8e32 fc3d d702 81bc 9ba1 4bba 65e7 c33c
000003d0: 0411 9fbd 4457 31bc e937 b63c dc8c 793c
000003e0: 5040 803d 7327 a43d cdbb 07bb b012 34bd
000003f0: e385 a83b 17fd 36bd dcc0 81bd 9cc2 1d3e
0.024215328 -0.04630775 -0.08040459 0.0074666017 -0.04301384 -0.023822408 0.042597823 -0.021929277
0.012384281 0.086702116 0.051512703 0.09172659 0.039739892 -0.07949117 -0.006419067 -0.003675049
-0.06608167 -0.08717421 0.024901804 -0.047214378 0.027551584 -0.0044081435 0.0087317815 0.07317567
0.039987333 0.006596243 0.00088729133 0.077373944 0.071770355 0.04995503 0.018309226 -0.02058264
-0.03604488 -0.01693752 -0.11128664 0.01675786 -0.0023507783 0.011812425 -0.033127338 -0.06990389
-0.046445705 -0.06551833 -0.10304778 -0.010809057 0.029128365 -0.026222559 -0.013788206 0.0979068
0.09734126 0.07461367 -0.028934106 -0.010820053 -0.0005428748 0.06897714 0.07821869 0.09024641
0.11458519 -0.10015359 -0.0038261006 0.013858513 -0.0760692 -0.02865085 -0.021474564 -0.05992245
0.12143751 0.010743977 0.028295884 0.03243716 0.036644924 -0.082483485 0.065062195 -0.0049952124
-0.03079582 -0.02456663 0.010052549 -0.058288835 0.11031131 0.035526384 0.015870651 0.012046907
-0.05522681 0.052057974 0.055627678 -0.06872306 0.031012172 0.016456014 0.02992544 -0.008973296
-0.0112142805 -0.020447202 -0.023104062 0.006866101 0.0089561045 0.053920496 0.10126811 -0.04520488
0.027579289 0.08908166 -0.038683403 -0.044413988 -0.018688567 0.022140598 -0.030752879 -0.0672256
-0.16428342 -0.026055908 -0.011864596 -0.02563693 -0.006302551 0.033718992 -0.11118193 0.0365778
0.0059830523 0.058322128 -0.013708648 -0.039887734 -0.026387472 0.026527729 0.022653945 -0.0014292621
0.02628973 -0.008762805 -0.046374522 -0.09665927 0.12699841 -0.027263723 -0.006366017 -0.04664647
-0.06506087 -0.048293557 -0.067551665 -0.08418744 -0.032969784 0.11623082 0.027151288 -0.010483674
-0.10516873 -0.009693545 -0.015170275 0.0930583 -0.0114442175 0.05977393 0.01924218 0.12883057
0.0151529685 0.059257835 -0.16094512 -0.0132163195 -0.009066727 0.036919042 -0.031616807 -0.031725116
0.029766444 -0.027976155 0.06977791 -0.059542045 -0.024770396 0.032600224 0.033147685 0.024194788
-0.062193207 0.003114469 0.060571063 0.035691217 -0.06514679 -0.027823936 -0.11495037 -0.013666288
0.012782746 0.016073959 -0.049784712 0.036076505 -0.018839436 0.035997294 0.020043187 0.07066526
-0.052461218 0.04453838 0.016880013 0.05573224 0.014157314 -0.05983469 -0.062409826 -0.014028578
-0.02089286 -0.006555799 0.013419403 -0.03535641 -0.012279807 -0.0074153994 -0.002983464 0.03870086
-0.0649002 0.029402565 0.108826816 -0.014199705 0.03919408 0.009930249 -0.010840429 -0.016469944
-0.086462416 0.015283344 -0.04237279 -0.048004653 -0.0024583736 -0.067447595 0.079045445 -0.019280061
0.06710778 0.06021252 -0.13189793 0.01164503 0.013044833 -0.11990383 -0.05364805 0.1120679
-0.019076345 0.0071292077 0.04280992 0.048771184 -0.026531965 -0.05873162 -0.037515935 -0.010891343
0.012714172 -0.049820617 0.0070270444 0.033359006 0.035427514 -0.06958566 -0.038591478 -0.008832967
-0.05559713 0.07062143 -0.085588075 0.03049905 -0.08128941 0.034849104 0.07381189 -0.026995838
0.1231433 -0.015748424 -0.00077679165 0.023914048 -0.07766917 -0.010824028 0.022243457 0.015231337
0.06262267 0.08015337 -0.0020711303 -0.043963134 0.0051429137 -0.04467496 -0.06335613 0.15406269

vgg.0.bias f4 [63]
00000000: 9fd3 5bbb 6963 753b 6859 d5b9 c218 05bb
00000010: 6b6d 93bb ed40 ffba 6f40 38b9 d6b8 b6ba
00000020: 1559 33bb f31b a9ba ccf9 06bb b741 77bb
00000030: 8b52 68bb e1cd 9dbb 24fd 92bb 2480 80b9
00000040: 885b e739 62cc 85bb 0556 c8ba de26 8ebb
00000050: 0acb 0abb 2b36 88bb 831b a439 f83a 04bb
00000060: 389d b6bb 61ef 71bb e5d7 87bb 76c8 11bb
00000070: 8355 92bb a2e8 0fbb 7f20 73bb e0ea 52bb
00000080: 2f92 35bb 8efb 033a b62a 55bb aa28 6db9
00000090: 8833 83bb 3223 2f3b aa91 5c3b 7ea5 053c
000000a0: b6b7 6dbb 1481 fe3a 8850 00bb fe5d 25bb
000000b0: 034f b5bb 412e 883b cc39 afba 637f 84bb
000000c0: 9e9d b0b9 8781 83bb 7fbe 7bba 7d2b 083b
000000d0: 2c47 89ba e208 0abb 86a6 19ba 168d 74bb
000000e0: a98c 7fb9 4f40 3d3a 0f14 0b3a d0b1 89bb
000000f0: 3bbc 113a 16b4 8cbb 467a fc3a
-0.0033542884 0.0037443286 -0.0004069314 -0.0020308946 -0.0044991276 -0.0019474305 -0.00017571611 -0.0013940583
-0.002736633 -0.0012902006 -0.0020595668 -0.0037728378 -0.003544959 -0.0048158024 -0.004485743 -0.00024509535
0.0004412795 -0.004083202 -0.0015284425 -0.0043381294 -0.002117815 -0.004156848 0.00031301015 -0.002017675
-0.005572941 -0.0036916363 -0.0041456097 -0.0022244728 -0.00446576 -0.0021958728 -0.0037098227 -0.0032183453
-0.002770554 0.0005034738 -0.0032526678 -0.0002261723 -0.0040039457 0.002672386 0.0033656158 0.008157132
-0.003627283 0.001941713 -0.001957925 -0.0025233026 -0.0055331006 0.0041559045 -0.0013368665 -0.004043506
-0.0003368677 -0.0040132436 -0.0009603276 0.0020777874 -0.0010473481 -0.0021062423 -0.0005861301 -0.003731554
-0.00024371095 0.00072193606 0.0005305418 -0.004202105 0.00055593596 -0.004293929 0.0019262515

oconv2.weight f4 [1, 63, 3, 3]
00000000: e392 933c a2cf 893d aff1 f83b 0f34 11be
00000010: 254b 36bd 17cd 90bd fb6c 36bd 46c3 02bd
00000020: 2ab6 efbc 8a53 1c3d b321 383d ca34 8c3d
00000030: 3ba4 70bd dbb0 d13b 8825 42bc 4117 32bc
00000040: 5a68 643d d707 a8bc 8923 c33c 6775 f53d
00000050: 6832 97bb d94a df3c c92c ab3d 38d7 0cbd
00000060: 8e25 01bd 2930 d13d ae4d 94bc 6fd9 9abd
00000070: fab6 ad3d 949e ffbb 9d6c 63bd 73c1 5abd
00000080: fe7a 9f3d f50a 353c 4036 ec3d b618 4bbd
00000090: 466c a53d 50cb b93c 3ce5 3fbd 6422 debb
000000a0: 6a29 64bb 9278 c7bc 8dc7 a6bd 0fb2 053d
000000b0: d2ce 903d 22cd 543d cca6 7d3d 4771 c7bd
000000c0: 1bb2 3d3d 8e79 443d 60a8 5d3d 0970 983d
000000d0: 633f a1bb 3ce8 5f3d 5117 75bd 71f8 693d
000000e0: 211f c73c 7116 f93d 8597 3f3d 0769 193e
000000f0: 7ea0 de3d b315 083d 79fe 953c dd9b 8dbc
00000100: d5a6 1c3d c281 de3c 5d51 663d f160 58bc
00000110: 8f6f 983d e5a7 dfbc b6a7 e63c 2bc9 07bd
00000120: 35ea f23c 83e2 723d 5da0 4d3d 5e1e f43c
00000130: 658d 06bb e9da 6bbd 1b40 f3bd e7b2 053e
00000140: 79a1 c83d 0a1b d63b 184b 71bd 7cb4 6f3d
00000150: b5c9 cf3d 5e6d 393c b2e8 3bbd c7f5 88bc
00000160: 4ef5 333c 2d38 113d c8ec 2a3e 345f b83d
00000170: 7a7d e43d b837 2dbc 3103 9cbd 10c7 ce3d
00000180: 2f3f 293d 82c6 71bd 7c0f dbbd a38a 57bc
00000190: 6906 70bc 024f 893d 205d 69bd b522 7fbd
000001a0: 3ab8 1cbd f88b 29bd a12e a2bd 760d 893d
000001b0: 3cc9 953d 96b9 c23d 422f 893d 31c6 51bd
000001c0: adf6 bcbc e3e3 863d a624 e23a d88c 10bd
000001d0: e7ea 25bd ae7d c4b9 5854 f8bd bcd5 cb3c
000001e0: 2fe6 3bbd a92d ffbd d723 713d aabb 023d
000001f0: 991c 0ebd 36c3 6e3a af71 bd3c b72e 95bd
00000200: bd8d b4bd e882 063d d8ce a6bd aa8d 69bd
00000210: b15d 0a3c 8307 973d 9ace 373e 5c80 65bd
00000220: 9cfe 573d cab8 8cbc 1a82 4f3d 1819 d73d
00000230: 57db 913d 12ba dabd c863 7a3c 2842 40bc
00000240: 2ea3 1d3d d755 4a3d 5018 51bd 7844 34bd
00000250: 27fe 70bd 059d 46bd 9d52 6ebd 1edf 3dbb
00000260: 57e5 b23c 9dc9 c6bd 9399 bdbb 01ee cd3c
00000270: 7b1c 62bc 5ac3 6c3d 203f 7abd c61b 173d
00000280: e42e a73d e74d 603c a8ff 883c 814f 81bd
00000290: 534a a4bd e91e cb3d 0a8f e8bc 6eb2 1abd
000002a0: a00b 1e3d 2f8b 493d 8985 e23c 5431 c13d
000002b0: aedc 0cbe 199c 183d 43f8 7c3b 6748 fe3c
000002c0: a837 d23d a8ed 57bb 1e78 843c 0480 5e3c
000002d0: 4e24 343d 3ba4 55bd e862 293d a739 603c
000002e0: e90d 433d a2aa 6c3d a904 763d 6c8e 9dbc
000002f0: d360 1abc 3ff2 893b 8ee8 8d3d a7c5 273d
00000300: 3e71 6cbd d6de 47bd c801 a73c eb1a 5dbd
00000310: 45a6 c3bd 3db7 7e3d e85d 593d b176 58bd
00000320: 1575 15bc bc2c 593d 0fc2 2e3c 8cc8 683c
00000330: 146b 07bd bba5 e53c 38e7 c93b c304 1fbd
00000340: 16bd 09bc c5cf bfbd 04b6 823d 231d 8dbd
00000350: 2616 ebbc a31a 8abd 0671 12bd ddea cabb
00000360: 62a2 a13a 065c 763c 7891 623e 038a 92bd
00000370: 55b1 8fbd 1296 08bd add4 d7bd 9b48 a73c
00000380: 014d 7c3d 2db9 0d3b b090 203d 1338 653d
00000390: 5316 1dbd a462 ef3c 897d f93d 9fb0 013e
000003a0: 4aee a13d 52d6 a43c b436 c7bc 6fd3 b5bc
000003b0: e6ce a5bc 9716 3abc fe92 94bc 7223 1ebd
000003c0: cd22 08bd 85f4 84bc faf8 07bd 2dd6 a33d
000003d0: 1193 5cbc 15cf 193d dd53 46bd 5a77 aabd
000003e0: dda1 15bc e850 42bd 3c71 e93d fed6 83bd
000003f0: 09e2 283c 9dc3 00bd 679d 05bd 0a1a 87bd
0.018014377 0.06729056 0.0075971703 -0.14180015 -0.044505257 -0.07070368 -0.044537526 -0.03192451
-0.029261667 0.038165607 0.044954013 0.06846006 -0.058750372 0.0063992566 -0.011849768 -0.010869802
0.05576358 -0.02051155 0.023820655 0.11985283 -0.004614163 0.02725737 0.083581515 -0.034384936
-0.031529956 0.10214264 -0.018103447 -0.075610034 0.08482166 -0.0078008864 -0.055523504 -0.053407144
0.07787131 0.011049976 0.11533785 -0.049584113 0.08077292 0.022679955 -0.046849474 -0.006779002
-0.0034814724 -0.024349485 -0.0814353 0.032640513 0.07070698 0.051953442 0.061926648 -0.09738403
0.046312433 0.047967486 0.054115653 0.07443244 -0.0049208864 0.054664835 -0.05983669 0.057121698
0.024306836 0.121624835 0.04677536 0.14981471 0.10870455 0.03322382 0.018309819 -0.017286235
0.03824504 0.027161483 0.056229938 -0.013206706 0.07443153 -0.027301738 0.028156143 -0.033150833
0.029652694 0.05929805 0.050201762 0.029799636 -0.0020531055 -0.057581816 -0.118774615 0.13056527
0.097964235 0.006533985 -0.058909506 0.058521733 0.101458944 0.011317579 -0.045876212 -0.016718758
0.010983778 0.035453964 0.16691887 0.090025336 0.11156745 -0.010572366 -0.07617796 0.10096562
0.041320022 -0.059027202 -0.10696313 -0.013155612 -0.014649966 0.06704523 -0.056973577 -0.06228896
-0.03826163 -0.04139325 -0.0791905 0.066920206 0.07313773 0.09508054 0.06698467 -0.0512144
-0.023066843 0.06586435 0.0017253354 -0.03529057 -0.040507223 -0.00037477672 -0.12125462 0.02488219
-0.045873817 -0.12459881 0.05887207 0.03191725 -0.03469524 0.0009108068 0.023125498 -0.07284301
-0.08816097 0.032839686 -0.08144921 -0.057019867 0.008445189 0.073744796 0.17949906 -0.056030616
0.05273305 -0.017177958 0.050661184 0.10502833 0.07121914 -0.10680021 0.015282579 -0.011734523
0.0384857 0.04939827 -0.051048577 -0.04401061 -0.05883613 -0.04848959 -0.058184255 -0.00289721
0.021837873 -0.097064234 -0.0057861297 0.025137903 -0.013800736 0.05780349 -0.061095357 0.03689172
0.081632406 0.013690448 0.016723469 -0.06313992 -0.08021989 0.09918005 -0.028388519 -0.03776782
0.038585305 0.049205 0.027651565 0.09433237 -0.13756058 0.03725824 0.0038600124 0.031040384
0.10264522 -0.003294805 0.016170558 0.013580326 0.043979935 -0.052158576 0.04135409 0.01368562
0.047620688 0.057779916 0.060063038 -0.019232951 -0.009422499 0.004209786 0.06929122 0.04095998
-0.057725184 -0.048796497 0.020386592 -0.05398075 -0.09553198 0.06218647 0.05306807 -0.052847568
-0.009122153 0.053021178 0.010666384 0.01420797 -0.033061102 0.028033128 0.0061615966 -0.0388229
-0.008406898 -0.09365801 0.06382373 -0.06890323 -0.028697085 -0.06743362 -0.03575232 -0.0061925487
0.0012331719 0.015036589 0.22125804 -0.0715523 -0.07016245 -0.033346243 -0.105386116 0.020420363
0.061596874 0.0021625266 0.039200485 0.05596168 -0.03835137 0.02922184 0.12182147 0.12665032
0.07906778 0.020121727 -0.024318077 -0.022195546 -0.020240258 -0.011357925 -0.018136498 -0.038608022
-0.033236314 -0.016229877 -0.033196427 0.07999835 -0.013462798 0.037551004 -0.048419822 -0.08323546
-0.0091328295 -0.04744044 0.11398551 -0.06437491 0.010307797 -0.03143655 -0.032620814 -0.065967634
