Models/model20.pth (torch, 151567 bytes, 6 tensors)

oconv1.weight f4 [1, 1, 3, 3]
0	0x3ee27a6d	0.44234028
1	0xbe1bb5e4	-0.15206105
2	0xbf029d3d	-0.51021177
3	0x3e3cb03f	0.18426608
4	0x3e290792	0.16506794
5	0xbe3fb68a	-0.18721977
6	0x3eb0a8e0	0.3450384
7	0xbeeba1e0	-0.46021938
8	0xbe54c586	-0.20778474

conv1.weight f4 [63, 1, 3, 3]
0	0xbfc7032a	-1.554784
1	0x3e9701bd	0.29493514
2	0x3e3f360c	0.18672961
3	0xbd187943	-0.03722502
4	0xbf66786c	-0.900275
5	0x3eab4434	0.33450472
6	0xbe033c05	-0.12815864
7	0x3e1471c0	0.14496517
8	0xbe464e37	-0.19365774
9	0xbe2b5adf	-0.16733883
10	0xbed40c3c	-0.41415584
11	0xbdf0d336	-0.11759035
12	0xbee08dd4	-0.43858206
13	0x3fa0cc07	1.2562264
14	0x3ea2bf55	0.317866
15	0x3e67828c	0.22608393
16	0xbf440daf	-0.7658338
17	0x3e8d74ce	0.27628177
18	0x3e6670ac	0.22503918
19	0xbf0d89ae	-0.5528821
20	0x3f074883	0.5284502
21	0xbf30aa23	-0.6900961
22	0x3eedd8ab	0.46454367
23	0x3ea10546	0.31449336
24	0xbe98234c	-0.2971443
25	0x3f2e472d	0.68077356
26	0xbe01e070	-0.12683272
27	0x3ea8769e	0.32902998
28	0xbf16c2c0	-0.58890915
29	0x3ef65133	0.48108825
30	0x3f8984b4	1.0743623
31	0x3b32ea69	0.0027300364
32	0x3f21d04d	0.63208467
33	0xbf13a7c7	-0.5767788
34	0x3e33ea2b	0.17569797
35	0x3f2e36fb	0.68052644
36	0xbf750d50	-0.9572344
37	0xbe5dd3f9	-0.21662892
38	0x3f0abd62	0.54195225
39	0x3e3ad581	0.18245508
40	0x3de99512	0.11405386
41	0xbd315ab0	-0.043299377
42	0xbde7ad27	-0.11312323
43	0xbe517aef	-0.20457052
44	0x3ea57355	0.32314554
45	0xbe0cf4b4	-0.13765222
46	0xbf1f2162	-0.62160313
47	0xbeb2e596	-0.34940785
48	0xbf2da068	-0.67822886
49	0xbda9f99d	-0.08299563
50	0x3f127e89	0.5722433
51	0x3f865546	1.0494773
52	0x3c9b914b	0.01899018
53	0xbeb97c04	-0.3622743
54	0x3db20e04	0.086940795
55	0xbe8c782e	-0.2743544
56	0x3df82f51	0.121184
57	0xbe693d93	-0.22777395
58	0x3ed4379b	0.41448674
59	0xbdb71ff8	-0.089416444
60	0xbf0f171f	-0.55894655
61	0x3ea8dde8	0.329818
62	0x3c3a6b9b	0.011378194
63	0x3ea6afd5	0.32556024
64	0x3edd4dca	0.4322341
65	0xbd7be2a1	-0.061495427
66	0x3df9a3b2	0.121894255
67	0xbec55254	-0.38539374
68	0x3f490b9f	0.7853336
69	0xbf4a48d9	-0.79017407
70	0x3ef4da35	0.4782273
71	0x3e318ab4	0.17338067
72	0x3f004032	0.50097954
73	0x3ebc88c2	0.36823088
74	0xbf9632af	-1.1734217
75	0xbc358433	-0.011078882
76	0xbf0258b1	-0.5091658
77	0x3f8fb54d	1.1227204
78	0x3e104d39	0.14091958
79	0x3e12bbc0	0.14329433
80	0x3cf8295b	0.030293157
81	0x3ec938e2	0.3930121
82	0x3d9eb3d1	0.07749141
83	0xbf1d7463	-0.6150572
84	0xbecbdf95	-0.39819017
85	0xbb506532	-0.0031798598
86	0x3e8d79b9	0.2763193
87	0xbeea0394	-0.45705855
88	0xbc9ea08a	-0.01936366
89	0xbe15ed31	-0.14641263
90	0x3f1cdd50	0.61275196
91	0xbe1897af	-0.14901613
92	0xbf392f71	-0.72338015
93	0xbee917e2	-0.45526034
94	0xbf05f25c	-0.52322936
95	0xbe846789	-0.2586024
96	0x3f49b700	0.7879486
97	0xbe90c478	-0.28274894
98	0xbee84027	-0.45361444
99	0xbe3c6796	-0.1839889
100	0xbd1bbdfc	-0.03802298
101	0x3e3e476d	0.18581934
102	0x3f36a5e3	0.71346873
103	0x3de4cef2	0.11172284
104	0xbf5b2d68	-0.8561616
105	0x3f074621	0.52841383
106	0x3f035404	0.5130007
107	0x3f0c220a	0.5473944
108	0x3f51da5f	0.8197383
109	0x3ea5340d	0.32266274
110	0xbf05cde9	-0.5226732
111	0xbee384d5	-0.4443728
112	0x3e4759a0	0.19467783
113	0x3f50e206	0.81594884
114	0x3f02951c	0.5100877
115	0x3d9fc32a	0.078008965
116	0x3fba8877	1.4572896
117	0x3f3b7dea	0.73239005
118	0xbdc07d65	-0.09398917
119	0xbe854b1f	-0.26033875
120	0xbf4787a7	-0.77941364
121	0xbdb84392	-0.08997263
122	0x3dbb76d7	0.09153526
123	0x3f03a5e9	0.51425034
124	0x3de7332a	0.11289056
125	0x3e84cff2	0.259399
126	0x3e3d4860	0.1848464
127	0xbce4d9ab	-0.027935823
128	0xbf0e0b5c	-0.55486083
129	0x3d20fa05	0.039300937
130	0x3b3b3206	0.0028563752
131	0xbdc12592	-0.09430994
132	0x3e37d768	0.17953265
133	0xbefe4013	-0.4965826
134	0x3ed3a860	0.41339397
135	0xbc98401f	-0.018585263
136	0x3e5cfdde	0.21581218
137	0xbeee71a7	-0.46571085
138	0x3eeb5f83	0.45971307
139	0x3ec3a3e1	0.38210967
140	0xbe7062e8	-0.2347523
141	0xbf1d0477	-0.6133494
142	0xbf374411	-0.71588236
143	0xbf0efe27	-0.55856556
144	0x3ec13bd2	0.37740952
145	0x3e38c8f7	0.18045412
146	0x3f2c8a79	0.6739879
147	0x3f1600f1	0.58595186
148	0xbf39ce45	-0.7258037
149	0x3ee7e4ef	0.4529185
150	0x3d832dc4	0.064052135
151	0x3ebd6545	0.36991325
152	0xbdc171a3	-0.094455026
153	0xbdb6aa7a	-0.089192346
154	0xbe9508c2	-0.29108244
155	0xbf38e168	-0.7221894
156	0x3ddeed95	0.10885159
157	0xbf46346e	-0.7742375
158	0xbf7cefed	-0.988036
159	0x3f0dece6	0.55439603
160	0x3f5abe62	0.8544675
161	0xbf4f8670	-0.8106451
162	0x3e1aeda9	0.15129723
163	0x3f7c11dd	0.9846476
164	0xbf8cffc1	-1.101555
165	0x3f307d95	0.6894162
166	0xbe36217b	-0.1778621
167	0x3e4d2711	0.20034434
168	0xbe861cff	-0.26193997
169	0xbdd67f1a	-0.104734614
170	0xbe9cf0f8	-0.30652595
171	0xbd90f9db	-0.07078906
172	0x3df5fa1d	0.12010596
173	0x3f08ef1c	0.5348985
174	0xbf38b102	-0.7214509
175	0x3e5b471b	0.21413843
176	0x3eb5e07f	0.3552284
177	0x3dd0e242	0.10199405
178	0x3ed02e7a	0.4066046
179	0x3f19edec	0.60128665
180	0x3ee7bf91	0.4526334
181	0x3e9221ba	0.28541356
182	0xbe9ce4b0	-0.30643225
183	0x3de4d4e9	0.11173422
184	0x3f71fd0a	0.9452673
185	0x3e18c44c	0.14918631
186	0x3ece02f9	0.40236643
187	0xbe798cf8	-0.24370182
188	0xbe316a58	-0.17325723
189	0xbe56499e	-0.2092652
190	0xbea28250	-0.31740046
191	0xbeb21ed5	-0.34789148
192	0x3e89f7e9	0.26946953
193	0x3f19147b	0.59796876
194	0x3c26d918	0.010183595
195	0xbce130a4	-0.027489014
196	0xbe2c8f69	-0.16851582
197	0xbd63e5f7	-0.055639233
198	0xbf02b02d	-0.5105007
199	0xbe40eb31	-0.18839718
200	0xbf070ce2	-0.5275403
201	0x3ef24bb8	0.47323394
202	0x3df8fee0	0.121579885
203	0x3e84a121	0.25904182
204	0x3f08fb4a	0.53508437
205	0xbe1fad76	-0.15593514
206	0xbe818ed9	-0.25304297
207	0xbe2bec37	-0.16789328
208	0xbf563e51	-0.8368884
209	0x3f6ac48b	0.9170615
210	0x3ddfa864	0.1092079
211	0x3e8ddc01	0.27706912
212	0xbc799b80	-0.015234828
213	0xbedaffde	-0.42773336
214	0x3eb2dec2	0.34935576
215	0x3efd618b	0.49488482
216	0xbe301af0	-0.17197776
217	0x3ee42c79	0.4456518
218	0x3e2ec663	0.17067866
219	0x3d3958d8	0.045250744
220	0x3ec3b1c5	0.38221565
221	0xbc8b21cf	-0.016983895
222	0xbfa0fd68	-1.2577333
223	0xbed2212e	-0.4104094
224	0x3eb23f4d	0.3481392
225	0x3e027160	0.12738562
226	0x3e32dafa	0.17466345
227	0xbec7fc4a	-0.3905967
228	0x3ea3d64f	0.31999442
229	0x3ece2450	0.4026208
230	0xbe49a496	-0.19691691
231	0x3e10df1b	0.14147608
232	0x3f10f15f	0.56618303
233	0x3df0f1f6	0.117649004
234	0xbf4a5854	-0.7904103
235	0xbea99ba8	-0.3312657
236	0xbebdded8	-0.3708408
237	0xbf309a6e	-0.6898564
238	0xbe780908	-0.24222195
239	0xbec6dcee	-0.3884043
240	0x3e7ddd42	0.24791434
241	0x3d996ddc	0.07491657
242	0xbf60aca2	-0.87763417
243	0x3e49e547	0.19716369
244	0x3f01de7f	0.5073013
245	0x3f2e5ee8	0.68113565
246	0x3e66a762	0.22524789
247	0xbdf612a3	-0.120152734
248	0xbf084721	-0.53233534
249	0xbeb3eab4	-0.35140002
250	0x3cd045e4	0.025423951
251	0x3e629490	0.22126985
252	0x3e0a37f3	0.13497905
253	0xbe12220a	-0.14270797
254	0xbf30d1c7	-0.69070095
255	0xbf606c3b	-0.87665147

conv1.bias f4 [63]
0	0x3b209cf0	0.0024507605
1	0x37604a09	1.3368678e-05
2	0x3b323449	0.002719181
3	0x3b451300	0.003007114
4	0x3b805446	0.003916296
5	0x3b876ca0	0.004132822
6	0x3a9157b9	0.0011088765
7	0x3b24112b	0.0025034647
8	0xbbe4c446	-0.0069814054
9	0x3b694e9e	0.0035599838
10	0x3b04f910	0.0020290054
11	0x3a35033c	0.0006905084
12	0xbba48432	-0.0050206417
13	0x3b9a2157	0.0047036815
14	0xbb5531d9	-0.0032530932
15	0xbb74cad9	-0.0037352352
16	0xbb87d5e9	-0.004145373
17	0xbb69439a	-0.0035593272
18	0xbb7ae3d2	-0.0038282764
19	0xbb60b48d	-0.0034287304
20	0xbb8dee4c	-0.0043313857
21	0xbb43b845	-0.0029864472
22	0xbb7e8035	-0.0038833742
23	0x3b57ec62	0.0032947292
24	0x3b0f5e99	0.0021876453
25	0xbb76f1b8	-0.0037680697
26	0xbb0f1ffa	-0.0021839128
27	0xbb80993b	-0.0039245165
28	0xbb2e114e	-0.0026560607
29	0xbbaad5f6	-0.0052134944
30	0xbb975647	-0.0046184394
31	0xbb3f0025	-0.0029144373
32	0x3b104cb6	0.002201838
33	0xbb8d680d	-0.0043153823
34	0x3a8fd4cf	0.0010973456
35	0xba46a36e	-0.00075774535
36	0x3b219fb4	0.002466184
37	0xbb859b27	-0.0040773335
38	0xbb651012	-0.0034952206
39	0xbb2e33b1	-0.0026581103
40	0xbb789b53	-0.0037934377
41	0xba55ab0f	-0.0008150795
42	0xbb2b4673	-0.002613452
43	0xbb777b92	-0.0037762863
44	0xbbae591d	-0.0053206817
45	0xbb8de352	-0.004330077
46	0xbab90c5c	-0.0014118063
47	0xbb83cd9c	-0.0040223133
48	0x3aa4b87e	0.001256719
49	0xbb846258	-0.004040044
50	0xbb688905	-0.003548206
51	0x3b5429b4	0.003237349
52	0xbba40048	-0.0050049163
53	0xba82d098	-0.0009980379
54	0x3b948898	0.004532885
55	0x3b3cc3ab	0.002880315
56	0xbb5677d0	-0.0032725222
57	0x3b354501	0.0027659538
58	0x3ae49744	0.00174401
59	0xbb7ba713	-0.0038399145
60	0xbb5d1245	-0.0033732813
61	0xbba67d5d	-0.0050808624
62	0xbba2e8ce	-0.0049716

vgg.0.weight f4 [63, 63, 3, 3]
0	0x3cc84935	0.02444897
1	0xbd3ce297	-0.04611453
2	0xbda437e3	-0.08018472
3	0x3bfaa012	0.0076484764
4	0xbd2f52fd	-0.042803753
5	0xbcc188d3	-0.023624813
6	0x3d2f384f	0.04277831
7	0xbcb20fb5	-0.021736005
8	0x3c4e9b73	0.012610304
9	0x3db1ebec	0.08687577
10	0x3d52776f	0.051383432
11	0x3dbc3e15	0.09191529
12	0x3d233348	0.039843827
13	0xbda284a1	-0.07935453
14	0xbbcb55b0	-0.006205283
15	0xbb62733b	-0.0034553546
16	0xbd87bacd	-0.06627426
17	0xbdb248c2	-0.08705284
18	0x3ccd60a7	0.025070501
19	0xbd40c4e3	-0.047062766
20	0x3ce2a2ed	0.02766558
21	0xbb8a9e04	-0.0042302627
22	0x3c1196dd	0.008886066
23	0x3d962f69	0.073332615
24	0x3d2474bc	0.04015039
25	0x3bdc3151	0.006719746
26	0x3a864891	0.0010245015
27	0x3d9ed171	0.077547915
28	0x3d93579b	0.07194444
29	0x3d4d97a6	0.05019345
30	0x3c97afc3	0.018516427
31	0xbca80c3d	-0.020513648
32	0xbd12e551	-0.035863224
33	0xbc897cd9	-0.016783165
34	0xbde3b4ff	-0.11118507
35	0x3c8a901b	0.016914418
36	0xbb0e023e	-0.0021668817
37	0x3c440fcf	0.01196666
38	0xbd0706dd	-0.03296553
39	0xbd8ecdbf	-0.06972837
40	0xbd3d6a44	-0.04624392
41	0xbd85ccac	-0.06533179
42	0xbdd2b4ff	-0.102884285
43	0xbc2e2bef	-0.010630592
44	0x3cf024f2	0.029314492
45	0xbcd64cee	-0.02615973
46	0xbc633f58	-0.013870083
47	0x3dc8dd80	0.09807873
48	0x3dc7b036	0.097504064
49	0x3d9943a4	0.074836046
50	0xbcec50ae	-0.028847065
51	0xbc2e5b3e	-0.010641871
52	0xb9c3767f	-0.00037281585
53	0x3d8db387	0.06919008
54	0x3da085c9	0.078380175
55	0x3db92580	0.09040356
56	0x3dea7383	0.11447813
57	0xbdcccc76	-0.09999935
58	0xbb801bc8	-0.003909562
59	0x3c622b5c	0.013804283
60	0xbd9b6f30	-0.07589567
61	0xbceacdf9	-0.028662669
62	0xbcb0b6ce	-0.021571543
63	0xbd7557cf	-0.059898194
64	0x3df8ecd3	0.12154546
65	0x3c3130b8	0.010814838
66	0x3ce955df	0.02848333
67	0x3d04df27	0.032439377
68	0x3d16d92f	0.036828216
69	0xbda8c814	-0.08241287
70	0x3d859d67	0.06524163
71	0xbba0e78d	-0.0049104155
72	0xbcfae32a	-0.030625898
73	0xbcc7f9d2	-0.024411116
74	0x3c2776fb	0.010221238
75	0xbd6e18b2	-0.05812902
76	0x3de24296	0.110478565
77	0x3d123fed	0.035705496
78	0x3c831d53	0.016005194
79	0x3c47f22c	0.012203734
80	0xbd6192b3	-0.055071544
81	0x3d55fcdf	0.05224311
82	0x3d649a3e	0.05581116
83	0xbd8c5ad2	-0.0685326
84	0x3cff9d51	0.031202944
85	0x3c884d8c	0.01663854
86	0x3cf6ac9f	0.030111609
87	0xbc0fbb9d	-0.008772758
88	0xbc34a219	-0.011024975
89	0xbca5f6b8	-0.020259246
90	0xbcbba0ae	-0.022903766
91	0x3bdfceb0	0.006830059
92	0x3c153277	0.00910627
93	0x3d5dae79	0.05412147
94	0x3dcfcf63	0.10146978
95	0xbd387c50	-0.04504043
96	0x3ce398a2	0.027782742
97	0x3db6bb53	0.08922448
98	0xbd1daa0b	-0.038492244
99	0xbd355b3f	-0.044276472
100	0xbc97b06c	-0.018516742
101	0x3cb6ce80	0.022315264
102	0xbcfa6afe	-0.030568596
103	0xbd89763e	-0.06712006
104	0xbe283d7a	-0.16429701
105	0xbcd44917	-0.025913758
106	0xbc3fad53	-0.011699039
107	0xbcd2e28a	-0.025742788
108	0xbbc8db99	-0.0061296937
109	0x3d09a6a1	0.033606175
110	0xbde353af	-0.11099946
111	0x3d16865f	0.03674924
112	0x3bc83701	0.0061100726
113	0x3d6f8e53	0.05848534
114	0xbc5e3f4e	-0.013564898
115	0xbd23498f	-0.039865073
116	0xbcd85d8c	-0.026411794
117	0x3cda7a13	0.026669538
118	0x3cb80874	0.022464968
119	0xbaa948b0	-0.0012915339
120	0x3cd8922e	0.026436891
121	0xbc0cb3de	-0.008587806
122	0xbd3d0844	-0.04615046
123	0xbdc6326c	-0.09677586
124	0x3e01cf56	0.12676749
125	0xbcde540d	-0.027139688
126	0xbbcb94ee	-0.006212822
127	0xbd3e7117	-0.04649457
128	0xbd84edae	-0.06490646
129	0xbd452958	-0.04813513
130	0xbd89f8e5	-0.06736926
131	0xbdac418f	-0.08410942
132	0xbd065b48	-0.032801896
133	0x3dee6297	0.11639898
134	0x3cdf78a2	0.027279202
135	0xbc287c89	-0.010283598
136	0xbdd6fc7f	-0.104973786
137	0xbc1fe55b	-0.009759272
138	0xbc7576d8	-0.014981948
139	0x3dbef1f0	0.0932349
140	0xbc3bee2f	-0.011470362
141	0x3d75c08a	0.059998073
142	0x3c9f4a6d	0.019444669
143	0x3e041120	0.12897158
144	0x3c765160	0.01503405
145	0x3d7360f7	0.059418645
146	0xbe24a00b	-0.16076677
147	0xbc5507fd	-0.013002393
148	0xbc127194	-0.008938212
149	0x3d17f32f	0.037097152
150	0xbd017f8f	-0.03161579
151	0xbd015eca	-0.03158454
152	0x3cf5674a	0.029956479
153	0xbce43976	-0.02785943
154	0x3d8f5943	0.06999447
155	0xbd7386a3	-0.05945457
156	0xbcc914b3	-0.024546003
157	0x3d0675d7	0.032827225
158	0x3d08bdef	0.03338426
159	0x3cc7c948	0.02438797
160	0xbd7de395	-0.061984617
161	0x3b5c8b08	0.0033652205
162	0x3d7905a4	0.060796395
163	0x3d12fcd5	0.03588565
164	0xbd84f499	-0.06491966
165	0xbce271f6	-0.027642231
166	0xbdeba6e8	-0.11506444
167	0xbc5f54ae	-0.013631029
168	0x3c5457ae	0.012960358
169	0x3c853b51	0.016263636
170	0xbd4c87ca	-0.049934186
171	0x3d1474d0	0.036244214
172	0xbc9946a0	-0.018710434
173	0x3d142668	0.03616944
174	0x3ca58fbe	0.020210143
175	0x3d9108f0	0.07081783
176	0xbd5627dd	-0.05228411
177	0x3d370ccc	0.04468994
178	0x3c8b450b	0.017000696
179	0x3d64f3f2	0.055896707
180	0x3c6ab642	0.01432568
181	0xbd74636e	-0.059665136
182	0xbd800edb	-0.062528335
183	0xbc6368ed	-0.013879997
184	0xbca9c1a3	-0.020722216
185	0xbbd32d39	-0.0064446
186	0x3c5ec91c	0.013597753
187	0xbd106951	-0.035256688
188	0xbc47cb83	-0.012194517
189	0xbbee2807	-0.007267955
190	0xbb34c3f6	-0.0027582622
191	0x3d1e3d20	0.038632512
192	0xbd84ea9f	-0.06490063
193	0x3cf2b137	0.029625518
194	0x3ddf371e	0.10899185
195	0xbc64fc92	-0.013976233
196	0x3d215d6c	0.039395735
197	0x3c253bb5	0.010085036
198	0xbc2ed2a4	-0.010670338
199	0xbc8594d6	-0.016306322
200	0xbdb0c014	-0.08630386
201	0x3c7cfe33	0.015441465
202	0xbd2cd525	-0.042195458
203	0xbd43e600	-0.047826767
204	0xbb177b0d	-0.0023114115
205	0xbd89ce4f	-0.06728803
206	0x3da233d0	0.07920039
207	0xbc9e8146	-0.019348752
208	0x3d89df5e	0.06732057
209	0x3d77710c	0.060410544
210	0xbe073a33	-0.13205795
211	0x3c3f162d	0.011663002
212	0x3c593101	0.013256312
213	0xbdf5397e	-0.119738564
214	0xbd5b1429	-0.053486023
215	0x3de5e797	0.11225813
216	0xbc9ade5d	-0.01890486
217	0x3bef7927	0.0073081437
218	0x3d300bee	0.042980127
219	0x3d487c1a	0.048946477
220	0xbcd811ec	-0.026375733
221	0xbd6fce8b	-0.058546584
222	0xbd18ea62	-0.0373329
223	0xbc2f7915	-0.010710021
224	0x3c533533	0.012891102
225	0xbd4b6738	-0.049658984
226	0x3beb3aea	0.007178654
227	0x3d07fa65	0.03319778
228	0x3d11d425	0.035602707
229	0xbd8e3a65	-0.069447316
230	0xbd1ea198	-0.038728327
231	0xbc0e204b	-0.008674691
232	0xbd633a4c	-0.055475518
233	0x3d9011ff	0.070346825
234	0xbdaee312	-0.08539404
235	0x3cfb6d9a	0.03069191
236	0xbda61ae5	-0.081105985
237	0x3d0f86ac	0.035040542
238	0x3d979046	0.07400565
239	0xbcdb8aeb	-0.02679964
240	0x3dfc95d6	0.123332664
241	0xbc7f0549	-0.015565225
242	0xba17a81f	-0.0005785245
243	0x3cc4f2dd	0.024041587
244	0xbd9ec10f	-0.07751667
245	0xbc2dc2ad	-0.010605496
246	0x3cb8008f	0.022461204
247	0x3c7bc3c0	0.015366495
248	0x3d8093d7	0.06278198
249	0x3da478df	0.08030867
250	0xbafa2b6f	-0.001908643
251	0xbd334b33	-0.043772887
252	0x3bae6662	0.0053222636
253	0xbd360270	-0.04443592
254	0xbd81552b	-0.063150726
255	0x3e1df581	0.15425684

vgg.0.bias f4 [63]
0	0xbb4ffe19	-0.0031737147
1	0x3b81ecef	0.0039650123
2	0xba0522a2	-0.0005078708
3	0xbb09e4e1	-0.0021040963
4	0xbb8d3f5f	-0.004310533
5	0xbaed456b	-0.0018102353
6	0xb98978fe	-0.00026220822
7	0xbab88deb	-0.0014080381
8	0xbb2f8788	-0.0026783664
9	0xba9c2cdd	-0.0011915226
10	0xbaf9bb1b	-0.0019052954
11	0xbb6e825c	-0.0036393618
12	0xbb676cbf	-0.003531262
13	0xbb996dea	-0.004682292
14	0xbb8f21e0	-0.004368052
15	0xb983dd7d	-0.0002515129
16	0x39f243fb	0.00046208486
17	0xbb808d86	-0.003923121
18	0xbadc66f9	-0.0016815356
19	0xbb8975a0	-0.00419493
20	0xbb0394cc	-0.0020077704
21	0xbb8890c1	-0.0041676466
22	0x39db2046	0.0004179498
23	0xbaebabdc	-0.0017980295
24	0xbbb10713	-0.0054024546
25	0xbb659e10	-0.003503684
26	0xbb807765	-0.003920483
27	0xbb0b07db	-0.00212144
28	0xbb8e0249	-0.0043337685
29	0xbb1070da	-0.002203992
30	0xbb6a4bf3	-0.0035750836
31	0xbb44b4a2	-0.0030014892
32	0xbb2fdf8c	-0.0026836125
33	0x3a37b63b	0.00070080505
34	0xbb4b04ff	-0.003097832
35	0x37a3130f	1.9439989e-05
36	0xbb7c0d8c	-0.0038460223
37	0x3b359faa	0.0027713575
38	0x3b5cbc74	0.0033681663
39	0x3c047bc7	0.008086151
40	0xbb61ccc3	-0.0034454323
41	0x3ae36891	0.0017349889
42	0xbae611c1	-0.0017552898
43	0xbb170427	-0.0023043246
44	0xbbb013fc	-0.005373476
45	0x3b84cb87	0.0040525827
46	0xba958cc6	-0.0011409752
47	0xbb7e16c5	-0.0038770896
48	0xb994e6fa	-0.0002840085
49	0xbb7ca9ee	-0.0038553434
50	0xba36318d	-0.00069501327
51	0x3b067169	0.0020514375
52	0xba874132	-0.0010319112
53	0xbafc9ed3	-0.0019273408
54	0xba2d96db	-0.00066219055
55	0xbb681026	-0.0035410016
56	0xba06260c	-0.0005117364
57	0x3a36f0a7	0.0006978609
58	0x39ede8f9	0.0004537774
59	0xbb8285f4	-0.0039832536
60	0x3a1dd72f	0.00060211396
61	0xbb853628	-0.004065294
62	0x3ae6f8ba	0.0017621734

oconv2.weight f4 [1, 63, 3, 3]
0	0x3c91e68b	0.017810127
1	0x3d8a2b0e	0.06746493
2	0x3bf7faef	0.0075677554
3	0xbe1145de	-0.14186808
4	0xbd3712f3	-0.044695806
5	0xbd906ff8	-0.07052606
6	0xbd375e86	-0.04476788
7	0xbd0241ec	-0.03180115
8	0xbcf1a718	-0.029498622
9	0x3d1d1802	0.038352974
10	0x3d376071	0.044769708
11	0x3d8cb104	0.068697006
12	0xbd714e18	-0.058912367
13	0x3bd5d003	0.006525041
14	0xbc3e6e39	-0.011622959
15	0xbc2ec1f5	-0.01066636
16	0x3d63b62f	0.055593666
17	0xbca9f0ab	-0.020744642
18	0x3cc1dcab	0.023664793
19	0x3df5dde9	0.12005217
20	0xbb947b50	-0.0045313016
21	0x3cddc921	0.027073445
22	0x3dab7327	0.08371573
23	0xbd0d479a	-0.034492113
24	0xbd01b9c3	-0.031671297
25	0x3dd0ee2f	0.1020168
26	0xbc93db67	-0.018048955
27	0xbd9b339a	-0.075782016
28	0x3dae14b1	0.0850004
29	0xbc01fe08	-0.007934101
30	0xbd64399d	-0.055719007
31	0xbd5b8850	-0.053596795
32	0x3d9fe665	0.07807616
33	0x3c37d877	0.011221043
34	0x3dec2996	0.115313694
35	0xbd4a7457	-0.049427357
36	0x3da5e031	0.08099402
37	0x3cb84661	0.022494497
38	0xbd3fae3e	-0.04679703
39	0xbbd86148	-0.0066033937
40	0xbb6cc389	-0.003612729
41	0xbcc5c65e	-0.02414244
42	0xbda7385c	-0.081650466
43	0x3d04cc66	0.032421492
44	0x3d91529c	0.070958346
45	0x3d55b688	0.05217603
46	0x3d7cb1f5	0.06169315
47	0xbdc71115	-0.09720055
48	0x3d3e805b	0.046509128
49	0x3d453b84	0.04815246
50	0x3d5d027e	0.053957455
51	0x3d99006a	0.07470782
52	0xbb9da043	-0.0048103645
53	0x3d5ee8b7	0.054421153
54	0xbd75e06c	-0.06002848
55	0x3d6adbab	0.057338398
56	0x3cc84546	0.024447095
57	0x3df8eb03	0.121542
58	0x3d3f7c56	0.046749435
59	0x3e199f7e	0.15002248
60	0x3dde7eec	0.10864052
61	0x3d077b05	0.033076305
62	0x3c9462b0	0.018113464
63	0xbc8e33b4	-0.017358638
64	0x3d1d55ec	0.03841202
65	0x3cdfc3f1	0.027315112
66	0x3d66ba9f	0.05633032
67	0xbc5707aa	-0.013124386
68	0x3d98cf42	0.07461406
69	0xbce17474	-0.02752135
70	0x3ce874fe	0.028376099
71	0xbd075f39	-0.033049796
72	0x3cf4a5dc	0.029864244
73	0x3d73c37c	0.0595126
74	0x3d4e6908	0.050393134
75	0x3cf5b5d6	0.029993933
76	0xbaf4c2b2	-0.0018673746
77	0xbd6bf296	-0.057604395
78	0xbdf3a75b	-0.11897155
79	0x3e05e4fc	0.13075632
80	0x3dc90d20	0.098169565
81	0x3bd18dfb	0.006395099
82	0xbd726c36	-0.05918523
83	0x3d6f0e5b	0.0583633
84	0x3dcfd5f7	0.101482324
85	0x3c3dc567	0.011582709
86	0xbd3cd716	-0.04610356
87	0xbc8a3fe5	-0.01687617
88	0x3c35cd27	0.011096275
89	0x3d12058d	0.035649825
90	0x3e2b308c	0.16717738
91	0x3db8ccff	0.09023475
92	0x3de4f1d4	0.111789376
93	0xbc306060	-0.010765165
94	0xbd9b99b0	-0.07597673
95	0x3dcf0860	0.10109019
96	0x3d2934b4	0.041310027
97	0xbd72a32f	-0.059237655
98	0xbddabbfb	-0.10680386
99	0xbc58d462	-0.01323423
100	0xbc6c5e5a	-0.014426792
101	0x3d899b31	0.067190535
102	0xbd6a01ba	-0.057130553
103	0xbd7ff1d6	-0.062486492
104	0xbd1bbdeb	-0.038022917
105	0xbd28c920	-0.041207433
106	0xbda290a2	-0.07937743
107	0x3d88ac8a	0.06673534
108	0x3d96314a	0.0733362
109	0x3dc24cbb	0.094872914
110	0x3d89984c	0.067185014
111	0xbd525d4c	-0.051358506
112	0xbcbe3136	-0.023216825
113	0x3d8751e6	0.06607418
114	0x3ac88ec3	0.0015301335
115	0xbd1129b5	-0.035440166
116	0xbd252db3	-0.040326785
117	0xb9322466	-0.00016988962
118	0xbdf87d21	-0.121332414
119	0x3ccda189	0.02510144
120	0xbd3cb1f4	-0.046068147
121	0xbdff04b9	-0.12452073
122	0x3d708f32	0.05873031
123	0x3d03d3d0	0.032184422
124	0xbd0ea94f	-0.034829434
125	0x3a928455	0.0011178354
126	0x3cbd1ea5	0.023085902
127	0xbd9583cd	-0.0730053
128	0xbdb44d43	-0.08803799
129	0x3d07507e	0.033035748
130	0xbda73879	-0.08165068
131	0xbd68cf05	-0.056838054
132	0x3c071cd5	0.00824662
133	0x3d976b32	0.07393493
134	0x3e3810e5	0.17975195
135	0xbd664229	-0.05621544
136	0x3d58b36f	0.052905496
137	0xbc8e41e5	-0.017365405
138	0x3d4f4666	0.050604247
139	0x3dd797ec	0.10527024
140	0x3d924995	0.07142941
141	0xbddb27d8	-0.10700959
142	0x3c776843	0.0151005415
143	0xbc42b507	-0.011883981
144	0x3d1cc6eb	0.03827564
145	0x3d4abdc0	0.049497366
146	0xbd50a07b	-0.050934296
147	0xbd3521f4	-0.044221833
148	0xbd71a5e3	-0.058996093
149	0xbd45ea34	-0.048319057
150	0xbd6f0aa9	-0.058359776
151	0xbb4a1f88	-0.0030841548
152	0x3cb4354b	0.021998068
153	0xbdc73203	-0.09726336
154	0xbbb79773	-0.005602771
155	0x3ccfd60e	0.025370624
156	0xbc5fd9bb	-0.013662751
157	0x3d6cbb14	0.0577956
158	0xbd7b228e	-0.06131225
159	0x3d17ceb3	0.037062358
160	0x3da795ac	0.081828445
161	0x3c5ccd1a	0.013476634
162	0x3c87dac3	0.016583806
163	0xbd8101c4	-0.06299165
164	0xbda4771a	-0.08030529
165	0x3dcb8a73	0.099385165
166	0xbce9c7e1	-0.028537693
167	0xbd1a34ed	-0.03764813
168	0x3d1d556c	0.038411543
169	0x3d4a6061	0.04940832
170	0x3ce42c16	0.027853053
171	0x3dc19e2a	0.094539955
172	0xbe0d1931	-0.13779141
173	0x3d1884bd	0.037235964
174	0x3b729c33	0.0037019372
175	0x3cff3ab2	0.031155918
176	0x3dd2a2f8	0.1028499
177	0xbb62949e	-0.0034573446
178	0x3c85396b	0.01626273
179	0x3c5f331c	0.013623025
180	0x3d3504da	0.04419408
181	0xbd566946	-0.05234649
182	0x3d28ec5d	0.04124104
183	0x3c63ab67	0.013895846
184	0x3d43eb91	0.047832076
185	0x3d6bf1e8	0.057603747
186	0x3d76cb9e	0.06025278
187	0xbc9f30b8	-0.01943241
188	0xbc1ada1a	-0.0094514135
189	0x3b8fa078	0.004383143
190	0x3d8de871	0.069291
191	0x3d287f41	0.041136984
192	0xbd6d4969	-0.057931338
193	0xbd471577	-0.048604455
194	0x3ca61716	0.02027468
195	0xbd5c58f1	-0.05379576
196	0xbdc40345	-0.09570936
197	0x3d7dcc1e	0.06196224
198	0x3d5a1820	0.053245664
199	0xbd5889fc	-0.052865967
200	0xbc14f6fc	-0.009092089
201	0x3d58e44b	0.052952092
202	0x3c30540c	0.010762226
203	0x3c6c5c24	0.014426265
204	0xbd07a445	-0.033115644
205	0x3ce5cf56	0.028052967
206	0x3bd08661	0.0063636755
207	0xbd1fe299	-0.03903446
208	0xbc07861c	-0.00827172
209	0xbdc07397	-0.09397047
210	0x3d82671d	0.063673235
211	0xbd8da277	-0.06915753
212	0xbce98a7d	-0.02850842
213	0xbd8aa4ce	-0.06769715
214	0xbd1298ed	-0.035790373
215	0xbbc41455	-0.005983869
216	0x3ab71741	0.0013968722
217	0x3c733234	0.014843512
218	0x3e62ca01	0.22147371
219	0xbd92e209	-0.07172019
220	0xbd901d08	-0.07036787
221	0xbd07a719	-0.03311834
222	0xbdd841a1	-0.10559393
223	0x3ca90762	0.020633403
224	0x3d7b5076	0.06135603
225	0x3b1b7856	0.002372285
226	0x3d215a53	0.03939278
227	0x3d648f6c	0.05580084
228	0xbd1db85a	-0.03850589
229	0x3cef16c3	0.029185658
230	0x3df9de6f	0.12200629
231	0x3e01d9f0	0.12680793
232	0x3da19d43	0.078913234
233	0x3ca2e250	0.019883305
234	0xbcc8ac63	-0.024496263
235	0xbcb72cd3	-0.022360241
236	0xbca6584b	-0.020305773
237	0xbc3cba3d	-0.011519012
238	0xbc95b287	-0.018273605
239	0xbd1ef6d7	-0.038809624
240	0xbd08edbf	-0.033429857
241	0xbc866b97	-0.016408725
242	0xbd08cf63	-0.033400904
243	0x3da44e1d	0.080227114
244	0xbc598678	-0.013276689
245	0x3d18f446	0.037342332
246	0xbd470a6a	-0.048593916
247	0xbdaad64b	-0.083416544
248	0xbc175318	-0.00923612
249	0xbd4166b0	-0.04721707
250	0x3de9ee1b	0.11422368
251	0xbd840d82	-0.06447889
252	0x3c2bc396	0.010483643
253	0xbd017e88	-0.03161481
254	0xbd052880	-0.032509327
255	0xbd878410	-0.06616986
