Models/model36.pth (torch, 152271 bytes, 6 tensors)

oconv1.weight f4 [1, 1, 3, 3]
00000000: 3a1a e23e c1fa 1abe df67 02bf bd54 3d3e
00000010: 9a41 283e 2cfb 3ebe 9e49 b03e 483b ebbe
00000020: e3e3 53be
0.44160634 -0.15134718 -0.50939745 0.18489356 0.16431275 -0.18650502 0.34431165 -0.45943666
-0.206924

conv1.weight f4 [63, 1, 3, 3]
00000000: ade0 c6bf 615e 973e de77 3e3e 0af0 14bd
00000010: b847 66bf e49b ab3e f27a 02be 0084 133e
00000020: c7cc 46be 566f 2abe 8392 d3be 12c0 eebd
00000030: c910 e0be e0e1 a03f dd2c a33e 4b52 683e
00000040: 8a4e 44bf 50f5 8c3e a1aa 653e 165b 0dbf
00000050: fd7e 073f 5b70 30bf 0e91 ed3e 55fb a03e
00000060: db41 98be 536a 2e3f aeca 00be 11d2 a83e
00000070: b988 16bf a803 f63e 356b 893f fddf 673b
00000080: 220d 223f 3272 13bf a6b7 343e 5410 2e3f
00000090: f243 75bf 0eca 5ebe 03cc 0a3f 2ef5 393e
000000a0: de7f e73d 7b62 35bd dca7 e9bd 247d 52be
000000b0: a609 a53e 6ac1 0dbe 4943 1fbf 863d b3be
000000c0: e1d2 2dbf 6ae9 abbd dc44 123f 5534 863f
000000d0: eb84 943c 171c b9be bfa4 b03d 4001 8cbe
000000e0: 656b f63d 15f1 69be 169f d43e 954d b8bd
000000f0: 3045 0fbf e89c a83e 40df 4a3c bce1 a63e
00000100: 4c6e dd3e d7ed 78bd 7c29 fb3d 59f7 c4be
00000110: ddd8 483f 490a 4abf 3457 f53e f3c3 303e
00000120: 730b 003f 6012 bc3e 2a16 96bf d444 45bc
00000130: 3157 02bf 1198 8f3f 5466 0f3e 17dc 113e
00000140: b0ee f23c 00c6 c83e 852e 9d3d 2e5d 1dbf
00000150: 2566 cbbe 7d3d 75bb 4613 8d3e 8b5a eabe
00000160: d0c6 a3bc e2a5 16be b2a6 1c3f b69e 17be
00000170: bf20 39bf b681 e9be 7926 06bf c34e 84be
00000180: f280 493f 1b6a 90be 49cc e7be cd15 3dbe
00000190: dfdf 1abd f215 3f3e 6cc4 363f a214 e33d
000001a0: 733d 5bbf def3 063f 3918 033f 92ed 0b3f
000001b0: 27a0 513f 677c a53e 15a6 05bf c0d0 e3be
000001c0: 903a 473e d5fb 503f 485c 023f 0746 9e3d
000001d0: e96a ba3f 15ab 3b3f 543a bfbd 14c6 84be
000001e0: 4c4b 47bf 52b6 b6bd a9c1 bc3d e66d 033f
000001f0: c4d7 e83d 0b44 843e 3258 3c3e 6433 edbc
00000200: c5df 0dbf ef37 233d c627 6a3b 875b bfbd
00000210: 771f 373e a3d3 febe 9e21 d33e 821b a0bc
00000220: 14f3 5b3e fa19 eebe 82c3 ea3e b628 c33e
00000230: 27ac 6fbe 42d8 1cbf b017 37bf 42cc 0ebf
00000240: 59dd c03e 32f8 373e 9e52 2c3f adcf 153f
00000250: be7b 39bf 9481 e73e 4868 813d 0b0b bd3e
00000260: d78a c2bd 4770 b6bd 7811 95be 67b8 38bf
00000270: 9a78 dd3d 13ff 45bf feb3 7cbf b70c 0e3f
00000280: 838a 5a3f 1559 4fbf 3db9 1b3e a6db 7b3f
00000290: a8da 8cbf d3b7 303f 48d9 36be 57d9 4c3e
000002a0: ada2 85be 1655 d4bd 4b66 9cbe f721 8fbd
000002b0: 472d f43d 01be 083f 387e 38bf 6b44 5b3e
000002c0: 2482 b53e 5065 cf3d c578 d03e 13b5 193f
000002d0: b605 e83e 45c4 913e 3b7e 9cbe 0a73 e63d
000002e0: fbc9 713f bf02 183e 94de cd3e d28f 78be
000002f0: ad8d 30be 51e3 56be 1d04 a2be e73a b2be
00000300: 9196 893e 6ee9 183f eca6 1b3c f822 d8bc
00000310: 9123 2dbe ee73 65bd 1c7c 02bf 03f7 41be
00000320: e4ff 06bf 7627 f23e 2be4 f93d 542d 843e
00000330: 60c3 083f 834a 1fbe a009 82be af02 2bbe
00000340: ffe3 55bf d484 6a3f e693 e13d e648 8e3e
00000350: c220 83bc d085 dabe 2233 b23e 7be3 fd3e
00000360: 71f6 2ebe 7fc7 e43e cc13 303e a526 3d3d
00000370: a728 c43e c753 90bc efd6 a0bf 94bc d1be
00000380: 5ed0 b13e e523 023e a4a1 333e 847c c7be
00000390: fe90 a33e d48f ce3e 71ed 48be 8611 103e
000003a0: 94eb 103f 59ee ee3d 511d 4abf 8992 a9be
000003b0: f5dd bdbe afb6 30bf bdfa 76be 9803 c7be
000003c0: 9316 7d3e f217 983d 8768 60bf eef1 4a3e
000003d0: fca9 013f 962e 2e3f 615f 673e 080c f4bd
000003e0: 0810 08bf 6d4e b3be 438c d73c ae26 623e
000003f0: 2398 093e 8f55 11be 6787 30bf 0d7e 60bf
-1.5537316 0.29564193 0.18600413 -0.03636173 -0.89953184 0.33517373 -0.12742212 0.14405823
-0.19414054 -0.16644034 -0.41322717 -0.11657728 -0.43762806 1.2568932 0.31870165 0.22687642
-0.7668234 0.2753091 0.22428371 -0.5521711 0.52928144 -0.6892144 0.4639973 0.3144175
-0.29737744 0.6813099 -0.12577316 0.32972768 -0.5880237 0.48049664 1.0735842 0.003538131
0.6330129 -0.57596123 0.17648181 0.67993665 -0.958068 -0.21756765 0.5421755 0.18159935
0.113036856 -0.04428337 -0.1140897 -0.2055555 0.32233924 -0.13843313 -0.62212044 -0.35007876
-0.678999 -0.083941296 0.5713632 1.048472 0.018129786 -0.36154243 0.08625173 -0.27344704
0.12032203 -0.22845872 0.41527623 -0.089991726 -0.55964947 0.3293221 0.0123823285 0.32594097
0.43248212 -0.060773697 0.12263772 -0.3846996 0.7845591 -0.78921944 0.47918093 0.17262249
0.5001747 0.3673277 -1.1725514 -0.012040336 -0.50914294 1.1218282 0.14003879 0.14244114
0.02965483 0.39213562 0.076748885 -0.61470306 -0.39726368 -0.0037420683 0.27553767 -0.45772204
-0.019992262 -0.14711717 0.61191857 -0.14806637 -0.7231559 -0.45606774 -0.52402455 -0.2584134
0.7871238 -0.28205952 -0.45273045 -0.18465348 -0.037811156 0.18660715 0.71393466 0.1108792
-0.8564064 0.5271586 0.51208836 0.5465938 0.81885 0.32321474 -0.52206546 -0.444952
0.19455934 0.81634265 0.5092206 0.077282004 1.4563876 0.73307925 -0.09337297 -0.25932372
-0.7784927 -0.089214936 0.09216625 0.51339567 0.11369279 0.25833163 0.18393019 -0.028955169
-0.5541957 0.039848264 0.0035729273 -0.09343629 0.17883097 -0.4977084 0.41236585 -0.019544367
0.21479446 -0.46504194 0.45852286 0.38116997 -0.23405515 -0.61267483 -0.7152052 -0.5578042
0.37668875 0.17965773 0.67313564 0.58520013 -0.7245444 0.45216048 0.06318718 0.36922488
-0.09499138 -0.08908134 -0.2911489 -0.72156376 0.108140185 -0.7734234 -0.98712146 0.5548815
0.853676 -0.80995303 0.15207382 0.9838203 -1.1004229 0.69030493 -0.17856324 0.20004784
-0.26100674 -0.10367791 -0.30546793 -0.069889 0.119226985 0.5341492 -0.72067595 0.21412818
0.35450852 0.10126746 0.4071714 0.6004192 0.45316857 0.28470054 -0.30565056 0.11252411
0.9444882 0.14844798 0.40208876 -0.24273613 -0.17241545 -0.20985152 -0.31643763 -0.34810564
0.26872686 0.59731185 0.0095002465 -0.026383862 -0.16908099 -0.056018762 -0.50970626 -0.18941884
-0.5273421 0.4729573 0.12201723 0.25815833 0.5342312 -0.15555768 -0.25397968 -0.16700242
-0.8355102 0.9160893 0.110145375 0.27789992 -0.016006831 -0.42680216 0.34804636 0.49587616
-0.17086197 0.44683453 0.17195052 0.046179432 0.38312265 -0.017618073 -1.2565593 -0.40964186
0.34729284 0.12709005 0.1754213 -0.38962185 0.31946558 0.40344107 -0.19621827 0.14069185
0.56609464 0.11666555 -0.78950983 -0.3311961 -0.37083402 -0.69028753 -0.24119087 -0.3886993
0.24715643 0.07426442 -0.87659496 0.19818851 0.5065 0.68039834 0.22594978 -0.11916357
-0.5314946 -0.35020772 0.026312 0.22085068 0.13436942 -0.14192794 -0.6895661 -0.8769234

conv1.bias f4 [63]
00000000: 65bd 4f3b f5db 713a a788 663b fbe3 813b
00000010: 8a7e 9d3b 4c6a a13b ba38 023b 4888 573b
00000020: 9a3a 00bc 2890 4a3b 3c0c 473b 7536 b03a
00000030: 46e6 bfbb 3071 b03b 44f5 37bb 3229 92bb
00000040: e4c8 a1bb 3157 8ebb 9238 96bb 4654 8bbb
00000050: d62e a4bb c502 7cbb 6ea6 94bb 0994 753b
00000060: 998c 0f3b e4a1 86bb f019 54bb c377 9abb
00000070: f258 c7ba 47ea c4bb 7e5c b7bb 1b4f 7abb
00000080: f876 093b f286 a6bb 7de1 4939 47c8 e439
00000090: d3f0 4f3b 3199 96bb 3fbd 8bbb ddb9 cdba
000000a0: 158c 8abb 7d76 7a38 425a 54bb 0da5 95bb
000000b0: 2762 c5bb 25e9 a5bb 53cb 0fbb 8351 9dbb
000000c0: 9b42 9b3a 4329 9abb fd03 85bb 3722 813b
000000d0: 3a29 b2bb 7e1c c0ba 7088 ac3b fd7c 6a3b
000000e0: 239f 66bb 32fc 653b 8a35 183b 6809 96bb
000000f0: d998 80bb dcc6 b8bb b2df bbbb
0.0031698581 0.00092261966 0.0035176666 0.003963945 0.0048063444 0.0049260017 0.0019870237 0.0032887626
-0.007826472 0.0030908678 0.0030372282 0.0013443964 -0.005856308 0.0053845868 -0.0028069774 -0.0044604773
-0.004937278 -0.00434389 -0.0045843804 -0.0042519895 -0.005010466 -0.00384538 -0.0045364415 0.003747227
0.002190387 -0.0041086543 -0.0032364093 -0.0047139837 -0.0015209003 -0.0060093733 -0.0055957427 -0.0038194123
0.0020975452 -0.0050820047 0.00019252855 0.00043636767 0.0031729236 -0.0045958986 -0.0042645033 -0.001569565
-0.004228125 5.9714996e-05 -0.003240243 -0.0045667947 -0.0060236636 -0.0050631934 -0.002194126 -0.0048009767
0.0011845411 -0.004704626 -0.0040593133 0.0039408463 -0.0054370435 -0.0014656929 0.005265288 0.0035780065
-0.0035190068 0.0035092947 0.002322527 -0.004578758 -0.003924471 -0.0056389403 -0.0057334537

vgg.0.weight f4 [63, 63, 3, 3]
00000000: 3251 c23c 0291 3fbd e5ba a5bd 1738 e63b
00000010: 681d 32bd 9b5f c7bc 93ac 2c3d 8d80 b7bc
00000020: 256a 413c 1491 b03d 19d7 533d 5dad ba3d
00000030: a14b 213d 4b99 a3bd 3543 e7bb 14d1 8cbb
00000040: 4656 86bd 3172 b3bd 0d32 c83c 5e23 43bd
00000050: cade de3c 4eb5 a1bb f042 083c caea 943d
00000060: a3ec 213d de08 cd3b e423 063a 1354 9d3d
00000070: ba03 923d 9db8 493d c6e9 903c 6d75 a9bc
00000080: 1ec8 15bd 2829 8ebc 569c e4bd a766 853c
00000090: 7d1e 39bb 52c9 3b3c 995f 09bd 6918 90bd
000000a0: e355 40bd 5e34 87bd 5be9 d3bd 549a 38bc
000000b0: 4565 ea3c bf2b d7bc d015 5fbc cf9e c73d
000000c0: ed81 c63d a3a3 973d 6d8e efbc 2bbb 38bc
000000d0: 04f5 82ba 2112 8c3d d739 9f3d 84d7 b73d
000000e0: 5e0a eb3d 4b19 cebd 518f 6dbb 6529 663c
000000f0: 8cd2 9cbd ad05 ebbc c860 adbc c481 76bd
00000100: 5126 f83d af8e 273c 1568 e33c c02b 053d
00000110: c5cc 133d ed6a a9bd 6139 843d d631 acbb
00000120: e305 00bd 93a1 ccbc 7e42 1d3c be82 70bd
00000130: 3bfd e03d 2d78 0f3d 944c 7e3c ba59 3e3c
00000140: 83e0 63bd 9a3b 533d c8ea 613d 1dc5 8dbd
00000150: e3e3 f93c f4fc 823c 4c30 f13c c2c8 1bbc
00000160: 9710 40bc 0a6a abbc e19f c1bc aa56 e13b
00000170: fe48 0c3c aeb2 5a3d 7952 ce3d 0e5b 3bbd
00000180: 0397 dd3c 79b1 b53d 7573 20bd 1490 37bd
00000190: 15e6 9cbc df7f b13c 4524 00bd 8037 8abd
000001a0: e8f3 27be 2642 d8bc 79bf 49bc 3887 cdbc
000001b0: 8818 dfbb 74d2 0a3d 83eb e4bd 56c4 133d
000001c0: 8e7b b73b e2b2 6c3d 0290 67bc 0f69 23bd
000001d0: 5354 d7bc 5074 d63c 2db0 bd3c f427 eeba
000001e0: dbf4 d33c d059 17bc 92a4 40bd f48c c5bd
000001f0: 18cf 023e 18c1 e1bc 2acc ddbb 4cdc 40bd
00000200: a21f 86bd 238b 47bd 496f 8bbd 159a acbd
00000210: b7e7 08bd 031f ed3d 6f31 dc3c 4770 34bc
00000220: fb7c d8bd 6641 1dbc 5cb9 80bc 7c96 bd3d
00000230: de74 3abc ea61 723d c42d 993c 6e8f 033e
00000240: 3c91 7c3c e600 713d f844 25be 447f 62bc
00000250: 0fab 19bc 9a25 153d 8b9e 00bd 787e 03bd
00000260: 6a86 ef3c 2e08 e8bc 4ac0 8d3d dcce 74bd
00000270: 4c80 cfbc 3328 033d 3382 053d b552 c23c
00000280: 7d7b 80bd 03ed 253b 1e10 753d 53e6 0f3d
00000290: 4805 87bd 5529 e8bc cd1a ebbd 6395 61bc
000002a0: e371 483c 5a8f 7e3c 7f86 4abd e7ee 113d
000002b0: 25cf 9cbc f68c 113d f68a a03c e4e8 8f3d
000002c0: 28de 58bd 09c8 343d e814 883c 5b76 623d
000002d0: 0694 603c cbfb 76bd 8b0a 7ebd 1d02 6cbc
000002e0: 43e3 aebc 4699 ddbb d7ac 533c d099 11bd
000002f0: 2574 4bbc d3a4 febb b6c4 6ebb 83fc 1f3d
00000300: e410 85bd 08cd eb3c 23e7 dd3d 28f8 71bc
00000310: cd02 1e3d c706 1d3c 7a15 39bc a792 8abc
00000320: 23eb b1bd 5dae 733c bb71 2fbd 59bb 46bd
00000330: 630c 39bb c1ff 8abd d706 a13d 4599 9bbc
00000340: 993d 883d 616a 743d e0a5 06be c96d 413c
00000350: 006d 4b3c f760 f6bd 1dbd 5dbd fe58 e43d
00000360: e6ee 9fbc ae7f dc3b 9c86 2d3d bbd0 453d
00000370: 1498 dcbc 769d 72bd 38b6 1bbd d676 3abc
00000380: 3277 483c 74e4 4dbd dedc d83b 7851 0a3d
00000390: 010c 0f3d 3b40 8fbd c2e8 1bbd 9a0d 18bc
000003a0: abd5 64bd 2761 923d 5148 b0bd bcde f53c
000003b0: 6569 a7bd 76c3 0c3d 5b2b 963d db23 e1bc
000003c0: ae37 fb3d 72b8 84bc c9eb a7ba d078 c13c
000003d0: c5c5 9fbd d69c 3abc e713 b13c c82c 743c
000003e0: add0 7e3d 6957 a33d 647c 23bb 8c3e 36bd
000003f0: 4102 9a3b 2b23 39bd fec1 82bd 6c42 1d3e
0.023720358 -0.04676915 -0.08092288 0.0070257294 -0.043485075 -0.02433758 0.042156767 -0.022400165
0.011805092 0.086214215 0.051718805 0.09115098 0.039378766 -0.07988223 -0.0070575722 -0.004297385
-0.06559424 -0.08762015 0.024437929 -0.04764115 0.027205843 -0.0049349433 0.00831674 0.07271345
0.039532315 0.0062571606 0.00051170425 0.076820515 0.07129617 0.049248327 0.017689597 -0.020685876
-0.0365678 -0.01735361 -0.11162631 0.0162843 -0.0028246932 0.011461573 -0.033538435 -0.07035906
-0.046956908 -0.06601785 -0.103472434 -0.011267263 0.028612742 -0.026265977 -0.01361604 0.09747087
0.0969275 0.07404258 -0.029242719 -0.011275093 -0.0009991233 0.06839395 0.07774704 0.08976653
0.11476587 -0.10063418 -0.0036248753 0.014047955 -0.07657346 -0.02868923 -0.021164313 -0.060182348
0.12116683 0.0102268895 0.027759591 0.032512426 0.036083955 -0.082723476 0.06456257 -0.0052549643
-0.031255614 -0.024979388 0.0095983725 -0.058718435 0.109858 0.035026718 0.015521187 0.011618072
-0.055634033 0.051570512 0.055155545 -0.06922362 0.030504173 0.015989758 0.029441975 -0.009508314
-0.011722705 -0.020924587 -0.023635807 0.0068767862 0.008562325 0.05339306 0.10074324 -0.045741133
0.027049547 0.08871741 -0.03917261 -0.044815138 -0.01915268 0.021667419 -0.03128459 -0.06748867
-0.16401637 -0.02639873 -0.012313717 -0.025088891 -0.0068083443 0.03389211 -0.11177733 0.036075912
0.0055994457 0.057787783 -0.014133455 -0.039895114 -0.026285326 0.026178509 0.023155296 -0.0018169866
0.025873592 -0.009237722 -0.047031946 -0.09646025 0.12774312 -0.027557895 -0.006768723 -0.04708509
-0.06549002 -0.048716675 -0.06808335 -0.08427826 -0.033424105 0.11578181 0.02687904 -0.011013097
-0.10570713 -0.009598112 -0.015713386 0.09257218 -0.011380402 0.05917541 0.01869858 0.12847683
0.015415486 0.058838747 -0.1613959 -0.013824288 -0.009379162 0.036412813 -0.0314012 -0.032103032
0.029238898 -0.028324213 0.06921442 -0.05976759 -0.025329731 0.03202076 0.03259487 0.023721078
-0.062735535 0.0025318272 0.059829824 0.035131764 -0.06592804 -0.028340021 -0.11479721 -0.013768527
0.012234184 0.015537107 -0.04944467 0.035628226 -0.019141743 0.03553482 0.019597512 0.07026842
-0.05294624 0.04413608 0.016611531 0.055288654 0.013707167 -0.060298722 -0.062021773 -0.014404801
-0.021348601 -0.0067626564 0.012919626 -0.035547078 -0.012417828 -0.0077711134 -0.0036433167 0.039059173
-0.06497362 0.02878429 0.108351015 -0.014768638 0.03857689 0.009584135 -0.011296624 -0.016915632
-0.08687427 0.014873114 -0.04283307 -0.048518512 -0.0028236143 -0.067870624 0.07862633 -0.018993983
0.06652374 0.059671763 -0.13149214 0.01180596 0.012416124 -0.12030213 -0.05413543 0.111497864
-0.019523095 0.006729088 0.0423647 0.048294764 -0.026927985 -0.059232198 -0.038015574 -0.011380872
0.01223545 -0.050266698 0.0066181263 0.0337691 0.034923557 -0.06994673 -0.038063772 -0.009280587
-0.055867832 0.071474366 -0.08607543 0.030013435 -0.08174399 0.034366094 0.07332488 -0.027482918
0.122664794 -0.016201232 -0.0012811358 0.023617178 -0.078013934 -0.011389932 0.021615935 0.014903255
0.062210727 0.079756565 -0.0024945969 -0.044493243 0.0046999757 -0.045199554 -0.06384657 0.15357369

vgg.0.bias f4 [63]
00000000: 421a 7bbb eb3a 4a3b bf61 ccb8 755d daba
00000010: 13fe a7bb a4d5 0ebb a2d3 7638 b8c5 b4ba
00000020: 23ec 3bbb 9c23 ebba 78c8 2abb 3d46 86bb
00000030: a693 5ebb aa97 a8bb f226 95bb 0eca e8b9
00000040: cf8f 9b39 7bc4 94bb 1efc 95ba c75a 9cbb
00000050: 4482 1fbb 1a5e 7fbb a069 38b7 aebb 29bb
00000060: a4de c6bb 3ffa 89bb c57e 9dbb cf4e 21bb
00000070: a9c6 9ebb 3d01 10bb 5927 84bb 740a 7bbb
00000080: 7666 41bb a238 9db8 90ab 71bb 8e85 72ba
00000090: 3a6e 91bb 87e4 243b adb1 4d3b 49b7 093c
000000a0: 7f2d 88bb 0585 273b f49e 25bb 0842 4dbb
000000b0: 5052 c5bb d262 953b cb00 f5ba 8a84 93bb
000000c0: 7c04 f0b9 9d84 91bb c531 e4ba ef5e 0d3b
000000d0: 491f 9bba bc00 2abb a4cf c6b9 5faa 8bbb
000000e0: b639 f739 c065 293a 113b 503a 13fe 9fbb
000000f0: e4b2 cb39 f3ae a1bb eba5 1a3b
-0.0038315211 0.0030857872 -9.745685e-05 -0.0016659932 -0.0051267236 -0.002179482 5.884807e-05 -0.0013791835
-0.0028674684 -0.001793969 -0.002605943 -0.0040977285 -0.0033962517 -0.005145033 -0.004551762 -0.0004440103
0.0002967105 -0.004540024 -0.0011442935 -0.0047715637 -0.002433912 -0.0038966 -1.0991847e-05 -0.002589922
-0.0060690213 -0.00421074 -0.004806372 -0.0024613624 -0.0048454595 -0.0021973394 -0.004033011 -0.003830579
-0.0029510534 -7.496892e-05 -0.003687594 -0.00092514686 -0.004438189 0.0025160627 0.003138642 0.008405515
-0.004155814 0.0025561464 -0.0025271745 -0.0031319875 -0.0060217753 0.0045588994 -0.0018692253 -0.004501884
-0.00045779708 -0.0044408576 -0.0017409852 0.0021571477 -0.0011834885 -0.002594038 -0.00037920207 -0.004262253
0.0004715451 0.00064620003 0.0007943372 -0.004882583 0.0003885246 -0.0049341857 0.002359743

oconv2.weight f4 [1, 63, 3, 3]
00000000: c36c 983c 37e9 883d 4174 fe3b 6ac6 10be
00000010: 1c10 34bd 3bb7 91bd 7fba 33bd 0eac 03bd
00000020: 59ba e9bc 9520 1a3d f245 3a3d 57ae 8a3d
00000030: 9bcd 6ebd 98c5 c73b 8690 4cbc 0c2c 3bbc
00000040: 1b72 663d 5f82 a2bc 4454 c63c 9f4d f43d
00000050: c65b 9cbb 287c e33c b65b aa3d 6651 0bbd
00000060: 72a7 febc 7bcb d13d a341 95bc e2de 99bd
00000070: fba9 ac3d 16a8 f4bb 673d 61bd 5887 58bd
00000080: ad3d 9e3d f97c 2d3c 571c ec3d 3507 4dbd
00000090: bf0b a43d eeb3 bd3c 2fce 40bd 95b6 ecbb
000000a0: 0d00 4cbb a761 ccbc 7d89 a5bd 2438 083d
000000b0: c946 8f3d 9740 523d ca42 803d 6176 c8bd
000000c0: ee51 3b3d 1d77 423d 7978 5f3d dae0 963d
000000d0: 98f3 a7bb 8107 633d 02e8 72bd 4d63 673d
000000e0: bad9 c33c 3a68 f93d afca 3e3d 73cf 183e
000000f0: b332 df3d 8e89 093d 83a1 9a3c 336b 8bbc
00000100: 07c3 1a3d 94a4 da3c 1a2c 653d ff02 59bc
00000110: 7637 973d 9b96 dabc d440 e13c 5040 08bd
00000120: cbea ed3c 605d 703d 0128 4b3d 2e7c ef3c
00000130: 0aa4 27bb 7f47 6bbd f213 f2bd 5525 053e
00000140: 2b6d c73d 0c44 e23b 6d11 6ebd 6a76 713d
00000150: b274 cf3d f2a2 2c3c 8236 39bd c43c 85bc
00000160: c57f 303c 8d22 0f3d 2c2e 2a3e dd26 b73d
00000170: 1134 e33d fdaa 24bc c514 9dbd 2425 ce3d
00000180: b9c6 283d aa0b 6fbd fae6 dbbd 47f9 51bc
00000190: 2859 7abc c294 883d 79a2 67bd 89f0 7cbd
000001a0: 0a58 1fbd a0e1 2bbd b609 a1bd f316 8a3d
000001b0: 1e90 943d bff5 c33d 88f5 873d 424c 50bd
000001c0: eb2f b9bc 68a7 853d 2da8 153b 5501 0fbd
000001d0: 7beb 27bd a17c 7bba 7e02 f8bd d878 c63c
000001e0: d2a9 39bd cada febd 0cbf 723d 443f ff3c
000001f0: 43d1 0cbd 058c 9b39 7508 bd3c 3753 94bd
00000200: 971d b5bd ca46 043d 679f a5bd 7b89 6bbd
00000210: 7b9d 133c 36f7 953d 7410 373e 755e 63bd
00000220: 13d6 553d fe47 88bc 200b 503d 30b1 d53d
00000230: 1f9d 903d 447b d9bd 2a80 813c d6f1 36bc
00000240: 7b2c 203d 6c1d 483d d80b 52bd e6ad 31bd
00000250: da30 6fbd 9993 48bd e250 6cbd 64f6 1dbb
00000260: d318 af3c 498e c5bd 95bc cdbb 5d7f c83c
00000270: 4aa0 66bc be57 6d3d 9b87 77bd da1f 153d
00000280: ea1b a63d 8e4e 6a3c 55cf 8b3c 7a16 82bd
00000290: c7c5 a3bd b4e9 c93d b236 e5bc 51d2 1bbd
000002a0: 9303 203d 1628 473d c23c dd3c 0ee8 bf3d
000002b0: dc2b 0cbe c843 183d 7714 8c3b b7d8 fb3c
000002c0: 10f7 d03d 156f 3bbb 667a 823c 4222 5b3c
000002d0: 4c9d 313d 9d50 53bd 3192 2a3d fd86 563c
000002e0: 6385 403d c4d5 6e3d 7790 733d 90e8 98bc
000002f0: bbff 15bc c79f 733b c469 8d3d 9bba 253d
00000300: 6cfd 69bd 4f2f 4abd d262 a93c 26f7 5ebd
00000310: 37a7 c2bd 81a5 803d 3f1c 573d 5a83 58bd
00000320: 5626 18bc d549 593d 7048 2b3c 5eca 5e3c
00000330: 0e72 07bd 2033 e43c 6e0b b63b afc6 1cbd
00000340: 1d31 13bc 9402 bebd ab76 833d ad96 8bbd
00000350: fe71 efbc 6550 88bd d945 12bd cae9 dfbb
00000360: e4d5 463a baea 7e3c 4eeb 613e 5597 91bd
00000370: 5c87 8ebd 4a86 0bbd ba9f d6bd 66f7 a13c
00000380: ed62 7f3d 45f9 c63a da69 1e3d 62e1 663d
00000390: b882 1bbd aceb ef3c bf7b f83d 3d2d 013e
000003a0: abc0 a23d d8fa aa3c eda1 c2bc b69a b1bc
000003b0: b563 a4bc fa52 32bc 7139 91bc 5dbd 1bbd
000003c0: 9cd6 05bd 23d2 80bc 856d 05bd 5274 a23d
000003d0: ee45 65bc e313 1c3d 8a57 44bd bf39 a9bd
000003e0: 870e 13bc b8f0 44bd 9312 e83d f2a4 82bd
000003f0: 3751 213c cd6b fdbc a26f 06bd 44df 85bd
0.01860655 0.06685107 0.0077653234 -0.14138189 -0.043960676 -0.071150266 -0.04387903 -0.032146506
-0.02853124 0.03762873 0.04547686 0.06771534 -0.05830155 0.006096553 -0.012485629 -0.011424076
0.056261163 -0.019837556 0.024210103 0.119288675 -0.0047716824 0.027769163 0.08318274 -0.034013174
-0.031085704 0.10243889 -0.018219775 -0.07513215 0.08430859 -0.0074663265 -0.0549902 -0.05286345
0.077266075 0.010588878 0.11528843 -0.0500557 0.08010053 0.023157086 -0.047071632 -0.007223914
-0.003112796 -0.024948908 -0.080828644 0.033256665 0.06995923 0.05133113 0.06262739 -0.09788204
0.04573243 0.047476877 0.05455825 0.07367106 -0.005125474 0.05542708 -0.05930329 0.056491185
0.023907531 0.12178083 0.046580013 0.14922886 0.10898342 0.033578448 0.018875843 -0.01701889
0.03778365 0.026689805 0.05595026 -0.013245343 0.07383625 -0.026683142 0.027496733 -0.03326446
0.029042622 0.0586828 0.049598698 0.029234018 -0.0025579953 -0.05744123 -0.118202105 0.13002522
0.09737619 0.0069050845 -0.058122087 0.05895082 0.1012968 0.010536896 -0.045218 -0.016264327
0.01077265 0.03494506 0.16619176 0.089429595 0.11093915 -0.010050532 -0.07669977 0.10065678
0.04120514 -0.058360733 -0.10737415 -0.01281578 -0.015280046 0.06668998 -0.05655143 -0.06175283
-0.03890232 -0.04196322 -0.0786318 0.067426585 0.07254051 0.09568357 0.06638628 -0.050853975
-0.022605857 0.06526071 0.0022835836 -0.03491338 -0.040996056 -0.0009593461 -0.1210985 0.024227545
-0.04532797 -0.124440745 0.059264228 0.031158097 -0.034379255 0.00029668226 0.023075322 -0.072424345
-0.088435344 0.032294072 -0.08087044 -0.05750416 0.009009714 0.07322542 0.1787737 -0.055510003
0.05220611 -0.016635891 0.05079186 0.104341865 0.070612185 -0.10619214 0.015808184 -0.011166057
0.03910492 0.048856184 -0.051280826 -0.043378733 -0.058396198 -0.048968885 -0.057694323 -0.002410316
0.021374142 -0.09646279 -0.0062785842 0.024474794 -0.014076302 0.057945006 -0.060432058 0.03640733
0.08110793 0.014300955 0.017066637 -0.06351943 -0.079967074 0.098590285 -0.027980182 -0.03804237
0.03906591 0.048622213 0.02700651 0.09370433 -0.13688606 0.037174016 0.0042749005 0.030742986
0.102033734 -0.0028600146 0.015927505 0.013374867 0.0433629 -0.05159055 0.041643325 0.013093707
0.047002207 0.05830933 0.059463944 -0.018665582 -0.009155209 0.0037174092 0.06904939 0.040461164
-0.057126448 -0.049361523 0.020677004 -0.054434918 -0.0950455 0.06281567 0.052517172 -0.05285964
-0.009286484 0.053048927 0.010454282 0.013598053 -0.033067755 0.02785641 0.0055555617 -0.038275417
-0.0089838775 -0.092778355 0.064191185 -0.068158485 -0.02922916 -0.06655959 -0.035711143 -0.0068332897
0.0007584973 0.015558893 0.22062418 -0.071089424 -0.069594115 -0.034063615 -0.10479684 0.01977129
0.062350202 0.0015180489 0.038675167 0.056367286 -0.03796646 0.029287182 0.12132978 0.12614913
0.07946905 0.020871565 -0.023758853 -0.021680217 -0.020067075 -0.010884041 -0.017727586 -0.038022388
-0.03267537 -0.015725201 -0.03257515 0.079323426 -0.013993723 0.038104903 -0.047935046 -0.08262967
-0.008975632 -0.04808113 0.11331668 -0.06379117 0.009846023 -0.030935192 -0.032821305 -0.06536725
