Models/model39.pth (torch, 152399 bytes, 6 tensors)

oconv1.weight f4 [1, 1, 3, 3]
000000 d6 08 e2 3e 0c da 1a be a2 5e 02 bf 96 6e 3d 3e
       0.44147366 -0.15122241 -0.5092565 0.18499216
000010 a7 1e 28 3e 81 d9 3e be bc 37 b0 3e 87 28 eb be
       0.16417943 -0.18637659 0.34417522 -0.45929357
000020 1f bb 53 be
       -0.2067685

conv1.weight f4 [63, 1, 3, 3]
000000 23 da c6 bf b2 6e 97 3e 5e 50 3e 3e 8d 4e 14 bd
       -1.553532 0.2957664 0.18585345 -0.036207724
000010 db 3e 66 bf ed aa ab 3e 99 57 02 be 1b 5a 13 3e
       -0.8993966 0.33528844 -0.12728728 0.14389841
000020 0b f2 46 be 85 43 2a be 11 7c d3 be 57 5a ee bd
       -0.1942827 -0.16627319 -0.41305593 -0.11638325
000030 56 f9 df be 4a e5 a0 3f 07 41 a3 3e eb 76 68 3e
       -0.43744916 1.2569973 0.3188555 0.22701614
000040 a9 5a 44 bf d2 dd 8c 3e d9 85 65 3e fb 4d 0d bf
       -0.76700836 0.27512985 0.2241434 -0.55197114
000050 fa 88 07 3f 5d 66 30 bf a5 87 ed 3e d6 05 a1 3e
       0.52943385 -0.68906194 0.4639255 0.31449765
000060 98 40 98 be ed 6f 2e 3f 4d 93 00 be a6 e1 a8 3e
       -0.2973678 0.68139535 -0.12556191 0.32984656
000070 1d 7e 16 bf 3a f9 f5 3e 8e 66 89 3f 7c a4 71 3b
       -0.58786184 0.48041707 1.0734422 0.0036871722
000080 41 18 22 3f 70 68 13 bf 7c dc 34 3e a4 0b 2e 3f
       0.6331826 -0.57581234 0.17662233 0.6798651
000090 4e 4c 75 bf 32 f2 5e be bc cb 0a 3f 53 cb 39 3e
       -0.95819557 -0.21772078 0.54217124 0.18143968
0000a0 93 22 e7 3d 4a 15 36 bd 5d 01 ea bd 0b a8 52 be
       0.112858914 -0.044453897 -0.11426041 -0.20571916
0000b0 e1 f6 a4 3e bc e6 0d be 91 49 1f bf 2a 52 b3 be
       0.32219604 -0.1385755 -0.6222163 -0.35023624
0000c0 92 dc 2d bf e0 48 ac bd 16 3a 12 3f fa 2d 86 3f
       -0.6791469 -0.08412337 0.5711988 1.0482781
0000d0 82 3d 93 3c 08 0d b9 be 5e 5e b0 3d 6e ed 8b be
       0.017973665 -0.36142755 0.08611749 -0.27329582
0000e0 3e 14 f6 3d 6e 11 6a be f1 af d4 3e 0e 84 b8 bd
       0.1201558 -0.22858211 0.41540483 -0.090095624
0000f0 2f 4f 0f bf e9 91 a8 3e 00 d4 4d 3c c7 f5 a6 3e
       -0.559802 0.3292382 0.012562752 0.32609388
000100 65 74 dd 3e b3 6e 78 bd ff 70 fb 3d 63 e4 c4 be
       0.43252864 -0.060652446 0.12277412 -0.38455495
000110 b3 cf 48 3f 92 fe 49 bf a6 6e f5 3e 40 a4 30 3e
       0.78441924 -0.7890407 0.4793598 0.17250156
000120 ae 01 00 3f cb fc bb 3e 53 11 96 bf 4d 62 48 bc
       0.50002563 0.36716303 -1.1724037 -0.012230468
000130 74 59 02 bf 87 92 8f 3f 92 37 0f 3e 9f b0 11 3e
       -0.50917745 1.1216592 0.13986042 0.14227532
000140 db fc f1 3c 7c ae c8 3e a0 e0 9c 3d 9a 59 1d bf
       0.029539516 0.3919562 0.07660031 -0.61464846
000150 5e 53 cb be c6 0e 7c bb 0a 00 8d 3e d7 6b ea be
       -0.39712042 -0.0038460954 0.27539092 -0.457854
000160 8e da a4 bc a0 c9 16 be f2 98 1c 3f 44 73 17 be
       -0.020123746 -0.14725351 0.61170876 -0.14790064
000170 d9 1b 39 bf fe 96 e9 be 4e 30 06 bf 72 53 84 be
       -0.7230812 -0.4562301 -0.5241746 -0.25844914
000180 16 77 49 3f 1b 5a 90 be d6 b7 e7 be cd 32 3d be
       0.78697336 -0.28193745 -0.45257443 -0.1847641
000190 08 d8 1a bd 20 36 3f 3e 56 c8 36 3f 93 c2 e2 3d
       -0.03780368 0.18672991 0.7139944 0.11072268
0001a0 4a 3c 5b bf e3 e3 06 3f 0c 0e 03 3f b2 e3 0b 3f
       -0.8563887 0.5269148 0.5119331 0.5464431
0001b0 6f 95 51 3f ee 83 a5 3e f3 9f 05 bf 71 df e3 be
       0.8186864 0.32327217 -0.5219719 -0.4450641
0001c0 c1 34 47 3e cf fb 50 3f 44 52 02 3f 55 03 9e 3d
       0.19453718 0.8163423 0.5090678 0.07715479
0001d0 7d 65 ba 3f b0 b2 3b 3f 49 09 bf bd 04 a9 84 be
       1.4562222 0.7331953 -0.09327943 -0.259102
0001e0 56 40 47 bf 96 72 b6 bd ca f3 bc 3d cd 63 03 3f
       -0.77832544 -0.08908574 0.092261866 0.5132416
0001f0 8f 1e e9 3d 1d 2a 84 3e 9f 2d 3c 3e b8 a3 ee bc
       0.11382782 0.2581338 0.18376778 -0.029130802
000200 d9 d6 0d bf 26 95 23 3d b9 36 73 3b 02 f9 be bd
       -0.55405957 0.03993716 0.0037111475 -0.09324838
000210 f0 e8 36 3e e8 eb fe be 06 0b d3 3e be af a1 bc
       0.17862296 -0.49789357 0.41219348 -0.01973712
000220 37 c0 5b 3e 99 0b ee be 18 a7 ea 3e e8 10 c3 3e
       0.21460043 -0.46493223 0.45830607 0.38098836
000230 e0 8e 6f be ad d0 1c bf 4a 10 37 bf 6e c3 0e bf
       -0.23394346 -0.61255914 -0.7150923 -0.5576695
000240 69 cd c0 3e 1f d4 37 3e e3 47 2c 3f a5 c6 15 3f
       0.37656716 0.17952012 0.6729719 0.5850623
000250 5b 6d 39 bf 1c 70 e7 3e be 1a 81 3d 9b fc bc 3e
       -0.7243249 0.4520272 0.06303929 0.36911473
000260 7d b2 c2 bd 59 48 b6 bd fc 18 95 be 9a b0 38 bf
       -0.095067 -0.08900518 -0.29120624 -0.7214447
000270 b0 40 dd 3d 49 f5 45 bf 01 a9 7c bf ea 10 0e 3f
       0.10803354 -0.773274 -0.9869538 0.5549456
000280 df 80 5a 3f 0c 51 4f bf e0 e0 1b 3e 9e d1 7b 3f
       0.8535289 -0.8098304 0.15222502 0.98366725
000290 59 d3 8c bf 30 c2 30 3f 5f f4 36 be 5a e1 4c 3e
       -1.1001998 0.69046307 -0.17866658 0.2000784
0002a0 2f 8d 85 be 73 f0 d3 bd 0f 4c 9c be 44 cd 8e bd
       -0.26084277 -0.103485964 -0.30526778 -0.06972745
0002b0 0b d9 f3 3d cd b4 08 3f 25 75 38 bf e9 4d 5b 3e
       0.11906632 0.5340088 -0.7205375 0.21416439
0002c0 ca 71 b5 3e 7b 22 cf 3d d4 82 d0 3e a6 aa 19 3f
       0.35438377 0.101139985 0.40724814 0.60026014
0002d0 98 19 e8 3e 10 b1 91 3e a4 6c 9c be 40 bf e6 3d
       0.45332026 0.284554 -0.30551636 0.11266947
0002e0 c7 c0 71 3f 31 dd 17 3e e6 de cd 3e 1a 61 78 be
       0.9443478 0.14830472 0.4020912 -0.24255791
0002f0 3c 66 30 be 92 fa 56 be 4a ed a1 be ad 3a b2 be
       -0.172265 -0.20994022 -0.3162635 -0.3481039
000300 cc 85 89 3e 75 e2 18 3f 0a c0 19 3c c1 75 d6 bc
       0.2685989 0.59720546 0.009384165 -0.026179196
000310 a1 39 2d be c7 8f 65 bd 82 72 02 bf 79 24 42 be
       -0.16916515 -0.05604532 -0.50955975 -0.18959226
000320 0e 00 07 bf 98 20 f2 3e e6 01 fa 3d de 19 84 3e
       -0.5273446 0.47290492 0.12207393 0.25800985
000330 b3 b9 08 3f fb 3a 1f be b1 1e 82 be 10 d7 2a be
       0.53408355 -0.15549843 -0.2541404 -0.16683602
000340 ea d2 55 bf 23 79 6a 3f ee ef e1 3d a1 5c 8e 3e
       -0.83524954 0.9159109 0.11032091 0.27805045
000350 03 36 84 bc 00 70 da be 97 11 b2 3e 8c fc fd 3e
       -0.016139036 -0.42663574 0.34779045 0.4960674
000360 aa c0 2e be 78 e4 e4 3e f1 4c 30 3e fd db 3d 3d
       -0.17065683 0.44705558 0.17216851 0.046352375
000370 24 3e c4 3e 93 51 91 bc da cf a0 bf f0 aa d1 be
       0.3832866 -0.017739093 -1.2563431 -0.40950727
000380 2d bc b1 3e 2b 17 02 3e c4 c3 33 3e ba 65 c7 be
       0.3471388 0.1270415 0.17555147 -0.389448
000390 8b 86 a3 3e 61 a3 ce 3e c5 cc 48 be f5 f2 0f 3e
       0.31938586 0.40359023 -0.19609363 0.14057525
0003a0 26 ec 10 3f e4 8e ee 3d 81 13 4a bf b4 86 a9 be
       0.56610334 0.11648348 -0.7893601 -0.33110583
0003b0 14 d7 bd be fa ba 30 bf 1b cc 76 be ba 0c c7 be
       -0.37078154 -0.69035304 -0.24101298 -0.38876897
0003c0 1b f1 7c 3e b9 de 97 3d 5c 5c 60 bf e7 1f 4b 3e
       0.2470135 0.07415528 -0.8764093 0.19836389
0003d0 be a0 01 3f 22 26 2e 3f 1a 92 67 3e 1c ad f3 bd
       0.506359 0.68026936 0.22614327 -0.11898252
0003e0 6c 06 08 bf 3f 32 b3 be af de d8 3c fd 1c 62 3e
       -0.531348 -0.34999272 0.026473371 0.2208137
0003f0 4e 7e 09 3e 45 32 11 be 95 7a 30 bf 9f 83 60 bf
       0.13427088 -0.14179333 -0.68937045 -0.8770084

conv1.bias f4 [63]
000000 86 11 57 3b 7a 8d 8e 3a 13 d1 6f 3b e2 4f 88 3b
       0.0032816841 0.0010875904 0.0036593124 0.0041599134
000010 5e 78 a2 3b 60 3b a6 3b 67 51 0d 3b 26 f3 60 3b
       0.0049581965 0.005072996 0.0021563412 0.0034324615
000020 37 c3 02 bc b3 70 44 3b 19 99 53 3b 12 6e be 3a
       -0.007981113 0.00299744 0.0032287298 0.0014528653
000030 46 d9 c4 bb d4 4a b4 3b 4e 18 37 bb 36 45 96 bb
       -0.0060073463 0.0055020843 -0.002793807 -0.0045858873
000040 28 98 a6 bb d7 ee 92 bb d1 d1 9a bb 22 31 90 bb
       -0.0050840564 -0.0044840383 -0.004724719 -0.0044003883
000050 86 ee a7 bb b9 c2 82 bb a2 37 98 bb 08 7a 79 3b
       -0.0051248698 -0.003990498 -0.004645304 0.003806712
000060 8d ec 0e 3b 04 b5 87 bb 20 98 5f bb 7c 0f 9f bb
       0.0021808476 -0.004141452 -0.0034117773 -0.004854141
000070 27 83 a9 ba 0b 5e c9 bb fb 4d bd bb c9 a2 83 bb
       -0.0012932763 -0.006145244 -0.0057771183 -0.0040172082
000080 8d 65 03 3b f4 e3 aa bb de 9b 6c 38 87 d3 25 3a
       0.0020049543 -0.0052151624 5.6411947e-05 0.00063257705
000090 54 ec 57 3b 43 4c 99 bb 88 67 90 bb c8 0a b0 ba
       0.003294726 -0.0046782806 -0.004406873 -0.0013430947
0000a0 c0 1a 8c bb 49 44 5b 39 ac 9a 5c bb b2 ae 9a bb
       -0.00427565 0.00020910906 -0.0033661528 -0.0047205323
0000b0 e7 78 c9 bb 2f 06 aa bb 0a 71 18 bb 1d f4 a1 bb
       -0.006148446 -0.0051887254 -0.0023260736 -0.0049424306
0000c0 fa 04 9c 3a 6f c9 9d bb 64 a9 87 bb 3d 14 85 3b
       0.0011903339 -0.0048152725 -0.004140066 0.0040612505
0000d0 3e de b3 bb 99 63 cd ba 70 bb b0 3b f1 ba 72 3b
       -0.00548914 -0.0015669941 0.005393438 0.0037037695
0000e0 7e a8 69 bb 21 8c 6e 3b e4 77 1e 3b 4b 3c 9a bb
       -0.0035653408 0.0036399441 0.0024180347 -0.0047068945
0000f0 c7 79 83 bb 4e fa ba bb 5a 4c c0 bb
       -0.0040123197 -0.005706108 -0.005868477

vgg.0.weight f4 [63, 63, 3, 3]
000000 9d ac c1 3c b1 ed 3f bd 5c ec a5 bd f7 42 e3 3b
       0.023641879 -0.04685754 -0.081017226 0.006935473
000010 db 79 32 bd 51 4a c8 bc 17 4c 2c 3d 68 4d b8 bc
       -0.04357324 -0.0244495 0.042064752 -0.022497848
000020 0e 57 3f 3c 53 57 b0 3d 83 ef 53 3d 4e 61 ba 3d
       0.01167847 0.08610406 0.051742088 0.09100591
000030 af f0 20 3d 08 cc a3 bd 83 6f ec bb 8f 93 91 bb
       0.039292034 -0.079979 -0.0072154417 -0.004442639
000040 31 18 86 bd 3a b6 b3 bd e6 55 c7 3c bd 89 43 bd
       -0.06547583 -0.08774991 0.024332952 -0.04773878
000050 68 2e de 3c a1 f1 a5 bb 9f be 06 3c 8c af 94 3d
       0.027121738 -0.005064205 0.008224159 0.072600454
000060 b5 7d 21 3d 88 93 ca 3b 3a da df 39 59 0a 9d 3d
       0.039426524 0.006182138 0.00042696466 0.07667989
000070 dd ca 91 3d a0 08 49 3d 50 b2 8f 3c df 75 a9 bc
       0.07118771 0.04908049 0.01754108 -0.020686088
000080 1a 4c 16 bd 7e ec 8e bc 00 cb e4 bd e7 70 84 3c
       -0.03669367 -0.017446753 -0.11171532 0.016167117
000090 b0 ca 3f bb 30 c1 3a 3c 4f bb 09 bd 20 4d 90 bd
       -0.0029265098 0.011398599 -0.033625897 -0.070459604
0000a0 b9 cd 40 bd a5 6f 87 bd 5a 1a d4 bd 82 49 3a bc
       -0.047071192 -0.066130914 -0.10356589 -0.011370065
0000b0 65 66 e9 3c 0e ba d6 bc 82 5f 5e bc 7d 70 c7 3d
       0.028491208 -0.026211765 -0.0135725755 0.09738252
0000c0 46 54 c6 3d 24 63 97 3d d4 01 f0 bc 64 4e 3a bc
       0.09684043 0.073919564 -0.029297747 -0.011371229
0000d0 fc 77 90 ba 7d cd 8b 3d 92 03 9f 3d a1 9f b7 3d
       -0.0011022086 0.06826303 0.07764353 0.08965994
0000e0 86 1d eb 3d 35 55 ce bd 17 d8 69 bb 9a 23 67 3c
       0.114802405 -0.10074846 -0.0035681778 0.014107609
0000f0 4f 11 9d bd 77 1d eb bc f6 b2 ac bc 87 db 76 bd
       -0.07669317 -0.028700573 -0.021081429 -0.06026795
000100 ab 0a f8 3d de e5 24 3c 2b 5d e2 3c 5a 4f 05 3d
       0.1211141 0.01006457 0.027632317 0.03254638
000110 9b 38 13 3d 8a 90 a9 bd ea fb 83 3d eb 81 ae bb
       0.035942655 -0.08279522 0.06444533 -0.005325546
000120 77 75 00 bd 42 6a cd bc e9 86 1b 3c b0 e9 70 bd
       -0.031362023 -0.025075082 0.009492614 -0.05881661
000130 38 c6 e0 3d 90 fb 0e 3d 31 0b 7d 3c 76 b9 3c 3c
       0.10975307 0.034907877 0.015444563 0.011518827
000140 ac 3f 64 bd b3 c9 52 3d 1f 80 61 3d e2 fe 8d bd
       -0.055724785 0.051461887 0.055053826 -0.06933381
000150 f5 f3 f8 3c 71 2b 82 3c 01 50 f0 3c b1 c6 1d bc
       0.030389765 0.015889855 0.029335024 -0.009629891
000160 a9 f1 41 bc 8d 3f ac bc 06 84 c2 bc 72 61 e1 3b
       -0.011837401 -0.021026397 -0.023744594 0.0068780715
000170 6c 0f 0b 3c 3d 3e 5a 3d 0c 18 ce 3d c6 e8 3b bd
       0.008487564 0.05328201 0.1006318 -0.045876287
000180 2c b3 dc 3c e2 89 b5 3d ae dd 20 bd 93 f8 37 bd
       0.026940905 0.0886419 -0.03927391 -0.044914793
000190 c5 c4 9d bc cd 9b b0 3c 4f aa 00 bd e0 50 8a bd
       -0.019258866 0.021558667 -0.03141242 -0.06753707
0001a0 f0 d5 27 be d7 c9 d8 bc 65 65 4b bc ca 15 cc bc
       -0.16390204 -0.026463432 -0.012414311 -0.024912734
0001b0 dc fc e2 bb c7 e7 0a 3d 7f 39 e5 bd 05 47 13 3d
       -0.006927116 0.033912446 -0.11192607 0.0359564
0001c0 8d 94 b4 3b 5e 26 6c 3d 1f 25 69 bc fb 52 23 bd
       0.0055108727 0.057653777 -0.014230042 -0.03987406
0001d0 14 09 d7 bc fd e3 d5 3c 53 97 be 3c 75 86 fa ba
       -0.026249446 0.02610969 0.023265516 -0.0019113558
0001e0 36 25 d3 3c 90 23 19 bc a4 4a 41 bd 28 79 c5 bd
       0.02577458 -0.009346858 -0.047190323 -0.09642249
0001f0 da 01 03 3e 3c 37 e2 bc ee b0 e0 bb 32 4a 41 bd
       0.12793675 -0.027614228 -0.006857029 -0.0471899
000200 f4 53 86 bd f3 eb 47 bd 1e b2 8b bd e6 91 ac bd
       -0.065589815 -0.048809003 -0.068210825 -0.084262654
000210 f3 50 09 bd cd ea ec 3d f7 e0 db 3c 14 20 36 bc
       -0.033524465 0.11568222 0.02684067 -0.011116046
000220 1f b5 d8 bd 46 ee 1c bc 42 ab 81 bc d3 60 bd 3d
       -0.10581421 -0.009578293 -0.015828732 0.092469834
000230 8c eb 39 bc 16 d6 71 3d ea 34 98 3c f9 7f 03 3e
       -0.011347663 0.05904206 0.018579919 0.12841786
000240 c4 5b 7d 3c 47 a1 70 3d c1 5c 25 be 50 d4 64 bc
       0.015463773 0.058747556 -0.16148664 -0.013966635
000250 a7 99 1a bc ae a8 14 3d 10 2c 00 bd f6 d7 03 bd
       -0.009436048 0.036293678 -0.03129202 -0.03218838
000260 75 87 ee 3c 55 7b e8 bc 06 83 8d 3d ab e4 74 bd
       0.029117325 -0.028379122 0.06909756 -0.059788387
000270 87 76 d0 bc 75 a9 02 3d 01 19 05 3d 29 86 c1 3c
       -0.025447143 0.031899888 0.03249455 0.023623543
000280 13 b9 80 bd 49 bc 1e 3b b4 4f 74 3d aa 5d 0f 3d
       -0.062853 0.0024221113 0.059646323 0.035001434
000290 8e 68 87 bd 51 25 e9 bc 1d 16 eb bd 36 d2 61 bc
       -0.06611739 -0.028460177 -0.11478827 -0.013783028
0002a0 05 3e 46 3c cf 82 7c 3c 62 40 4a bd c8 83 11 3d
       0.012099748 0.015412047 -0.049377806 0.035526067
0002b0 15 54 9d bc 33 1d 11 3d 07 b8 9f 3c 96 ba 8f 3d
       -0.019205132 0.035428237 0.01949693 0.0701801
0002c0 ef 54 59 bd 2b 6a 34 3d 8b b2 87 3c 69 0b 62 3d
       -0.053059515 0.044046562 0.016564628 0.055186663
0002d0 7a e9 5e 3c 47 68 77 bd 86 98 7d bd ed 4e 6d bc
       0.01360547 -0.06040218 -0.061913036 -0.014484149
0002e0 b5 bb af bc bc 59 de bb 53 bf 51 3c 13 ad 11 bd
       -0.02145181 -0.0067855995 0.012801963 -0.035565447
0002f0 47 8e 4b bc f9 5f 00 bc 65 29 79 bb 7c 8f 20 3d
       -0.012424058 -0.007835382 -0.0038019058 0.039199337
000300 51 20 85 bd 0f a5 ea 3c e9 b3 dd 3d 85 f6 73 bc
       -0.065003045 0.02864316 0.10825331 -0.014890318
000310 44 60 1d 3d db 19 1c 3c fd b9 3a bc 5f 68 8b bc
       0.038421884 0.009527649 -0.011396882 -0.017017541
000320 bb 18 b2 bd 44 3e 72 3c 85 d5 2f bd 8d 39 47 bd
       -0.08696123 0.014785353 -0.042928237 -0.04863887
000330 c8 e5 3d bb ea 30 8b bd 67 d7 a0 3d e9 96 9a bc
       -0.0028976072 -0.06796439 0.07853585 -0.018870788
000340 38 f8 87 3d b9 e9 73 3d 11 8d 06 be 19 1c 43 3c
       0.06639141 0.059549067 -0.1313975 0.0119085545
000350 46 f4 48 3c 9a 87 f6 bd cb 2a 5e bd e3 11 e4 3d
       0.012265271 -0.12037583 -0.05424003 0.11136224
000360 18 c0 a0 bc 67 0c da 3b 63 1e 2d 3d 27 5c 45 3d
       -0.019622847 0.0066543105 0.042265307 0.048183586
000370 e1 4e dd bc 24 18 73 bd bd 31 1c bd a2 53 3c bc
       -0.027015151 -0.059349194 -0.03813337 -0.011494549
000380 09 9b 46 3c dc 51 4e bd 85 d3 d5 3b e0 af 0a 3d
       0.012121924 -0.050371036 0.0065254592 0.033859134
000390 56 8d 0e 3d 12 68 8f bd ec 4c 1b bd bb c7 19 bc
       0.034802757 -0.07002272 -0.037915155 -0.009385998
0003a0 de fb 64 bd b2 ce 92 3d 62 7c b0 bd 99 13 f5 3c
       -0.05590426 0.0716833 -0.08617474 0.029916571
0003b0 11 94 a7 bd 33 58 0c 3d c0 f6 95 3d 21 ed e1 bc
       -0.08182538 0.0342638 0.073224545 -0.027578892
0003c0 02 02 fb 3d 9e 78 85 bc ba c4 b5 ba a0 fd c0 3c
       0.12256242 -0.016292866 -0.0013867833 0.023558438
0003d0 4d e5 9f bd 79 9d 3c bc ff d5 af 3c 8b 19 73 3c
       -0.078074075 -0.011512154 0.021464346 0.014837633
0003e0 f1 6f 7e 3d 69 2a a3 3d 5a c1 29 bb 56 c4 36 bd
       0.062118474 0.079670735 -0.00259026 -0.044620834
0003f0 d4 05 97 3b 27 81 39 bd 89 f3 82 bd 4d 27 1d 3e
       0.004608849 -0.045289185 -0.06394107 0.15347023

vgg.0.bias f4 [63]
000000 44 05 81 bb 9d 81 3f 3b 13 4f c1 b7 82 67 c8 ba
       -0.0039373953 0.0029221543 -2.3044215e-05 -0.0015289637
000010 b4 d4 ac bb b0 a2 0f bb f9 54 f3 38 2a 77 b5 ba
       -0.0052743796 -0.0021917038 0.0001160297 -0.0013844718
000020 35 2c 3d bb 88 2c fb ba 55 73 34 bb b8 89 88 bb
       -0.002886546 -0.0019163052 -0.0027534564 -0.004166808
000030 f2 51 59 bb 0a de aa bb ad 69 93 bb e3 d0 0e ba
       -0.0033160415 -0.0052144574 -0.0044986815 -0.00054479967
000040 21 0c 80 39 20 58 98 bb 4e 4c 8c ba 32 b7 9f bb
       0.000244231 -0.004649177 -0.0010703893 -0.0048741335
000050 d7 f4 23 bb 8d e0 77 bb 00 64 f6 b8 27 94 31 bb
       -0.0025017762 -0.0037823052 -0.000117488205 -0.0027096362
000060 86 aa ca bb a8 ea 8d bb a6 9a a2 bb 8f fe 22 bb
       -0.0061848788 -0.0043309517 -0.004962283 -0.0024870967
000070 0d 00 a2 bb fd dd 10 bb 58 83 86 bb f3 48 82 bb
       -0.0049438537 -0.0022104972 -0.004105013 -0.0039759814
000080 d7 df 44 bb f6 c6 63 b9 0d 47 78 bb b9 91 8f ba
       -0.0030040646 -0.00021722526 -0.0037884146 -0.0010953463
000090 d6 bf 94 bb 54 2e 24 3b 14 c5 48 3b e9 a6 0a 3c
       -0.00453947 0.0025052028 0.0030635046 0.008462646
0000a0 9e 6a 8c bb 52 78 31 3b 55 5e 2e bb 79 af 56 bb
       -0.0042851707 0.0027079773 -0.002660652 -0.0032758398
0000b0 23 90 c9 bb c9 f6 98 3b 45 5d 02 bb 08 1b 97 bb
       -0.0061512156 0.004668091 -0.0019892019 -0.0046113767
0000c0 ea 8a ff b9 a9 a4 94 bb ff d1 fb ba f3 e8 0e 3b
       -0.0004874089 -0.0045362306 -0.0019212364 0.002180633
0000d0 84 0a a0 ba 8d 52 31 bb 24 02 b1 b9 8e da 8f bb
       -0.0012210165 -0.002705726 -0.00033761666 -0.0043900674
0000e0 fc 53 25 3a 84 2e 1d 3a fb 76 61 3a d5 bc a5 bb
       0.0006306765 0.0005996006 0.00086007983 -0.005057911
0000f0 3b 98 b4 39 3b 7f a6 bb a5 d0 20 3b
       0.00034445696 -0.005081085 0.0024538424

oconv2.weight f4 [1, 63, 3, 3]
000000 47 9a 99 3c 79 b8 88 3d 54 13 00 3c bb 9c 10 be
       0.018750323 0.0667581 0.007817108 -0.14122288
000010 74 89 33 bd 7f e9 91 bd fe 10 33 bd 01 c2 03 bd
       -0.043832257 -0.07124614 -0.043717377 -0.03216744
000020 0e 57 e8 bc 77 96 19 3d 98 c5 3a 3d 43 4a 8a 3d
       -0.028361823 0.03749701 0.045598596 0.067524455
000030 91 5e 6e bd 11 e8 c5 3b 39 fd 4e bc d0 5a 3d bc
       -0.058195654 0.0060396274 -0.012633615 -0.011557296
000040 31 f2 66 3d 5a 2c a1 bc c5 fd c6 3c 80 06 f4 3d
       0.056383315 -0.019674469 0.024290929 0.11915302
000050 65 47 9d bb 52 7a e4 3c 43 2a aa 3d 08 e7 0a bd
       -0.0047997707 0.027890358 0.08308842 -0.033911735
000060 d3 af fd bc 6e e9 d1 3d 72 61 95 bc db a2 99 bd
       -0.030967629 0.10249601 -0.018234942 -0.07501765
000070 dd 68 ac 3d 3d 3a f2 bb a9 b8 60 bd 0e fc 57 bd
       0.084184386 -0.0073921965 -0.054863606 -0.052730612
000080 28 f0 9d 3d e6 f1 2b 3c 86 0f ec 3d 4c 78 4d bd
       0.07711822 0.010494685 0.11526398 -0.050163552
000090 63 b3 a3 3d 12 8b be 3c de 13 41 bd 00 89 ef bb
       0.079932 0.023259673 -0.047138087 -0.007310033
0000a0 d9 32 46 bb a1 91 cd bc b1 3b a5 bd 99 ce 08 3d
       -0.003024271 -0.025093855 -0.08068026 0.033400152
0000b0 9b e3 8e 3d c0 a1 51 3d 27 9a 80 3d 4d b0 c8 bd
       0.06977006 0.051179647 0.06279402 -0.09799252
0000c0 13 ba 3a 3d 4b 00 42 3d 5f dd 5f 3d 59 80 96 3d
       0.04558761 0.04736356 0.054654475 0.07348699
0000d0 bb ed a9 bb 0e cc 63 3d 1b 61 72 bd 39 bd 66 3d
       -0.0051858104 0.055614524 -0.05917464 0.0563328
0000e0 9b e6 c2 3c 3e 79 f9 3d 89 57 3e 3d ea a9 18 3e
       0.023791602 0.12181328 0.0464702 0.14908567
0000f0 b6 6c df 3d d9 d6 09 3d 72 b8 9b 3c e1 ba 8a bc
       0.10909407 0.03365216 0.019008849 -0.016934814
000100 db 51 1a 3d 19 af d9 3c ee e6 64 3d 89 5a 58 bc
       0.03767572 0.02657275 0.055884294 -0.013205179
000110 03 e6 96 3d 6c 5b d9 bc 8c ef df 3c 05 28 08 bd
       0.0736809 -0.026532851 0.027335905 -0.03324129
000120 0f b5 ec 3c 8b c0 6f 3d 03 8d 4a 3d e3 61 ee 3c
       0.02889493 0.058533233 0.049450886 0.02909941
000130 10 46 2f bb 89 14 6b bd 74 c9 f1 bd 8e 03 05 3e
       -0.0026744641 -0.05739263 -0.11806002 0.12989637
000140 f2 22 c7 3d 40 e8 e4 3b 71 49 6d bd ea da 71 3d
       0.09723462 0.006985694 -0.057931367 0.059046663
000150 dc 5a cf 3d 3e 8d 29 3c ff 93 38 bd 8b 5d 84 bc
       0.10124752 0.010348616 -0.045063015 -0.016157886
000160 05 48 30 3c 0c b1 0e 3d 42 00 2a 3e 72 d7 b6 3d
       0.010759358 0.034836814 0.16601661 0.08927812
000170 92 e6 e2 3d c3 cd 22 bc 78 52 9d bd 74 ff cd 3d
       0.11079134 -0.009936753 -0.07681745 0.100584894
000180 b2 7e 28 3d 01 64 6e bd c9 11 dc bd ed 5f 50 bc
       0.04113645 -0.05820084 -0.1074558 -0.012718183
000190 d1 d3 7c bc ef 70 88 3d 1e 3f 67 bd 3e 6e 7c bd
       -0.01543136 0.066621654 -0.056456678 -0.061628573
0001a0 1e e2 1f bd b2 81 2c bd 33 c1 a0 bd ea 54 8a 3d
       -0.039034 -0.042115875 -0.0784935 0.06754477
0001b0 ca 41 94 3d 2c 43 c4 3d de a7 87 3d 43 fd 4f bd
       0.07239111 0.095831245 0.06623815 -0.05077864
0001c0 c5 3f b8 bc b5 5a 85 3d ea 73 1e 3b b8 b0 0e bd
       -0.022491345 0.065114416 0.0024177977 -0.0348365
0001d0 69 60 28 bd f9 14 90 ba 28 f5 f7 bd 70 2a c5 3c
       -0.04110757 -0.0010992578 -0.12107307 0.024068087
0001e0 05 22 39 bd e0 92 fe bd 77 19 73 3d 52 be fd 3c
       -0.04519846 -0.12430358 0.059350457 0.03097454
0001f0 50 95 0c bd 1e d3 17 39 0d 9e bc 3c 3f 24 94 bd
       -0.034322083 0.0001447913 0.023024583 -0.07233476
000200 f6 33 b5 bd a0 c2 03 3d ef 56 a5 bd fa f8 6b bd
       -0.088478014 0.03216803 -0.08073222 -0.05761049
000210 ac c7 15 3c da b4 95 3d 47 e2 36 3e 70 dd 62 bd
       0.009141844 0.07309885 0.17859755 -0.05538696
000220 f8 3f 55 3d a3 3d 87 bc 40 30 50 3d 61 5a d5 3d
       0.05206296 -0.016508883 0.050827265 0.10417629
000230 dd 4f 90 3d c2 2b d9 bd 49 81 82 3c 21 70 34 bc
       0.07046483 -0.10604049 0.015930789 -0.011013062
000240 8f d0 20 3d 54 70 47 3d ec 2a 52 bd 6b 02 31 bd
       0.039261397 0.04869111 -0.051310465 -0.043215197
000250 c3 c7 6e bd 4a 08 49 bd 26 cf 6b bd 4a 22 17 bb
       -0.058295976 -0.04908017 -0.0575706 -0.002306121
000260 c5 35 ae 3c bc 40 c5 bd c0 50 d1 bb f3 36 c7 3c
       0.021265874 -0.09631488 -0.0063878 0.024318194
000270 da ba 67 bc f1 84 6d 3d 40 d9 76 bd 48 91 14 3d
       -0.01414367 0.05798811 -0.06026578 0.036271363
000280 ab da a5 3d 9d b1 6c 3c f0 57 8c 3c 95 40 82 bd
       0.08098348 0.014446643 0.017131776 -0.06359974
000290 21 a1 a3 bd 85 9e c9 3d 08 77 e4 bc a8 08 1c bd
       -0.07989717 0.09844688 -0.02788879 -0.038094193
0002a0 5e 76 20 3d 49 94 46 3d 50 eb db 3c 05 96 bf 3d
       0.039175384 0.04848126 0.026845604 0.09354786
0002b0 c9 ff 0b be f7 07 18 3d cd 20 8f 3b 02 5b fb 3c
       -0.13671793 0.03711697 0.004367924 0.030683044
0002c0 7b a7 d0 3d 27 06 35 bb ab 15 82 3c 62 10 5a 3c
       0.10188194 -0.0027622075 0.015879473 0.01330957
0002d0 a4 02 31 3d 58 bc 52 bd fc eb 2a 3d 2c 3a 54 3c
       0.04321541 -0.05144915 0.04172896 0.012953322
0002e0 02 e6 3f 3d 03 65 6f 3d f6 ef 72 3d 84 c7 97 bc
       0.046850212 0.05844594 0.059310876 -0.018527754
0002f0 38 2e 14 bc ac 29 6c 3b 18 31 8d 3d aa 38 25 3d
       -0.0090442225 0.003603558 0.068941295 0.040337242
000300 44 62 69 bd 6a bf 4a bd e1 e7 a9 3c 24 57 5f bd
       -0.05697848 -0.049498953 0.020740451 -0.054526463
000310 2a 6b c2 bd 89 f2 80 3d 34 89 56 3d ae 9c 58 bd
       -0.09493096 0.0629626 0.05237694 -0.052883796
000320 02 06 19 bc 9e 1f 59 3d 42 96 2a 3c fc 66 5c 3c
       -0.009339811 0.053008668 0.010411801 0.013452288
000330 58 9d 07 bd d3 92 e3 3c 53 2d b1 3b 7f 3f 1c bd
       -0.03310904 0.027779972 0.0054070144 -0.038146492
000340 7d c9 15 bc fc 95 bd bd a3 9c 83 3d 67 32 8b bd
       -0.009142277 -0.09257123 0.064263605 -0.06796723
000350 28 7e f0 bc 92 dd 87 bd e9 4d 12 bd 9d 2d e5 bb
       -0.029357031 -0.06634058 -0.035718832 -0.006993963
000360 77 f6 2a 3a 19 73 80 3c 28 c1 61 3e c4 5c 91 bd
       0.00065217115 0.015679883 0.2204634 -0.07097772
000370 91 3e 8e bd 50 44 0c bd 74 53 d6 bd aa b3 a0 3c
       -0.06945527 -0.034244835 -0.10465136 0.01961692
000380 a0 14 80 3d 71 0d b1 3a 36 ea 1d 3d 6f 42 67 3d
       0.06253934 0.0013508034 0.03855344 0.05645984
000390 05 30 1b bd 83 08 f0 3c cb 41 f8 3d 47 07 01 3e
       -0.037887592 0.029300934 0.12121924 0.12600432
0003a0 fb ee a2 3d 6f 89 ac 3c 7e 7c c1 bc d8 87 b0 bc
       0.07955738 0.021061627 -0.023618933 -0.02154915
0003b0 e0 14 a4 bc e5 6c 30 bc 80 68 90 bc c2 2d 1b bd
       -0.020029485 -0.01076815 -0.017627954 -0.037885435
0003c0 74 46 05 bd 76 a8 7f bc 1d cc 04 bd e7 1d a2 3d
       -0.032537892 -0.015604129 -0.03242122 0.0791586
0003d0 fe 59 67 bc a3 96 1c 3d e4 e2 43 bd e2 e1 a8 bd
       -0.014120577 0.038229596 -0.0478238 -0.08246209
0003e0 a0 d8 12 bc 27 92 45 bd 7d c0 e7 3d e8 43 82 bd
       -0.00896278 -0.048235085 0.11316011 -0.06360608
0003f0 3c b0 1f 3c 65 6f fc bc 8f 85 06 bd e3 8e 85 bd
       0.009746607 -0.030814836 -0.032842215 -0.06521394
