Models/model21.pth (torch, 151567 bytes, 6 tensors)

oconv1.weight f4 [1, 1, 3, 3]
000000 27 74 e2 3e 22 a9 1b be 96 99 02 bf da bb 3c 3e
       0.44229242 -0.15201238 -0.51015604 0.18431035
000010 d1 fa 28 3e 78 aa 3f be 9c a2 b0 3e 2d 9b eb be
       0.16501929 -0.18717372 0.3449906 -0.46016827
000020 f8 b6 54 be
       -0.20772922

conv1.weight f4 [63, 1, 3, 3]
000000 03 01 c7 bf d9 07 97 3e 4f 2a 3f 3e 61 3e 18 bd
       -1.5547184 0.29498175 0.18668483 -0.037168864
000010 4a 75 66 bf fe 49 ab 3e 64 2f 03 be 02 64 14 3e
       -0.9002272 0.3345489 -0.12811047 0.14491275
000020 5b 51 46 be a3 4b 2b be 4b 04 d4 be df b2 f0 bd
       -0.19366972 -0.16728072 -0.41409525 -0.11752867
000030 e1 85 e0 be ce cd a0 3f 6a c6 a2 3e b4 90 67 3e
       -0.43852141 1.2562807 0.31792003 0.22613794
000040 58 11 44 bf dd 6c 8d 3e f5 63 66 3e 51 88 0d bf
       -0.76588964 0.2762212 0.22499068 -0.5528613
000050 f7 4b 07 3f 77 a6 30 bf 4e d3 ed 3e b6 01 a1 3e
       0.5285029 -0.69004005 0.46450275 0.31446618
000060 36 27 98 be 7b 49 2e 3f 09 d1 01 be ab 7c a8 3e
       -0.29717416 0.6808087 -0.12677397 0.32907614
000070 0c bf 16 bf 1d 4b f6 3e 0e 83 89 3f d2 49 36 3b
       -0.58885264 0.48104182 1.074312 0.0027814996
000080 2c d4 21 3f 56 a4 13 bf 83 f7 33 3e 2f 34 2e 3f
       0.63214374 -0.5767263 0.17574887 0.68048376
000090 38 11 75 bf c2 e4 5d be 06 bf 0a 3f e2 c7 3a 3e
       -0.957294 -0.21669295 0.5419773 0.18240312
0000a0 ca 72 e9 3d 43 9e 31 bd 87 cd e7 bd a5 8b 51 be
       0.113988474 -0.04336382 -0.11318498 -0.20463426
0000b0 a4 6c a5 3e 57 01 0d be 71 23 1f bf ad e8 b2 be
       0.3230945 -0.13770042 -0.62163454 -0.34943143
0000c0 6d a3 2d bf 6a 16 aa bd 23 7b 12 3f 46 53 86 3f
       -0.6782749 -0.083050564 0.5721914 1.0494163
0000d0 ba 1f 9b 3c cd 74 b9 be aa f7 b1 3d db 6f 8c be
       0.018936027 -0.36221924 0.08689816 -0.2742909
0000e0 45 14 f8 3d 42 49 69 be d8 3e d4 3e 90 33 b7 bd
       0.12113241 -0.22781852 0.41454196 -0.08945382
0000f0 c7 19 0f bf 4c d9 a8 3e 02 6d 3b 3c 4d b0 a6 3e
       -0.5589871 0.32978284 0.011439564 0.32556382
000100 f7 50 dd 3e 83 ae 7b bd 4c be f9 3d b9 4c c5 be
       0.43225834 -0.061445724 0.121944994 -0.38535097
000110 5a 08 49 3f d7 44 4a bf 19 e2 f4 3e 49 7d 31 3e
       0.7852837 -0.7901129 0.4782875 0.17332949
000120 ce 3c 00 3f 3d 81 bc 3e d3 30 96 bf 75 75 36 bc
       0.5009278 0.3681735 -1.173365 -0.011136402
000130 51 58 02 bf 76 b3 8f 3f af 3f 10 3e ab ae 12 3e
       -0.5091601 1.1226642 0.14086793 0.14324443
000140 c0 d0 f7 3c c7 31 c9 3e 2c 9b 9e 3d bd 73 1d bf
       0.030250907 0.3929579 0.077444404 -0.6150473
000150 85 d7 cb be a8 f9 52 bb 3b 73 8d 3e 12 09 ea be
       -0.39812866 -0.0032192264 0.27626976 -0.45710045
000160 5f f9 9e bc 00 f9 15 be 5f db 1c 3f ef 86 18 be
       -0.019406019 -0.14645767 0.61272234 -0.14895223
000170 da 2e 39 bf d8 1d e9 be 95 f5 05 bf 68 63 84 be
       -0.72337115 -0.4553058 -0.52327853 -0.2585709
000180 97 b3 49 3f 55 be 90 be 42 38 e8 be 11 73 3c be
       0.7878966 -0.28270212 -0.4535542 -0.1840327
000190 3b a7 1b bd 07 53 3e 3e 33 a8 36 3f 40 b2 e4 3d
       -0.03800128 0.1858636 0.713504 0.11166811
0001a0 a2 2f 5b bf aa 41 07 3f e7 4f 03 3f 9a 1e 0c 3f
       -0.85619557 0.5283457 0.51293796 0.54734194
0001b0 b0 d6 51 3f 29 3a a5 3e fe ca 05 bf a8 89 e3 be
       0.8196821 0.32270935 -0.52262866 -0.4444096
0001c0 3f 56 47 3e ce e4 50 3f 6f 91 02 3f 2c aa 9f 3d
       0.19466494 0.8159913 0.51003164 0.077961296
0001d0 9b 86 ba 3f 17 81 3b 3f dd 65 c0 bd eb 45 85 be
       1.4572328 0.7324385 -0.09394429 -0.26029906
0001e0 c2 83 47 bf e0 28 b8 bd e1 8e bb 3d 59 a2 03 3f
       -0.7793542 -0.08992171 0.09158111 0.514196
0001f0 db 4e e7 3d 77 c7 84 3e d1 38 3d 3e ab 69 e5 bc
       0.11294337 0.2593343 0.18478705 -0.028004488
000200 ac 08 0e bf e4 21 21 3d 4d 1b 3e 3b 7d 0d c1 bd
       -0.5548198 0.03933896 0.0029007972 -0.09426401
000210 06 d4 37 3e 09 4a fe be 74 9f d3 3e f2 9b 98 bc
       0.17951974 -0.4966586 0.4133259 -0.018629048
000220 6c f0 5c 3e 55 6b ee be 8b 57 eb 3e d6 9d c3 3e
       0.21576089 -0.46566263 0.45965227 0.38206357
000230 59 55 70 be f6 00 1d bf dd 40 37 bf af fa 0e bf
       -0.23470058 -0.6132959 -0.7158335 -0.5585126
000240 58 35 c1 3e e9 ba 38 3e 04 87 2c 3f c4 fd 15 3f
       0.3773601 0.1804005 0.6739352 0.5859034
000250 f9 c8 39 bf 60 de e7 3e 41 0f 83 3d e0 5e bd 3e
       -0.72572285 0.45286846 0.06399394 0.36986446
000260 38 86 c1 bd b9 b0 b6 bd 59 07 95 be c7 de 38 bf
       -0.09449428 -0.08920426 -0.29107168 -0.7221493
000270 90 d0 de 3d fe 30 46 bf 24 ec 7c bf 3c ef 0d 3f
       0.10879624 -0.77418506 -0.9879782 0.5544317
000280 0e bb 5a 3f 7c 83 4f bf bf f9 1a 3e 57 0e 7c 3f
       0.8544167 -0.81060004 0.15134333 0.9845938
000290 a4 fd 8c bf 47 81 30 3f 73 2e 36 be 30 1d 4d 3e
       -1.1014905 0.6894726 -0.17791156 0.20030665
0002a0 60 15 86 be e0 5c d6 bd 93 e8 9c be 1b db 90 bd
       -0.26188183 -0.10466933 -0.3064619 -0.07073041
0002b0 b5 dc f5 3d 1f ec 08 3f a5 ad 38 bf a1 42 5b 3e
       0.12004987 0.5348529 -0.7213996 0.21412136
0002c0 1f da b5 3e ef c8 d0 3d 0d 34 d0 3e 4c ea 19 3f
       0.35517976 0.10194575 0.40664712 0.60123134
0002d0 b6 c1 e7 3e 31 1c 92 3e f2 dd 9c be 85 ef e4 3d
       0.45264977 0.28537133 -0.3063808 0.11178497
0002e0 b2 f9 71 3f 0f b9 18 3e ed fe cd 3e 4f 7d 79 be
       0.9452163 0.14914344 0.40233555 -0.24364208
0002f0 0e 5c 31 be 8d 54 56 be 47 7a a2 be 44 22 b2 be
       -0.17320272 -0.20930691 -0.31733915 -0.34791768
000300 71 f1 89 3e 80 11 19 3f 2d 18 26 3c de 9e e0 bc
       0.26942018 0.5979233 0.0101376 -0.027419504
000310 f1 99 2c be 52 09 64 bd bb ac 02 bf 63 fb 40 be
       -0.16855599 -0.05567295 -0.51044816 -0.18845896
000320 15 0b 07 bf 7e 4a f2 3e 32 11 f9 3d 93 99 84 3e
       -0.52751285 0.47322458 0.12161483 0.25898418
000330 99 f7 08 3f a6 a5 1f be 81 95 81 be b1 dd 2b be
       0.53502804 -0.15590534 -0.25309375 -0.16783787
000340 c4 39 56 bf 7f c0 6a 3f 90 c7 df 3d fa e2 8d 3e
       -0.83681893 0.91699976 0.109267354 0.27712232
000350 9c 72 7a bc 06 f8 da be 16 d6 b2 3e 82 69 fd 3e
       -0.015286114 -0.42767352 0.3492896 0.4949456
000360 b5 07 30 be c5 36 e4 3e 21 dc 2e 3e 3d 98 39 3d
       -0.1719044 0.44573036 0.1707616 0.0453112
000370 f7 b9 c3 3e 21 73 8b bc cc fa a0 bf 37 1a d2 be
       0.38227817 -0.017022671 -1.2576537 -0.41035625
000380 32 38 b2 3e cd 6b 02 3e 3e e8 32 3e 29 f4 c7 be
       0.348085 0.12736435 0.17471406 -0.39053467
000390 89 d1 a3 3e 39 2b ce 3e 64 98 49 be 51 d1 10 3e
       0.319958 0.4026735 -0.19687039 0.14142348
0003a0 6a f0 10 3f 31 d2 f0 3d b6 54 4a bf 2f 9e a9 be
       0.5661684 0.11758841 -0.7903551 -0.33128497
0003b0 2e e0 bd be bf 9c 30 bf 7f f7 77 be 68 de c6 be
       -0.37085098 -0.68989176 -0.24215506 -0.38841558
0003c0 93 d0 7d 3e f2 55 99 3d 1e a8 60 bf 8c f7 49 3e
       0.24786596 0.07487096 -0.87756526 0.19723338
0003d0 0b db 01 3f c3 5b 2e 3f bc ab 66 3e ba f0 f5 bd
       0.5072486 0.6810877 0.22526449 -0.120088056
0003e0 73 43 08 bf 7b e0 b3 be 55 bf d0 3c 9f 8b 62 3e
       -0.5322792 -0.35132203 0.02548186 0.22123574
0003f0 e8 2b 0a 3e 6f 16 12 be 37 cd 30 bf 9f 6c 60 bf
       0.13493311 -0.1426637 -0.69063133 -0.8766574

conv1.bias f4 [63]
000000 36 c0 23 3b 6f 00 98 38 69 ad 35 3b 0d b9 48 3b
       0.0024986393 7.2480056e-05 0.0027721769 0.0030627877
000010 5b 48 82 3b f3 fb 88 3b b3 6b 98 3a 28 4b 27 3b
       0.0039759106 0.0041804253 0.0011628777 0.0025526974
000020 2a 85 e6 bb 80 3b 68 3b 41 77 08 3b 05 93 40 3a
       -0.0070349174 0.0035435855 0.0020823034 0.00073461264
000030 9e 41 a6 bb 86 a5 9b 3b e7 9a 52 bb 64 0d 78 bb
       -0.00507374 0.0047499565 -0.0032135786 -0.0037849778
000040 a8 84 89 bb bf 8e 6c bb c9 1f 7e bb 77 23 64 bb
       -0.004196722 -0.0036095825 -0.003877627 -0.0034811178
000050 fd 66 8f bb 82 76 47 bb 2a c9 80 bb ed 36 5a 3b
       -0.004376291 -0.0030435626 -0.0039302306 0.0033296898
000060 83 70 0f 3b f2 d3 78 bb 34 ba 13 bb 8a 45 82 bb
       0.002188713 -0.0037968126 -0.0022541406 -0.003975575
000070 67 cf 29 bb be 88 ac bb d7 4d 99 bb 96 32 42 bb
       -0.0025910975 -0.0052653244 -0.0046784687 -0.0029632202
000080 53 26 11 3b da 1a 8f bb 27 04 88 3a 06 5c 32 ba
       0.0022148087 -0.0043672146 0.0010377214 -0.00068038737
000090 62 b2 24 3b 97 c7 86 bb b9 48 68 bb 6c 90 2a bb
       0.0025130739 -0.0041131484 -0.0035443737 -0.0026026024
0000a0 70 f1 7a bb 5f e9 45 ba a0 c4 2d bb ef a1 7a bb
       -0.003829088 -0.00075497286 -0.0026514903 -0.0038243493
0000b0 ee dc af bb ae 7d 8f bb a7 c3 bf ba 2f 74 85 bb
       -0.005366913 -0.004378996 -0.0014630452 -0.004072688
0000c0 e4 4e a3 3a 34 e9 85 bb 8f f9 6a bb 18 3c 57 3b
       0.0012459424 -0.004086638 -0.0035854315 0.0032842215
0000d0 49 28 a5 bb 7f 3d 86 ba e9 1d 96 3b 31 e3 3f 3b
       -0.0050402028 -0.0010241716 0.0045812023 0.0029279704
0000e0 f1 c6 57 bb 95 67 38 3b 64 20 e9 3a d0 d9 7e bb
       -0.0032924975 0.0028137912 0.0017786142 -0.003888715
0000f0 fa b1 5f bb bd ef a7 bb b1 8e a4 bb
       -0.0034133182 -0.0051250146 -0.005021893

vgg.0.weight f4 [63, 63, 3, 3]
000000 af c3 c7 3c b8 17 3d bd 48 56 a4 bd 4c 11 f9 3b
       0.024385301 -0.046165198 -0.08024269 0.007600939
000010 07 8e 2f bd 78 f3 c1 bc a4 06 2f 3d 9d 79 b2 bc
       -0.042860057 -0.023675665 0.042730942 -0.021786505
000020 4d a6 4d 3c 14 d5 b1 3d af 9c 52 3d 54 25 bc 3d
       0.012551856 0.086832196 0.051418956 0.09186807
000030 69 17 23 3d c1 96 a2 bd 72 12 cd bb d6 10 66 bb
       0.039817248 -0.0793891 -0.0062583024 -0.003510525
000040 e9 9f 87 bd 14 58 b2 bd 6d 07 cd 3c a2 ec 40 bd
       -0.06622297 -0.08708206 0.025027955 -0.04710067
000050 e6 68 e2 3c 75 12 8c bb 0f f2 10 3c e8 1a 96 3d
       0.02763791 -0.004274661 0.008846774 0.07329351
000060 a8 49 24 3d a3 2d db 3b fa bb 81 3a b9 ba 9e 3d
       0.040109307 0.00668879 0.000989794 0.07750458
000070 88 40 93 3d 93 59 4d 3d 2c 44 97 3c 87 33 a8 bc
       0.07190043 0.050134253 0.018465124 -0.020532383
000080 43 15 13 bd 4e ce 89 bc 88 c0 e3 bd 4f 3f 8a 3c
       -0.03590895 -0.016822007 -0.11120707 0.016875891
000090 47 1b 11 bb 28 66 43 3c 9f 32 07 bd 4f e5 8e bd
       -0.0022141503 0.011926211 -0.03300726 -0.06977331
0000a0 f5 a0 3d bd ba e5 85 bd 0d cb d2 bd 1a ec 2e bc
       -0.04629608 -0.065379575 -0.10292635 -0.010676408
0000b0 fb c1 ef 3c 3c 70 d6 bc 00 e4 62 bc 44 c6 c8 3d
       0.029267302 -0.026176564 -0.013848305 0.09803441
0000c0 26 9a c7 3d cb 25 99 3d cc 77 ec bc 58 1c 2f bc
       0.09746198 0.074779116 -0.028865717 -0.01068791
0000d0 1f 59 da b9 37 97 8d 3d 7a 70 a0 3d fd 10 b9 3d
       -0.000416466 0.069136076 0.07833953 0.090364434
0000e0 d0 82 ea 3d 67 e0 cc bd e7 ca 7e bb 3c 60 62 3c
       0.11450732 -0.10003739 -0.0038878263 0.013816889
0000f0 12 86 9b bd 5e c4 ea bc b8 84 b0 bc 5e 59 75 bd
       -0.07593931 -0.028658088 -0.02154766 -0.05989968
000100 3d de f8 3d 88 02 31 3c 37 f3 e8 3c 1f dd 04 3d
       0.121517636 0.010803826 0.028436286 0.03243744
000110 bc a9 16 3d f1 d0 a8 bd 90 85 85 3d 69 89 a1 bb
       0.036782965 -0.082429774 0.06519616 -0.0049297106
000120 0f 3d fb bc ab 4c c8 bc 15 c4 26 3c 36 43 6e bd
       -0.030668763 -0.02445062 0.010178586 -0.058169566
000130 6f 2c e2 3d be 10 12 3d 40 d5 82 3c 40 4b 47 3c
       0.11043631 0.035660498 0.015970826 0.012163937
000140 f7 bb 61 bd 46 cb 55 3d 13 69 64 3d 2f 74 8c bd
       -0.055110898 0.05219581 0.05576427 -0.06858098
000150 50 37 ff 3c 47 eb 87 3c 9a 49 f6 3c be 91 10 bc
       0.031154305 0.016591681 0.030064393 -0.00882381
000160 79 6c 35 bc df 5b a6 bc 5c 0a bc bc 1a 32 e0 3b
       -0.011073225 -0.02030748 -0.022954158 0.00684191
000170 46 96 14 3c f5 78 5d 3d 8a b4 cf 3d 10 a4 38 bd
       0.009069031 0.05407043 0.10141857 -0.045078337
000180 80 2c e3 3c 1b a8 b6 3d 30 dd 1d bd 06 7f 35 bd
       0.02773118 0.08918782 -0.03854102 -0.044310592
000190 cc 0b 98 bc 6d 72 b6 3c 9a c9 fa bc 42 84 89 bd
       -0.018560313 0.02227136 -0.03061371 -0.06714679
0001a0 5c 3d 28 be 7d 94 d4 bc 27 58 40 bc 4c b2 d2 bc
       -0.16429657 -0.025949711 -0.011739767 -0.025719784
0001b0 06 44 ca bb e7 c7 09 3d ab 6a e3 bd a1 59 16 3d
       -0.00617266 0.033637907 -0.1110433 0.03670657
0001c0 84 34 c7 3b 56 65 6f 3d 6a d2 5e bc 91 4f 23 bd
       0.0060792584 0.05844625 -0.013599971 -0.039870802
0001d0 ae 4f d8 bc 0a 2e da 3c 14 6d b8 3c e9 de ad ba
       -0.026405182 0.026633281 0.02251295 -0.0013265285
0001e0 26 44 d8 3c 96 6d 0d bc 1e 42 3d bd 91 21 c6 bd
       0.026399683 -0.008632084 -0.046205632 -0.09674371
0001f0 d9 dd 01 3e 71 97 de bc b1 da cc bb 59 98 3e bd
       0.12682284 -0.027171822 -0.006251656 -0.04653201
000200 fb 01 85 bd 6e 53 45 bd 9a 10 8a bd 7f 4c ac bd
       -0.06494518 -0.048175268 -0.06741448 -0.08413028
000210 b4 87 06 bd 3c 4c ee 3d 18 33 df 3c 3f 53 29 bc
       -0.03284426 0.11635634 0.027246043 -0.010334789
000220 ff 15 d7 bd 61 96 1f bc cf 3c 76 bc 70 da be 3d
       -0.10502242 -0.009740443 -0.015029146 0.093190074
000230 b3 cf 3b bc 4a 84 75 3d 3d de 9e 3c ae 07 04 3e
       -0.011463094 0.059940614 0.01939308 0.12893555
000240 c2 d4 76 3c 02 36 73 3d e7 ab 24 be be e5 55 bc
       0.015065374 0.059377678 -0.160812 -0.013055263
000250 86 f6 12 bc 6e c4 17 3d 44 82 01 bd 5c 83 01 bd
       -0.008969909 0.037052564 -0.03161837 -0.031619415
000260 53 04 f5 3c db 75 e4 bc 2d 3c 8f 3d 54 9c 73 bd
       0.029909289 -0.02788823 0.069938995 -0.059475258
000270 b6 8e c9 bc 73 38 06 3d 1f 7d 08 3d a9 5f c7 3c
       -0.024604183 0.032768678 0.03332245 0.024337607
000280 d5 1b 7e bd d2 34 58 3b 9d cd 78 3d ab c9 12 3d
       -0.06203826 0.0032990468 0.060742963 0.035836857
000290 dc 0f 85 bd c6 d1 e2 bc 1d 96 eb bd de 78 5f bc
       -0.064971656 -0.027687918 -0.11503241 -0.013639657
0002a0 c2 9f 53 3c 2e d7 84 3c 7c 5e 4c bd 0b 48 14 3d
       0.012916507 0.016215887 -0.049894795 0.036201518
0002b0 26 8c 99 bc a2 f8 13 3d dd 36 a5 3c 88 f4 90 3d
       -0.018743586 0.036125787 0.020167762 0.07077891
0002c0 c9 56 56 bd 77 e4 36 3d 21 03 8b 3c 5c c8 64 3d
       -0.05232886 0.044651475 0.016969265 0.05585514
0002d0 af 03 6a 3c 30 90 74 bd b5 ff 7f bd 87 07 64 bc
       0.014283105 -0.05970782 -0.06249972 -0.01391781
0002e0 43 1c aa bc 7f 1d d4 bb 0b 10 5e 3c 1f 84 10 bd
       -0.02076543 -0.006473243 0.01355363 -0.03528225
0002f0 e9 29 48 bc 7b 67 ef bb 56 79 38 bb 93 4d 1e 3d
       -0.012217023 -0.007306037 -0.0028148494 0.0386482
000300 8e ea 84 bd 10 3a f2 3c 65 21 df 3d a2 ed 65 bc
       -0.0649005 0.029568702 0.108950414 -0.014033707
000310 f2 28 21 3d 30 90 24 3c 62 87 2f bc f7 ea 85 bc
       0.03934569 0.010044143 -0.01071343 -0.016347392
000320 54 d5 b0 bd c2 53 7c 3c 8d 04 2d bd 04 14 44 bd
       -0.08634439 0.015400829 -0.042240668 -0.04787065
000330 48 f4 19 bb a3 e3 89 bd 3d 1f a2 3d 03 64 9e bc
       -0.002349155 -0.067328714 0.079161145 -0.019334799
000340 2c c3 89 3d ce 3c 77 3d 7a 2f 07 be e8 f0 3e 3c
       0.06726679 0.060360722 -0.13201705 0.011654116
000350 95 54 58 3c 8d 4f f5 bd 3f 3c 5b bd a9 ce e5 3d
       0.01320376 -0.11978064 -0.053524252 0.11221058
000360 88 3a 9b bc 4c f1 ed 3b 62 de 2f 3d 40 4d 48 3d
       -0.018948808 0.007261431 0.04293669 0.048901796
000370 bd 66 d8 bc f2 ff 6f bd 4c 1b 19 bd a5 3a 30 bc
       -0.026416177 -0.058593698 -0.037379548 -0.010756169
000380 b6 77 52 3c d2 91 4b bd fa f9 e9 3b af 26 08 3d
       0.012845924 -0.049699612 0.007140395 0.033240017
000390 08 a7 11 3d 8f 4c 8e bd fe 7e 1e bd 09 c2 0e bc
       0.035559684 -0.06948196 -0.038695328 -0.008713254
0003a0 ce 59 63 bd c2 35 90 3d 77 fd ae bd 4b 05 fb 3c
       -0.055505566 0.070415035 -0.08544438 0.030642172
0003b0 8f 33 a6 bd a2 52 0f 3d fc 75 97 3d e5 f4 db bc
       -0.08115303 0.034990914 0.073955506 -0.026850173
0003c0 17 7c fc 3d b9 cc 7f bc e0 0d 25 ba ca ac c4 3c
       0.12328356 -0.0156127745 -0.0006296318 0.024008173
0003d0 02 d6 9e bd e6 ad 2e bc 31 8e b7 3c 58 2f 7b 3c
       -0.077556625 -0.010661578 0.02240667 0.015331112
0003e0 c7 7d 80 3d 07 64 a4 3d 97 8d ff ba 43 7d 33 bd
       0.0627399 0.08026891 -0.0019497153 -0.04382063
0003f0 81 df ac 3b af 45 36 bd 5e 71 81 bd 3f e8 1d 3e
       0.005275667 -0.04450005 -0.06320451 0.15420626

vgg.0.bias f4 [63]
000000 ba 05 53 bb e5 3c 80 3b 76 64 fc b9 81 c7 08 bb
       -0.0032199458 0.003913509 -0.00048140035 -0.0020870867
000010 c0 c7 8e bb d6 0c f2 ba 31 68 79 b9 7e 28 b8 ba
       -0.004357308 -0.001846696 -0.00023785305 -0.0014050154
000020 2b 7e 30 bb 0c ef 9e ba 99 57 fe ba 49 cf 70 bb
       -0.002693067 -0.0012125685 -0.0019404768 -0.0036744645
000030 29 db 67 bb 84 92 9a bb 54 4b 90 bb 0f 15 7f b9
       -0.0035378432 -0.004717173 -0.004403511 -0.0002432654
000040 94 60 ef 39 7e da 81 bb 10 11 d7 ba 1a 9a 8a bb
       0.0004565759 -0.003962814 -0.0016408283 -0.004229796
000050 4c 55 05 bb 5a 95 88 bb 6d 62 cd 39 14 fa f2 ba
       -0.002034503 -0.0041681947 0.0003917398 -0.0018537664
000060 36 6b b2 bb c4 bd 68 bb 90 3e 82 bb ac 99 0c bb
       -0.0054449094 -0.00355135 -0.003974743 -0.00214539
000070 b0 18 8f bb d9 6c 10 bb 9d 9b 6c bb 8d 40 48 bb
       -0.0043669567 -0.0022037535 -0.0036103495 -0.0030556053
000080 2b 75 31 bb ef 06 2b 3a 4d 94 4d bb cc 2a 33 b8
       -0.0027077894 0.00065241655 -0.0031368912 -4.2716783e-05
000090 69 a8 7e bb 8b 1d 34 3b 55 28 5d 3b 22 ca 04 3c
       -0.0038857704 0.002748343 0.0033745964 0.008104833
0000a0 7e d5 64 bb 9b 2d ea 3a c8 bc ec ba b5 91 1a bb
       -0.003491729 0.0017866375 -0.0018061632 -0.0023585383
0000b0 83 59 b1 bb bb 90 85 3b 32 1f 9c ba f2 69 80 bb
       -0.005412282 0.004076091 -0.0011911152 -0.0039188797
0000c0 85 8c 9c b9 ad 45 7f bb 48 81 47 ba 2c d6 06 3b
       -0.00029859334 -0.0038951442 -0.0007610512 0.0020574434
0000d0 32 89 87 ba dc 42 01 bb bd 44 28 ba 12 3f 6b bb
       -0.001034057 -0.001972369 -0.0006418934 -0.0035895747
0000e0 17 2b e8 b9 f9 c5 38 3a 8a 59 f7 39 82 47 84 bb
       -0.00044282593 0.0007048543 0.00047178223 -0.0040368447
0000f0 8b 8c 1a 3a 51 18 87 bb 6f 42 ec 3a
       0.00058955763 -0.004122772 0.001802517

oconv2.weight f4 [1, 63, 3, 3]
000000 59 54 92 3c a6 13 8a 3d 9c 27 f8 3b 03 41 11 be
       0.017862486 0.06742029 0.007573081 -0.14184956
000010 84 e0 36 bd e5 87 90 bd 86 21 37 bd 74 64 02 bd
       -0.04464771 -0.0705717 -0.044709705 -0.03183408
000020 61 2d f1 bc 93 e6 1c 3d 8e 91 37 3d f8 92 8c 3d
       -0.029440584 0.03830583 0.044816546 0.068639696
000030 73 22 71 bd db c0 d4 3b 92 5c 3f bc d7 97 2f bc
       -0.058870744 0.0064927167 -0.011679785 -0.010717354
000040 19 e3 63 3d 2b 76 a9 bc 92 30 c2 3c b9 c3 f5 3d
       0.0556365 -0.02068623 0.0237048 0.12000222
000050 5b 30 95 bb 97 2b de 3c e3 61 ab 3d f5 2c 0d bd
       -0.0045528836 0.027120395 0.0836828 -0.034466702
000060 bc 93 01 bd 0c 00 d1 3d 54 f8 93 bc da 1c 9b bd
       -0.03163503 0.10205087 -0.018062748 -0.075738624
000070 30 fd ad 3d 21 73 01 bc 53 05 64 bd 1e 56 5b bd
       0.08495557 -0.007900984 -0.05566914 -0.053548925
000080 74 cb 9f 3d 94 29 37 3c aa 2e ec 3d c1 9d 4a bd
       0.078024775 0.011179347 0.11532338 -0.049466852
000090 ee c3 a5 3d 50 aa b8 3c 8e b7 3f bd 65 d2 d9 bb
       0.08094011 0.022542149 -0.04680591 -0.0066473954
0000a0 18 79 6a bb 0d 33 c6 bc e1 1b a7 bd a5 05 05 3d
       -0.0035777744 -0.024194265 -0.08159614 0.032476086
0000b0 2f 32 91 3d bb 7c 55 3d ce ef 7c 3d 74 29 c7 bd
       0.0708965 0.052120905 0.061752133 -0.097247034
0000c0 77 4c 3e 3d bf 09 45 3d 3e 2c 5d 3d 49 dc 98 3d
       0.04645964 0.048104998 0.05399727 0.07463891
0000d0 e1 a4 9e bb 61 25 5f 3d bc ac 75 bd fc a2 6a 3d
       -0.0048414324 0.054479007 -0.059979185 0.05728434
0000e0 8d f9 c7 3c 67 f8 f8 3d 5b 88 3f 3d bd 91 19 3e
       0.024410987 0.12156754 0.046760898 0.14997001
0000f0 d6 87 de 3d df a3 07 3d 86 ca 94 3c fc 0a 8e bc
       0.108657524 0.033115264 0.018162977 -0.017339222
000100 77 29 1d 3d 09 73 df 3c 24 a1 66 3d 3f 66 57 bc
       0.038369622 0.027276533 0.05630602 -0.013146936
000110 1f b8 98 3d b9 ff e0 bc 61 01 e8 3c 76 7d 07 bd
       0.07456993 -0.027465688 0.02832097 -0.033078633
000120 79 36 f4 3c 40 8b 73 3d 25 38 4e 3d ba 4f f5 3c
       0.02981113 0.05945897 0.050346512 0.029945243
000130 25 f8 fa ba b5 ed 6b bd 35 8d f3 bd 97 d8 05 3e
       -0.0019147439 -0.057599742 -0.118921675 0.13070904
000140 2c f2 c8 3d 82 b4 d2 3b 06 24 72 bd 4e 38 6f 3d
       0.098118156 0.0064302096 -0.059116386 0.058403306
000150 fc d2 cf 3d a1 a9 3c 3c 34 9c 3c bd e6 ea 89 bc
       0.10147664 0.011515052 -0.046047404 -0.016835641
000160 7e 54 35 3c 1b d1 11 3d 84 1f 2b 3e 16 b1 b8 3d
       0.011067508 0.03559981 0.16711241 0.090181515
000170 8b d4 e4 3d b8 95 2f bc 03 b5 9b bd 45 f8 ce 3d
       0.11173352 -0.010716848 -0.076028846 0.101059474
000180 84 3b 29 3d 63 6e 72 bd 60 d1 da bd 74 93 58 bc
       0.041316524 -0.059187304 -0.10684466 -0.013218749
000190 57 4b 6d bc 72 87 89 3d 06 d7 69 bd ec bc 7f bd
       -0.014483294 0.06715287 -0.057089828 -0.06243603
0001a0 2e fc 1b bd e8 fa 28 bd 10 78 a2 bd 32 c5 88 3d
       -0.038082294 -0.041254908 -0.07933056 0.06678237
0001b0 a1 17 96 3d 23 68 c2 3d 0d 7e 89 3d 4c 36 52 bd
       0.073287256 0.09492519 0.067134954 -0.051321313
0001c0 1d e3 bd bc 1d 36 87 3d ff 04 cf 3a 48 01 11 bd
       -0.023179585 0.06602118 0.0015794336 -0.035401613
0001d0 25 5e 25 bd d1 ee 67 b9 73 71 f8 bd cc 2f cd 3c
       -0.040372986 -0.00022118843 -0.12131014 0.025047205
0001e0 90 7e 3c bd c8 11 ff bd 15 b6 70 3d b9 8d 03 3d
       -0.046019137 -0.124545634 0.058767397 0.03211758
0001f0 00 85 0e bd 26 b6 8b 3a f4 38 bd 3c 02 6e 95 bd
       -0.034794807 0.0010659143 0.023098446 -0.07296373
000200 01 5e b4 bd ac 1c 07 3d 30 1e a7 bd eb ff 68 bd
       -0.08806992 0.032986328 -0.08160055 -0.056884687
000210 7e ee 07 3c de 51 97 3d 3a 00 38 3e 54 11 66 bd
       0.008296607 0.07388662 0.17968836 -0.05616887
000220 e0 86 58 3d f5 de 8d bc de 58 4f 3d 54 78 d7 3d
       0.052863 -0.017318228 0.05062186 0.10520998
000230 e9 2d 92 3d 11 0c db bd a4 2a 78 3c e0 22 42 bc
       0.07137663 -0.10695661 0.015146885 -0.011849135
000240 81 fe 1c 3d f9 a7 4a 3d 16 c1 50 bd 0d ea 34 bd
       0.03832865 0.049476597 -0.05096539 -0.04416852
000250 2f 7b 71 bd 3d 17 46 bd 04 dc 6e bd bd fe 46 bb
       -0.058955368 -0.048362006 -0.058315292 -0.0030364238
000260 4f de b3 3c 02 18 c7 bd e6 1f b9 bb e2 5a cf 3c
       0.021956591 -0.09721376 -0.0056495545 0.025311891
000270 8a 75 60 bc d3 bb 6c 3d 1e ea 7a bd 2f a1 17 3d
       -0.0136998985 0.05779631 -0.061258428 0.03701895
000280 6b 7b a7 3d 67 b1 5d 3c 89 27 88 3c 9d 15 81 bd
       0.08177837 0.013531066 0.016620414 -0.063029505
000290 44 6b a4 bd 82 6f cb 3d d3 77 e9 bc aa 55 1a bd
       -0.08028272 0.09933378 -0.02849952 -0.037679352
0002a0 c1 83 1d 3d fc 2a 4a 3d 0c c9 e3 3c 55 83 c1 3d
       0.03845573 0.0493574 0.027805828 0.09448878
0002b0 1d 0a 0d be 88 8c 18 3d 77 47 75 3b b8 fd fe 3c
       -0.13773389 0.037243396 0.003742663 0.031126842
0002c0 46 88 d2 3d 91 dc 5f bb 88 07 85 3c 65 09 5f 3c
       0.10279898 -0.0034158567 0.016238943 0.01361308
0002d0 8d cc 34 3d 30 38 56 bd 73 0b 29 3d 0e cc 62 3c
       0.044140387 -0.05229968 0.041270684 0.013842596
0002e0 d5 b3 43 3d 9d 1f 6c 3d 45 9b 76 3d fd c6 9e bc
       0.047778923 0.057647336 0.06020667 -0.019381994
0002f0 ad c9 1a bc b0 36 8e 3b 2e eb 8d 3d 23 51 28 3d
       -0.009447497 0.0043400154 0.069296226 0.041093003
000300 b7 12 6d bd a3 47 47 bd ad 53 a6 3c 5e 8a 5c bd
       -0.057879176 -0.048652302 0.020303572 -0.053842895
000310 77 eb c3 bd 3e 07 7e 3d 4c ea 59 3d 1c 84 58 bd
       -0.09566396 0.062018625 0.05320196 -0.052860364
000320 09 15 15 bc 27 fa 58 3d 4f e9 2f 3c a4 73 6b 3c
       -0.009099253 0.05297294 0.010736777 0.014370833
000330 41 92 07 bd b4 c9 e5 3c 84 e4 ce 3b 88 a9 1f bd
       -0.033098463 0.028050281 0.0063138623 -0.038980037
000340 66 03 08 bc 2c 4a c0 bd 06 7c 82 3d 0a 81 8d bd
       -0.0083015915 -0.09389147 0.06371312 -0.06909378
000350 43 ef e9 bc a2 84 8a bd c9 8c 12 bd b2 c4 c5 bb
       -0.028556472 -0.06763579 -0.035778794 -0.006035411
000360 fa b5 b1 3a b1 fe 73 3c d8 bb 62 3e a5 cb 92 bd
       0.0013558262 0.014892266 0.22141969 -0.07167748
000370 a1 01 90 bd 3e e2 07 bd fc 25 d8 bd 6f 99 a8 3c
       -0.07031561 -0.033174746 -0.1055412 0.020580975
000380 c7 8d 7b 3d 0c 00 18 3b 28 27 21 3d de ba 64 3d
       0.061414506 0.0023193387 0.039343983 0.055842273
000390 b2 8e 1d bd e3 29 ef 3c b1 c5 f9 3d a2 cf 01 3e
       -0.038466163 0.029194778 0.1219591 0.12676862
0003a0 01 b2 a1 3d d0 59 a3 3c f0 4d c8 bc 70 d5 b6 bc
       0.0789528 0.019940287 -0.024451226 -0.022318572
0003b0 35 37 a6 bc 45 0c 3c bc 62 6a 95 bc 78 c2 1e bd
       -0.020289997 -0.011477535 -0.018239204 -0.03875968
0003c0 1a ba 08 bd 50 0c 86 bc 9a 9a 08 bd 60 30 a4 3d
       -0.033380605 -0.016363293 -0.033350565 0.08017039
0003d0 78 4a 5a bc 60 2b 19 3d 1b dc 46 bd 59 bf aa bd
       -0.013323419 0.03739488 -0.048549753 -0.08337278
0003e0 f8 d9 16 bc ce a1 41 bd 56 ce e9 3d c2 03 84 bd
       -0.009207241 -0.04727345 0.114163086 -0.06446029
0003f0 05 09 2b 3c d0 4e 01 bd da 46 05 bd 6d 69 87 bd
       0.010439162 -0.031569302 -0.032538272 -0.06611905
