Models/model25.pth (torch, 151759 bytes, 6 tensors)

oconv1.weight f4 [1, 1, 3, 3]
0.44210434 -0.1518249 -0.5099418 0.1844829 0.16482542 -0.18698753 0.34480453 -0.45996782
-0.20750734
00000000: 805b e23e fd77 1bbe 8c8b 02bf 16e9 3c3e
00000010: ffc7 283e a979 3fbe 388a b03e e780 ebbe
00000020: ce7c 54be

conv1.weight f4 [63, 1, 3, 3]
-1.554461 0.29516408 0.18650265 -0.036946755 -0.90003854 0.3347221 -0.12792243 0.14468162
-0.19374628 -0.16705142 -0.4138572 -0.117276564 -0.43828064 1.2564642 0.3181336 0.22634822
-0.7661267 0.2759755 0.22479925 -0.5527442 0.52871364 -0.6898137 0.4643423 0.3143845
-0.29727122 0.68095213 -0.12652008 0.32926032 -0.58862674 0.4808704 1.0741109 0.0029861308
0.6323805 -0.5765175 0.17594905 0.68031037 -0.9575157 -0.21693999 0.5420663 0.18219385
0.11373101 -0.04361799 -0.11342887 -0.20488605 0.32289043 -0.13789709 -0.62176406 -0.34956506
-0.6784639 -0.083281845 0.5719728 1.0491673 0.018717103 -0.36201432 0.08672777 -0.27404654
0.1209209 -0.2279942 0.41475457 -0.089600876 -0.5591511 0.32964948 0.011698113 0.3255927
0.43233013 -0.0612543 0.1221463 -0.3851791 0.78508586 -0.78987086 0.47852677 0.17312579
0.5007226 0.3679436 -1.173138 -0.011370837 -0.5091476 1.1224409 0.14065747 0.14303531
0.030084174 0.39274377 0.07725892 -0.61498475 -0.39788222 -0.0033692142 0.27607217 -0.4572648
-0.019565886 -0.14663512 0.612567 -0.14870253 -0.7233238 -0.45549208 -0.5234777 -0.25847313
0.78768635 -0.2825184 -0.45331293 -0.18420966 -0.03792704 0.1860532 0.7136382 0.111452
-0.85630256 0.52804315 0.512695 0.5471375 0.8194569 0.32287908 -0.5224585 -0.44454974
0.19463342 0.816135 0.50980926 0.07777426 1.4570059 0.732621 -0.09377324 -0.26008594
-0.7791197 -0.08972278 0.09175638 0.51397634 0.11315586 0.259067 0.18455297 -0.028268611
-0.5546545 0.039487943 0.003082148 -0.09406153 0.17942491 -0.4969578 0.4130532 -0.018837294
0.21551816 -0.4654827 0.4593655 0.38184452 -0.23450845 -0.61310965 -0.7156504 -0.5583103
0.3771679 0.18019086 0.67372173 0.5857101 -0.725396 0.45267072 0.06376638 0.3696792
-0.094644085 -0.08922469 -0.29105026 -0.7219899 0.10859111 -0.77397716 -0.987747 0.55457366
0.8542173 -0.8104214 0.15153635 0.9843837 -1.1012175 0.689689 -0.17810738 0.20017874
-0.26164597 -0.10440538 -0.3062021 -0.07049839 0.119826265 0.53466505 -0.7211987 0.21408144
0.35498932 0.1017551 0.40680894 0.6010103 0.45274433 0.28521845 -0.30617175 0.111988366
0.9450172 0.1489723 0.4022283 -0.24339683 -0.1729853 -0.20946752 -0.3170937 -0.34800282
0.26922658 0.5977477 0.009956673 -0.027134186 -0.16871174 -0.055798057 -0.5102447 -0.18872203
-0.52743036 0.47316602 0.1217445 0.25875282 0.534804 -0.15579762 -0.253322 -0.16761315
-0.83649313 0.9167516 0.109506644 0.27733582 -0.01548833 -0.4274311 0.34898835 0.49519163
-0.17162108 0.44602656 0.17109282 0.045546416 0.38251197 -0.017182972 -1.2573533 -0.41015524
0.3478686 0.12728901 0.17491359 -0.3902841 0.3198121 0.40288302 -0.19668849 0.14120817
0.5661241 0.11734512 -0.79011244 -0.33132264 -0.370874 -0.69001764 -0.24188651 -0.38846725
0.2476751 0.07469596 -0.8772949 0.19750395 0.5070395 0.68089706 0.22537464 -0.11983561
-0.5320587 -0.351014 0.025709763 0.22110762 0.13476458 -0.14247224 -0.6903423 -0.8766921
00000000: 94f8 c6bf bf1f 973e 8dfa 3e3e 7b55 17bd
00000010: ed68 66bf b260 ab3e 19fe 02be 6b27 143e
00000020: 6d65 46be 870f 2bbe 17e5 d3be b22e f0bd
00000030: 5266 e0be d2d3 a03f 68e2 a23e d4c7 673e
00000040: e120 44bf a94c 8d3e c631 663e a580 0dbf
00000050: c759 073f a197 30bf 46be ed3e 01f7 a03e
00000060: ef33 98be e152 2e3f 7b8e 01be cf94 a83e
00000070: 3eb0 16bf a534 f63e 777c 893f f6b2 433b
00000080: b0e3 213f a796 13bf fd2b 343e d228 2e3f
00000090: c01f 75bf 8425 5ebe dbc4 0a3f 0691 3a3e
000000a0: ceeb e83d c7a8 32bd 654d e8bd a6cd 51be
000000b0: e551 a53e e534 0dbe ee2b 1fbf 31fa b2be
000000c0: cfaf 2dbf ac8f aabd cf6c 123f 1d4b 863f
000000d0: 9c54 993c f159 b9be 549e b13d d44f 8cbe
000000e0: 60a5 f73d 5077 69be b65a d43e aa80 b7bd
000000f0: 8724 0fbf d1c7 a83e 71a9 3f3c 16b4 a63e
00000100: 605a dd3e cae5 7abd d727 fa3d 3236 c5be
00000110: 63fb 483f fa34 4abf 7601 f53e e347 313e
00000120: 5b2f 003f 1b63 bc3e 6329 96bf bf4c 3abc
00000130: 7f57 02bf 25ac 8f3f 8308 103e d977 123e
00000140: 1673 f63c b615 c93e ed39 9e3d a46f 1dbf
00000150: 38b7 cbbe 09ce 5cbb 5559 8d3e 9d1e eabe
00000160: a348 a0bc 8427 16be 31d1 1c3f 7a45 18be
00000170: c02b 39bf 4236 e9be a202 06bf 9756 84be
00000180: d0a5 493f 40a6 90be a218 e8be 75a1 3cbe
00000190: 6259 1bbd bb84 3e3e feb0 363f f240 e43d
000001a0: a536 5bbf d62d 073f fb3f 033f 3411 0c3f
000001b0: edc7 513f 6850 a53e d7bf 05bf 069c e3be
000001c0: fc4d 473e 39ee 503f dc82 023f 1c48 9f3d
000001d0: 2b7f ba3f 0d8d 3b3f 2f0c c0bd fc29 85be
000001e0: 6374 47bf 94c0 b7bd c5ea bb3d f493 033f
000001f0: 42be e73d 6ea4 843e 74fb 3c3e 9393 e7bc
00000200: d6fd 0dbf 1cbe 213d ddfd 493b 55a3 c0bd
00000210: 2abb 373e 4171 febe b67b d33e ab50 9abc
00000220: cbb0 5c3e c053 eebe f431 eb3e 2081 c33e
00000230: fc22 70be c1f4 1cbf dd34 37bf 6ced 0ebf
00000240: 271c c13e f483 383e 0779 2c3f 19f1 153f
00000250: 8db3 39bf 75c4 e73e f397 823d 9846 bd3e
00000260: c2d4 c1bd 6fbb b6bd 8a04 95be 55d4 38bf
00000270: 0465 de3d 5e23 46bf fddc 7cbf 8af8 0d3f
00000280: fcad 5a3f c777 4fbf 582c 1b3e 9200 7c3f
00000290: b2f4 8cbf 758f 303f c861 36be a8fb 4c3e
000002a0: 76f6 85be 7dd2 d5bd 86c6 9cbe 7661 90bd
000002b0: 7967 f53d cfdf 083f 7aa0 38bf 2a38 5b3e
000002c0: 29c1 b53e fa64 d03d 4349 d03e d0db 193f
000002d0: 1bce e73e 2708 923e 8bc2 9cbe 285a e53d
000002e0: a6ec 713f 328c 183e def0 cd3e 053d 79be
000002f0: 0f23 31be a77e 56be 1b5a a2be 6d2d b2be
00000300: 11d8 893e fe05 193f 5021 233c 8348 debc
00000310: c5c2 2cbe 818c 64bd 669f 02bf 5940 41be
00000320: ad05 07bf d142 f23e 2e55 f93d 407b 843e
00000330: eae8 083f 6989 1fbe 6cb3 81be c8a2 2bbe
00000340: 6a24 56bf 3cb0 6a3f 0545 e03d f6fe 8d3e
00000350: c4c2 7dbc 40d8 dabe 9aae b23e c289 fd3e
00000360: 70bd 2fbe 985d e43e f532 2f3e e18e 3a3d
00000370: 9cd8 c33e 4ec3 8cbc f4f0 a0bf deff d1be
00000380: d51b b23e 0d58 023e 8c1c 333e 51d3 c7be
00000390: 69be a33e af46 ce3e b568 49be e098 103e
000003a0: 82ed 103f a352 f03d cf44 4abf 1fa3 a9be
000003b0: 32e3 bdbe ffa4 30bf 19b1 77be 2ee5 c6be
000003c0: 8b9e 7d3e 32fa 983d 6696 60bf 7a3e 4a3e
000003d0: 57cd 013f 454f 2e3f 9cc8 663e 5f6c f5bd
000003e0: 0035 08bf 1bb8 b3be 489d d23c 096a 623e
000003f0: baff 093e 3ee4 11be 46ba 30bf e56e 60bf

conv1.bias f4 [63]
0.0026973686 0.00030327582 0.0029800283 0.0032908553 0.0042077866 0.004373553 0.0013774305 0.0027468523
-0.0072501036 0.0034503865 0.0023066972 0.0009069821 -0.0052874777 0.0049285223 -0.0030674473 -0.0039767344
-0.0043993057 -0.003810985 -0.004070478 -0.0036916977 -0.0045539825 -0.00326966 -0.0041076834 0.0034619765
0.0021952644 -0.003901622 -0.0025357623 -0.0041791177 -0.0023236936 -0.005471846 -0.004923166 -0.0031699173
0.0022426764 -0.00456971 0.0007918959 -0.0003683207 0.0027012927 -0.004253402 -0.0037401468 -0.0023593577
-0.0039606667 -0.0005264773 -0.0028058703 -0.004017995 -0.0055501163 -0.004571027 -0.0016573418 -0.004272119
0.001222865 -0.0042656213 -0.0037265366 0.0034681468 -0.00517199 -0.0011284837 0.0047714 0.0031147394
-0.0033579958 0.0030042452 0.0019246585 -0.0040813056 -0.0035633615 -0.005296963 -0.005218852
00000000: 56c6 303b fe00 9f39 944c 433b 64ab 573b
00000010: 79e1 893b 0650 8f3b e68a b43a 8904 343b
00000020: 4792 edbb e11f 623b f52b 173b 8ac2 6d3a
00000030: 9442 adbb 717f a13b 3a07 49bb 444f 82bb
00000040: 0d28 90bb b8c1 79bb a561 85bb 69f0 71bb
00000050: 9339 95bb cb47 56bb bf99 86bb 54e2 623b
00000060: 6dde 0f3b 5bb2 7fbb 082f 26bb fbf0 88bb
00000070: 1c49 18bb 2c4d b3bb 8252 a1bb 63be 4fbb
00000080: def9 123b 82bd 95bb 3c97 4f3a 2b1b c1b9
00000090: 2c08 313b 1f60 8bbb 401d 75bb 749f 1abb
000000a0: 7bc8 81bb 4b03 0aba b1e2 37bb 63a9 83bb
000000b0: c0dd b5bb 8ec8 95bb 2a3b d9ba 22fd 8bbb
000000c0: 8a48 a03a a0c6 8bbb e938 74bb d949 633b
000000d0: cc79 a9bb a1e9 93ba 6759 9c3b a820 4c3b
000000e0: d211 5cbb dfe2 443b d344 fc3a 79bc 85bb
000000f0: 4987 69bb 2592 adbb e702 abbb

vgg.0.weight f4 [63, 63, 3, 3]
0.024162114 -0.046353333 -0.08045702 0.0074238335 -0.043062218 -0.023870105 0.042555418 -0.021974828
0.012329903 0.08665797 0.05153832 0.09167817 0.039709687 -0.0795256 -0.006473528 -0.003729753
-0.06604145 -0.0872072 0.024860479 -0.047251858 0.027522575 -0.0044521643 0.0086940825 0.073136374
0.039947122 0.0065656565 0.0008535604 0.07732477 0.071727194 0.049892053 0.018252729 -0.020599766
-0.036090683 -0.016977059 -0.11131749 0.016715234 -0.0023944536 0.011777662 -0.033165798 -0.06994532
-0.046491902 -0.06556337 -0.10308669 -0.01085067 0.029083075 -0.026238497 -0.013771194 0.09786534
0.09730246 0.07456043 -0.02896233 -0.010862967 -0.00058430445 0.06892435 0.07817624 0.09020387
0.11460473 -0.10019622 -0.0038103778 0.013870858 -0.07611404 -0.028652625 -0.021451756 -0.059939526
0.12140962 0.010712656 0.028248971 0.03243599 0.03659784 -0.08250331 0.06501789 -0.0050193486
-0.030836478 -0.02460399 0.010012599 -0.058327038 0.11027115 0.035482865 0.015838943 0.012009129
-0.055263706 0.052013934 0.055584244 -0.06876824 0.030966522 0.016412843 0.029881634 -0.0090209525
-0.011259759 -0.020491324 -0.023153566 0.006870088 0.008917687 0.05387127 0.10121932 -0.045249246
0.027529752 0.08904729 -0.03872957 -0.04445117 -0.018731218 0.022095714 -0.030800015 -0.067255974
-0.1642811 -0.026090603 -0.01190621 -0.025612058 -0.006347173 0.033738658 -0.11123248 0.03653358
0.0059483056 0.058276735 -0.013747299 -0.039895345 -0.026383566 0.026493602 0.022698957 -0.0014652929
0.026252909 -0.008805528 -0.0464318 -0.09663919 0.12705445 -0.02729309 -0.006402106 -0.04668305
-0.065098144 -0.048331268 -0.06759606 -0.08420264 -0.033010133 0.116190754 0.027122898 -0.010534665
-0.10521939 -0.009682922 -0.015220246 0.09301349 -0.011441384 0.059719007 0.019192072 0.12879407
0.015177601 0.05921792 -0.16099194 -0.013271314 -0.009102521 0.03687272 -0.03161932 -0.03176011
0.029717239 -0.028009277 0.069724984 -0.059566606 -0.02482393 0.032545347 0.033091556 0.024148937
-0.062243655 0.0030554938 0.060510684 0.035641637 -0.06521151 -0.0278694 -0.11492828 -0.013679372
0.012736894 0.016026746 -0.04975136 0.036035907 -0.018869238 0.035955854 0.020002792 0.07062857
-0.052504163 0.04450176 0.01685203 0.055692792 0.014115916 -0.059880912 -0.062387995 -0.014065389
-0.020934979 -0.006584141 0.013374749 -0.03538312 -0.012301196 -0.007450965 -0.0030403363 0.038717076
-0.064905114 0.029347515 0.108783096 -0.014253349 0.039142694 0.009893147 -0.01088114 -0.016509088
-0.08650048 0.015245704 -0.042415243 -0.04804844 -0.0024930905 -0.067485526 0.07900834 -0.019269247
0.06705543 0.06016339 -0.13186213 0.011640194 0.012991301 -0.11994431 -0.053690296 0.11201897
-0.019117255 0.0070897867 0.042769413 0.048728917 -0.026568426 -0.05877583 -0.037559807 -0.010934631
0.012672464 -0.049860865 0.0069882786 0.0333935 0.0353832 -0.069621906 -0.038561095 -0.008873114
-0.05563029 0.07068655 -0.08563475 0.030452434 -0.0813348 0.034803312 0.073765524 -0.027043333
0.12309809 -0.01579217 -0.00082487817 0.023881849 -0.077706605 -0.010877912 0.022188146 0.015198113
0.062583864 0.08011594 -0.0021099423 -0.0440111 0.0051002554 -0.04473038 -0.06340488 0.15401624
00000000: a0ef c53c fedc 3dbd a6c6 a4bd a143 f33b
00000010: 0262 30bd 3d8b c3bc 974e 2e3d 8e04 b4bc
00000020: 5d03 4a3c bc79 b13d d819 533d c4c1 bb3d
00000030: a0a6 223d 51de a2bd e41f d4bb df6e 74bb
00000040: bd40 87bd b099 b2bd 34a8 cb3c 2a8b 41bd
00000050: 0677 e13c 76e3 91bb a071 0e3c 86c8 953d
00000060: 989f 233d b824 d73b 78c1 5f3a 735c 9e3d
00000070: b5e5 923d 9c5b 4c3d bf86 953c d7c0 a8bc
00000080: d3d3 13bd 7913 8bbc 6dfa e3bd 63ee 883c
00000090: 44ec 1cbb 18f7 403c dcd8 07bd 7e3f 8fbd
000000a0: 4b6e 3ebd 1746 86bd 1d1f d3bd 02c7 31bc
000000b0: a13f ee3c 1ef2 d6bc 93a0 61bc a06d c83d
000000c0: 8346 c73d 24b3 983d 6942 edbc 96fa 31bc
000000d0: 022c 19ba 3628 8d3d dd1a a03d cebc b83d
000000e0: e2b5 ea3d ad33 cdbd 88b7 79bb 9842 633c
000000f0: aee1 9bbd e9b8 eabc 98bb afbc 2683 75bd
00000100: 9ba5 f83d 2384 2f3c 636a e73c 9adb 043d
00000110: 9ee7 153d 7ff7 a8bd 1928 853d 5979 a4bb
00000120: c89c fcbc 4f8e c9bc e20b 243c 55e8 6ebd
00000130: d7d5 e13d 7b56 113d acc0 813c f0c1 443c
00000140: 325c 62bd 900c 553d 4eac 633d 5dd6 8cbd
00000150: 81ad fd3c 3a74 863c 54ca f43c 9ecc 13bc
00000160: da7a 38bc 6cdd a7bc 8cac bdbc 7a1e e13b
00000170: 7e1b 123c 1fa8 5c3d 134c cf3d 4657 39bd
00000180: 1386 e13c 6d5e b63d e6a2 1ebd 6e12 36bd
00000190: 3672 99bc 1202 b53c 5050 fcbc 80bd 89bd
000001a0: 4e39 28be f6bb d5bc 4412 43bc 61d0 d1bc
000001b0: f2fb cfbb 8c31 0a3d dbcd e3bd 3ca4 153d
000001c0: 01ea c23b 96b3 6e3d 5a3c 61bc 4d69 23bd
000001d0: 5922 d8bc 1c09 d93c 2af3 b93c 120f c0ba
000001e0: 5710 d73c 1045 10bc 452f 3ebd c5ea c5bd
000001f0: 901a 023e c295 dfbc c2c8 d1bb ba36 3fbd
00000200: 2d52 85bd 02f7 45bd ce6f 8abd 6f72 acbd
00000210: a235 07bd 6bf5 ed3d d730 de3c 9699 2cbc
00000220: 437d d7bd 1ea5 1ebc 575e 79bc db7d be3d
00000230: a574 3bbc eb9b 743d b138 9d3c 98e2 033e
00000240: 79ab 783c 7d8e 723d 12db 24be ed6f 59bc
00000250: be22 15bc d907 173d 4383 01bd e416 02bd
00000260: 9171 f33c b673 e5bc f9cb 8e3d 1dfc 73bd
00000270: 8e5b cbbc 454e 053d 038b 073d fed3 c53c
00000280: 34f3 7ebd ae3e 483b 0dda 773d f7fc 113d
00000290: 9d8d 85bd 5e4e e4bc 855f ebbd 721f 60bc
000002a0: 68ae 503c 864a 833c 15c8 4bbd 639a 133d
000002b0: a993 9abc 7246 133d e5dc a33c b6a5 903d
000002c0: 9b0e 57bd 7a47 363d 450d 8a3c 201e 643d
000002d0: 7146 673c b045 75bd 8e8a 7fbd 8472 66bc
000002e0: d57f abbc c7bf d7bb c321 5b3c e4ed 10bd
000002f0: f58a 49bc 3927 f4bb 6140 47bb cc95 1e3d
00000300: f9ec 84bd 336a f03c acc9 de3d e186 69bc
00000310: 1754 203d de16 223c cf46 32bc 113e 87bc
00000320: 2a27 b1bd 1ec9 793c 9bbb 2dbd 71ce 44bd
00000330: 1e63 23bb da35 8abd 20cf a13d 8ada 9dbc
00000340: 5b54 893d e36d 763d de06 07be 83b6 3e3c
00000350: 77d9 543c 5da5 f5bd 5bea 5bbd 346a e53d
00000360: ca9b 9cbc 7151 e83b fb2e 2f3d f997 473d
00000370: 07a6 d9bc edbe 70bd 50d8 19bd 2b27 33bc
00000380: 2ba0 4f3c e83a 4cbd eefd e43b 9fc7 083d
00000390: f9ed 103d ee95 8ebd 3df2 1dbd 8a60 11bc
000003a0: 96dc 63bd 1cc4 903d 4661 afbd 6277 f93c
000003b0: dc92 a6bd eb8d 0e3d 6112 973d fb89 ddbc
000003c0: da1a fc3d 955e 81bc a33c 58ba dea3 c33c
000003d0: a424 9fbd 4539 32bc eac3 b53c 8201 793c
000003e0: f82b 803d d313 a43d f546 0abb fc44 34bd
000003f0: 0b20 a73b 3437 37bd 6bda 81bd 6fb6 1d3e

vgg.0.bias f4 [63]
-0.0033979001 0.0036855107 -0.000383319 -0.0020080481 -0.004550504 -0.0019782465 -0.00015521936 -0.001391122
-0.002750382 -0.0013205796 -0.0021003701 -0.0038035994 -0.003542541 -0.0048469915 -0.0045074853 -0.00025126862
0.00043421067 -0.0041243252 -0.0014934728 -0.004373481 -0.0021455209 -0.004148985 0.00028624624 -0.0020699678
-0.0056166253 -0.0037379863 -0.0042020036 -0.0022495198 -0.0044984524 -0.0021927094 -0.003740257 -0.0032711
-0.0027883928 0.00045340802 -0.0032909068 -0.00028645623 -0.0040418985 0.002649528 0.0033556004 0.008174324
-0.003672442 0.0019941907 -0.002007569 -0.002577274 -0.0055739726 0.0041865692 -0.0013838381 -0.0040841717
-0.00034596666 -0.0040528756 -0.0010287705 0.002084868 -0.0010565873 -0.0021484904 -0.00056791684 -0.0037780246
-0.00017844891 0.0007251156 0.00055082486 -0.00425784 0.0005450868 -0.0043503516 0.0019669542
00000000: 4eaf 5ebb 9c88 713b 35f8 c8b9 7599 03bb
00000010: 651c 95bb 78a5 01bb 61c2 22b9 4f56 b6ba
00000020: c13f 34bb 4c17 adba 5da6 09bb cf45 79bb
00000030: fa29 68bb 83d3 9ebb 87b3 93bb b4bc 83b9
00000040: c5a6 e339 5925 87bb a2c0 c3ba 6b4f 8fbb
00000050: de9b 0cbb 35f4 87bb 5213 9639 4ca8 07bb
00000060: ab0b b8bb 01f9 74bb f6b0 89bb ae6c 13bb
00000070: c167 93bb 8fb3 0fbb 191f 75bb f45f 56bb
00000080: 78bd 36bb 65b7 ed39 41ac 57bb 812f 96b9
00000090: e771 84bb b4a3 2d3b a2e9 5b3b 9aed 053c
000000a0: 5aad 70bb f8b0 023b 6b91 03bb 7ce7 28bb
000000b0: dfa5 b6bb 7d2f 893b e761 b5ba 84d4 85bb
000000c0: dc62 b5b9 fccd 84bb cfd7 86ba 48a2 083b
000000d0: 307d 8aba b0cd 0cbb 41e0 14ba bc98 77bb
000000e0: 041e 3bb9 af15 3e3a 3b65 103a 5a85 8bbb
000000f0: 28e4 0e3a 658d 8ebb 04e8 003b

oconv2.weight f4 [1, 63, 3, 3]
0.018064994 0.067249544 0.0076095522 -0.14177918 -0.044457816 -0.07074531 -0.04448095 -0.031949442
-0.029198768 0.038118944 0.044998936 0.0683985 -0.058710497 0.006368276 -0.01190437 -0.010916762
0.05580363 -0.020453751 0.02385766 0.11980411 -0.004629463 0.027302736 0.083547145 -0.03435453
-0.031493455 0.1021724 -0.01811499 -0.07556759 0.084778406 -0.007767753 -0.0554765 -0.053359948
0.07782072 0.011007764 0.115341865 -0.049623545 0.080716275 0.022724153 -0.046863575 -0.0068223462
-0.0034486235 -0.02440094 -0.08138289 0.0326945 0.07064671 0.05189931 0.06198772 -0.09742863
0.046263654 0.047923714 0.054155406 0.0743649 -0.0049383715 0.05472964 -0.059790082 0.05706857
0.0242749 0.12164342 0.046774883 0.14976445 0.10872193 0.03325823 0.018358491 -0.017265918
0.03820367 0.027122093 0.05620584 -0.013224443 0.07438502 -0.027248256 0.02810044 -0.03317233
0.029601185 0.059246313 0.05015269 0.029753253 -0.0020975592 -0.057575647 -0.118725665 0.1305201
0.097913496 0.006567822 -0.058843996 0.05856183 0.101451285 0.01124925 -0.045819636 -0.016678376
0.010954041 0.035408165 0.16685626 0.08997541 0.11151266 -0.010523512 -0.07622531 0.10093716
0.041319422 -0.058971882 -0.1070023 -0.013127365 -0.0147032915 0.067010075 -0.056934655 -0.062240753
-0.038321562 -0.04144035 -0.07914371 0.06696434 0.073088035 0.09513214 0.06693486 -0.05118058
-0.023027567 0.065813035 0.0017736279 -0.03525493 -0.04055062 -0.00042572105 -0.121234775 0.024826044
-0.04582656 -0.12460959 0.058906462 0.031851295 -0.034663778 0.0008583146 0.023129841 -0.07280394
-0.08818844 0.032791607 -0.08139873 -0.057064418 0.008494391 0.07369989 0.17943677 -0.055984512
0.052689157 -0.017130662 0.0506739 0.104969114 0.071167536 -0.10674819 0.015326825 -0.011690219
0.038537778 0.04936549 -0.051075164 -0.043959737 -0.058795154 -0.04853258 -0.058143623 -0.0028517388
0.02179462 -0.09701342 -0.0058306535 0.025080603 -0.01382772 0.057811126 -0.061039124 0.03685158
0.08158611 0.013744626 0.016757516 -0.06317567 -0.08019718 0.09912948 -0.028351309 -0.037796702
0.038628213 0.049154963 0.027600197 0.09428053 -0.13750419 0.037262693 0.0038981372 0.031012163
0.102594614 -0.0032543335 0.016146481 0.013569321 0.043927778 -0.052108523 0.04137769 0.013639067
0.04756856 0.057822537 0.060018167 -0.01918384 -0.009411071 0.00416558 0.069284245 0.040916912
-0.057673935 -0.048844554 0.020413864 -0.05402494 -0.095489085 0.062242012 0.053022385 -0.052844197
-0.009132314 0.053033445 0.0106456075 0.014155773 -0.033053275 0.028025052 0.006111115 -0.038777363
-0.008447393 -0.09358075 0.06385857 -0.068843186 -0.02874201 -0.06736863 -0.035745084 -0.006249592
0.0011926098 0.015082842 0.22120486 -0.071511425 -0.07011408 -0.033403404 -0.105334915 0.020365173
0.061658807 0.0021144606 0.039154075 0.05599803 -0.038313426 0.029229535 0.1217773 0.1266148
0.079104535 0.020178098 -0.024270963 -0.022151466 -0.020223398 -0.011316053 -0.018100569 -0.038556825
-0.033188183 -0.01618544 -0.033143893 0.07994049 -0.013509062 0.03759991 -0.048376568 -0.083193436
-0.009113247 -0.047495905 0.11392716 -0.06434262 0.010265086 -0.03139242 -0.032643717 -0.06591682
00000000: 0afd 933c 21ba 893d 8d59 f93b 902e 11be
00000010: 6619 36bd ebe2 90bd a831 36bd 6bdd 02bd
00000020: 4132 efbc 9c22 1c3d ce50 383d 8314 8c3d
00000030: 6b7a 70bd f9ac d03b 8c0a 43bc 38dc 32bc
00000040: 5992 643d a08e a7bc 2471 c33c db5b f53d
00000050: c0b2 97bb fda9 df3c c41a ab3d 56b7 0cbd
00000060: 48ff 00bd c33f d13d e365 94bc 2ec3 9abd
00000070: 4da0 ad3d a388 febb 543b 63bd f68f 5abd
00000080: 7860 9f3d e959 343c 5b38 ec3d 0f42 4bbd
00000090: 934e a53d 0128 ba3c 05f4 3fbd fd8d dfbb
000000a0: 4d02 62bb 7be4 c7bc 13ac a6bd abea 053d
000000b0: 39af 903d 5f94 543d d6e6 7d3d a988 c7bd
000000c0: f57e 3d3d a84b 443d 0fd2 5d3d a04c 983d
000000d0: 10d2 a1bb 302c 603d 72e6 74bd bcc0 693d
000000e0: 28dc c63c 2f20 f93d 0597 3f3d da5b 193e
000000f0: 9aa9 de3d c839 083d 8c64 963c 4171 8dbc
00000100: 747b 1c3d 272f de3c 1838 663d 56ab 58bc
00000110: 2c57 983d bc37 dfbc e532 e63c b6df 07bd
00000120: 2f7e f23c 43ac 723d e86c 4d3d 18bd f33c
00000130: 3477 09bb 71d4 6bbd 7126 f3bd 10a7 053e
00000140: df86 c83d e236 d73b 6706 71bd 88de 6f3d
00000150: b1c5 cf3d c64e 383c 5fad 3bbd 17a1 88bc
00000160: 9478 333c 2708 113d 5edc 2a3e 0745 b83d
00000170: c060 e43d cf6a 2cbc 041c 9cbd 24b8 ce3d
00000180: 8e3e 293d 808c 71bd 0624 dbbd 2914 57bc
00000190: 13e6 70bc 943c 893d 5034 69bd 29f0 7ebd
000001a0: 12f7 1cbd 5bbd 29bd 1916 a2bd 9a24 893d
000001b0: 2eaf 953d a4d4 c23d 2515 893d baa2 51bd
000001c0: 4fa4 bcbc fcc8 863d 1479 e83a 7967 10bd
000001d0: 6818 26bd 5033 dfb9 f049 f8bd fd5f cb3c
000001e0: a2b4 3bbd 5033 ffbd e747 713d 8176 023d
000001f0: 9bfb 0dbd 8500 613a cb7a bd3c 3b1a 95bd
00000200: 249c b4bd 7e50 063d 61b4 a6bd 61bc 69bd
00000210: 0f2c 0b3c f8ef 963d 46be 373e 0450 65bd
00000220: 96d0 573d 9a55 8cbc 6f8f 4f3d 0cfa d63d
00000230: 49c0 913d cc9e dabd 5d1d 7b3c 5588 3fbc
00000240: cad9 1d3d 7833 4a3d 3134 51bd 200f 34bd
00000250: 30d3 70bd 19ca 46bd 0228 6ebd 3de4 3abb
00000260: a28a b23c f9ae c6bd 110f bfbb d675 cd3c
00000270: a98d 62bc 5ccb 6c3d 2904 7abd aff1 163d
00000280: 9e16 a73d 2431 613c 0f47 893c 3f62 81bd
00000290: 6b3e a4bd 6604 cb3d 0141 e8bc b7d0 1abd
000002a0: 9e38 1e3d b756 493d cf19 e23c 2716 c13d
000002b0: e6cd 0cbe c4a0 183d e477 7f3b 380d fe3c
000002c0: 201d d23d a846 55bb a045 843c db51 5e3c
000002d0: 9ded 333d bf6f 55bd a77b 293d 6576 5f3c
000002e0: 40d7 423d 53d7 6c3d 9cd5 753d 6e27 9dbc
000002f0: e530 1abc 6b7f 883b e6e4 8d3d 7e98 273d
00000300: 813b 6cbd 3a11 48bd fa3a a73c 4149 5dbd
00000310: c88f c3bd 7bf1 7e3d 002e 593d 2873 58bd
00000320: b39f 15bc 9939 593d ea6a 2e3c 9eed 673c
00000330: df62 07bd cb94 e53c c03f c83b 03d5 1ebd
00000340: ef66 0abc 44a7 bfbd 48c8 823d a8fd 8cbd
00000350: 5d74 ebbc 90f8 89bd 7069 12bd 61c9 ccbb
00000360: 5851 9c3a 061e 773c 8783 623e 9574 92bd
00000370: f997 8fbd 02d2 08bd d5b9 d7bd ddd4 a63c
00000380: f28d 7c3d c392 0a3b 0660 203d 315e 653d
00000390: 8aee 1cbd c772 ef3c 6166 f93d 4fa7 013e
000003a0: 8f01 a23d 8a4c a53c e6d3 c6bc fe76 b5bc
000003b0: 8aab a5bc f766 39bc a547 94bc c3ed 1dbd
000003c0: 55f0 07bd 5497 84bc e4c1 07bd d7b7 a33d
000003d0: 1d55 5dbc 5d02 1a3d 8226 46bd 5261 aabd
000003e0: ba4f 15bc 118b 42bd a552 e93d 10c6 83bd
000003f0: e42e 283c 5795 00bd 6bb5 05bd 66ff 86bd
