Models/model33.pth (torch, 152143 bytes, 6 tensors)

oconv1.weight f4 [1, 1, 3, 3]
000000 c2 2b e2 3e 3a 1c 1b be 58 71 02 bf f6 39 3d 3e
       0.4417401 -0.15147486 -0.509542 0.18479142
000010 7a 65 28 3e 98 1c 3f be 3e 5b b0 3e f8 4d eb be
       0.1644496 -0.18663251 0.34444612 -0.45957923
000020 81 0c 54 be
       -0.20707895

conv1.weight f4 [63, 1, 3, 3]
000000 37 e7 c6 bf ad 4d 97 3e d8 9c 3e 3e 82 94 15 bd
       -1.5539311 0.2955145 0.18614519 -0.03651858
000010 bb 50 66 bf 3f 8c ab 3e 96 9e 02 be 3e af 13 3e
       -0.89966935 0.33505437 -0.12755808 0.14422318
000020 8f aa 46 be 83 9a 2a be af a8 d3 be 8e 21 ef bd
       -0.19401 -0.16660504 -0.41339633 -0.11676322
000030 f5 27 e0 be 86 de a0 3f 35 19 a3 3e f2 2d 68 3e
       -0.43780485 1.2567909 0.3185517 0.22673777
000040 dd 41 44 bf 10 0d 8d 3e b4 cf 65 3e 51 67 0d bf
       -0.76663 0.27549028 0.22442514 -0.55235773
000050 e6 74 07 3f 79 7a 30 bf a4 9b ed 3e 94 f4 a0 3e
       0.5291275 -0.6893688 0.46407807 0.31436598
000060 85 40 98 be 55 64 2e 3f 05 02 01 be 02 c2 a8 3e
       -0.29736724 0.68121845 -0.12598427 0.32960516
000070 60 93 16 bf 6c 0f f6 3e c9 6f 89 3f c5 19 5e 3b
       -0.58818626 0.4805864 1.0737239 0.0033889872
000080 1a 02 22 3f f3 7b 13 bf 82 92 34 3e 2f 16 2e 3f
       0.63284457 -0.57611006 0.17634013 0.680026
000090 d1 3a 75 bf 53 9f 5e be 58 cb 0a 3f 70 1f 3a 3e
       -0.9579287 -0.21740465 0.5421653 0.18176055
0000a0 72 e1 e7 3d bc a9 34 bd 2e 4b e9 bd d2 4e 52 be
       0.11322297 -0.044107184 -0.113912925 -0.2053788
0000b0 25 1d a5 3e 7c 9b 0d be df 3c 1f bf a7 29 b3 be
       0.32248798 -0.13828844 -0.62202257 -0.34992716
0000c0 28 c9 2d bf 44 89 ab bd ca 4f 12 3f ab 3a 86 3f
       -0.67885065 -0.08375791 0.57153 1.0486654
0000d0 03 d1 95 3c 96 2b b9 be e3 ea b0 3d 75 15 8c be
       0.018288141 -0.36166066 0.08638551 -0.2736012
0000e0 f5 c1 f6 3d ea cf 69 be ea 8d d4 3e 20 15 b8 bd
       0.12048713 -0.22833219 0.41514522 -0.08988404
0000f0 57 3b 0f bf 64 a8 a8 3e 34 f5 47 3c 3f d0 a6 3e
       -0.5594992 0.32940972 0.012204457 0.32580754
000100 27 69 dd 3e 86 70 79 bd b1 e3 fa 3d ea 08 c5 be
       0.43244287 -0.060898326 0.1225046 -0.38483363
000110 36 e2 48 3f d6 15 4a bf 2c 40 f5 3e 6d e6 30 3e
       0.7847017 -0.7893957 0.47900522 0.172754
000120 42 15 00 3f 09 28 bc 3e 27 1b 96 bf 4d 3c 42 bc
       0.50032437 0.36749294 -1.1727036 -0.011855197
000130 3b 56 02 bf 90 9d 8f 3f a8 93 0f 3e dd 06 12 3e
       -0.5091283 1.1219959 0.1402117 0.1426043
000140 3b dd f3 3c 9b dc c8 3e 4d 79 9d 3d 00 62 1d bf
       0.029768577 0.3923081 0.07689152 -0.6147766
000150 71 7a cb be 53 a4 6e bb 5c 26 8d 3e 8d 49 ea be
       -0.39741853 -0.0036413863 0.27568328 -0.4575924
000160 4c c7 a2 bc d5 82 16 be 35 b3 1c 3f 27 cb 17 be
       -0.019870423 -0.14698346 0.6121095 -0.1482359
000170 0a 25 39 bf 83 6c e9 be c7 1c 06 bf 83 4d 84 be
       -0.7232214 -0.455906 -0.5238766 -0.25840387
000180 ce 8a 49 3f 79 7a 90 be ed e0 e7 be a0 f9 3c be
       0.78727424 -0.2821844 -0.45288792 -0.184546
000190 e1 f1 1a bd 88 f2 3e 3e c5 bf 36 3f 6c 66 e3 3d
       -0.03782833 0.18647206 0.7138637 0.1110352
0001a0 42 3d 5b bf ab 03 07 3f 84 22 03 3f 4c f7 0b 3f
       -0.85640347 0.5273997 0.5122454 0.5467422
0001b0 ea aa 51 3f 14 73 a5 3e 6d ac 05 bf bb c1 e3 be
       0.8190142 0.3231436 -0.52216226 -0.44483742
0001c0 72 41 47 3e 5a fa 50 3f 9f 66 02 3f 8a 8b 9e 3d
       0.19458559 0.81632006 0.5093784 0.07741459
0001d0 65 70 ba 3f 44 a3 3b 3f 50 6e bf bd 01 e2 84 be
       1.456555 0.73296 -0.09347212 -0.25953677
0001e0 53 56 47 bf a8 fb b6 bd 58 8c bc 3d 30 78 03 3f
       -0.77866095 -0.08934718 0.09206456 0.51355267
0001f0 f1 8e e8 3d 38 5e 84 3e 1a 84 3c 3e fa b3 eb bc
       0.11355389 0.25853133 0.18409768 -0.028772343
000200 ff e7 0d bf 2f d8 22 3d 39 74 61 3b 8d b8 bf bd
       -0.5543212 0.03975695 0.003440155 -0.09361372
000210 f4 52 37 3e 1f ba fe be 35 39 d3 3e 46 7e 9e bc
       0.17902738 -0.49751374 0.41254583 -0.019347321
000220 fc 25 5c 3e 21 29 ee be dd e0 ea 3e ed 40 c3 3e
       0.21498865 -0.46515754 0.45874682 0.38135472
000230 c2 ca 6f be d0 df 1c bf 4f 1f 37 bf 03 d5 0e bf
       -0.2341719 -0.6127901 -0.7153215 -0.5579378
000240 ac ed c0 3e de 1c 38 3e 2e 5d 2c 3f a6 d8 15 3f
       0.3768133 0.17979762 0.6732968 0.58533704
000250 80 8a 39 bf 30 93 e7 3e c5 b6 81 3d 2c 1a bd 3e
       -0.7247696 0.45229483 0.06333689 0.3693403
000260 84 5f c2 bd f2 8e b6 bd 42 0b 95 be 2b c0 38 bf
       -0.094908744 -0.089139834 -0.29110152 -0.72168225
000270 b3 b1 dd 3d ff 08 46 bf 22 bf 7c bf f3 07 0e 3f
       0.10824909 -0.77357477 -0.98729146 0.5548088
000280 19 94 5a 3f 2e 61 4f bf cb 92 1b 3e b8 e5 7b 3f
       0.8538223 -0.8100766 0.15192716 0.983974
000290 d7 e1 8c bf 50 ad 30 3f 45 ba 36 be 63 da 4c 3e
       -1.1006421 0.69014454 -0.17844494 0.20005183
0002a0 0a b9 85 be 0b bb d4 bd 85 80 9c be 5a 76 8f bd
       -0.26117736 -0.10387238 -0.30566803 -0.07004996
0002b0 2d 82 f4 3d 8b c7 08 3f 48 87 38 bf 53 3d 5b 3e
       0.119388916 0.5342948 -0.7208142 0.21410112
0002c0 da 92 b5 3e f0 a8 cf 3d 87 6d d0 3e 96 bf 19 3f
       0.354636 0.10139644 0.40708563 0.6005796
0002d0 ec f3 e7 3e 8f d7 91 3e 00 90 9c be 23 27 e6 3d
       0.45303285 0.2848477 -0.30578613 0.112379335
0002e0 3f d3 71 3f c8 29 18 3e b7 e0 cd 3e 79 be 78 be
       0.9446296 0.14859688 0.40210506 -0.2429141
0002f0 66 b5 30 be 2b ca 56 be 40 1b a2 be de 39 b2 be
       -0.17256698 -0.20975558 -0.31661415 -0.34809774
000300 c5 a7 89 3e b0 f0 18 3f 12 97 1d 3c e2 cb d9 bc
       0.2688581 0.5974226 0.0096185375 -0.026586477
000310 5a 0b 2d be 27 49 65 bd b0 85 02 bf fa c5 41 be
       -0.16898862 -0.055977967 -0.5098524 -0.18923178
000320 35 00 07 bf c1 2e f2 3e 29 c3 f9 3d 93 41 84 3e
       -0.5273469 0.47301295 0.12195427 0.2583128
000330 3a cd 08 3f 58 5a 1f be c6 f2 81 be 21 2e 2b be
       0.5343815 -0.15561807 -0.25380534 -0.16716816
000340 5e f5 55 bf 83 90 6a 3f 56 39 e1 3d 11 35 8e 3e
       -0.83577526 0.9162676 0.10997264 0.2777486
000350 00 03 82 bc a8 9b da be bf 54 b2 3e 9a ca fd 3e
       -0.015870571 -0.4269688 0.3483028 0.49568635
000360 0f 2c 2f be c2 aa e4 3e 06 da 2f 3e 80 71 3c 3d
       -0.17106651 0.44661528 0.17173013 0.04600668
000370 0a 13 c4 3e ef 56 8f bc 09 de a0 bf 3c ce d1 be
       0.38295776 -0.017497508 -1.256776 -0.40977657
000380 bb e4 b1 3e 9d 31 02 3e 96 7e 33 3e c4 93 c7 be
       0.3474482 0.12714238 0.17528757 -0.38979924
000390 69 9c a3 3e 23 7c ce 3e 6a 0e 49 be 21 33 10 3e
       0.3195527 0.40329084 -0.19634405 0.14082004
0003a0 59 eb 10 3f 12 4f ef 3d 74 27 4a bf 0d 9b a9 be
       0.5660911 0.11685003 -0.7896645 -0.33126107
0003b0 d5 e1 bd be 6d b2 30 bf 6e 2a 77 be b3 f9 c6 be
       -0.3708636 -0.69022256 -0.2413728 -0.3886238
0003c0 c1 3b 7d 3e b2 52 98 3d c0 74 60 bf 38 c3 4a 3e
       0.24729826 0.07437648 -0.87678146 0.19801033
0003d0 66 b3 01 3f 52 37 2e 3f 89 2f 67 3e 11 6b f4 bd
       0.50664365 0.6805316 0.22576727 -0.11934484
0003e0 c3 19 08 bf c0 6a b3 be 49 39 d6 3c b8 34 62 3e
       -0.5316431 -0.3504238 0.026150363 0.22090423
0003f0 0b b4 09 3e 94 77 11 be 66 94 30 bf a1 78 60 bf
       0.13447587 -0.14205772 -0.6897644 -0.87684065

conv1.bias f4 [63]
000000 94 0d 48 3b 5c 6f 46 3a 69 23 5d 3b 90 9d 77 3b
       0.0030525671 0.00075696944 0.003374303 0.0037783124
000010 b3 5e 98 3b 6f 89 9c 3b 1a 22 ee 3a 52 0f 4e 3b
       0.004649961 0.0047771255 0.0018168122 0.0031442237
000020 0b 60 fb bb 46 d1 50 3b 10 57 3a 3b 18 0e a1 3a
       -0.0076713613 0.0031863018 0.002843324 0.0012287525
000030 35 e8 ba bb b7 82 ac 3b 46 1d 3b bb 90 fb 8d bb
       -0.0057039508 0.005264606 -0.0028551384 -0.004332967
000040 4a 0c 9d bb c1 a9 89 bb 3d 9b 91 bb 28 60 86 bb
       -0.0047927247 -0.0042011444 -0.0044435547 -0.004100818
000050 f6 3e a0 bb 1c 27 72 bb f7 0f 91 bb 8b 26 71 3b
       -0.004890318 -0.003694958 -0.004426952 0.0036796655
000060 8c b7 0f 3b 42 25 85 bb 0f 3f 48 bb 43 c9 95 bb
       0.002192947 -0.0040632794 -0.0030555164 -0.0045711114
000070 46 ae e4 ba cd 4f c0 bb b8 6a b1 bb d1 fd 6d bb
       -0.0017446957 -0.005868888 -0.005414333 -0.0036314616
000080 ca 45 0e 3b fc 1d a2 bb a4 59 b4 39 5c dc 6b 39
       0.0021709078 -0.004947422 0.00034399063 0.00022493437
000090 25 d1 47 3b e4 be 93 bb 91 14 87 bb d8 4f ea ba
       0.003048965 -0.00450884 -0.0041223248 -0.0017876578
0000a0 7b a8 88 bb 9b 9f cc b8 7a 3d 4c bb bb c3 90 bb
       -0.004170475 -9.757207e-05 -0.0031164573 -0.004417864
0000b0 43 47 c1 bb e9 ab a1 bb 05 80 06 bb 11 ab 98 bb
       -0.0058983876 -0.0049338234 -0.0020523083 -0.0046590646
0000c0 63 5b 9c 3a e0 72 96 bb 39 5b 82 bb ed 14 7a 3b
       0.0011929091 -0.004591331 -0.0039781597 0.0038159445
0000d0 44 32 b0 bb 3f 45 b2 ba 72 42 a8 3b 4e 53 62 3b
       -0.005377086 -0.0013600959 0.005134874 0.0034534517
0000e0 45 9f 63 bb d2 19 5d 3b 1d 2a 11 3b 91 c0 91 bb
       -0.0034732383 0.0033737314 0.0022150346 -0.0044480045
0000f0 9d 2b 7b bb 53 57 b6 bb 72 65 b7 bb
       -0.0038325556 -0.005564609 -0.00559681

vgg.0.weight f4 [63, 63, 3, 3]
000000 fd 22 c3 3c 2c 28 3f bd ad 80 a5 bd 0e 70 e9 3b
       0.023820395 -0.04666917 -0.080811836 0.0071239537
000010 33 b3 31 bd 52 65 c6 bc 66 15 2d 3d 4b a3 b6 bc
       -0.04338379 -0.024218235 0.042256735 -0.022294661
000020 12 a1 43 3c a1 cd b0 3d da b6 53 3d 29 f9 ba 3d
       0.011940258 0.086329706 0.051688053 0.09129555
000030 33 ae 21 3d 2e 67 a3 bd d6 19 e2 bb dc eb 87 bb
       0.03947277 -0.07978664 -0.0069000525 -0.0041479897
000040 99 95 86 bd 99 31 b3 bd c9 17 c9 3c ae b8 42 bd
       -0.06571502 -0.087496944 0.024547474 -0.047539406
000050 18 91 df 3c f5 70 9d bb f3 da 09 3c be 26 95 3d
       0.027290866 -0.0048047253 0.008414018 0.0728278
000060 d1 5e 22 3d 94 a7 cf 3b 5a a0 1d 3a ef 9c 9d 3d
       0.039641205 0.0063371155 0.0006012969 0.07695948
000070 52 3e 92 3d 43 6b 4a 3d e8 25 92 3c d8 5e a9 bc
       0.07140793 0.0494187 0.01784034 -0.020675108
000080 45 42 15 bd d4 5e 8d bc ec 6f e4 bd 4f 5c 86 3c
       -0.036440153 -0.017257132 -0.1115416 0.016401438
000090 53 06 32 bb 07 fb 3c 3c 03 fe 08 bd 5b e1 8f bd
       -0.0027164414 0.011534459 -0.03344537 -0.07025405
0000a0 0a da 3f bd f0 f6 86 bd d1 b5 d3 bd e4 db 36 bc
       -0.046838798 -0.06590068 -0.10337413 -0.011160824
0000b0 b4 69 eb 3c 78 59 d7 bc b4 b9 5f bc 92 d1 c7 3d
       0.028736927 -0.02628778 -0.013655115 0.09756769
0000c0 36 b3 c6 3d 3e e8 97 3d b0 ff ee bc 86 07 37 bc
       0.097021505 0.074173436 -0.029174656 -0.011171227
0000d0 13 9a 69 ba 89 5a 8c 3d b4 74 9f 3d 7c 13 b8 3d
       -0.00089112035 0.06853206 0.07785931 0.08988091
0000e0 45 f8 ea 3d 64 db cd bd e0 d6 70 bb 80 51 65 3c
       0.11473135 -0.10051611 -0.003674917 0.013996482
0000f0 c0 92 9c bd ac e7 ea bc 08 05 ae bc 18 31 76 bd
       -0.07645178 -0.028674923 -0.021242633 -0.060105413
000100 0d 45 f8 3d 68 16 2a 3c 4e 78 e4 3c 04 0e 05 3d
       0.121225454 0.010381319 0.027889397 0.03248407
000110 1e 60 14 3d e9 48 a9 bd 54 78 84 3d 32 15 aa bb
       0.036224477 -0.0826586 0.06468263 -0.005190515
000120 5b 27 ff bc 45 d6 cb bc fa 03 1f 3c 97 18 70 bd
       -0.031146696 -0.024882445 0.009705538 -0.0586172
000130 bf 35 e1 3d 54 f6 0f 3d 3e 9d 7f 3c 40 06 40 3c
       0.109965794 0.035147026 0.015601454 0.01172024
000140 4d 7d 63 bd cc b2 53 3d ce 5b 62 3d 22 88 8d bd
       -0.055539418 0.051684186 0.055263333 -0.06910731
000150 74 de fa 3c 8d dc 83 3c d3 1d f2 3c 5f b5 19 bc
       0.030623652 0.016096378 0.029555237 -0.009381621
000160 d2 17 3e bc 6b 84 aa bc b2 a5 c0 bc 1b 7f e1 3b
       -0.011602359 -0.020815095 -0.02351651 0.006881607
000170 f5 b0 0d 3c 17 32 5b 3d df 91 ce 3d 79 c8 3a bd
       0.008648147 0.053514566 0.100864165 -0.045601342
000180 53 96 de 3c e6 dd b5 3d 45 fe 1f bd 9b 2a 37 bd
       0.02717129 0.088802144 -0.03906085 -0.044718366
000190 fd 00 9c bc 19 67 b2 3c 8e 3e ff bc 62 1b 8a bd
       -0.01904344 0.021777676 -0.031157758 -0.06743504
0001a0 45 0e 28 be f9 ab d7 bc 73 0e 48 bc fb e4 ce bc
       -0.16411693 -0.02632712 -0.012210476 -0.02525567
0001b0 4c 18 db bb f1 b4 0a 3d 45 9d e4 bd 6c 44 14 3d
       -0.006686246 0.033863965 -0.11162809 0.036198065
0001c0 25 7b ba 3b 21 40 6d 3d 93 e5 65 bc 8d 74 23 bd
       0.0056909495 0.057922486 -0.014031786 -0.039906073
0001d0 f1 91 d7 bc 88 14 d7 3c b0 bb bc 3c 17 ee e1 ba
       -0.026314707 0.026254907 0.023038715 -0.0017237094
0001e0 3b c7 d4 3c cb 84 15 bc 5a fe 3f bd 91 a2 c5 bd
       0.025973907 -0.009125899 -0.046873428 -0.09650148
0001f0 69 9c 02 3e 64 3e e1 bc f6 c1 da bb 74 6d 40 bd
       0.12754978 -0.02749557 -0.006675954 -0.046979383
000200 fa e9 85 bd 6a 24 47 bd 4e 2b 8b bd 77 99 ac bd
       -0.06538768 -0.04861871 -0.06795369 -0.084277086
000210 60 78 08 bd 0c 56 ed 3d d1 9d dc 3c fb 85 32 bc
       -0.033317924 0.11588678 0.026930721 -0.010896201
000220 56 3d d8 bd 6f 88 1d bc bf 5b 7f bc 4d d2 bd 3d
       -0.10558574 -0.009615048 -0.015585839 0.09268627
000230 86 c1 3a bc 3c f5 72 3d ee 38 9a 3c c0 a3 03 3e
       -0.011398679 0.059315905 0.018825974 0.12855434
000240 01 a4 7b 3c 23 65 71 3d 93 2b 25 be 9b 23 60 bc
       0.015358926 0.058934342 -0.16129903 -0.013680364
000250 4c a4 18 bc 1b a4 15 3d 00 00 01 bd 61 22 03 bd
       -0.009316515 0.036533456 -0.03149414 -0.03201521
000260 30 8a f0 3c ad 67 e7 bc 66 03 8e 3d 49 a2 74 bd
       0.029362768 -0.028247679 0.06934242 -0.05972508
000270 15 76 ce bc f3 b2 03 3d 1a 00 06 3d ef 33 c3 3c
       -0.02520279 0.03215308 0.03271494 0.023828475
000280 70 39 80 bd 21 68 2e 3b be d1 75 3d 60 72 10 3d
       -0.06260955 0.0026612359 0.06001448 0.035265326
000290 5e a0 86 bd c3 25 e7 bc 7a 23 eb bd 4e 37 61 bc
       -0.06573556 -0.028216248 -0.11481376 -0.013746096
0002a0 d1 af 4a 3c 84 56 80 3c 4d d2 4a bd 12 5d 12 3d
       0.012371019 0.015666254 -0.049516965 0.03573329
0002b0 31 48 9c bc 43 ff 11 3d 73 65 a1 3c 8f 18 90 3d
       -0.019077392 0.035643827 0.019701695 0.07035934
0002c0 50 65 58 bd a5 29 35 3d 8b 86 88 3c 33 e4 62 3d
       -0.052830994 0.04422917 0.016665718 0.05539341
0002d0 ad 4a 62 3c 74 8d 76 bd 1f 7b 7e bd 3d a4 6a bc
       0.013811749 -0.060193494 -0.062129136 -0.014321384
0002e0 51 04 ae bc f3 94 dc bb 8f 9f 55 3c 8a 7d 11 bd
       -0.021242293 -0.0067316233 0.01303853 -0.035520114
0002f0 e4 31 4b bc fb 29 fc bb b1 38 64 bb 1c 7e 1f 3d
       -0.012402032 -0.007695434 -0.003482383 0.038938627
000300 cf 03 85 bd 2d 01 ed 3c 5e 20 de 3d 67 da 6f bc
       -0.06494867 0.028931225 0.10846017 -0.0146394735
000310 1e a6 1e 3d bb 2d 1e 3c 0e 5a 37 bc 05 b6 89 bc
       0.03873264 0.009654458 -0.011190904 -0.016810426
000320 fc b9 b1 bd 60 37 75 3c d5 03 2f bd ad 38 46 bd
       -0.08678052 0.014966816 -0.042728264 -0.048393894
000330 66 bc 33 bb e3 cb 8a bd 70 3a a1 3d 5d 66 9c bc
       -0.0027425527 -0.067771696 0.07872474 -0.01909178
000340 0b 85 88 3d 3b ed 74 3d 54 bf 06 be 45 1b 40 3c
       0.06666001 0.059796553 -0.13158923 0.011725252
000350 06 e9 4d 3c f4 35 f6 bd 35 48 5d bd 79 a1 e4 3d
       0.012567764 -0.120220095 -0.05402394 0.11163611
000360 ba 15 9f bc 3a 39 df 3b 33 f3 2d 3d 16 48 46 3d
       -0.01941954 0.006812242 0.04246826 0.04840859
000370 38 d8 db bc 09 20 72 bd 73 38 1b bd b7 8e 38 bc
       -0.0268365 -0.059112582 -0.03789563 -0.011264495
000380 b4 59 4a 3c 3d 75 4d bd da fb db 3b 58 ec 09 3d
       0.012350488 -0.050160635 0.0067133727 0.03367266
000390 41 8b 0f 3d 00 16 8f bd d5 83 1c bd 2e 53 16 bc
       0.035044912 -0.06986618 -0.038211662 -0.009175105
0003a0 a6 a3 64 bd 0c f1 91 3d 1e 0f b0 bd 7a c0 f6 3c
       -0.05582013 0.07126054 -0.085966334 0.030121077
0003b0 23 36 a7 bd d3 36 0d 3d d4 64 96 3d 0e 40 e0 bc
       -0.08164623 0.034476113 0.0734345 -0.027374294
0003c0 4f 71 fb 3d ca e3 83 bc 21 a9 98 ba cf fa c1 3c
       0.12277471 -0.01609983 -0.0011647084 0.023679165
0003d0 04 a2 9f bd 01 87 38 bc 6b 53 b2 3c 17 59 75 3c
       -0.07794574 -0.011262656 0.021768292 0.014974854
0003e0 31 34 7f 3d 49 86 a3 3d cb 0d 1d bb 61 b9 35 bd
       0.062305633 0.07984597 -0.002396452 -0.044366244
0003f0 65 42 9d 3b 3e b2 38 bd 91 89 82 bd da 5f 1d 3e
       0.0047991746 -0.04509186 -0.06373895 0.15368596

vgg.0.bias f4 [63]
000000 5a d5 73 bb 64 09 55 3b 3b eb 35 b9 3e e2 e9 ba
       -0.0037206025 0.0032506818 -0.00017349135 -0.0017843915
000010 75 03 a3 bb 3f da 0c bb 0a a7 9b b5 73 98 b4 ba
       -0.0049747773 -0.002149239 -1.1597015e-06 -0.0013778344
000020 8b 3a 3a bb 38 fc d8 ba 3d 2b 21 bb c8 ce 83 bb
       -0.0028416242 -0.0016554659 -0.0024592422 -0.004022453
000030 1c 64 62 bb 06 2c a6 bb 2f 31 96 bb b1 01 bf b9
       -0.0034544533 -0.005071166 -0.0045835 -0.0003643162
000040 31 97 b3 39 8d 20 91 bb 33 e4 a1 ba d6 d9 98 bb
       0.00034254187 -0.004428929 -0.0012351334 -0.00466464
000050 d9 9e 1a bb ba d3 82 bb f4 bf a6 38 ba 3e 21 bb
       -0.0023593216 -0.003992525 7.951251e-05 -0.0024604038
000060 87 f7 c2 bb 09 f0 85 bb ff 46 98 bb e9 79 1e bb
       -0.0059499177 -0.0040874523 -0.0046471353 -0.002418155
000070 85 a5 9b bb 44 5a 0f bb f2 cd 81 bb e1 62 71 bb
       -0.004749956 -0.002187387 -0.003961318 -0.0036832618
000080 98 86 3e bb 26 d5 8e 38 ec ce 6a bb f4 37 45 ba
       -0.0029071923 6.81079e-05 -0.0035828901 -0.0007523291
000090 1d 01 8e bb d6 39 26 3b 6b d5 51 3b c8 ba 08 3c
       -0.004333629 0.0025364063 0.0032018076 0.008345313
0000a0 50 ed 83 bb 92 6e 1d 3b ee ab 1c bb d7 c6 43 bb
       -0.0040260926 0.0024022204 -0.002390619 -0.0029873156
0000b0 96 3c c1 bb eb fe 91 3b c2 5f e4 ba 38 e6 8f bb
       -0.005897115 0.0044554374 -0.0017423558 -0.004391458
0000c0 33 20 e1 b9 b3 55 8e bb a5 ac cb ba ae df 0b 3b
       -0.00042939335 -0.0043437122 -0.0015539123 0.002134304
0000d0 bf 9d 96 ba b9 78 22 bb 3a 97 de b9 64 74 87 bb
       -0.0011491104 -0.0024791195 -0.00042455812 -0.004133748
0000e0 5b 4a a1 39 ff 8b 32 3a 1f c5 3d 3a 6b 50 9a bb
       0.00030763712 0.0006811022 0.0007239151 -0.0047092936
0000f0 9d 01 e3 39 38 b3 9c bb e5 04 14 3b
       0.00043298016 -0.0047821067 0.0022585925

oconv2.weight f4 [1, 63, 3, 3]
000000 22 3b 97 3c 76 1d 89 3d 3c 08 fd 3b d5 ec 10 be
       0.018460814 0.06695072 0.007721929 -0.14152844
000010 12 9b 34 bd fc 81 91 bd d2 64 34 bd a7 8a 03 bd
       -0.0440932 -0.07104871 -0.044041462 -0.03211465
000020 7f 32 eb bc 3f aa 1a 3d ce c1 39 3d 37 12 8b 3d
       -0.028710602 0.037760016 0.045350842 0.067905836
000030 5a 3f 6f bd 62 de c9 3b ac 08 4a bc 80 03 39 bc
       -0.058410026 0.0061605433 -0.012331169 -0.011292338
000040 3a f1 65 3d 72 da a3 bc 72 a2 c5 3c af 95 f4 3d
       0.056138255 -0.020001624 0.024125312 0.119426124
000050 22 50 9b bb 2d 79 e2 3c 6a 8e aa 3d 85 ba 0b bd
       -0.004739777 0.027645672 0.083279446 -0.034113426
000060 4a 9d ff bc 00 a9 d1 3d d2 1a 95 bc ce 1a 9a bd
       -0.031202931 0.10237312 -0.018201265 -0.07524644
000070 5b ec ac 3d db 16 f7 bb 41 c5 61 bd 8d 15 59 bd
       0.08443519 -0.0075405664 -0.055119757 -0.052999068
000080 22 8a 9e 3d df 24 2f 3c a6 26 ec 3d 64 92 4c bd
       0.077411905 0.010689943 0.11530809 -0.049944296
000090 81 63 a4 3d 21 cf bc 3c c2 88 40 bd de 90 e9 bb
       0.08026791 0.023047986 -0.047005422 -0.007127865
0000a0 e0 96 51 bb a0 2c cb bc f8 d6 a5 bd a1 9d 07 3d
       -0.0031980798 -0.024801552 -0.08097643 0.03310931
0000b0 86 a9 8f 3d af de 52 3d 07 d4 7f 3d 76 38 c8 bd
       0.07014756 0.0514819 0.062458064 -0.09776394
0000c0 44 ea 3b 3d f5 f0 42 3d a1 0d 5f 3d 9a 40 97 3d
       0.04587771 0.047593076 0.054456357 0.07385369
0000d0 4e 5c a6 bb 1b 41 62 3d 94 71 73 bd fe 06 68 3d
       -0.0050769215 0.05523787 -0.05943449 0.056647293
0000e0 92 b9 c4 3c cb 52 f9 3d 99 21 3f 3d b9 f4 18 3e
       0.024014268 0.12173995 0.0466629 0.14937104
0000f0 47 00 df 3d 94 36 09 3d 1c 7e 99 3c 30 07 8c bc
       0.10888725 0.033499315 0.018736891 -0.017093271
000100 a3 37 1b 3d 14 9e db 3c 9a 70 65 3d a8 69 59 bc
       0.037894856 0.026808776 0.05601559 -0.013269819
000110 7a 87 97 3d a0 d2 db bc 3c 97 e2 3c b7 43 08 bd
       0.07398887 -0.026833832 0.027660005 -0.033267703
000120 c6 26 ef 3c be fc 70 3d 2f c8 4b 3d 27 a0 f0 3c
       0.029193293 0.058834784 0.049751457 0.029373242
000130 ac d1 1f bb d5 79 6b bd 67 5e f2 bd 4d 47 05 3e
       -0.0024386449 -0.057489235 -0.11834412 0.1301548
000140 cd b7 c7 3d c3 7e df 3b b4 da 6e bd e7 0e 71 3d
       0.09751854 0.006820531 -0.05831404 0.058852103
000150 19 90 cf 3d 4b bf 2f 3c 57 de 39 bd e0 27 86 bc
       0.10134906 0.01072676 -0.045378055 -0.016376436
000160 e0 f5 30 3c 49 9c 0f 3d 8c 5c 2a 3e 20 77 b7 3d
       0.010800809 0.035061155 0.16636866 0.08958268
000170 60 84 e3 3d 42 9e 26 bc a0 d4 9c bd 25 4a ce 3d
       0.11109233 -0.010169568 -0.076577425 0.10072736
000180 b4 f8 28 3d 6f b8 6f bd 11 b7 db bd e1 65 53 bc
       0.041252807 -0.0585255 -0.107282765 -0.012902708
000190 69 d6 77 bc 5d bd 88 3d 07 0a 68 bd 06 76 7d bd
       -0.015126803 0.06676743 -0.056650188 -0.061880134
0001a0 41 c5 1e bd 5b 45 2b bd ff 52 a1 bd 68 d7 89 3d
       -0.038762335 -0.04181419 -0.078771584 0.067305386
0001b0 fa de 94 3d a8 a8 c3 3d 7c 44 88 3d 4a a0 50 bd
       0.07269092 0.09553653 0.06653687 -0.050934114
0001c0 82 1e ba bc 83 f5 85 3d 06 bb 0c 3b 64 5a 0f bd
       -0.022719625 0.06540968 0.002147378 -0.034998313
0001d0 90 73 27 bd 69 48 56 ba 42 10 f8 bd 86 cc c7 3c
       -0.040881693 -0.0008174242 -0.12112476 0.024389517
0001e0 89 33 3a bd 35 0f ff bd 17 5f 72 3d 79 62 00 3d
       -0.045459304 -0.124540724 0.059172716 0.03134391
0001f0 7c 16 0d bd ee 81 eb 39 e1 5c bd 3c af 83 94 bd
       -0.03444527 0.00044919498 0.023115577 -0.07251679
000200 f6 fe b4 bd 3a d0 04 3d 7c e8 a5 bd 9f 13 6b bd
       -0.088376924 0.032425143 -0.081009835 -0.05739176
000210 75 64 11 3c 39 39 96 3d 08 3f 37 3e a9 e1 63 bd
       0.0088740485 0.07335133 0.17895138 -0.05563513
000220 bf 66 56 3d 3a 5b 89 bc c2 e3 4f 3d d9 08 d6 3d
       0.05234408 -0.016767133 0.050754316 0.10450906
000230 50 eb 90 3d ef ca d9 bd 60 70 80 3c c2 70 39 bc
       0.07076132 -0.1063441 0.015678585 -0.011318387
000240 94 8a 1f 3d 8b c5 48 3d 60 df 51 bd 93 54 32 bd
       0.038950518 0.049016517 -0.051238418 -0.043537688
000250 88 9c 6f bd 8f 1b 48 bd ef cf 6c bd a6 4e 25 bb
       -0.05849889 -0.048854407 -0.05781549 -0.002522388
000260 77 f6 af 3c 18 dc c5 bd ab e4 c9 bb 25 d8 c9 3c
       0.021479828 -0.0966112 -0.0061612925 0.024639199
000270 72 99 65 bc 7c 29 6d 3d d3 34 78 bd b7 a1 15 3d
       -0.014013635 0.05790089 -0.060597252 0.036531176
000280 1b 5d a6 3d 94 de 67 3c 2e 39 8b 3c 26 e8 81 bd
       0.08123227 0.014152188 0.016995039 -0.06343107
000290 73 e6 a3 bd 83 35 ca 3d f6 01 e6 bc 3c 97 1b bd
       -0.08002939 0.09873488 -0.028077107 -0.037986025
0002a0 03 8c 1f 3d 03 bd 47 3d 62 88 de 3c c2 3a c0 3d
       0.038951885 0.04876424 0.027164642 0.09386207
0002b0 97 57 0c be 47 73 18 3d 7f e6 88 3b d9 63 fc 3c
       -0.13705288 0.037219312 0.004177868 0.03080933
0002c0 2f 47 d1 3d 83 13 42 bb a5 ea 82 3c 40 1b 5c 3c
       0.10218655 -0.002961368 0.015981028 0.013434231
0002d0 a1 3b 32 3d d9 e0 53 bd e1 44 2a 3d 81 ec 58 3c
       0.043513898 -0.051728103 0.041569594 0.013239981
0002e0 77 25 41 3d 31 49 6e 3d c3 33 74 3d aa 0a 9a bc
       0.04715487 0.05817527 0.059619676 -0.018803913
0002f0 f0 7f 17 bc 42 69 7b 3b 56 98 8d 3d b5 3a 26 3d
       -0.009246811 0.00383623 0.069138214 0.04058333
000300 5f 98 6a bd d5 9c 49 bd e4 d5 a8 3c 16 92 5e bd
       -0.05727422 -0.049221832 0.020609803 -0.054338537
000310 94 e4 c2 bd 41 56 80 3d 6d b0 57 3d a5 71 58 bd
       -0.09516254 0.062664516 0.052658487 -0.052842755
000320 ca 41 17 bc 6c 60 59 3d c8 07 2c 3c 3a 35 61 3c
       -0.009231994 0.05307047 0.010499902 0.0137456
000330 fb 59 07 bd ad a9 e4 3c da d4 ba 3b db 51 1d bd
       -0.033044796 0.027912939 0.0057016434 -0.03840814
000340 8c b6 10 bc 4a 70 be bd 07 4c 83 3d 21 f7 8b bd
       -0.008832585 -0.09298761 0.064109854 -0.068342455
000350 1e 5e ee bc c9 c5 88 bd 3c 45 12 bd ea 7e da bb
       -0.029097613 -0.066783495 -0.03571056 -0.0066679614
000360 37 ac 64 3a cd e0 7c 3c d4 14 62 3e a0 d2 91 bd
       0.0008723172 0.015434456 0.22078258 -0.07120252
000370 9c cf 8e bd 4d c7 0a bd 8b eb d6 bd f1 44 a3 3c
       -0.06973192 -0.033881474 -0.10494145 0.019930335
000380 8a 9d 7e 3d 3c dc dc 3a ef ec 1e 3d e8 7e 66 3d
       0.06216196 0.0016850303 0.038800176 0.05627337
000390 f6 da 1b bd 81 d5 ef 3c f7 b7 f8 3d 42 51 01 3e
       -0.038050614 0.029276611 0.121444635 0.12628654
0003a0 1e 90 a2 3d e0 6b a9 3c 8e c6 c3 bc b1 ab b2 bc
       0.079376444 0.020681322 -0.02389839 -0.021810384
0003b0 ed aa a4 bc 52 3b 34 bc 9a 0f 92 bc fa 50 1c bd
       -0.020101035 -0.011000471 -0.017829705 -0.038163163
0003c0 14 69 06 bd 83 d9 81 bc ab 11 06 bd 8d cb a2 3d
       -0.032815054 -0.015850788 -0.032731693 0.079489805
0003d0 d0 2a 63 bc 86 8b 1b 3d d1 d0 44 bd 26 8e a9 bd
       -0.013865188 0.037974857 -0.048050705 -0.08279066
0003e0 43 6e 13 bc d1 4c 44 bd 03 67 e8 3d e3 fe 82 bd
       -0.008998456 -0.04792482 0.11347773 -0.06396272
0003f0 98 0e 23 3c 9d 6b fe bc 2a 4e 06 bd 8c 2e 86 bd
       0.00995221 -0.031057173 -0.032789387 -0.06551847
