Models/model35.pth (torch, 152207 bytes, 6 tensors)

oconv1.weight f4 [1, 1, 3, 3]
00000000: 0d20 e23e 5c05 1bbe ee6a 02bf eb4b 3d3e
00000010: 854d 283e 5b06 3fbe 894f b03e 6941 ebbe
00000020: 64f1 53be
0.44165078 -0.15138763 -0.5094441 0.18485992 0.16435821 -0.18654768 0.3443568 -0.4594834
-0.20697552

conv1.weight f4 [63, 1, 3, 3]
00000000: d9e2 c6bf dd58 973e f683 3e3e 5426 15bd
00000010: af4a 66bf b996 ab3e ab86 02be f692 133e
00000020: 73c1 46be c67d 2abe ee99 d3be 51e1 eebd
00000030: 7918 e0be d0e0 a03f 3c26 a33e 0a46 683e
00000040: 7a4a 44bf 26fd 8c3e c9b6 653e 275f 0dbf
00000050: a57b 073f ba73 30bf ae94 ed3e 06f9 a03e
00000060: 0e42 98be 6d68 2e3f 3add 00be cfcc a83e
00000070: 3f8c 16bf 6107 f63e bc6c 893f 4d9f 643b
00000080: 7309 223f 6a75 13bf 55ab 343e 3112 2e3f
00000090: f540 75bf e5bb 5ebe e9cb 0a3f 8f03 3a3e
000000a0: 64a0 e73d 9e24 35bd 9a88 e9bd 716d 52be
000000b0: 2610 a53e dab4 0dbe 1741 1fbf 9136 b3be
000000c0: b1cf 2dbf 99c9 abbd 7f48 123f 6936 863f
000000d0: 92f2 943c 5e21 b9be 6bbc b03d d607 8cbe
000000e0: 7c88 f63d 12e6 69be 8f99 d43e 863a b8bd
000000f0: ee41 0fbf a3a0 a83e eee6 493c 0ddc a63e
00000100: ef6c dd3e 4018 79bd 7113 fb3d 62fd c4be
00000110: f3db 483f 180e 4abf 934f f53e 3acf 303e
00000120: b00e 003f 8c19 bc3e cb17 96bf da3c 44bc
00000130: a956 02bf e799 8f3f 8975 0f3e 70ea 113e
00000140: 173e f33c 91cd c83e a447 9d3d 8d5e 1dbf
00000150: c66c cbbe a105 73bb ad19 8d3e c354 eabe
00000160: 2c71 a3bc 1b9a 16be 1cab 1c3f 47ad 17be
00000170: fe21 39bf be7a e9be 3523 06bf 9f4d 84be
00000180: 4584 493f df6f 90be 26d3 e7be 740b 3dbe
00000190: 90e2 1abd 0e0b 3f3e fac2 363f 2d30 e33d
000001a0: 563d 5bbf 39f9 063f b81b 033f d6f0 0b3f
000001b0: c6a3 513f a579 a53e 21a8 05bf eacb e3be
000001c0: aa3d 473e b4fb 503f b85f 023f 015d 9e3d
000001d0: b96c ba3f 90a8 3b3f 704b bfbd 7fcf 84be
000001e0: f04e 47bf 27cd b6bd efb0 bc3d 5571 033f
000001f0: ddbf e83d cf4c 843e 9366 3c3e 9db7 ecbc
00000200: 9ee2 0dbf 5e18 233d e32f 673b a47b bfbd
00000210: bb30 373e 44cb febe 6d29 d33e fe8e 9fbc
00000220: db04 5c3e dc1e eebe 6ccd ea3e 2231 c33e
00000230: f1b5 6fbe 80da 1cbf 221a 37bf 1dcf 0ebf
00000240: a2e2 c03e 3804 383e 1556 2c3f aad2 153f
00000250: b780 39bf 6887 e73e 3c82 813d de0f bd3e
00000260: 9c7d c2bd c47b b6bd 2c0f 95be ffba 38bf
00000270: 4e8b dd3d 5c02 46bf b4b7 7cbf 230b 0e3f
00000280: b98d 5a3f c75b 4fbf 5eac 1b3e f4de 7b3f
00000290: 14dd 8cbf 41b4 303f afcf 36be 45d8 4c3e
000002a0: 40aa 85be 2877 d4bd 0a6f 9cbe cd3d 8fbd
000002b0: 6f49 f43d 30c1 083f 4081 38bf 6f41 5b3e
000002c0: b587 b53e cd7b cf3d 2a75 d03e 8fb8 193f
000002d0: ceff e73e c6ca 913e 0484 9cbe a659 e63d
000002e0: 05cd 713f 2210 183e 32df cd3e 6f9f 78be
000002f0: c79a 30be 2adb 56be cd0b a2be c63a b2be
00000300: 499c 893e d3eb 183f 1250 1c3c 56af d8bc
00000310: 9e1b 2dbe 7766 65bd 4c7f 02bf b6e6 41be
00000320: dcff 06bf 5729 f23e 39d9 f93d f533 843e
00000330: 97c6 083f df4f 1fbe 2d02 82be 3e11 2bbe
00000340: cee9 55bf c388 6a3f 1875 e13d 3e42 8e3e
00000350: b5c3 82bc 558d dabe 2e3e b23e 31db fd3e
00000360: 0808 2fbe 28be e43e 4f00 303e 88eb 3c3d
00000370: c721 c43e 90fd 8fbc 3bd9 a0bf 4fc2 d1be
00000380: 28d7 b13e 9528 023e 0e96 333e 3c84 c7be
00000390: fc94 a33e 7289 ce3e 3ef8 48be 151c 103e
000003a0: 5eeb 103f 950e ef3d a620 4abf a895 a9be
000003b0: 77de bdbe 55b5 30bf a30a 77be 9bff c6be
000003c0: f522 7d3e 002b 983d 7f6c 60bf 99e2 4a3e
000003d0: 1fad 013f 8731 2e3f 1a4f 673e 5f2b f4bd
000003e0: 3013 08bf d357 b3be 971b d73c 342b 623e
000003f0: 9ca2 093e 745e 11be 8c8b 30bf bb7b 60bf
-1.5537978 0.29559985 0.18605027 -0.036413506 -0.8995771 0.3351343 -0.12746684 0.1441153
-0.19409733 -0.16649541 -0.41328377 -0.116640694 -0.4376867 1.2568607 0.31865108 0.22682968
-0.7667614 0.27536887 0.22433008 -0.55223316 0.5292304 -0.68926585 0.46402496 0.3143999
-0.29737896 0.6812809 -0.12584391 0.32968757 -0.5880775 0.48052505 1.0736308 0.003488499
0.6329567 -0.57601035 0.17643483 0.6799651 -0.9580224 -0.21751364 0.5421739 0.1816542
0.11309889 -0.044224374 -0.11403008 -0.20549561 0.32238883 -0.1383852 -0.62208694 -0.35002568
-0.67895037 -0.08388061 0.5714187 1.0485355 0.018182073 -0.3615827 0.08629688 -0.27349728
0.12037751 -0.22841671 0.41523406 -0.089955375 -0.55959976 0.32935056 0.012323124 0.3258976
0.43247172 -0.060814142 0.122595675 -0.38474566 0.78460616 -0.78927755 0.47912273 0.1726655
0.5002241 0.3673824 -1.1726011 -0.011977399 -0.5091348 1.1218842 0.1400968 0.14249587
0.029692693 0.39219335 0.0767968 -0.614724 -0.39731425 -0.0037082213 0.27558652 -0.45767793
-0.019951425 -0.14707224 0.6119859 -0.14812194 -0.7231749 -0.45601457 -0.5239747 -0.2584047
0.7871745 -0.2821035 -0.4527828 -0.184614 -0.037813723 0.18656561 0.7139126 0.11093173
-0.85640466 0.52724034 0.5121417 0.5466436 0.81890523 0.3231937 -0.5220967 -0.44491512
0.19457117 0.8163407 0.50927305 0.07732583 1.456443 0.7330408 -0.093405604 -0.25939557
-0.77854824 -0.089258485 0.09213435 0.51344806 0.1136472 0.2583985 0.18398504 -0.028896147
-0.55423915 0.03981816 0.0035276345 -0.093497545 0.17889683 -0.49764454 0.41242543 -0.019477364
0.21486227 -0.4650792 0.4585985 0.38123423 -0.23409249 -0.61270905 -0.7152425 -0.5578478
0.37672907 0.1797036 0.6731885 0.5852457 -0.7246203 0.45220494 0.06323668 0.36926168
-0.09496614 -0.08910325 -0.29113138 -0.72160333 0.10817586 -0.7734735 -0.9871781 0.55485743
0.853725 -0.80999416 0.15202472 0.98387074 -1.1004968 0.69025046 -0.17852663 0.20004375
-0.26106453 -0.1037429 -0.30553466 -0.069942094 0.11928069 0.5341978 -0.7207222 0.2141168
0.354551 0.10131035 0.4071439 0.6004724 0.4531235 0.28475016 -0.3056947 0.11247568
0.9445346 0.14849904 0.40209347 -0.24279569 -0.17246543 -0.20982042 -0.31649628 -0.34810466
0.2687705 0.5973484 0.009540575 -0.026450794 -0.16905066 -0.05600592 -0.5097549 -0.18935665
-0.5273416 0.47297165 0.12199635 0.2582089 0.53428024 -0.15557812 -0.25392285 -0.16705796
-0.8355988 0.9161493 0.11008662 0.27784914 -0.015962461 -0.42685953 0.34813064 0.49581292
-0.17092907 0.44676328 0.17187618 0.046123058 0.3830702 -0.017576963 -1.2566293 -0.40968558
0.34734464 0.12710793 0.1753771 -0.38968074 0.31949604 0.40339237 -0.19625947 0.14073212
0.5660914 0.11672703 -0.7895607 -0.3312199 -0.3708379 -0.6902669 -0.24125151 -0.38866886
0.24720366 0.074300766 -0.8766555 0.19813003 0.50654787 0.6804432 0.22588769 -0.11922335
-0.5315428 -0.35027942 0.026258273 0.22086793 0.13440937 -0.14196187 -0.6896293 -0.876888

conv1.bias f4 [63]
00000000: a14c 4d3b ac76 633a 966f 633b 84bf 7f3b
00000010: 35cc 9b3b 6ac7 9f3b 681e fd3a c551 543b
00000020: 91c3 febb 8364 4c3b 709e 423b 7864 ab3a
00000030: 2838 bebb 4128 af3b 7ec2 38bb 5bd1 90bb
00000040: ea37 a0bb e4c9 8cbb 68b5 94bb 0cac 89bb
00000050: 4fde a2bb 62c3 78bb 747f 93bb 483e 743b
00000060: 156b 0f3b bf1a 86bb 9843 50bb 78e4 98bb
00000070: e69e d1ba 1e60 c3bb a958 b5bb b230 76bb
00000080: 0041 0b3b e810 a5bb bd4f 8039 964c c039
00000090: 0939 4d3b 50ab 95bb b42f 8abb 8421 d7ba
000000a0: f7fc 89bb f408 1237 e7b0 51bb 630a 94bb
000000b0: 7802 c4bb e781 a4bb 68ac 0cbb bfca 9bbb
000000c0: 13a2 9b3a 85f9 98bb 6223 84bb 948b 7f3b
000000d0: fd87 b1bb f923 bbba f51a ab3b 6cda 673b
000000e0: 61ab 65bb 9901 633b f7d2 153b 309e 94bb
000000f0: b43b 7fbb 19f1 b7bb e262 babb
0.0031326192 0.0008677046 0.0034703962 0.0039024064 0.004754568 0.004876067 0.001931143 0.0032397371
-0.007774778 0.003118784 0.0029696487 0.0013076207 -0.005805034 0.005345375 -0.0028192098 -0.0044194884
-0.004889478 -0.004296528 -0.004538227 -0.004201418 -0.004970349 -0.0037958254 -0.0045012776 0.0037268568
0.0021883894 -0.004092544 -0.003177857 -0.0046659075 -0.001599279 -0.005962386 -0.0055342508 -0.0037565646
0.002124846 -0.005037416 0.00024473472 0.00036678155 0.0031314513 -0.004567541 -0.0042171124 -0.0016413187
-0.004211064 8.704363e-06 -0.003199631 -0.0045178398 -0.0059817396 -0.0050203684 -0.0021465067 -0.004754394
0.0011873863 -0.004668417 -0.0040325383 0.0038993107 -0.0054178224 -0.0014277688 0.0052217194 0.0035377992
-0.0035044777 0.0034638403 0.002286134 -0.004535459 -0.0038945498 -0.005613458 -0.0056880573

vgg.0.weight f4 [63, 63, 3, 3]
00000000: ac92 c23c df6e 3fbd e3a7 a5bd e743 e73b
00000010: 55fb 31bd 2a0d c7bc c1ce 2c3d 3c38 b7bc
00000020: 4624 423c 9aa4 b03d 3eca 533d fdc5 ba3d
00000030: 8769 213d fd88 a3bd 8897 e5bb d33e 8bbb
00000040: 0b6d 86bd c95c b3bd 5a7c c83c 6901 43bd
00000050: bb14 df3c c353 a0bb b0c5 083c f8fd 943d
00000060: 3311 223d dfdb cd3b 4f7d 0d3a 1b6b 9d3d
00000070: 7716 923d f2f0 493d f74d 913c 8b75 a9bc
00000080: a59c 15bd 98e9 8dbc c68f e4bd 42b4 853c
00000090: c5c8 36bb 2829 3c3c c63f 09bd 5f06 90bd
000000a0: 3e2e 40bd 0d20 87bd 61d8 d3bd 2809 38bc
000000b0: 23bb ea3c 1240 d7bc cc4f 5fbc 92af c73d
000000c0: 1392 c63d 1fba 973d 035d efbc f52b 38bc
000000d0: c692 7cba 3f2a 8c3d 194c 9f3d d9e9 b73d
000000e0: ab02 eb3d 8006 cebd 5ae8 6ebb b8d2 653c
000000f0: ccbe 9cbd 4b04 ebbc aa9d adbc d76a 76bd
00000100: e22e f83d bd57 283c 3cc0 e33c fe1d 053d
00000110: fffb 133d dd60 a9bd b54d 843d bf9e abbb
00000120: c5c0 ffbc 0c5f ccbc abd6 1d3c cd5f 70bd
00000130: d90f e13d cda1 0f3d 0eba 7e3c 7ae7 3e3c
00000140: efbf 63bd d362 533d 0510 623d 19b1 8dbd
00000150: f936 fa3c fe46 833c b17e f13c 7219 1bbc
00000160: 7769 3fbc 601e abbc 944f c1bc d562 e13b
00000170: f4bc 0c3c 48dc 5a3d 4e67 ce3d 012a 3bbd
00000180: 2fe9 dd3c f7bf b53d fc4c 20bd 436f 37bd
00000190: 3f9b 9cbc 31ca b13c 8cf2 ffbc 262f 8abd
000001a0: 73fd 27be 5e11 d8bc 9f2f 49bc d2fe cdbc
000001b0: a0cf ddbb a7c5 0a3d 9bd2 e4bd 55ed 133d
000001c0: 3c5f b83b 8edf 6c3d 740b 67bc 4a71 23bd
000001d0: 1770 d7bc 1da8 d63c f05f bd3c da14 eaba
000001e0: 293a d43c 24c0 16bc c66d 40bd d392 c5bd
000001f0: 69be 023e 2d96 e1bc 8fcd dcbb 05b8 40bd
00000200: f10d 86bd b069 47bd de58 8bbd d29a acbd
00000210: 40c3 08bd 0031 ed3d 2f52 dc3c 26d5 33bc
00000220: 9568 d8bd 235e 1dbc 3664 80bc 0aaa bd3d
00000230: 6a94 3abc 4a91 723d 3984 993c 8b95 033e
00000240: 9343 7c3c ee20 713d 3b3d 25be 7abc 61bc
00000250: f564 19bc 234e 153d 71c2 00bd 1361 03bd
00000260: 2adb ef3c 4bd5 e7bc 9bd6 8d3d 26c1 74bd
00000270: 0829 cfbc 1356 033d 41ab 053d 739c c23c
00000280: 9765 80bd cfbb 283b d14e 753d af13 103d
00000290: 39e5 86bd c8d4 e7bc c71d ebbd d887 61bc
000002a0: c229 493c f23f 7f3c 39a1 4abd f712 123d
000002b0: e4a5 9cbc 18b2 113d 7ed2 a03c 3df8 8f3d
000002c0: d7b6 58bd 2de8 343d ee38 883c 379a 623d
000002d0: 7b22 613c 16d9 76bd c334 7ebd f793 6bbc
000002e0: e99a aebc b65e ddbb 954d 543c 4993 11bd
000002f0: 0267 4bbc 7cde fdbb cc55 6bbb 97cb 1f3d
00000300: 2a0d 85bd cd31 ec3c 54f8 dd3d be49 71bc
00000310: 7238 1e3d ac5b 1d3c a685 38bc 0f4a 8abc
00000320: 41db b1bd a92e 743c 164e 2fbd fd8f 46bd
00000330: 9b52 37bb bdee 8abd 7117 a13d 8de2 9bbc
00000340: ac54 883d 6394 743d 50ae 06be a2e5 403c
00000350: 4740 4c3c 1953 f6bd 5297 5dbd be70 e43d
00000360: b7a7 9fbc 375c dd3b daa9 2d3d 2ff8 453d
00000370: 5159 dcbc 4b74 72bd aa8c 1bbd 15d6 39bc
00000380: df13 493c 6cc0 4dbd 41df d93b 352e 0a3d
00000390: 1735 0f3d bf32 8fbd 7a1f 1cbd 0a7d 17bc
000003a0: bdc5 64bd 9e3b 923d ee35 b0bd c327 f63c
000003b0: 3959 a7bd f3e8 0c3d 033e 963d 64da e0bc
000003c0: 674a fb3d b973 84bc fcf7 a2ba b5a1 c13c
000003d0: d1ba 9fbd 34f3 39bc e37b b13c 7589 743c
000003e0: f4ee 7e3d 7b66 a33d c26f 21bb c114 36bd
000003f0: 4311 9b3b e5fe 38bd e2af 82bd 0f4c 1d3e
0.02375158 -0.046736594 -0.080886625 0.007057655 -0.04345258 -0.02429827 0.042189363 -0.022365682
0.011849469 0.08625145 0.051706545 0.091197945 0.03940728 -0.07985113 -0.0070065893 -0.0042494326
-0.06563767 -0.08757932 0.024473358 -0.047608767 0.027231565 -0.0048927977 0.008347914 0.07275003
0.039567184 0.006282314 0.00053973956 0.07686444 0.07133191 0.04930205 0.017737372 -0.020685932
-0.03652634 -0.0173233 -0.11160235 0.016321305 -0.0027890664 0.011484422 -0.033508085 -0.07032465
-0.0469191 -0.0659791 -0.103440054 -0.011232652 0.028653687 -0.026275668 -0.013629865 0.09750284
0.0969583 0.07408547 -0.029219156 -0.011240949 -0.0009634908 0.06843995 0.07778186 0.0898015
0.11475118 -0.100598335 -0.003645441 0.01402729 -0.07653579 -0.02868857 -0.021193344 -0.060160484
0.12118317 0.010274825 0.027801625 0.032499306 0.036128994 -0.08270428 0.06460134 -0.00523743
-0.03121985 -0.024947666 0.0096337 -0.058685113 0.10989351 0.035066415 0.015547289 0.011651868
-0.055602964 0.051607918 0.05519106 -0.06918544 0.030543791 0.016025063 0.029479356 -0.009466516
-0.01168286 -0.020888507 -0.023597516 0.006878237 0.008589972 0.053432733 0.100782976 -0.045694355
0.02708873 0.08874505 -0.039135918 -0.04478384 -0.019116996 0.021702858 -0.031243585 -0.06747274
-0.16405277 -0.026375469 -0.01227942 -0.025145922 -0.0067691356 0.033879902 -0.11172982 0.03611501
0.005626587 0.057830386 -0.014101852 -0.039902963 -0.026298566 0.02620321 0.023117036 -0.0017858997
0.02590664 -0.009201083 -0.046979688 -0.09647145 0.12767948 -0.02753743 -0.0067383717 -0.047050495
-0.06545628 -0.048684776 -0.068040594 -0.08427967 -0.03338933 0.11581612 0.026894657 -0.0109761115
-0.105668224 -0.0096049635 -0.015672784 0.09260948 -0.011387924 0.05922059 0.018739806 0.12850015
0.01539697 0.058869295 -0.16136639 -0.0137778465 -0.009362449 0.03645147 -0.031435434 -0.032075
0.02927931 -0.028299948 0.06925698 -0.059754513 -0.02528812 0.03206451 0.032634024 0.023756241
-0.06269377 0.0025746708 0.05988962 0.03517502 -0.065866895 -0.028299704 -0.11480289 -0.013765298
0.012278022 0.015579211 -0.04947016 0.035662618 -0.019122072 0.035570234 0.01963162 0.070297696
-0.052908745 0.044166733 0.016628709 0.055322852 0.013741131 -0.060265623 -0.062062036 -0.014378539
-0.021314101 -0.006755675 0.01295795 -0.035540853 -0.012414696 -0.0077474695 -0.0035909293 0.039012518
-0.064966515 0.02883234 0.108383805 -0.014727054 0.03862805 0.009604376 -0.011262333 -0.016881017
-0.086843975 0.014903703 -0.042799078 -0.04847716 -0.002797282 -0.06783817 0.07865799 -0.019028926
0.06656775 0.059711825 -0.13152432 0.011773499 0.012466497 -0.12027568 -0.05409939 0.11154316
-0.019489152 0.0067553776 0.04239831 0.04833239 -0.026898058 -0.059192937 -0.037975945 -0.011342545
0.012272804 -0.050232336 0.0066489284 0.033735473 0.03496274 -0.06992101 -0.038115956 -0.00924612
-0.05585264 0.07140277 -0.08604036 0.030048257 -0.08171315 0.034401845 0.073360465 -0.027447887
0.122700505 -0.016168462 -0.0012433524 0.023636678 -0.07799304 -0.011349488 0.02166552 0.01492535
0.062239602 0.07978531 -0.0024633263 -0.044453386 0.0047322824 -0.04516496 -0.06381203 0.15361045

vgg.0.bias f4 [63]
00000000: 8eb9 78bb 76bf 4d3b d05d 01b9 18eb dfba
00000010: 3364 a6bb ab53 0ebb 271a 2138 a8a5 b4ba
00000020: 8161 3bbb 2491 e4ba 6697 27bb 5178 85bb
00000030: bb00 60bb 0ccd a7bb 5997 95bb 44c7 dab9
00000040: 6bb3 a439 8591 93bb 20dc 99ba b72e 9bbb
00000050: 6de7 1dbb 0de3 80bb 3006 b737 ebf2 26bb
00000060: a793 c5bb 57a6 88bb 8aca 9bbb 9a67 20bb
00000070: 85b6 9dbb 8fab 0fbb 5064 83bb 79cf 77bb
00000080: ca8c 40bb 2282 ecb7 bd6d 6fbb ea6c 63ba
00000090: 8047 90bb f429 253b 7330 4f3b f65b 093c
000000a0: 54c2 86bb 1c30 243b 1ea5 22bb 1628 4abb
000000b0: 6ced c3bb 4b43 943b 1984 efba 0051 92bb
000000c0: 82d9 eab9 1177 90bb d4dc dbba 95df 0c3b
000000d0: 5a5a 99ba 7e7d 27bb 42c9 ceb9 fe42 8abb
000000e0: db54 da39 6718 2d3a 034b 4a3a 4c1e 9ebb
000000f0: 60e9 d339 f70c a0bb 0688 183b
-0.0037952396 0.0031394637 -0.00012337347 -0.0017083613 -0.0050778626 -0.002171735 3.8409748e-05 -0.001378228
-0.0028592052 -0.0017438275 -0.0025572418 -0.0040731807 -0.0034180123 -0.005120879 -0.004565161 -0.00041728665
0.00031414194 -0.0045034313 -0.0011738576 -0.0047357935 -0.002409424 -0.0039333166 2.1818181e-05 -0.002547438
-0.0060295644 -0.00417022 -0.004754369 -0.0024475814 -0.004813018 -0.0021922325 -0.004009761 -0.0037812872
-0.0029380792 -2.819399e-05 -0.0036533915 -0.0008675592 -0.0044030547 0.0025202008 0.0031614571 0.008383742
-0.004112521 0.002505309 -0.0024817656 -0.0030846647 -0.0059792306 0.0045246235 -0.0018273621 -0.0044652224
-0.00044794014 -0.004408725 -0.0016774186 0.002149557 -0.00116999 -0.0025556977 -0.0003944133 -0.004219412
0.00041643422 0.00066030625 0.0007716866 -0.004825389 0.00040418934 -0.004884358 0.0023274436

oconv2.weight f4 [1, 63, 3, 3]
00000000: 1808 983c eef9 883d b9d0 fd3b acd2 10be
00000010: 2e3e 34bd 37a6 91bd 9bf2 33bd c6a3 03bd
00000020: 6b38 eabc cb4e 1a3d be1a 3a3d dbcf 8a3d
00000030: 18f4 6ebd 175c c83b 91c0 4bbc 0673 3abc
00000040: 6646 663d 8ff5 a2bc 501a c63c 9165 f43d
00000050: d2ff 9bbb d626 e33c 926c aa3d 4d74 0bbd
00000060: 4cf8 febc f8c0 d13d d634 95bc 66f2 99bd
00000070: 4ac0 ac3d d265 f5bb 0f6a 61bd 79b6 58bd
00000080: 9357 9e3d 650a 2e3c 7d20 ec3d 24df 4cbd
00000090: 4629 a43d 8c68 bd3c 3ab7 40bd bcae ebbb
000000a0: 3bea 4dbb 40fb cbbc 12a3 a5bd 2b05 083d
000000b0: e867 8f3d bf75 523d df24 803d 2362 c8bd
000000c0: d283 3b3d bb9e 423d 4255 5f3d ae00 973d
000000d0: 1798 a7bb c7c4 623d 1a15 73bd f199 673d
000000e0: c324 c43c 1c62 f93d 04ea 3e3d c3db 183e
000000f0: 2322 df3d 2a6f 093d ec40 9a3c 849f 8bbc
00000100: d5e9 1a3d 79fa da3c c543 653d b51f 59bc
00000110: 2b53 973d 40fe dabc 71b3 e13c 4543 08bd
00000120: e752 ee3c 4e92 703d 805e 4b3d 44d9 ef3c
00000130: 6f17 25bb 8856 6bbd ae2c f2bd 9330 053e
00000140: 1186 c73d 8758 e13b 2c53 6ebd 5855 713d
00000150: 3d7c cf3d 3aa8 2d3c 0e6e 39bd 738a 85bc
00000160: de9e 303c ef4a 0f3d 8b3d 2a3e e940 b73d
00000170: b14e e33d 3b55 25bc 0500 9dbd 6d32 ce3d
00000180: c5d9 283d e445 6fbd 48d7 dbbd e980 52bc
00000190: a884 79bc 10a2 883d b8c3 67bd 631c 7dbd
000001a0: 7527 1fbd 3bb0 2bbd de21 a1bd 3e02 8a3d
000001b0: 54aa 943d ffdb c33d dd0f 883d 0a68 50bd
000001c0: a280 b9bc 8fc1 853d 56b3 123b be1e 0fbd
000001d0: aec3 27bd 092c 6fba 9e07 f8bd 9ae9 c63c
000001e0: b8d7 39bd e6ee febd b6a1 723d 8ac0 ff3c
000001f0: 47e8 0cbd 73fb b539 1427 bd3c 4863 94bd
00000200: de13 b5bd ca73 043d f5b7 a5bd a362 6bbd
00000210: c9e0 123c 420d 963d fa1f 373e fb89 63bd
00000220: 7706 563d ada2 88bc 11fe 4f3d 00ce d53d
00000230: f6b6 903d c895 d9bd bc25 813c 5acb 37bc
00000240: 67f6 1f3d 2855 483d 3bfc 51bd 86e5 31bd
00000250: b753 6fbd 0b6b 48bd 997b 6cbd 645a 20bb
00000260: 3e66 af3c a7a8 c5bd e07c ccbb 87ed c83c
00000270: 3454 66bc 4e48 6d3d 96c1 77bd c747 153d
00000280: 1331 a63d 8c7f 693c 8c9e 8b3c 7b07 82bd
00000290: d7d0 a3bd cc02 ca3d 4179 e5bc 4abf 1bbd
000002a0: dadb 1f3d 9d59 473d bead dd3c 8603 c03d
000002b0: 5c3a 0cbe 3455 183d d10c 8b3b b908 fc3c
000002c0: 0d12 d13d f2a2 3dbb 45a0 823c fd78 5b3c
000002d0: bdd1 313d 907f 53bd 7d7a 2a3d bb4d 573c
000002e0: 63ba 403d 46a8 6e3d 8ac7 733d 4448 99bc
000002f0: 8380 16bc 084c 763b 6c7b 8d3d a9e5 253d
00000300: 0531 6abd a0fe 49bd e231 a93c 08d6 5ebd
00000310: 4dbb c2bd 768b 803d 4f4d 573d 187c 58bd
00000320: e0d3 17bc 6653 593d c480 2b3c b296 5f3c
00000330: 1968 07bd be5d e43c 25a8 b73b 96f3 1cbd
00000340: 0954 12bc db26 bebd a169 833d 12b7 8bbd
00000350: d317 efbc f977 88bd 1144 12bd e417 debb
00000360: b1ab 503a 9540 7e3c 1bf9 613e b2aa 91bd
00000370: ea9e 8ebd a146 0bbd 01b9 d6bd 9d67 a23c
00000380: e620 7f3d d324 ce3a 2795 1e3d e2c1 663d
00000390: 2d9f 1bbd 80e4 ef3c 8e8f f83d 6c39 013e
000003a0: e7b0 a23d 4c78 aa3c 6e04 c3bc 11f6 b1bc
000003b0: 5f7b a4bc 2df6 32bc d381 91bc 6aee 1bbd
000003c0: 1107 06bd 882a 81bc b4a4 05bd 3b91 a23d
000003d0: 0c93 64bc 41e7 1b3d f87e 44bd 1b55 a9bd
000003e0: b520 13bc 55ba 44bd c82e e83d f4c2 82bd
000003f0: 40e3 213c cdbf fdbc e565 06bd f9f9 85bd
0.018558547 0.06688295 0.007745829 -0.14142865 -0.04400461 -0.07111781 -0.04393254 -0.03213861
-0.028591355 0.0376728 0.04543566 0.067779265 -0.058338255 0.0061144936 -0.012436048 -0.011379963
0.05621948 -0.019892482 0.024182469 0.11933435 -0.0047607208 0.02772848 0.083214894 -0.03404646
-0.031124257 0.10241884 -0.01821367 -0.07516937 0.08435114 -0.0074889446 -0.055032786 -0.052908394
0.07731547 0.010622595 0.11529634 -0.05001749 0.08015685 0.02312114 -0.04704974 -0.007192461
-0.003142013 -0.024900079 -0.08087744 0.033208054 0.070022404 0.051381823 0.062570326 -0.09784343
0.04578001 0.04751466 0.054524668 0.073731765 -0.005114566 0.055363443 -0.059346296 0.056543294
0.02394331 0.12176916 0.046609893 0.14927582 0.10895183 0.03355328 0.018829785 -0.017043836
0.037820656 0.026730763 0.055972833 -0.013252188 0.0738891 -0.026732564 0.027551385 -0.03326728
0.029092265 0.058733277 0.04965067 0.029278405 -0.002519097 -0.05745557 -0.11824928 0.13006811
0.09742368 0.0068770084 -0.058184788 0.05891928 0.101311184 0.01059919 -0.045270972 -0.01630137
0.010780064 0.03498357 0.1662504 0.089479275 0.110989936 -0.010091121 -0.07666019 0.10068212
0.041223306 -0.058416262 -0.10734421 -0.012848117 -0.015229382 0.06671536 -0.056583136 -0.06179465
-0.03885599 -0.041916113 -0.07867788 0.06738709 0.0725905 0.09563445 0.06643651 -0.05088047
-0.022644345 0.06531059 0.0022384725 -0.034941427 -0.0409581 -0.0009123688 -0.12110828 0.024281312
-0.04537174 -0.1244791 0.05923625 0.03121974 -0.034401204 0.00034710355 0.023089923 -0.07245499
-0.0884168 0.032336988 -0.08091728 -0.057467114 0.008964726 0.073267475 0.17883292 -0.05555151
0.05225226 -0.016679132 0.050779406 0.10439682 0.07066147 -0.10624272 0.015765063 -0.011217916
0.039053347 0.048909336 -0.051265936 -0.04343178 -0.058429446 -0.04893021 -0.05773506 -0.002446794
0.021411058 -0.096513085 -0.006240472 0.024527324 -0.0140581615 0.057930283 -0.060487352 0.036445405
0.08114829 0.014251601 0.017043374 -0.06349083 -0.079988174 0.09863815 -0.02801192 -0.038024224
0.039028026 0.048669446 0.027060386 0.09375672 -0.13694137 0.03719063 0.004243471 0.030765878
0.10208521 -0.0028936234 0.015945563 0.013395545 0.043412913 -0.051635325 0.04162072 0.013141091
0.047052752 0.058265947 0.059516467 -0.018711217 -0.009185913 0.003758194 0.069083065 0.040502224
-0.057175655 -0.049315095 0.020653669 -0.054403335 -0.09508381 0.062766 0.05256396 -0.05285272
-0.0092668235 0.05305805 0.010467712 0.013646768 -0.03305826 0.027876731 0.005604761 -0.03831824
-0.008931168 -0.09284755 0.064166315 -0.06822027 -0.029186165 -0.06663508 -0.035709444 -0.0067777503
0.00079601543 0.015518327 0.22067682 -0.07112636 -0.06963904 -0.034002904 -0.104845054 0.019824797
0.062287234 0.0015727527 0.03871646 0.056337245 -0.0379936 0.029283762 0.12136756 0.12619561
0.07943898 0.020809315 -0.023805823 -0.021723779 -0.02007836 -0.010922951 -0.0177621 -0.038069166
-0.032721583 -0.01576735 -0.032627776 0.07937857 -0.013951074 0.038062338 -0.04797265 -0.08268186
-0.008979966 -0.048029263 0.11337048 -0.063848406 0.009880841 -0.030975247 -0.032812018 -0.06541819
