Models/model18.pth (torch, 151439 bytes, 6 tensors)

oconv1.weight f4 [1, 1, 3, 3]
0.44243786 -0.15216053 -0.5103246 0.1841727 0.16516747 -0.1873178 0.34513438 -0.4603215
-0.20789808
00000000: 3787 e23e f8cf 1bbe a2a4 02bf c597 3c3e
00000010: a921 293e 3dd0 3fbe 74b5 b03e 42af ebbe
00000020: 3ce3 54be

conv1.weight f4 [63, 1, 3, 3]
-1.5549064 0.29484078 0.18682815 -0.037338633 -0.90037256 0.33441392 -0.12825626 0.1450744
-0.19364825 -0.16745515 -0.41427588 -0.11771272 -0.43870196 1.2561313 0.3177573 0.22597681
-0.7657138 0.27640587 0.22513694 -0.5529027 0.5283442 -0.69021016 0.4646323 0.31455287
-0.29707938 0.68071103 -0.12694456 0.32893196 -0.58902204 0.48118252 1.0744675 0.0026259716
0.6319656 -0.5768843 0.17559738 0.68062204 -0.9571158 -0.21650107 0.5418924 0.18255493
0.11418175 -0.043172766 -0.11300481 -0.20444928 0.3232469 -0.13755591 -0.62153965 -0.34936455
-0.6781379 -0.08288987 0.5723475 1.0495954 0.019099794 -0.3623882 0.087026805 -0.27448186
0.121287964 -0.22768277 0.41437364 -0.08933961 -0.5588655 0.32989168 0.011252294 0.32557568
0.43218902 -0.061595235 0.12179182 -0.3854823 0.7854347 -0.79029644 0.4781043 0.17348443
0.5010845 0.36834714 -1.1735361 -0.010964625 -0.509165 1.1228331 0.14102054 0.14339682
0.030380426 0.39311874 0.07758689 -0.61506593 -0.39831907 -0.0030987777 0.27642 -0.456973
-0.019279568 -0.14632191 0.6127938 -0.1491451 -0.72338754 -0.45517525 -0.5231296 -0.2586709
0.788054 -0.28284943 -0.4537447 -0.18390633 -0.03807556 0.18572628 0.7133938 0.11183222
-0.85608923 0.52855045 0.5131275 0.547499 0.8198519 0.32256964 -0.5227635 -0.44430056
0.19470017 0.8158614 0.5101993 0.07810389 1.4574031 0.7322929 -0.09408033 -0.26039952
-0.7795307 -0.09007518 0.09144436 0.5143642 0.112779945 0.2595328 0.18496518 -0.027799172
-0.55494523 0.039222624 0.0027655102 -0.0943971 0.17954402 -0.49642175 0.41353908 -0.018510364
0.21590701 -0.46581033 0.45982563 0.3822016 -0.2348598 -0.6134633 -0.715982 -0.558674
0.37750992 0.18056373 0.674097 0.5860535 -0.72595936 0.4530207 0.064170696 0.37001324
-0.09437474 -0.089164026 -0.2911134 -0.72227204 0.1089636 -0.7743438 -0.9881554 0.55431783
0.8545717 -0.8107403 0.15119629 0.9847541 -1.101693 0.68930596 -0.17776594 0.2004216
-0.26205972 -0.104866296 -0.30665317 -0.07090783 0.12021876 0.53499323 -0.72155666 0.21417342
0.35532832 0.102093734 0.40651488 0.6013983 0.45260608 0.28547972 -0.30653873 0.11163011
0.9453693 0.14926435 0.40243396 -0.24382435 -0.17336781 -0.20917779 -0.3175246 -0.34783375
0.26957077 0.59806114 0.010279053 -0.027639274 -0.16843283 -0.055568013 -0.5106061 -0.18827365
-0.52760154 0.47323942 0.12150358 0.25915784 0.5351985 -0.15599877 -0.252942 -0.16800709
-0.8370194 0.91718644 0.10908887 0.2769602 -0.015131351 -0.42785108 0.3494706 0.4947674
-0.17211965 0.44551563 0.17052034 0.04513101 0.38209355 -0.01690154 -1.2578858 -0.41051543
0.34824887 0.12743181 0.17455935 -0.39072317 0.3200728 0.4025133 -0.19701096 0.14158621
0.5662191 0.11777175 -0.79053694 -0.33121902 -0.37081325 -0.68978935 -0.24235974 -0.38837937
0.24801114 0.07500886 -0.87777567 0.19702472 0.50740784 0.6812364 0.22522642 -0.1202801
-0.5324489 -0.3515559 0.025306731 0.22134326 0.13507685 -0.14278285 -0.69083965 -0.876637
00000000: 2c07 c7bf 5ff5 963e e14f 3f3e 65f0 18bd
00000010: d17e 66bf 4d38 ab3e 9c55 03be 628e 143e
00000020: ba4b 46be 5d79 2bbe f81b d4be 5e13 f1bd
00000030: 8b9d e0be e9c8 a03f 16b1 a23e 7766 673e
00000040: d205 44bf 1285 8d3e 4c8a 663e 088b 0dbf
00000050: 9141 073f 9db1 30bf 49e4 ed3e 130d a13e
00000060: ca1a 98be 1443 2e3f c1fd 01be c569 a83e
00000070: 26ca 16bf 8e5d f63e 2788 893f 7e18 2c3b
00000080: 7fc8 213f b1ae 13bf cdcf 333e 3f3d 2e3f
00000090: 8b05 75bf 75b2 5dbe 76b9 0a3f aeef 3a3e
000000a0: 1fd8 e93d edd5 30bd 116f e7bd 275b 51be
000000b0: 9e80 a53e 75db 0cbe 391d 1fbf e9df b2be
000000c0: 729a 2dbf 2ac2 a9bd 5e85 123f 2459 863f
000000d0: 2c77 9c3c f28a b9be 1c3b b23d e388 8cbe
000000e0: d365 f83d ac25 69be c828 d43e aff7 b6bd
000000f0: cf11 0fbf 90e7 a83e 8b5b 383c dbb1 a63e
00000100: e147 dd3e 494b 7cbd fd6d f93d f05d c5be
00000110: 4012 493f de50 4abf 16ca f43e e7a5 313e
00000120: 1347 003f ff97 bc3e 6e36 96bf f8a4 33bc
00000130: a358 02bf ffb8 8f3f b067 103e 9ed6 123e
00000140: 5fe0 f83c dc46 c93e e0e5 9e3d f674 1dbf
00000150: 7af0 cbbe dd14 4bbb ec86 8d3e 5df8 e9be
00000160: 2ff0 9dbc 69d5 15be 0ee0 1c3f 7eb9 18be
00000170: ed2f 39bf bb0c e9be d2eb 05bf 8370 84be
00000180: e8bd 493f a4d1 90be 3a51 e8be f151 3cbe
00000190: 1ef5 1bbd 082f 3e3e faa0 363f 4a08 e53d
000001a0: aa28 5bbf 154f 073f 535c 033f e528 0c3f
000001b0: d0e1 513f d927 a53e d4d3 05bf 5d7b e3be
000001c0: 7b5f 473e 4bdc 503f 6c9c 023f eff4 9f3d
000001d0: 2f8c ba3f 8c77 3b3f 30ad c0bd 1653 85be
000001e0: 538f 47bf 5679 b8bd 2e47 bb3d 5fad 033f
000001f0: 2cf9 e63d 7ce1 843e 8367 3d3e 17bb e3bc
00000200: e410 0ebf e7a7 203d 903d 353b 4453 c1bd
00000210: 63da 373e fe2a febe 65bb d33e 0ca3 97bc
00000220: ba16 5d3e b17e eebe 446e eb3e eeaf c33e
00000230: 167f 70be ee0b 1dbf 994a 37bf 4205 0fbf
00000240: fb48 c13e b3e5 383e 9f91 2c3f 9a07 163f
00000250: 79d8 39bf 54f2 e73e ed6b 833d 6072 bd3e
00000260: 8b47 c1bd a19b b6bd d10c 95be d2e6 38bf
00000270: 4f28 df3d 653b 46bf c1f7 7cbf c6e7 0d3f
00000280: 36c5 5a3f ad8c 4fbf 33d3 1a3e d818 7c3f
00000290: 4704 8dbf 5b76 303f 4608 36be 523b 4d3e
000002a0: b12c 86be 24c4 d6bd a501 9dbe 2038 91bd
000002b0: 4135 f63d 51f5 083f f0b7 38bf 4750 5b3e
000002c0: 98ed b53e 8516 d13d b822 d03e 3df5 193f
000002d0: fcbb e73e 662a 923e a5f2 9cbe 549e e43d
000002e0: b903 723f c1d8 183e d30b ce3e 17ad 79be
000002f0: 5587 31be b432 56be 9692 a2be 4417 b2be
00000300: 2e05 8a3e 891a 193f 7969 283c c26b e2bc
00000310: a879 2cbe 499b 63bd 15b7 02bf cfca 40be
00000320: e510 07bf 704c f23e ded6 f83d 56b0 843e
00000330: c502 093f 24be 1fbe 9d81 81be 0d0a 2cbe
00000340: e746 56bf bbcc 6a3f fc69 df3d bacd 8d3e
00000350: 7ce9 77bc 4c0f dbbe cfed b23e 2752 fd3e
00000360: 2240 30be a01a e43e e29c 2e3e 4bdb 383d
00000370: c4a1 c33e 1975 8abc 6702 a1bf 142f d2be
00000380: ad4d b23e 7c7d 023e b0bf 323e de0c c8be
00000390: 95e0 a33e 3916 ce3e 3ebd 49be fafb 103e
000003a0: bcf3 103f 5132 f13d a160 4abf 8a95 a9be
000003b0: 3cdb bdbe 0996 30bf 272d 78be a9d9 c6be
000003c0: a2f6 7d3e 3f9e 993d e8b5 60bf d9c0 493e
000003d0: 7be5 013f 8265 2e3f c1a1 663e 6a55 f6bd
000003e0: 924e 08bf 23ff b3be 1050 cf3c cfa7 623e
000003f0: 9651 0a3e ab35 12be deda 30bf 486b 60bf

conv1.bias f4 [63]
0.0023487075 -0.00010447306 0.002611689 0.0029053946 0.0037948063 0.004038434 0.0010010547 0.0024007082
-0.0068721226 0.0035832166 0.0019377734 0.00059788715 -0.004914354 0.0046086977 -0.0033322833 -0.0036332346
-0.0040402706 -0.003455518 -0.0037289911 -0.003320672 -0.0042376574 -0.0028690407 -0.0037887942 0.0032212578
0.0021810513 -0.003705861 -0.0020369943 -0.003818349 -0.0027816924 -0.005108304 -0.004497736 -0.0028200012
0.002170773 -0.0042098467 0.0012252878 -0.0009179771 0.0023659267 -0.0040030438 -0.003394464 -0.0027558138
-0.0037183396 -0.0009364192 -0.0025354684 -0.0036856458 -0.005225006 -0.004230246 -0.0013083642 -0.0039205644
0.001270901 -0.0039455723 -0.0034714267 0.0031406018 -0.0049287346 -0.00094437215 0.004434459 0.0027817686
-0.0032312297 0.002666549 0.0016705581 -0.0037400166 -0.0032932959 -0.0049843257 -0.004869144
00000000: c6ec 193b 8c18 dbb8 df28 2b3b 6f68 3e3b
00000010: 49b2 783b d754 843b d235 833a 3355 1d3b
00000020: 8b2f e1bb 66d4 6a3b e3fc fd3a 87bb 1c3a
00000030: 9708 a1bb 8f04 973b 7062 5abb 901b 6ebb
00000040: 3f64 84bb f975 62bb 1762 74bb a29f 59bb
00000050: 0cdc 8abb 8406 3cbb 6b4d 78bb bd1b 533b
00000060: f8ef 0e3b 08de 72bb 187f 05bb 443d 7abb
00000070: 0e4d 36bb 8f63 a7bb bf61 93bb c5cf 38bb
00000080: 8743 0e3b c1f2 89bb d699 a03a 66a4 70ba
00000090: aa0d 1b3b f72b 83bb a875 5ebb e29a 34bb
000000a0: 63af 73bb 077a 75ba 1a2a 26bb e08a 71bb
000000b0: 8736 abbb e09d 8abb 6b7d abba 1478 80bb
000000c0: 5c94 a63a dc49 81bb e080 63bb 8ed2 4d3b
000000d0: 3981 a1bb be8f 77ba f04e 913b 554e 363b
000000e0: 0ac3 53bb 45c1 2e3b a1f6 da3a 111b 75bb
000000f0: 56d4 57bb 8e53 a3bb 578d 9fbb

vgg.0.weight f4 [63, 63, 3, 3]
0.024584768 -0.04600839 -0.0800629 0.0077485335 -0.04268505 -0.023519415 0.042878248 -0.021629846
0.012732483 0.08696932 0.051312167 0.09201224 0.039904784 -0.079279 -0.006095533 -0.0033402734
-0.0663666 -0.08699014 0.025158804 -0.046983395 0.02772537 -0.004139611 0.00896835 0.073414125
0.040235847 0.0067872787 0.001098744 0.07764228 0.07203673 0.05031772 0.0186252 -0.020466452
-0.035767846 -0.016699338 -0.11112963 0.01699984 -0.0020682614 0.012051407 -0.03287863 -0.06963465
-0.046136368 -0.065233216 -0.102796145 -0.010534727 0.029411795 -0.0261258 -0.013916365 0.09817214
0.09759202 0.07495424 -0.028806454 -0.010545316 -0.00028289054 0.06930237 0.07846472 0.09048294
0.11441768 -0.0999208 -0.0039474675 0.013789736 -0.075805746 -0.02867106 -0.021608565 -0.0598983
0.121606626 0.010834409 0.028580757 0.03245414 0.036922514 -0.08237241 0.065335274 -0.0048614894
-0.030537095 -0.024328195 0.010309322 -0.058044594 0.11056604 0.035798725 0.016077332 0.012286216
-0.054989245 0.052340526 0.05590803 -0.068433315 0.031303875 0.0167365 0.030210523 -0.008668088
-0.010925237 -0.020159068 -0.02279999 0.0068044225 0.009181448 0.054228734 0.10157729 -0.044960786
0.027892072 0.0893034 -0.038389698 -0.044196077 -0.018422533 0.022413855 -0.030471569 -0.06705097
-0.16427402 -0.025833886 -0.011610472 -0.025761114 -0.0060395 0.03354413 -0.11090623 0.036839228
0.006178589 0.058570422 -0.013488508 -0.039840948 -0.026410243 0.02674859 0.022367878 -0.0012140388
0.026517244 -0.008495402 -0.04603526 -0.09683885 0.12667543 -0.027069556 -0.0061320364 -0.046417944
-0.06482564 -0.04805273 -0.06727814 -0.08406186 -0.03271435 0.1164872 0.027350493 -0.010177142
-0.10487278 -0.009801186 -0.014884504 0.09332956 -0.0114851175 0.060117096 0.019553164 0.12905113
0.01497157 0.05950648 -0.16066356 -0.012887778 -0.008859879 0.03719404 -0.03158753 -0.03150737
0.030058665 -0.02780939 0.07010919 -0.05941802 -0.024424857 0.032948587 0.033514448 0.024493601
-0.061873127 0.0035063925 0.060902584 0.035986375 -0.06482128 -0.027547495 -0.11513095 -0.013601665
0.013050188 0.016362408 -0.05001336 0.036333494 -0.018639 0.03625988 0.020298822 0.070899785
-0.052191727 0.04477114 0.017068736 0.05598299 0.0144155845 -0.059567783 -0.06256896 -0.013796333
-0.020629669 -0.006373449 0.013691415 -0.03519233 -0.0121391965 -0.007187285 -0.0026443142 0.038606774
-0.0649083 0.029740745 0.10907587 -0.013857797 0.03949758 0.0101724 -0.01058191 -0.01622142
-0.08621976 0.015525255 -0.042102672 -0.047735516 -0.002232418 -0.067204036 0.07928122 -0.019356165
0.06743204 0.06051441 -0.13213956 0.01169194 0.013364025 -0.11964771 -0.053403072 0.11235639
-0.018813107 0.007405706 0.04306996 0.049039077 -0.026290897 -0.058449496 -0.03723709 -0.010614371
0.01298389 -0.049572002 0.007263872 0.033119302 0.03569505 -0.06936821 -0.03876819 -0.008591835
-0.05540231 0.07023202 -0.08529071 0.030794188 -0.08100881 0.03514352 0.07410912 -0.026693687
0.123434916 -0.015466213 -0.0004714164 0.024118036 -0.07742802 -0.010484829 0.022577513 0.015443467
0.062873535 0.08039499 -0.0018195556 -0.043669704 0.005420073 -0.044301465 -0.063038774 0.15436292
00000000: ff65 c93c 4b73 3cbd 05f8 a3bd 69e7 fd3b
00000010: 85d6 2ebd caab c0bc 1aa1 2f3d 1331 b1bc
00000020: e89b 503c f91c b23d b52c 523d ea70 bc3d
00000030: 3373 233d 075d a2bd 09bd c7bb 7de8 5abb
00000040: 36eb 87bd e327 b2bd d619 ce3c a971 40bd
00000050: 5120 e33c 93a5 87bb fcef 123c 255a 963d
00000060: 58ce 243d d267 de3b bb03 903a ea02 9f3d
00000070: fe87 933d f419 4e3d e093 983c 43a9 a7bc
00000080: 4e81 12bd 0dcd 88bc ee97 e3bd 4043 8b3c
00000090: ab8b 07bb 4473 453c beab 06bd 9d9c 8ebd
000000a0: 7df9 3cbd fe98 85bd c986 d2bd d999 2cbc
000000b0: 01f1 f03c c605 d6bc 7701 64bc 7a0e c93d
000000c0: 53de c73d 9c81 993d 83fb ebbc 43c6 2cbc
000000d0: ed50 94b9 67ee 8d3d 1cb2 a03d 1f4f b93d
000000e0: d153 ea3d 47a3 ccbd c259 81bb 58ee 613c
000000f0: 0b40 9bbd 92df eabc 7204 b1bc eb57 75bd
00000100: e50c f93d ce82 313c 3122 ea3c a2ee 043d
00000110: 103c 173d deb2 a8bd 80ce 853d 214d 9fbb
00000120: ee28 fabc ec4b c7bc 6ee8 283c 2bc0 6dbd
00000130: 7370 e23d afa1 123d 9cb4 833c 204c 493c
00000140: 673c 61bd 0563 563d d2ff 643d c426 8cbd
00000150: 7e38 003d fc1a 893c 0f7c f73c 9904 0ebc
00000160: c4ff 32bc a124 a5bc 0bc7 babc a2f7 de3b
00000170: c96d 163c f31e 5e3d c107 d03d cd28 38bd
00000180: ea7d e43c b3e4 b63d 843e 1dbd f206 35bd
00000190: daea 96bc 439d b73c 839f f9bc 0552 89bd
000001a0: 7337 28be 96a1 d3bc d939 3ebc f908 d3bc
000001b0: ffe6 c5bb 9265 093d ce22 e3bd bbe4 163d
000001c0: c375 ca3b 8ae7 6f3d e7fe 5cbc 4330 23bd
000001d0: 4b5a d8bc dc1f db3c d73c b73c 6220 9fba
000001e0: b13a d93c 4c30 0bbc 788f 3cbd 7253 c6bd
000001f0: 34b7 013e f9c0 ddbc 40ef c8bb be20 3ebd
00000200: 4ec3 84bd f0d2 44bd 1fc9 89bd a028 acbd
00000210: 7bff 05bd d790 ee3d 240e e03c 07be 26bc
00000220: 8ac7 d6bd 2795 20bc 22de 73bc 9123 bf3d
00000230: 132c 3cbc 583d 763d f52d a03c fb25 043e
00000240: 514b 753c 11bd 733d fd84 24be 4227 53bc
00000250: 0729 11bc c758 183d ed61 01bd df0d 01bd
00000260: 973d f63c 85d0 e3bc 6895 8f3d 4f60 73bd
00000270: a316 c8bc 19f5 063d 7246 093d cea6 c83c
00000280: ad6e 7dbd 81cb 653b fd74 793d 7366 133d
00000290: 05c1 84bd 49ab e1bc c7c9 ebbd 85d9 5ebc
000002a0: 75d0 553c 750a 863c cfda 4cbd 6ed2 143d
000002b0: d1b0 98bc 3d85 143d b749 a63c e833 913d
000002c0: fec6 55bd f161 373d bcd3 8b3c 6b4e 653d
000002d0: 582f 6c3c 59fd 73bd 2824 80bd 040a 62bc
000002e0: 8dff a8bc 5ed8 d0bb f551 603c d525 10bd
000002f0: 7be3 46bc 5183 ebbb 3b4c 2dbb 2322 1e3d
00000300: a5ee 84bd dda2 f33c 2b63 df3d d00b 63bc
00000310: 37c8 213d 23aa 263c bf5f 2dbc c9e2 84bc
00000320: fc93 b0bd a45d 7e3c da73 2cbd 5186 43bd
00000330: c24d 12bb 45a2 89bd 315e a23d d290 9ebc
00000340: cf19 8a3d f5dd 773d 984f 07be 8d8f 3f3c
00000350: c9f4 5a3c dc09 f5bd 2ebd 5abd 1b1b e63d
00000360: f21d 9abc 91ab f23b 206a 303d 33dd 483d
00000370: 0260 d7bc bd68 6fbd eb85 18bd e6e7 2dbc
00000380: 62ba 543c 030c 4bbd c605 ee3b 1ba8 073d
00000390: f934 123d ec10 8ebd 65cb 1ebd c5c4 0cbc
000003a0: 88ed 62bd ced5 8f3d e5ac aebd 1844 fc3c
000003b0: f2e7 a5bd a7f2 0f3d 86c6 973d b8ac dabc
000003c0: 72cb fc3d 0066 7dbc 7028 f7b9 3093 c53c
000003d0: 9592 9ebd 8fc8 2bbc 7af4 b83c 9806 7d3c
000003e0: d7c3 803d 21a6 a43d 287e eeba 01df 32bd
000003f0: de9a b13b 7475 35bd 791a 81bd 5011 1e3e

vgg.0.bias f4 [63]
-0.0030772733 0.0040757176 -0.00055657583 -0.0021343727 -0.0042176223 -0.0017338479 -0.00031174257 -0.0014083637
-0.0026438055 -0.0011655794 -0.0018320186 -0.0035644183 -0.003506909 -0.0046092137 -0.0043013175 -0.0002654835
0.00046738947 -0.0038393477 -0.0017662464 -0.0041223546 -0.0019496415 -0.0041624177 0.00046449172 -0.0016822608
-0.0053142156 -0.003406078 -0.0038097834 -0.0020672425 -0.0042631514 -0.002205898 -0.003501215 -0.0028908092
-0.0026372322 0.00080118503 -0.0030172807 0.00014646346 -0.0037641313 0.0028255468 0.0033446758 0.008057636
-0.0033511175 0.0016290916 -0.0016519363 -0.0021927822 -0.0052922335 0.004008236 -0.0010377727 -0.0037906747
-0.00025327926 -0.0037757265 -0.00055655185 0.0020325065 -0.0010352681 -0.0018362639 -0.00069935544 -0.0034415245
-0.0006584283 0.00067348476 0.00041420216 -0.0038732442 0.0006225291 -0.003948946 0.001675154
00000000: 14ac 49bb 998d 853b 2ce7 11ba d5e0 0bbb
00000010: fb33 8abb 4842 e3ba 6171 a3b9 d898 b8ba
00000020: b243 2dbb 5bc6 98ba 5820 f0ba 0499 69bb
00000030: 2bd4 65bb e308 97bb 11f2 8cbb 9830 8bb9
00000040: f40b f539 919d 7bbb 6581 e7ba d114 87bb
00000050: 1d8b ffba e464 88bb 0687 f339 4e7f dcba
00000060: df22 aebb 8238 5fbb 8fad 79bb 937a 07bb
00000070: e8b1 8bbb d490 10bb a474 65bb bb73 3dbb
00000080: 6ad5 2cbb 9e06 523a 92bd 45bb fc93 1939
00000090: a5af 76bb cf2c 393b 5932 5b3b 2d04 043c
000000a0: 6c9e 5bbb 3e87 d53a c985 d8ba c8b4 0fbb
000000b0: 796a adbb 8557 833b e005 88ba f86c 78bb
000000c0: 91ca 84b9 2e72 77bb 90e5 11ba cd33 053b
000000d0: d5b1 87ba cbae f0ba f354 37ba 338b 61bb
000000e0: 609a 2cba cc8c 303a 4629 d939 41d6 7dbb
000000f0: 3931 233a 2966 81bb d790 db3a

oconv2.weight f4 [1, 63, 3, 3]
0.017706197 0.067558296 0.007559515 -0.14189087 -0.044794533 -0.07043128 -0.044885244 -0.03173747
-0.029619452 0.03844979 0.044674512 0.06881348 -0.058999564 0.00659351 -0.011509935 -0.010565174
0.055508915 -0.02086333 0.023584684 0.12015544 -0.0044826968 0.02697765 0.08378618 -0.034543563
-0.031741284 0.101946674 -0.018019795 -0.07586957 0.08509339 -0.008004829 -0.055820905 -0.053695444
0.07817687 0.011308112 0.115287684 -0.049348097 0.08110436 0.022396933 -0.046775118 -0.006510365
-0.0036826518 -0.024035912 -0.081760526 0.032309256 0.07107416 0.05228769 0.061570596 -0.09710467
0.04660869 0.04824894 0.05387572 0.074851885 -0.0047563636 0.054304916 -0.06012583 0.057449084
0.024522297 0.12148751 0.0467165 0.15012716 0.10860901 0.03299479 0.018011663 -0.017392315
0.03849984 0.027396766 0.05637718 -0.013074091 0.07470116 -0.02763337 0.02848638 -0.03298931
0.029971225 0.059621304 0.050488323 0.03009092 -0.0017714051 -0.057608023 -0.11907127 0.13085425
0.09827495 0.006321898 -0.059320845 0.058278307 0.10149446 0.011717616 -0.046219878 -0.016960094
0.011162795 0.035753418 0.16730972 0.09034421 0.11190433 -0.0108667705 -0.0758708 0.10115732
0.041290145 -0.05934093 -0.10671786 -0.013269338 -0.014314369 0.06726821 -0.057214618 -0.06259054
-0.037904788 -0.041112486 -0.079469465 0.06664118 0.07343652 0.09476742 0.06728715 -0.051435173
-0.02329375 0.066181004 0.0014304488 -0.035519674 -0.04023228 -6.463121e-05 -0.121384114 0.025212318
-0.046168 -0.12446236 0.058657598 0.032323282 -0.03490175 0.0012240596 0.023059985 -0.07309215
-0.08797197 0.03313748 -0.08175386 -0.056741476 0.008145245 0.074033864 0.17988132 -0.056311056
0.052994497 -0.017461061 0.050569884 0.10539462 0.07153713 -0.107116885 0.015007478 -0.011953021
0.03816979 0.04953298 -0.050866257 -0.044324666 -0.059082136 -0.04823042 -0.058447905 -0.0031827982
0.022084301 -0.09736444 -0.005505538 0.025492763 -0.013588946 0.057801764 -0.06141945 0.037139833
0.081929274 0.013365632 0.016508065 -0.06291099 -0.08035054 0.09948992 -0.028617093 -0.03757953
0.038320646 0.049512256 0.027945487 0.09464498 -0.1379058 0.037214633 0.0036172303 0.03121692
0.10295201 -0.003544245 0.016314724 0.01363761 0.044302735 -0.05243563 0.04118402 0.013996237
0.047938503 0.057514835 0.06034116 -0.01953454 -0.009450737 0.0044744313 0.06926997 0.041227866
-0.058036994 -0.04850598 0.020213362 -0.05369801 -0.095801845 0.061846476 0.053333193 -0.052877236
-0.00907707 0.052909337 0.010816762 0.014537876 -0.033151444 0.028055301 0.0064635677 -0.039138846
-0.008231339 -0.09413188 0.063592345 -0.069283076 -0.028412888 -0.06781494 -0.035819393 -0.0058738263
0.0014817193 0.014743557 0.22158287 -0.07180866 -0.070473485 -0.03300806 -0.10570146 0.020741634
0.061235517 0.002470401 0.039491933 0.055715878 -0.03858951 0.029163564 0.12210181 0.12688446
0.07883255 0.019784473 -0.024582982 -0.022443859 -0.020333128 -0.011599176 -0.01834308 -0.03891102
-0.033529427 -0.016503071 -0.033505306 0.0803439 -0.013179028 0.037238374 -0.048684817 -0.08349584
-0.009297358 -0.047103923 0.114344 -0.064503826 0.010576973 -0.031707503 -0.03244691 -0.06627269
00000000: 960c 913c 015c 8a3d cfb5 f73b d74b 11be
00000010: 797a 37bd 463e 90bd 97d9 37bd 26ff 01bd
00000020: 7ea4 f2bc 877d 1d3d 9ffc 363d 15ee 8c3d
00000030: 87a9 71bd 5f0e d83b 2b94 3cbc 8d19 2dbc
00000040: 515d 633d 93e9 aabc ab34 c13c 0e14 f63d
00000050: 96e3 92bb 3c00 dd3c 1798 ab3d 8d7d 0dbd
00000060: 2603 02bd 6bc9 d03d 409e 93bc 8161 9bbd
00000070: 7145 ae3d b026 03bc 76a4 64bd c1ef 5bbd
00000080: 321b a03d a945 393c f31b ec3d 3b21 4abd
00000090: 0b1a a63d c679 b73c 4497 3fbd e654 d5bb
000000a0: a558 71bb f6e6 c4bc 1072 a7bd b656 043d
000000b0: 548f 913d 9e2b 563d 7331 7c3d d0de c6bd
000000c0: c1e8 3e3d aea0 453d c9ac 5c3d f24b 993d
000000d0: 45db 9bbb d56e 5e3d 8146 76bd bb4f 6b3d
000000e0: fce2 c83c 72ce f83d cd59 3f3d efba 193e
000000f0: 676e de3d 8b25 073d 328d 933c 547a 8ebc
00000100: 02b2 1d3d 2f6f e03c c2eb 663d b634 56bc
00000110: ecfc 983d 615f e2bc 455c e93c cc1f 07bd
00000120: 3786 f53c 7835 743d d8cc 4e3d 3c81 f63c
00000130: 7e2e e8ba 64f6 6bbd a3db f3bd a8fe 053e
00000140: 6144 c93d ed27 cf3b 6afa 72bd 3cb5 6e3d
00000150: 54dc cf3d 3efb 3f3c 0e51 3dbd e5ef 8abc
00000160: 28e4 363c 2d72 123d 3d53 2b3e 6306 b93d
00000170: 192e e53d 8a0a 32bc 2662 9bbd 922b cf3d
00000180: db1f 293d 7a0f 73bd e58e dabd a367 59bc
00000190: d186 6abc eac3 893d e059 6abd 782f 80bd
000001a0: 0d42 1bbd 9165 28bd e3c0 a2bd 2c7b 883d
000001b0: e365 963d 6c15 c23d d8cd 893d b0ad 52bd
000001c0: 89d2 bebc e889 873d e67d bb3a 147d 11bd
000001d0: 9aca 24bd 9e8a 87b8 3c98 f8bd 108a ce3c
000001e0: a81a 3dbd 1fe6 febd f342 703d 6b65 043d
000001f0: 23f5 0ebd a070 a03a 4be8 bc3c 56b1 95bd
00000200: a62a b4bd 2bbb 073d 916e a7bd c069 68bd
00000210: a273 053c 119f 973d cf32 383e 6ca6 66bd
00000220: c210 593d 800a 8fbc 5e22 4f3d 22d9 d73d
00000230: 0f82 923d 1960 dbbd ede1 753c 9bd6 43bc
00000240: ed57 1c3d 18e3 4a3d 2359 50bd c88d 35bd
00000250: 1c00 72bd 438d 45bd 1267 6fbd 7e96 50bb
00000260: 23ea b43c 0267 c7bd cd67 b4bb 33d6 d03c
00000270: 2ca4 5ebc 8bc1 6c3d f692 7bbd f01f 183d
00000280: 89ca a73d 86fb 5a3c ec3b 873c 7ad7 80bd
00000290: d38e a4bd 5fc1 cb3d 656e eabc feec 19bd
000002a0: 1cf6 1c3d 5dcd 4a3d efed e43c 3ad5 c13d
000002b0: 2e37 0dbe 5f6e 183d 0e0f 6d3b a0ba ff3c
000002c0: 81d8 d23d 9046 68bb 75a6 853c 4870 5f3c
000002d0: c976 353d bec6 56bd 93b0 283d 7950 653c
000002e0: 2a5b 443d ad94 6b3d 4b28 773d e606 a0bc
000002f0: 44d7 1abc 409e 923b 6add 8d3d 8dde 283d
00000300: 33b8 6dbd 35ae 46bd 7e96 a53c 72f2 5bbd
00000310: c233 c4bd bb52 7d3d e873 5a3d cd95 58bd
00000320: feb7 14bc 76b7 583d ca38 313c 4530 6e3c
00000330: cfc9 07bd 3bd4 e53c 56cc d33b 0e50 20bd
00000340: bddc 06bc 37c8 c0bd b43c 823d 49e4 8dbd
00000350: 25c2 e8bc 8fe2 8abd 5bb7 12bd 3a79 c0bb
00000360: 4036 c23a f68e 713c 9fe6 623e 6b10 93bd
00000370: 6754 90bd 7633 07bd 027a d8bd 5cea a93c
00000380: 18d2 7a3d 74e6 213b 4bc2 213d 5536 643d
00000390: 0910 1ebd 6de8 ee3c 8410 fa3d 00ee 013e
000003a0: f672 a13d 0c13 a23c 4062 c9bc 2fdc b7bc
000003b0: a991 a6bc 780a 3ebc 3a44 96bc 2961 1fbd
000003c0: 2756 09bd 7331 87bc dc3c 09bd 588b a43d
000003d0: daec 57bc 4487 183d bb69 47bd deff aabd
000003e0: f253 18bc 0bf0 40bd 302d ea3d 951a 84bd
000003f0: 0a4b 2d3c badf 01bd 0de7 04bd fab9 87bd
