Models/model08.pth (torch, 151055 bytes, 6 tensors)

oconv1.weight f4 [1, 1, 3, 3]
0	0x3ee2ccec	0.44296968
1	0xbe1c5e5b	-0.15270369
2	0xbf02ccce	-0.5109376
3	0x3e3c0aef	0.18363546
4	0x3e29abd5	0.16569455
5	0xbe405ac6	-0.18784627
6	0x3eb0f82f	0.3456435
7	0xbeebf59b	-0.4608582
8	0xbe5580ea	-0.20849958

conv1.weight f4 [63, 1, 3, 3]
0	0xbfc7199b	-1.5554689
1	0x3e96b1a9	0.2943242
2	0x3e3fe0cb	0.18738095
3	0xbd1b628a	-0.03793577
4	0xbf66a0c5	-0.90089065
5	0x3eaaf6a7	0.33391306
6	0xbe03e0e5	-0.12878759
7	0x3e151018	0.1455692
8	0xbe467ce3	-0.19383578
9	0xbe2c15cb	-0.16805188
10	0xbed46d61	-0.414897
11	0xbdf22b4a	-0.11824663
12	0xbee0ebf8	-0.4393003
13	0x3fa0b9f7	1.2556752
14	0x3ea268f5	0.317207
15	0x3e66d42e	0.22541878
16	0xbf43d9e4	-0.7650435
17	0x3e8ddb6c	0.27706468
18	0x3e671235	0.22565539
19	0xbf0d851a	-0.5528122
20	0x3f071cdc	0.5277841
21	0xbf30d8ce	-0.6908082
22	0x3eee2500	0.46512604
23	0x3ea140bb	0.31494698
24	0xbe97e5a5	-0.29667392
25	0x3f2e2ec2	0.68040097
26	0xbe028523	-0.127461
27	0x3ea8226a	0.32838756
28	0xbf16f1af	-0.5896253
29	0x3ef6a48f	0.48172423
30	0x3f899a82	1.0750277
31	0x3b0849bf	0.002079591
32	0x3f219fb8	0.63134336
33	0xbf13d2d6	-0.57743585
34	0x3e334107	0.17505275
35	0x3f2e5eae	0.6811322
36	0xbf74dd9d	-0.95650655
37	0xbe5d0be1	-0.21586563
38	0x3f0a9dc3	0.54146975
39	0x3e3b6609	0.18300642
40	0x3deb1887	0.114792876
41	0xbd2e5dca	-0.042569913
42	0xbde64e01	-0.11245347
43	0xbe50cc13	-0.20390348
44	0x3ea5c400	0.323761
45	0xbe0c540b	-0.13703935
46	0xbf1f02fe	-0.6211394
47	0xbeb2bddd	-0.3491048
48	0xbf2d79ea	-0.6776415
49	0xbda8a63f	-0.08234834
50	0x3f12a8d8	0.57288885
51	0x3f866d2f	1.050207
52	0x3ca12f7c	0.019675963
53	0xbeb9d97d	-0.36298743
54	0x3db3312f	0.087496154
55	0xbe8ce4bd	-0.27518263
56	0x3df97735	0.1218094
57	0xbe68a362	-0.22718576
58	0x3ed3d6bb	0.41374764
59	0xbdb61304	-0.08890346
60	0xbf0ef552	-0.5584308
61	0x3ea92058	0.3303249
62	0x3c2e8d05	0.010653739
63	0x3ea6d91e	0.32587522
64	0x3edd1dbd	0.4318675
65	0xbd7e8f24	-0.06214823
66	0x3df879fa	0.1213264
67	0xbec5a189	-0.38599804
68	0x3f493554	0.78597
69	0xbf4a7b1e	-0.7909411
70	0x3ef47652	0.4774652
71	0x3e3237de	0.17404124
72	0x3f006ac6	0.50162923
73	0x3ebce725	0.368951
74	0xbf964ad5	-1.1741587
75	0xbc29f685	-0.010373716
76	0xbf024fdf	-0.50903124
77	0x3f8fcb7c	1.1233974
78	0x3e10e867	0.14151154
79	0x3e136066	0.14392242
80	0x3cfcdafb	0.030866137
81	0x3ec991be	0.39369005
82	0x3d9ffa87	0.07811456
83	0xbf1d677c	-0.6148603
84	0xbecc4571	-0.3989673
85	0xbb2bb84f	-0.0026202386
86	0x3e8dce0f	0.27696273
87	0xbee9b8c1	-0.4564877
88	0xbc99fd1e	-0.018797453
89	0xbe15502d	-0.14581366
90	0x3f1ce059	0.6127983
91	0xbe196311	-0.14979197
92	0xbf392301	-0.72319037
93	0xbee8cd36	-0.45469064
94	0xbf05c857	-0.5225882
95	0xbe84aa1f	-0.25911042
96	0x3f49e304	0.78862023
97	0xbe911908	-0.2833941
98	0xbee898c6	-0.45429057
99	0xbe3c0287	-0.18360339
100	0xbd1d5c45	-0.038418073
101	0x3e3ddbc8	0.18540871
102	0x3f368441	0.71295553
103	0x3de629d9	0.112384506
104	0xbf5b0615	-0.85556155
105	0x3f077000	0.52905273
106	0x3f038ad2	0.513837
107	0x3f0c4e20	0.5480671
108	0x3f5208de	0.8204478
109	0x3ea4de8a	0.32201034
110	0xbf05f6be	-0.52329624
111	0xbee34d61	-0.44394973
112	0x3e478881	0.19485666
113	0x3f50b850	0.8153124
114	0x3f02c26b	0.5107791
115	0x3da0f701	0.07859612
116	0x3fba9ec7	1.4579705
117	0x3f3b5463	0.7317564
118	0xbdc1c4a1	-0.09461332
119	0xbe854975	-0.26032606
120	0xbf47b7a0	-0.78014565
121	0xbdb9978a	-0.09062107
122	0x3dba440e	0.09095012
123	0x3f03d57c	0.51497626
124	0x3de5c2a0	0.112187624
125	0x3e8537d2	0.2601915
126	0x3e3e059a	0.18556824
127	0xbcde2215	-0.027115861
128	0xbf0e30b6	-0.55543077
129	0x3d1ec7b1	0.03876466
130	0x3b1477b2	0.0022654352
131	0xbdc24bec	-0.09487137
132	0x3e37a06a	0.17932287
133	0xbefdc58f	-0.49564788
134	0x3ed41eac	0.4142965
135	0xbc94bc1f	-0.01815611
136	0x3e5d9105	0.21637352
137	0xbeeec5eb	-0.46635374
138	0x3eeba866	0.46026915
139	0x3ec3ead4	0.38265097
140	0xbe711995	-0.23544915
141	0xbf1d329e	-0.6140536
142	0xbf376f00	-0.7165375
143	0xbf0f2bbe	-0.5592612
144	0x3ec19173	0.3780628
145	0x3e398378	0.18116558
146	0x3f2cb872	0.6746894
147	0x3f162ca2	0.58661854
148	0xbf3a01d7	-0.7265906
149	0x3ee83b60	0.453578
150	0x3d84bfa4	0.06481865
151	0x3ebdbb68	0.37057042
152	0xbdc05046	-0.09390311
153	0xbdb5ec56	-0.08882968
154	0xbe953341	-0.29140666
155	0xbf39053c	-0.7227361
156	0x3de0750f	0.10959827
157	0xbf46600c	-0.77490306
158	0xbf7d1f19	-0.98875576
159	0x3f0dc993	0.553857
160	0x3f5ae9ee	0.855132
161	0xbf4fae7a	-0.81125605
162	0x3e1a43f8	0.1506499
163	0x3f7c3d6b	0.98531216
164	0xbf8d1a30	-1.1023617
165	0x3f3059e0	0.6888714
166	0xbe358afe	-0.17728803
167	0x3e4db88a	0.20089927
168	0xbe8675d8	-0.26261783
169	0xbdd80f2a	-0.10549767
170	0xbe9d5030	-0.3072524
171	0xbd927ddb	-0.07152911
172	0x3df76682	0.12080099
173	0x3f09154d	0.5354813
174	0xbf38dd3a	-0.72212565
175	0x3e5ba4bc	0.2144956
176	0x3eb6365f	0.35588357
177	0x3dd236b5	0.10264341
178	0x3ecfe028	0.40600705
179	0x3f1a1ac4	0.6019709
180	0x3ee7c488	0.4526713
181	0x3e924bfe	0.28573602
182	0xbe9d3c68	-0.3071015
183	0x3de37ae5	0.11107425
184	0x3f722757	0.9459128
185	0x3e19332c	0.14960927
186	0x3ece46e3	0.40288457
187	0xbe7a4d83	-0.24443631
188	0xbe321d2a	-0.17393938
189	0xbe55afb5	-0.20867808
190	0xbea2e523	-0.31815442
191	0xbeb1e0c1	-0.34741786
192	0x3e8a4df3	0.27012596
193	0x3f193cba	0.59858286
194	0x3c311e2f	0.010810419
195	0xbce76578	-0.028246626
196	0xbe2bfb48	-0.16795075
197	0xbd61c800	-0.055122375
198	0xbf02dc75	-0.5111764
199	0xbe405313	-0.1878169
200	0xbf072cde	-0.52802837
201	0x3ef23347	0.47304747
202	0x3df7d888	0.12101847
203	0x3e84fc1a	0.25973588
204	0x3f0929d3	0.53579444
205	0xbe202e2f	-0.15642618
206	0xbe815deb	-0.25266966
207	0xbe2ca5e6	-0.1686016
208	0xbf564e8f	-0.8371362
209	0x3f6af7ff	0.9178466
210	0x3dde4488	0.10852915
211	0x3e8d8357	0.27639267
212	0xbc6ed8d9	-0.014578068
213	0xbedb53eb	-0.42837462
214	0x3eb3037b	0.34963593
215	0x3efd0a9b	0.49422154
216	0xbe30f810	-0.17282128
217	0x3ee3d241	0.44496349
218	0x3e2dd97e	0.16977498
219	0x3d365039	0.0445101
220	0x3ec34e57	0.38145706
221	0xbc869b09	-0.016431348
222	0xbfa11aa2	-1.2586253
223	0xbed27954	-0.4110819
224	0x3eb29988	0.3488276
225	0x3e02d48e	0.12776396
226	0x3e322a70	0.17399001
227	0xbec8647b	-0.3913916
228	0x3ea41b02	0.32051855
229	0x3ecdcac9	0.40193775
230	0xbe4a43a5	-0.19752367
231	0x3e116128	0.14197218
232	0x3f11042e	0.56647
233	0x3df2816b	0.11841091
234	0xbf4a8c7d	-0.7912062
235	0xbea96986	-0.3308832
236	0xbebdb990	-0.37055635
237	0xbf307895	-0.68933994
238	0xbe78ec70	-0.24308944
239	0xbec6bc48	-0.38815522
240	0x3e7e81f5	0.24854262
241	0x3d9aabc3	0.07552292
242	0xbf60e5f4	-0.8785088
243	0x3e490334	0.19630128
244	0x3f020b94	0.50798917
245	0x3f2e8a1f	0.68179506
246	0x3e66d206	0.22541055
247	0xbdf7a357	-0.120917015
248	0xbf08765a	-0.5330559
249	0xbeb4628e	-0.3523144
250	0x3cca4ed6	0.024695795
251	0x3e631c56	0.22178778
252	0x3e0ae9cc	0.13565749
253	0xbe127508	-0.14302456
254	0xbf310135	-0.69142467
255	0xbf606d06	-0.87666357

conv1.bias f4 [63]
0	0x3aea0df4	0.0017856942
1	0xba3c9349	-0.0007193578
2	0x3b05b1c5	0.0020400148
3	0x3b21fc11	0.0024716894
4	0x3b4f2050	0.0031604953
5	0x3b67efaf	0.0035390665
6	0x39ecd395	0.0004517107
7	0x3af67b20	0.0018805005
8	0xbbceaf21	-0.006307498
9	0x3b61dc6d	0.003446366
10	0x3ad35505	0.001612336
11	0x38c3f298	9.343511e-05
12	0xbb8ed500	-0.0043588877
13	0x3b85c8ec	0.0040827896
14	0xbb6c8208	-0.0036088247
15	0xbb49aa50	-0.003077168
16	0xbb633373	-0.0034668117
17	0xbb3e619b	-0.0029049877
18	0xbb51b665	-0.0031999585
19	0xbb344628	-0.0027507637
20	0xbb73b51c	-0.0037186807
21	0xbb13beab	-0.0022544067
22	0xbb554c06	-0.0032546534
23	0x3b3664b8	0.002783103
24	0x3b07b3b2	0.0020706472
25	0xbb59c243	-0.0033227361
26	0xbaa72548	-0.00127522
27	0xbb54b4c9	-0.003245639
28	0xbb574f94	-0.0032853829
29	0xbb94e5a2	-0.004543976
30	0xbb7eec1d	-0.0038898059
31	0xbb1aece4	-0.0023639733
32	0x3af45f12	0.0018644056
33	0xbb6e7e37	-0.0036391148
34	0x3aed2154	0.0018091598
35	0xbae08524	-0.0017129523
36	0x3aee8e5a	0.0018200383
37	0xbb696602	-0.003561378
38	0xbb3aa03c	-0.0028476855
39	0xbb3d6d9f	-0.002890445
40	0xbb56330a	-0.003268423
41	0xbad08dd3	-0.0015911408
42	0xbb04c91f	-0.002026148
43	0xbb50ec7a	-0.0031879232
44	0xbb99f676	-0.00469857
45	0xbb71db9d	-0.0036904581
46	0xba556ac8	-0.0008141217
47	0xbb5da6b2	-0.0033821282
48	0x3aa290ae	0.0012402737
49	0xbb5ee251	-0.0034009407
50	0xbb464964	-0.0030256147
51	0x3b2ae17b	0.0026074338
52	0xbb925058	-0.004465144
53	0xba3ce79d	-0.0007206144
54	0x3b7f9e22	0.0039004167
55	0x3b1360e2	0.0022488167
56	0xbb3dbd79	-0.0028952046
57	0x3b0b76a1	0.0021280425
58	0x3aa5ac96	0.0012639936
59	0xbb51a756	-0.003199061
60	0xbb396974	-0.0028291615
61	0xbb90ae1c	-0.0044152867
62	0xbb8d905d	-0.004320188

vgg.0.weight f4 [63, 63, 3, 3]
0	0x3cce10fa	0.02515458
1	0xbd3a2d5a	-0.045453407
2	0xbda2db40	-0.07951975
3	0x3c07cbe9	0.008288362
4	0xbd2c8810	-0.042121947
5	0xbcbc2e61	-0.022971334
6	0x3d31cff5	0.043411214
7	0xbcac960b	-0.02106764
8	0x3c5a3889	0.013319143
9	0x3db328c3	0.08748009
10	0x3d505f00	0.05087185
11	0x3dbd825a	0.09253378
12	0x3d24f05c	0.040268287
13	0xbda16f41	-0.07882548
14	0xbbb4cc4a	-0.005517517
15	0xbb31bf57	-0.0027122104
16	0xbd88ee4c	-0.066860765
17	0xbdb16513	-0.086618565
18	0x3cd21c8d	0.02564838
19	0xbd3e9f35	-0.04653855
20	0x3ce60389	0.028077858
21	0xbb7055d6	-0.0036672256
22	0x3c1a99bf	0.00943607
23	0x3d974331	0.073858626
24	0x3d26b91d	0.04070388
25	0x3beb6a65	0.007184314
26	0x3ac8a02e	0.0015306526
27	0x3d9feec2	0.07809211
28	0x3d94917e	0.07254313
29	0x3d509422	0.05092252
30	0x3c9cc344	0.019136079
31	0xbca4ffd2	-0.020141516
32	0xbd1066c7	-0.035254266
33	0xbc84f478	-0.016229853
34	0xbde2fc8b	-0.11083325
35	0x3c8f13cf	0.0174655
36	0xbac97cea	-0.001537231
37	0x3c4d5191	0.012531654
38	0xbd04af3c	-0.03239368
39	0xbd8d8eba	-0.069119886
40	0xbd3ab4f9	-0.045582745
41	0xbd848155	-0.064699806
42	0xbdd183a0	-0.102301836
43	0xbc242164	-0.010017727
44	0x3cf52e4c	0.029929303
45	0xbcd756a3	-0.026286429
46	0xbc6b1853	-0.014349061
47	0x3dca166e	0.098675594
48	0x3dc8de34	0.09808007
49	0x3d9abc49	0.07555444
50	0xbced4430	-0.028963178
51	0xbc24639e	-0.010033516
52	0x394635f4	0.0001890285
53	0x3d8f115b	0.06985732
54	0x3da19f2c	0.07891688
55	0x3dba2c5a	0.09090491
56	0x3de97db5	0.1140093
57	0xbdcbcc88	-0.099511206
58	0xbb865422	-0.004099385
59	0x3c631d23	0.013861927
60	0xbd9a40e6	-0.0753191
61	0xbceb3a04	-0.028714187
62	0xbcb12ee1	-0.021628799
63	0xbd7615a3	-0.060079228
64	0x3df9d4b6	0.121987745
65	0x3c2fcaaa	0.010729471
66	0x3cee64cf	0.029100804
67	0x3d05b76e	0.032645635
68	0x3d1946b7	0.037420955
69	0xbda823a4	-0.08209923
70	0x3d86da38	0.06584591
71	0xbb949296	-0.004534076
72	0xbcf61cc3	-0.030043012
73	0xbcc36bef	-0.023855178
74	0x3c30c8e1	0.010790081
75	0xbd6bcd15	-0.05756863
76	0x3de36fa0	0.11105275
77	0x3d14adb5	0.036298472
78	0x3c871f7f	0.01649451
79	0x3c50d4d5	0.012746056
80	0xbd5f5583	-0.05452491
81	0x3d5888d9	0.052864883
82	0x3d670df9	0.05640981
83	0xbd8b1830	-0.06791723
84	0x3d02697b	0.031838875
85	0x3c8d5ac9	0.017255204
86	0x3cfb8add	0.030705864
87	0xbc0525ff	-0.008126735
88	0xbc2a803a	-0.010406548
89	0xbca0d1f9	-0.019631373
90	0xbcb6eb04	-0.022328861
91	0x3bd487bc	0.0064859074
92	0x3c1a88a8	0.009431995
93	0x3d604292	0.054750986
94	0x3dd12b35	0.10213319
95	0xbd375e7c	-0.04476784
96	0x3ce8a1bc	0.028397433
97	0x3db7bf30	0.08972013
98	0xbd1b1571	-0.037862245
99	0xbd3336a2	-0.043753274
100	0xbc92b706	-0.017909538
101	0x3cbbf0df	0.022942005
102	0xbcf576f0	-0.02996394
103	0xbd888f1a	-0.066679195
104	0xbe27f72d	-0.16402884
105	0xbccfcde1	-0.025366725
106	0xbc364eee	-0.011127217
107	0xbcd24e1c	-0.025672011
108	0xbbb5fba3	-0.005553679
109	0x3d07b250	0.033129036
110	0xbde229c7	-0.11043125
111	0x3d18e2d4	0.037325695
112	0x3bd6caf8	0.0065549575
113	0x3d71b95d	0.059014667
114	0xbc561432	-0.013066338
115	0xbd224830	-0.039619625
116	0xbcd722ca	-0.026261706
117	0x3cdee79d	0.027210051
118	0x3cb2cfeb	0.021827659
119	0xba4a8cc2	-0.0007726663
120	0x3cdcecbf	0.026968358
121	0xbc02d9eb	-0.007986526
122	0xbd3a4303	-0.045474064
123	0xbdc7495f	-0.09730791
124	0x3e017513	0.12642317
125	0xbcda4a4e	-0.02664676
126	0xbbb9d8f0	-0.005671613
127	0xbd3c6c54	-0.046001747
128	0xbd83d5b1	-0.06437243
129	0xbd42f017	-0.04759225
130	0xbd88d1f9	-0.06680674
131	0xbdab7bb9	-0.083732076
132	0xbd0408b2	-0.032234855
133	0x3def9180	0.11697674
134	0x3ce38a16	0.027775805
135	0xbc1ea6a4	-0.009683285
136	0xbdd5dde5	-0.10442714
137	0xbc26ded8	-0.010184966
138	0xbc6ead86	-0.014567738
139	0x3dc012e9	0.09378607
140	0xbc404ec5	-0.01173753
141	0x3d78b413	0.060718607
142	0x3ca4be3f	0.020110248
143	0x3e0483b5	0.12940867
144	0x3c6e9248	0.014561243
145	0x3d75bc9c	0.059994325
146	0xbe23f99c	-0.16013187
147	0xbc49a4a8	-0.0123073235
148	0xbc0ab1b5	-0.00846522
149	0x3d1a6e04	0.037702575
150	0xbd005d6c	-0.031339094
151	0xbcfea3d2	-0.031083975
152	0x3cfaa810	0.030597717
153	0xbce4fe95	-0.027953425
154	0x3d90b593	0.070658825
155	0xbd740fa0	-0.059585214
156	0xbcc32164	-0.023819633
157	0x3d094fed	0.03352349
158	0x3d0b67fb	0.03403471
159	0x3ccd14f5	0.025034407
160	0xbd7b200e	-0.061309867
161	0x3b860f33	0.0040911674
162	0x3d7b4ef3	0.06135459
163	0x3d159d8a	0.036527194
164	0xbd843379	-0.0645513
165	0xbcdd71f6	-0.02703188
166	0xbdecb95a	-0.115587905
167	0xbc5aa12c	-0.01334409
168	0x3c5d8a3b	0.013521726
169	0x3c8a6d33	0.016897773
170	0xbd4ecc67	-0.050487902
171	0x3d16dbd5	0.036830742
172	0xbc957044	-0.018242009
173	0x3d169357	0.036761608
174	0x3caa596b	0.020794591
175	0x3d922616	0.071361706
176	0xbd53b643	-0.05168749
177	0x3d3941c1	0.045228723
178	0x3c8f3814	0.017482795
179	0x3d6744cd	0.056462098
180	0x3c7464e0	0.014916629
181	0xbd71f58b	-0.05907206
182	0xbd80a185	-0.062808074
183	0xbc5a483e	-0.013322888
184	0xbca4cfca	-0.020118613
185	0xbbc37120	-0.0059644133
186	0x3c6875ff	0.014188289
187	0xbd0ea3ae	-0.034824066
188	0xbc411691	-0.011785165
189	0xbbdc983c	-0.006732015
190	0xbb08e3f1	-0.0020887817
191	0x3d1d90db	0.038468223
192	0xbd857087	-0.065156035
193	0x3cf88507	0.03033687
194	0x3ddfdfc9	0.109313555
195	0xbc58b99b	-0.013227846
196	0x3d23dd83	0.040006172
197	0x3c2e7595	0.010648151
198	0xbc2599f9	-0.010107511
199	0xbc8118ba	-0.01575886
200	0xbdaf9dc6	-0.08575015
201	0x3c8308ea	0.015995461
202	0xbd2a6828	-0.041603237
203	0xbd41a6b0	-0.047278106
204	0xbae9b257	-0.0017829639
205	0xbd88adc4	-0.06673768
206	0x3da34407	0.079719596
207	0xbc9f5e3c	-0.019454114
208	0x3d8b44fc	0.06800267
209	0x3d7a2779	0.0610728
210	0xbe07cec8	-0.13262475
211	0x3c43a643	0.011941495
212	0x3c63cde8	0.013904072
213	0xbdf40286	-0.11914544
214	0xbd5904c0	-0.052983046
215	0x3de7209d	0.11285517
216	0xbc95ef5b	-0.01830261
217	0x3c01f365	0.007931565
218	0x3d326df4	0.04356189
219	0x3d4aed62	0.049542792
220	0xbcd381f6	-0.025818806
221	0xbd6d4340	-0.057925463
222	0xbd166ce3	-0.036724936
223	0xbc2563a6	-0.010094559
224	0x3c5ce455	0.013482173
225	0xbd491732	-0.049094386
226	0x3bfd6bbf	0.0077337916
227	0x3d05a277	0.03262564
228	0x3d142f05	0.036177654
229	0xbd8d2dbe	-0.0689349
230	0xbd1f0a9b	-0.038828474
231	0xbc059177	-0.008152357
232	0xbd6142c3	-0.05499531
233	0x3d8f23c5	0.06989244
234	0xbdad9ad8	-0.084768
235	0x3d00410f	0.031312045
236	0xbda50621	-0.080578096
237	0x3d122a06	0.035684608
238	0x3d98dfe3	0.07464578
239	0xbcd674b1	-0.02617869
240	0x3dfde5d5	0.123973526
241	0xbc74dd84	-0.014945392
242	0x3876d00a	5.8844722e-05
243	0x3cc94bc8	0.024572268
244	0xbd9d8e9c	-0.07693216
245	0xbc216a63	-0.009852025
246	0x3cbdd5c4	0.02317322
247	0x3c821e10	0.015883476
248	0x3d81c8d8	0.06337136
249	0x3da5a317	0.080877475
250	0xbaacec6f	-0.0013193021
251	0xbd30a823	-0.043129098
252	0x3bc2d672	0.005945974
253	0xbd3334e6	-0.04375162
254	0xbd80034a	-0.06250627
255	0x3e1e9d77	0.15489756

vgg.0.bias f4 [63]
0	0xbb26d6ad	-0.0025457547
1	0x3b977073	0.0046215593
2	0xba4b5e53	-0.0007757891
3	0xbb0e8326	-0.002174565
4	0xbb778284	-0.0037767002
5	0xbaa83571	-0.001283331
6	0xba19b324	-0.0005863181
7	0xbab03e1e	-0.0013446247
8	0xbb1cb078	-0.0023908895
9	0xbab010cd	-0.0013432741
10	0xbabebe98	-0.0014552651
11	0xbb4b7106	-0.003104271
12	0xbb54dcdc	-0.0032480275
13	0xbb889de5	-0.004169213
14	0xbb7fd13c	-0.0039034626
15	0xb9ea4ebc	-0.0004469062
16	0x39d0e150	0.00039840722
17	0xbb5cb370	-0.003367629
18	0xbb12e135	-0.0022412066
19	0xbb7452f3	-0.0037280887
20	0xbad60e05	-0.0016331082
21	0xbb81deb1	-0.0039633145
22	0x3a329734	0.0006812692
23	0xba89db2f	-0.0010517592
24	0xbb9ee85d	-0.004849477
25	0xbb3ce0d4	-0.0028820531
26	0xbb557e3c	-0.0032576462
27	0xbae80839	-0.0017702646
28	0xbb7c681c	-0.0038514202
29	0xbb1250de	-0.0022326033
30	0xbb489a2e	-0.0030609476
31	0xbb158787	-0.0022816376
32	0xbb17588b	-0.0023093547
33	0x3aaff3bf	0.0013424082
34	0xbb2a59e2	-0.0025993516
35	0x3a541d3b	0.0008091514
36	0xbb587ae5	-0.0033032235
37	0x3b4bc9ae	0.0031095552
38	0x3b479d2b	0.003045867
39	0x3c0350dd	0.008014885
40	0xbb3a620d	-0.002843979
41	0x3a8b6cb1	0.0010637251
42	0xba8f48d1	-0.0010931735
43	0xbad3d45d	-0.0016161312
44	0xbb9ef1f3	-0.00485062
45	0x3b765813	0.0037589117
46	0xb9f57cae	-0.00046822935
47	0xbb58a337	-0.0033056268
48	0xb7f9bfd2	-2.9772436e-05
49	0xbb5a792e	-0.003333639
50	0x391a32f1	0.00014705562
51	0x3af5118e	0.0018697248
52	0xba960295	-0.0011444861
53	0xbab10111	-0.0013504346
54	0xba62f4e0	-0.0008657705
55	0xbb3ed47f	-0.0029118357
56	0xba9ea740	-0.0012104288
57	0x3a035b87	0.0005010892
58	0x39849f59	0.00025295725
59	0xbb57c312	-0.0032922667
60	0x3a34d351	0.00068979437
61	0xbb5a6604	-0.0033324966
62	0x3a9ec33d	0.0012112629

oconv2.weight f4 [1, 63, 3, 3]
0	0x3c8c92f0	0.017159909
1	0x3d8b6eb3	0.068082236
2	0x3bf42ac9	0.0074513895
3	0xbe11517f	-0.14191245
4	0xbd39a851	-0.045326535
5	0xbd8f24c6	-0.06989436
6	0xbd3a5d2b	-0.04549901
7	0xbd004bfc	-0.031322464
8	0xbcf762cc	-0.030198477
9	0x3d1fa8bc	0.038979277
10	0x3d34e180	0.044160366
11	0x3d8e1306	0.06937222
12	0xbd73b921	-0.059502725
13	0x3be58210	0.00700403
14	0xbc322a5a	-0.010874355
15	0xbc24110b	-0.010013829
16	0x3d61830b	0.055056613
17	0xbcb0057b	-0.021486988
18	0x3cbd88af	0.023136465
19	0x3df7365d	0.12070916
20	0xbb884084	-0.0041580815
21	0x3cd8b6ba	0.026454318
22	0x3dac681e	0.08418296
23	0xbd0e6feb	-0.034774702
24	0xbd035986	-0.032067798
25	0x3dcff09d	0.10153315
26	0xbc91ec74	-0.017812945
27	0xbd9c619e	-0.076358065
28	0x3daf500b	0.08560189
29	0xbc0a1d3e	-0.008429823
30	0xbd66edbd	-0.05637907
31	0xbd5e1c2f	-0.054226097
32	0x3da12b59	0.07869596
33	0x3c40b51b	0.011761929
34	0x3deb91c6	0.115024135
35	0xbd486f2e	-0.048934154
36	0x3da744a2	0.081673875
37	0x3cb30496	0.021852773
38	0xbd3f94fa	-0.046772934
39	0xbbc4e31b	-0.0060085184
40	0xbb85f064	-0.0040874947
41	0xbcc0443e	-0.02347004
42	0xbda8a441	-0.08234454
43	0x3d01f475	0.031727273
44	0x3d92a2b5	0.0715994
45	0x3d589766	0.05287876
46	0x3d797459	0.060901973
47	0xbdc5ca51	-0.096577294
48	0x3d410f4d	0.047133733
49	0x3d47d5f1	0.048788015
50	0x3d5ad5db	0.053426605
51	0x3d9aec6e	0.07564627
52	0xbb917878	-0.00443941
53	0x3d5c5f39	0.05380175
54	0xbd786d38	-0.060651034
55	0x3d6db54a	0.05803422
56	0x3ccc8573	0.024965977
57	0x3df80ec8	0.12112194
58	0x3d3e1be6	0.046413325
59	0x3e1a4d72	0.15068606
60	0x3dde33ea	0.108497456
61	0x3d0539e1	0.0325259
62	0x3c8f1955	0.017468134
63	0xbc8fe8d5	-0.017567078
64	0x3d1fae7d	0.038984764
65	0x3ce3f656	0.027827423
66	0x3d680fff	0.05665588
67	0xbc502b33	-0.012705612
68	0x3d99e71f	0.07514786
69	0xbce73ff1	-0.028228732
70	0x3cedd5aa	0.029032547
71	0xbd058026	-0.032592915
72	0x3cfa23eb	0.030534705
73	0x3d769897	0.060204115
74	0x3d50c947	0.050973203
75	0x3cfa9052	0.030586395
76	0xbaa26da8	-0.0012392299
77	0xbd6be070	-0.057587087
78	0xbdf4eb59	-0.119589515
79	0x3e0685ee	0.13137028
80	0x3dca681c	0.098831385
81	0x3bc0f27f	0.005888283
82	0xbd75cacc	-0.060007855
83	0x3d6cc742	0.057807215
84	0x3dd01049	0.10159356
85	0x3c4b36b1	0.012403176
86	0xbd3fd733	-0.04683609
87	0xbc8ebad1	-0.017423065
88	0x3c3d8c95	0.011569162
89	0x3d14d41b	0.036335092
90	0x3e2c07d0	0.16799855
91	0x3dba2a2a	0.090900734
92	0x3de66a3e	0.11250733
93	0xbc3b0039	-0.011413627
94	0xbd9a2f35	-0.07528535
95	0x3dcfec6f	0.10152518
96	0x3d283e86	0.041075252
97	0xbd75366c	-0.059866354
98	0xbdd99525	-0.1062415
99	0xbc5943b6	-0.013260772
100	0xbc60c26e	-0.013718231
101	0x3d8ab0ab	0.06771978
102	0xbd6c3d44	-0.057675615
103	0xbd815aa6	-0.06316118
104	0xbd195735	-0.037436683
105	0xbd267c16	-0.04064568
106	0xbda3be4b	-0.0799528
107	0x3d876de2	0.06612755
108	0x3d9774d0	0.07395327
109	0x3dc0ed57	0.09420269
110	0x3d8ae636	0.067821905
111	0xbd54852c	-0.051884815
112	0xbcc2362a	-0.023707468
113	0x3d88b239	0.06674618
114	0x3a6d1c19	0.00090450194
115	0xbd135c6c	-0.035976812
116	0xbd22ac53	-0.039715122
117	0x3a01f2e2	0.0004957152
118	0xbdf954a1	-0.12174345
119	0x3cd33e59	0.025786566
120	0xbd3f53d8	-0.04671082
121	0xbdfdef14	-0.12399116
122	0x3d6eb7d0	0.058280766
123	0x3d07883a	0.0330889
124	0xbd10bbc9	-0.035335336
125	0x3ae806d8	0.0017702235
126	0x3cbb371e	0.02285343
127	0xbd96c01b	-0.0736086
128	0xbdb35dfd	-0.08758161
129	0x3d09f6c0	0.033682585
130	0xbda88f38	-0.08230442
131	0xbd663e04	-0.056211486
132	0x3bf977c5	0.0076131546
133	0x3d98c225	0.07458905
134	0x3e38e2c3	0.18055253
135	0xbd68c1ff	-0.056825634
136	0x3d5b0c7e	0.05347871
137	0xbc93451f	-0.017977295
138	0x3d4e12b4	0.050310805
139	0x3dd92f98	0.10604781
140	0x3d93a7b1	0.07209719
141	0xbddc8aa3	-0.1076863
142	0x3c6da4b6	0.014504602
143	0xbc47c1d0	-0.012192205
144	0x3d1a0fef	0.03761285
145	0x3d4afc25	0.04955687
146	0xbd4e95a0	-0.050435662
147	0xbd37ad73	-0.04484315
148	0xbd73eee8	-0.05955401
149	0xbd438f4a	-0.047744073
150	0xbd71661d	-0.058935273
151	0xbb74ec64	-0.0037372345
152	0x3cb83809	0.022487657
153	0xbdc88104	-0.09790233
154	0xbba2fc5e	-0.004973932
155	0x3cd5e04a	0.026107926
156	0xbc576274	-0.013146032
157	0x3d6cdc21	0.05782712
158	0xbd7dd652	-0.06197197
159	0x3d19527e	0.037432186
160	0x3da8ea93	0.082478665
161	0x3c5166c3	0.012780848
162	0x3c8398eb	0.016064128
163	0xbd7fc618	-0.062444776
164	0xbda521f5	-0.080631174
165	0x3dcce678	0.10004896
166	0xbcee1cfe	-0.029066559
167	0xbd183424	-0.0371591
168	0x3d1aed87	0.03782418
169	0x3d4d103c	0.05006431
170	0x3ce733c4	0.028222926
171	0x3dc2f14d	0.09518681
172	0xbe0dd2ef	-0.13849996
173	0x3d177bfb	0.03698347
174	0x3b4d69f9	0.0031343682
175	0x3d014970	0.031564176
176	0x3dd3eda6	0.10348062
177	0xbb8469f8	-0.004040953
178	0x3c883997	0.016629023
179	0x3c5f7302	0.01363826
180	0x3d37ce53	0.0448745
181	0xbd582162	-0.05276621
182	0x3d275094	0.04084833
183	0x3c6db394	0.014508147
184	0x3d46a35f	0.048495647
185	0x3d69a22c	0.057039425
186	0x3d79002b	0.060791176
187	0xbca483c8	-0.02008237
188	0xbc188a54	-0.009310324
189	0x3ba3be35	0.0049970397
190	0x3d8d4af7	0.06899064
191	0x3d2aede0	0.04173076
192	0xbd700889	-0.05860189
193	0xbd448185	-0.047975082
194	0x3ca27215	0.01982979
195	0xbd59b6d3	-0.05315287
196	0xbdc53d16	-0.09630792
197	0x3d7ad2f0	0.061236322
198	0x3d5c3ded	0.053769995
199	0xbd58dfd0	-0.05294782
200	0xbc13b49c	-0.009015229
201	0x3d576ed4	0.05259593
202	0x3c371105	0.011173491
203	0x3c784829	0.015153923
204	0xbd090565	-0.03345241
205	0x3ce4f8d8	0.02795069
206	0x3be3b054	0.00694851
207	0xbd22a9bf	-0.039712664
208	0xbc087e7e	-0.008330939
209	0xbdc27af3	-0.09496107
210	0x3d8144ce	0.063119516
211	0xbd8f3a59	-0.06993551
212	0xbce473ba	-0.027887214
213	0xbd8bd584	-0.06827834
214	0xbd13a5e6	-0.036046885
215	0xbbaf61e8	-0.0053522475
216	0x3b007bd8	0.0019605067
217	0x3c68b69c	0.014203694
218	0x3e637b67	0.22215043
219	0xbd941047	-0.07229667
220	0xbd917cce	-0.07103883
221	0xbd04f7ef	-0.03246301
222	0xbdd9a9bf	-0.106280796
223	0x3cae7ae7	0.021298839
224	0x3d785aa1	0.060633305
225	0x3b41dc2b	0.0029580693
226	0x3d23fd78	0.04003665
227	0x3d623046	0.05522182
228	0xbd2005d3	-0.039068054
229	0x3ced9f64	0.029006667
230	0x3dfb21ba	0.12262292
231	0x3e02588f	0.12729095
232	0x3da082a0	0.07837415
233	0x3c9fd5e8	0.019511178
234	0xbcccf5f1	-0.025019618
235	0xbcbb9da5	-0.02290232
236	0xbca8224b	-0.020524165
237	0xbc448e61	-0.011996836
238	0xbc997c44	-0.018736012
239	0xbd2195aa	-0.03944937
240	0xbd0b8558	-0.034062713
241	0xbc8b59dc	-0.017010622
242	0xbd0b6edc	-0.03404127
243	0x3da5c63b	0.0809445
244	0xbc4f2757	-0.012643657
245	0x3d163d2d	0.036679436
246	0xbd496495	-0.049168188
247	0xbdab88ef	-0.083757274
248	0xbc1f46eb	-0.009721498
249	0xbd3e92ed	-0.046526838
250	0x3deb6fb0	0.11495912
251	0xbd83ddbf	-0.06438779
252	0x3c35b5a6	0.011090672
253	0xbd03f5dc	-0.03221689
254	0xbd033efa	-0.03204248
255	0xbd88d838	-0.066818655
