Models/model40.pth (torch, 152463 bytes, 6 tensors)

oconv1.weight f4 [1, 1, 3, 3]
0	0x3ee2032b	0.44143042
1	0xbe1acfe7	-0.15118371
2	0xbf025bb6	-0.5092119
3	0x3e3d76e5	0.18502386
4	0x3e281278	0.16413295
5	0xbe3ece9f	-0.18633507
6	0x3eb031e9	0.34413078
7	0xbeeb227a	-0.4592474
8	0xbe53adb4	-0.20671731

conv1.weight f4 [63, 1, 3, 3]
0	0xbfc6d7ff	-1.5534667
1	0x3e97741a	0.29580766
2	0x3e3e43dc	0.18580574
3	0xbd1418c3	-0.036156427
4	0xbf663be3	-0.8993513
5	0x3eabb009	0.33532742
6	0xbe024bbf	-0.12724207
7	0x3e134baf	0.1438434
8	0xbe46fe5f	-0.19432972
9	0xbe2a3524	-0.16621834
10	0xbed374fb	-0.41300187
11	0xbdee3865	-0.1163185
12	0xbedff1ab	-0.43739066
13	0x3fa0e661	1.2570306
14	0x3ea347e3	0.31890783
15	0x3e6881f5	0.22705825
16	0xbf445eca	-0.76707137
17	0x3e8cd617	0.27507088
18	0x3e657a25	0.22409876
19	0xbf0d4a11	-0.5519114
20	0x3f078c3a	0.52948344
21	0xbf306309	-0.68901116
22	0x3eed8429	0.46389893
23	0x3ea109c4	0.31452763
24	0xbe983ff8	-0.29736304
25	0x3f2e712a	0.68141425
26	0xbe008192	-0.12549427
27	0x3ea8e690	0.32988405
28	0xbf167ada	-0.58781207
29	0x3ef5f5ef	0.48039195
30	0x3f8964fa	1.0733941
31	0x3b74d4a2	0.0037358184
32	0x3f221bd9	0.6332374
33	0xbf13653d	-0.5757635
34	0x3e34e84a	0.17666736
35	0x3f2e0a74	0.679847
36	0xbf754f09	-0.95823723
37	0xbe5eff16	-0.21776995
38	0x3f0acb68	0.54216623
39	0x3e39bd7f	0.18138693
40	0x3de7036a	0.11279948
41	0xbd365068	-0.044510275
42	0xbdea1f40	-0.11431742
43	0xbe52b6e7	-0.20577584
44	0x3ea4f084	0.3221475
45	0xbe0df2d1	-0.13862158
46	0xbf1f4b9c	-0.62224746
47	0xbeb35989	-0.35029247
48	0xbf2ddfc4	-0.67919564
49	0xbdac6861	-0.08418346
50	0x3f12367f	0.57114404
51	0x3f862bf8	1.0482168
52	0x3c92d206	0.017922413
53	0xbeb90852	-0.3613916
54	0x3db04675	0.086071886
55	0xbe8be74b	-0.273249
56	0x3df5f679	0.120099016
57	0xbe6a1c6d	-0.22862406
58	0x3ed4b515	0.41544405
59	0xbdb89736	-0.09013216
60	0xbf0f52b0	-0.55985546
61	0x3ea88df7	0.3292081
62	0x3c4ed00e	0.012622846
63	0x3ea6fd83	0.3261529
64	0x3edd7613	0.43254146
65	0xbd784560	-0.060613036
66	0x3dfb82c2	0.122807994
67	0xbec4defd	-0.38451377
68	0x3f48cc90	0.7843714
69	0xbf49face	-0.7889832
70	0x3ef5764f	0.47941825
71	0x3e309a1c	0.17246288
72	0x3efffcdf	0.49997613
73	0x3ebbf5c0	0.3671093
74	0xbf960fb4	-1.1723542
75	0xbc496131	-0.012291239
76	0xbf025a0d	-0.50918657
77	0x3f8f90d0	1.1216068
78	0x3e0f2822	0.13980153
79	0x3e11a23c	0.14222044
80	0x3cf1ad92	0.02950171
81	0x3ec8a6c7	0.3918974
82	0x3d9cc6f1	0.076551326
83	0xbf1d589f	-0.6146335
84	0xbecb4d37	-0.39707348
85	0xbb7e4332	-0.0038797376
86	0x3e8cf985	0.27534118
87	0xbeea71be	-0.45789903
88	0xbca53896	-0.020168584
89	0xbe16d5d0	-0.1473
90	0x3f1c94ca	0.61164534
91	0xbe1764b7	-0.14784513
92	0xbf391a47	-0.7230572
93	0xbee99e0b	-0.4562839
94	0xbf063378	-0.52422285
95	0xbe8455dc	-0.25846756
96	0x3f4973c8	0.78692293
97	0xbe9054f2	-0.28189808
98	0xbee7b1df	-0.45252892
99	0xbe3d3dc2	-0.1848059
100	0xbd1ad69a	-0.037802316
101	0x3e3f426f	0.18677686
102	0x3f36c96f	0.71401113
103	0x3de2a813	0.11067214
104	0xbf5b3b55	-0.8563741
105	0x3f06de82	0.5268327
106	0x3f030ad6	0.5118841
107	0x3f0be06a	0.54639304
108	0x3f5191e6	0.8186325
109	0x3ea585df	0.32328698
110	0xbf059e22	-0.52194417
111	0xbee3e511	-0.445107
112	0x3e4730d1	0.19452216
113	0x3f50fb1a	0.8163315
114	0x3f024ee7	0.50901645
115	0x3d9debf4	0.0771102
116	0x3fba63c1	1.4561692
117	0x3f3bb510	0.73323154
118	0xbdbef9ec	-0.093250126
119	0xbe849fd0	-0.25903177
120	0xbf473ce2	-0.77827275
121	0xbdb65bf6	-0.08904259
122	0x3dbd0321	0.092291124
123	0x3f03606b	0.51319
124	0x3de93641	0.11387301
125	0x3e84217d	0.258068
126	0x3e3c1f4e	0.18371317
127	0xbcef1d43	-0.029188758
128	0xbf0dd3e3	-0.5540144
129	0x3d23b223	0.039964806
130	0x3b763b93	0.003757213
131	0xbdbed748	-0.093184054
132	0x3e36d727	0.17855512
133	0xbefef35a	-0.49795038
134	0x3ed303b2	0.41213757
135	0xbca230a1	-0.019798579
136	0x3e5baf59	0.21453609
137	0xbeee06e9	-0.46489647
138	0x3eea9def	0.4582362
139	0x3ec308b1	0.3809257
140	0xbe6f857e	-0.23390767
141	0xbf1cce09	-0.61251885
142	0xbf370de6	-0.7150558
143	0xbf0ec095	-0.55762607
144	0x3ec0c85c	0.37652862
145	0x3e37c896	0.17947611
146	0x3f2c446a	0.6729189
147	0x3f15c3d3	0.5850193
148	0xbf39688a	-0.7242514
149	0x3ee76a81	0.45198444
150	0x3d8101bf	0.06299161
151	0x3ebcf7d1	0.3690782
152	0xbdc2bf3c	-0.09509131
153	0xbdb63771	-0.08897293
154	0xbe951d50	-0.29123926
155	0xbf38ae07	-0.72140545
156	0x3ddd3096	0.10800283
157	0xbf45f220	-0.7732258
158	0xbf7ca562	-0.98689854
159	0x3f0e122d	0.55496484
160	0x3f5a7d9c	0.85347915
161	0xbf4f4e5d	-0.8097895
162	0x3e1beded	0.1522748
163	0x3f7bce60	0.9836178
164	0xbf8cd0e1	-1.1001245
165	0x3f30c5fc	0.690521
166	0xbe36fa64	-0.17868954
167	0x3e4ce66e	0.20009777
168	0xbe858553	-0.2607828
169	0xbdd3cde8	-0.10342008
170	0xbe9c433b	-0.30520043
171	0xbd8eb1b4	-0.06967488
172	0x3df3bd8e	0.11901389
173	0x3f08b1c7	0.53396267
174	0xbf387233	-0.72049254
175	0x3e5b52a5	0.21418245
176	0x3eb56c84	0.35434353
177	0x3dcf0c55	0.10109774
178	0x3ed08638	0.407274
179	0x3f19a731	0.6002074
180	0x3ee81f38	0.45336318
181	0x3e91aa81	0.28450397
182	0xbe9c674c	-0.3054756
183	0x3de6d74b	0.112715326
184	0x3f71bdc8	0.9443021
185	0x3e17cf3b	0.14825146
186	0x3ecddea3	0.4020892
187	0xbe785162	-0.24249795
188	0xbe3059a5	-0.17221697
189	0xbe570246	-0.20996961
190	0xbea1e5cd	-0.31620637
191	0xbeb23a5a	-0.34810144
192	0x3e898037	0.26855633
193	0x3f18e033	0.597171
194	0x3c1925e4	0.009347413
195	0xbcd5ee5e	-0.026114639
196	0xbe2d40d4	-0.16919261
197	0xbd6594c4	-0.056050077
198	0xbf026f4f	-0.50951093
199	0xbe42320f	-0.18964408
200	0xbf070003	-0.5273439
201	0x3ef21ee3	0.4728919
202	0x3dfa0c59	0.122093864
203	0x3e841381	0.2579613
204	0x3f08b692	0.5340358
205	0xbe1f353c	-0.15547651
206	0xbe8225de	-0.25419515
207	0xbe2ac8ad	-0.16678114
208	0xbf55cd45	-0.8351634
209	0x3f6a755d	0.9158533
210	0x3de20e9e	0.11037944
211	0x3e8e6339	0.27810076
212	0xbc8491f3	-0.016182875
213	0xbeda681c	-0.42657554
214	0x3eb20708	0.3477099
215	0x3efe04a4	0.49612916
216	0xbe2eaf16	-0.17058977
217	0x3ee4edd2	0.44712692
218	0x3e306077	0.17224298
219	0x3d3e1864	0.04640998
220	0x3ec44539	0.38334063
221	0xbc919f95	-0.01777629
222	0xbfa0cda1	-1.2562753
223	0xbed1a523	-0.40946302
224	0x3eb1b5aa	0.3470891
225	0x3e0210c0	0.12701702
226	0x3e33ce9f	0.17559288
227	0xbec75e93	-0.38939342
228	0x3ea38296	0.31935567
229	0x3ecea99c	0.40363777
230	0xbe48c23b	-0.19605343
231	0x3e0fe7b7	0.14053236
232	0x3f10ec37	0.56610435
233	0x3dee7040	0.11642504
234	0xbf4a1064	-0.7893126
235	0xbea981f7	-0.33106968
236	0xbebdd550	-0.37076807
237	0xbf30bc63	-0.69037455
238	0xbe76bcd4	-0.2409547
239	0xbec71088	-0.388798
240	0x3e7ce47d	0.24696536
241	0x3d97cc6a	0.07412036
242	0xbf60586d	-0.8763493
243	0x3e4b2ed3	0.19842081
244	0x3f019d9f	0.50631136
245	0x3f2e2355	0.6802266
246	0x3e67a3a0	0.22621012
247	0xbdf38dca	-0.118922785
248	0xbf080346	-0.53129995
249	0xbeb3290a	-0.34992248
250	0x3cd950ce	0.026527788
251	0x3e621a0a	0.22080246
252	0x3e097563	0.13423686
253	0xbe1127a0	-0.14175272
254	0xbf30765d	-0.6893061
255	0xbf608631	-0.8770476

conv1.bias f4 [63]
0	0x3b597bce	0.0033185366
1	0x3a95bcec	0.0011424101
2	0x3b72c0c5	0.003704117
3	0x3b8a562b	0.004221698
4	0x3ba41beb	0.005008211
5	0x3ba7edae	0.005124769
6	0x3b10fe53	0.0022124245
7	0x3b643250	0.0034820028
8	0xbc039add	-0.008032528
9	0x3b42e83b	0.002974047
10	0x3b57fcc8	0.0032957066
11	0x3ac3044a	0.0014878598
12	0xbbc68424	-0.006058233
13	0x3bb5842b	0.0055394373
14	0xbb37df5c	-0.0028056717
15	0xbb979dcc	-0.004626965
16	0xbba820e6	-0.005130875
17	0xbb947545	-0.004530581
18	0xbb9c5ed7	-0.004772048
19	0xbb91cccf	-0.004449464
20	0xbba93e3c	-0.0051648896
21	0xbb845039	-0.0040378836
22	0xbb995a43	-0.0046799495
23	0x3b7a97c5	0.0038237434
24	0x3b0f66fc	0.0021881452
25	0xbb883df1	-0.0041577746
26	0xbb6340a8	-0.003467599
27	0xbba0a372	-0.0049022967
28	0xba9eddc7	-0.0012120538
29	0xbbcad11e	-0.0061894795
30	0xbbbf4b09	-0.0058378023
31	0xbb858ff3	-0.004075998
32	0x3b00e1a5	0.0019665745
33	0xbbac4dca	-0.0052582966
34	0x3751a1f0	1.2495075e-05
35	0x3a371785	0.00069844007
36	0x3b5acd57	0.0033386552
37	0xbb9a25ba	-0.0047042044
38	0xbb91f456	-0.004454176
39	0xbaa67aa9	-0.001270135
40	0xbb8c8b85	-0.004289093
41	0x39881f01	0.0002596304
42	0xbb5f9189	-0.0034113845
43	0xbb9c4822	-0.004769341
44	0xbbcacccb	-0.006188964
45	0xbbab6269	-0.0052302373
46	0xbb1b7ecd	-0.0023726702
47	0xbba37e81	-0.0049894457
48	0x3a99c200	0.001173079
49	0xbb9ed5f0	-0.0048472807
50	0xbb88656f	-0.0041624825
51	0x3b866b2f	0.0041021327
52	0xbbb478eb	-0.0055075786
53	0xbad295d5	-0.0016066382
54	0x3bb21f11	0.0054358323
55	0x3b754f96	0.003743147
56	0xbb6abe3b	-0.0035818953
57	0x3b716d22	0.003683873
58	0x3b213fb1	0.0024604613
59	0xbb9ba4a4	-0.0047498513
60	0xbb846d0b	-0.0040413192
61	0xbbbbaf00	-0.0057276487
62	0xbbc1c4f4	-0.005913371

vgg.0.weight f4 [63, 63, 3, 3]
0	0x3cc17b19	0.023618268
1	0xbd400b15	-0.04688557
2	0xbda5fc73	-0.081047915
3	0x3be25247	0.006906781
4	0xbd32971d	-0.043601144
5	0xbcc89749	-0.0244862
6	0x3d2c2cfc	0.042035088
7	0xbcb88ecf	-0.022529034
8	0x3c3ea8dc	0.011636939
9	0x3db044e0	0.08606887
10	0x3d53f84a	0.05175046
11	0x3dba4808	0.0909577
12	0x3d20d314	0.0392638
13	0xbda3dc9a	-0.08001061
14	0xbbee15f0	-0.0072657987
15	0xbb931cc9	-0.0044895154
16	0xbd86029d	-0.06543467
17	0xbdb3cd16	-0.087793514
18	0x3cc70f87	0.024299396
19	0xbd43aa5d	-0.047769893
20	0x3cddfa03	0.027096754
21	0xbba74c4b	-0.0051055304
22	0x3c06418e	0.00819434
23	0x3d949cc7	0.072564654
24	0x3d215a3b	0.03939269
25	0x3bc9d200	0.006159067
26	0x39d1d180	0.00040019676
27	0x3d9cf188	0.07663256
28	0x3d91b8cc	0.07115325
29	0x3d48cfa0	0.04902613
30	0x3c8f49bc	0.017491214
31	0xbca96f89	-0.020683067
32	0xbd1677b4	-0.03673525
33	0xbc8f2d87	-0.017477764
34	0xbde4d84b	-0.11174067
35	0x3c841e99	0.016127871
36	0xbb41f1a9	-0.0029593504
37	0x3c3a7474	0.011380304
38	0xbd09d8c5	-0.033653993
39	0xbd905dfa	-0.070491746
40	0xbd40f188	-0.047105342
41	0xbd8782e7	-0.066167645
42	0xbdd42a4f	-0.10359632
43	0xbc3ad0a2	-0.011402281
44	0x3ce91352	0.028451595
45	0xbcd68aaf	-0.026189176
46	0xbc5e26c2	-0.013559045
47	0x3dc76167	0.09735375
48	0x3dc6459d	0.096812464
49	0x3d974e4d	0.073879816
50	0xbcf02b4a	-0.029317517
51	0xbc3acfba	-0.011402065
52	0xba94ebab	-0.0011361738
53	0x3d8bb6c6	0.06821971
54	0x3d9ef257	0.077610664
55	0x3db78e0a	0.08962639
56	0x3deb24e0	0.11481643
57	0xbdce6812	-0.100784436
58	0xbb688887	-0.0035481767
59	0x3c6784de	0.014130799
60	0xbd9d253d	-0.07673118
61	0xbceb22b3	-0.02870307
62	0xbcac75b3	-0.021052217
63	0xbd76f64d	-0.060293484
64	0x3df80312	0.121099606
65	0x3c240650	0.010011271
66	0x3ce205ae	0.027590599
67	0x3d055ea4	0.03256096
68	0x3d1307d3	0.035896134
69	0xbda99dcd	-0.08282051
70	0x3d83e813	0.06440749
71	0xbbaf3145	-0.0053464496
72	0xbd00990c	-0.031395957
73	0xbccda9e9	-0.025105434
74	0x3c1afb4c	0.009459328
75	0xbd710ada	-0.05884824
76	0x3de0b4aa	0.10971959
77	0x3d0ed369	0.034869585
78	0x3c7ca7f2	0.015420901
79	0x3c3c328b	0.01148666
80	0xbd645d9e	-0.055753343
81	0x3d52a55f	0.05142724
82	0x3d615e4f	0.05502158
83	0xbd8e113d	-0.06936882
84	0x3cf8a64f	0.03035274
85	0x3c81e842	0.01585782
86	0x3cf008c2	0.029301051
87	0xbc1e6b5d	-0.009669152
88	0xbc428f09	-0.011874923
89	0xbcac833e	-0.021058675
90	0xbcc2cce1	-0.023779335
91	0x3be14fd8	0.006875973
92	0x3c0aabe2	0.008463832
93	0x3d5a181a	0.05324564
94	0x3dce053d	0.10059593
95	0xbd3c1aa2	-0.045923837
96	0x3cdc6982	0.026905779
97	0x3db57ccc	0.08861694
98	0xbd210029	-0.039306793
99	0xbd381cd4	-0.044949368
100	0xbc9e0cdf	-0.019293247
101	0x3cb05312	0.021523986
102	0xbd00d53d	-0.03145336
103	0xbd8a5a2a	-0.06755479
104	0xbe27cbaf	-0.16386293
105	0xbcd8f2e5	-0.026483009
106	0xbc4bebc9	-0.012446352
107	0xbccb99a9	-0.024853544
108	0xbbe442fe	-0.006965994
109	0x3d0aefc2	0.033920057
110	0xbde552fb	-0.11197468
111	0x3d131db0	0.035916984
112	0x3bb3ae10	0.0054833964
113	0x3d6bf8c3	0.057610285
114	0xbc69a745	-0.014261072
115	0xbd234940	-0.03986478
116	0xbcd6eaf4	-0.026235081
117	0x3cd5b76e	0.026088443
118	0x3cbee33e	0.023301717
119	0xbafeb795	-0.0019433374
120	0x3cd2e171	0.025742264
121	0xbc19b67a	-0.009381885
122	0xbd417ff5	-0.04724117
123	0xbdc57127	-0.09640723
124	0x3e031237	0.12799917
125	0xbce25bbc	-0.027631633
126	0xbbe194b7	-0.0068841833
127	0xbd416cac	-0.04722278
128	0xbd86646c	-0.06562123
129	0xbd4809b1	-0.048837367
130	0xbd8bc79d	-0.068251826
131	0xbdac8c07	-0.084251456
132	0xbd097236	-0.033556186
133	0x3decda29	0.11565048
134	0x3cdbced2	0.026832018
135	0xbc36a7a5	-0.011148368
136	0xbdd8c71f	-0.10584854
137	0xbc1cd464	-0.009572122
138	0xbc81f7ef	-0.015865294
139	0x3dbd4f46	0.09243636
140	0xbc39b67b	-0.011335011
141	0x3d71a8ae	0.058998756
142	0x3c97e397	0.01854114
143	0x3e037b3b	0.12839977
144	0x3c7d98b5	0.015478303
145	0x3d7082dc	0.058718547
146	0xbe2563e6	-0.1615139
147	0xbc6596dc	-0.014013018
148	0xbc1ad370	-0.009449825
149	0x3d147e99	0.036253545
150	0xbd0005c5	-0.031255502
151	0xbd03f33e	-0.032214396
152	0x3cee350b	0.029078027
153	0xbce8a043	-0.028396731
154	0x3d8d6ec7	0.06905895
155	0xbd74ea1e	-0.059793584
156	0xbcd0c643	-0.025485164
157	0x3d027f33	0.031859588
158	0x3d04f661	0.032461528
159	0x3cc1442f	0.023592083
160	0xbd80cd75	-0.06289188
161	0x3b1c506c	0.0023851646
162	0x3d74120f	0.059587535
163	0x3d0f31ce	0.034959607
164	0xbd878822	-0.06617762
165	0xbce9772c	-0.028499208
166	0xbdeb1533	-0.11478653
167	0xbc61e311	-0.013787047
168	0x3c45854b	0.012055705
169	0x3c7bd6e7	0.015371061
170	0xbd4a2999	-0.049356077
171	0x3d11615d	0.035493243
172	0xbc9d78d5	-0.019222656
173	0x3d10f9a5	0.03539433
174	0x3c9f7465	0.01946468
175	0x3d8fac28	0.07015258
176	0xbd597abd	-0.053095568
177	0x3d344c91	0.044018332
178	0x3c879680	0.016551256
179	0x3d61e9de	0.055154674
180	0x3c5e61b4	0.013573099
181	0xbd778a5d	-0.060434688
182	0xbd7d7279	-0.061876748
183	0xbc6db82e	-0.014509244
184	0xbcb0025b	-0.021485498
185	0xbbde7a68	-0.0067894943
186	0x3c51214f	0.012764289
187	0xbd11b270	-0.035570562
188	0xbc4b8dae	-0.012423916
189	0xbc00af4b	-0.007854293
190	0xbb7c96a6	-0.0038541942
191	0x3d20c6a5	0.039251942
192	0xbd852544	-0.065012485
193	0x3cea427c	0.028596155
194	0x3ddda456	0.1082236
195	0xbc74966c	-0.0149284415
196	0x3d1d28b8	0.03836891
197	0x3c1bd36b	0.009510855
198	0xbc3b3c1a	-0.011427904
199	0xbc8babb7	-0.017049653
200	0xbdb2270a	-0.08698852
201	0x3c71ca13	0.014757651
202	0xbd2ff4b7	-0.042957988
203	0xbd476239	-0.048677657
204	0xbb3f69d4	-0.0029207366
205	0xbd8b40bc	-0.067994565
206	0x3da0c883	0.078507446
207	0xbc9a4126	-0.018829893
208	0x3d87e22a	0.06634934
209	0x3d73c0e7	0.059510138
210	0xbe0684d0	-0.13136601
211	0x3c43b84e	0.011945797
212	0x3c482853	0.012216645
213	0xbdf69310	-0.12039769
214	0xbd5e4c33	-0.054271888
215	0x3de3fab0	0.11131799
216	0xbca101c1	-0.019654157
217	0x3bd96112	0.006633886
218	0x3d2cfdb4	0.042234138
219	0x3d45366f	0.048147615
220	0xbcdd89a8	-0.027043179
221	0xbd733f70	-0.05938667
222	0xbd1c59cc	-0.038171574
223	0xbc3cee7e	-0.01153147
224	0x3c46027b	0.012085552
225	0xbd4e7572	-0.050404973
226	0x3bd4d1c9	0.006494735
227	0x3d0ad006	0.033889793
228	0x3d0e6447	0.0347636
229	0xbd8f758a	-0.07004841
230	0xbd1b17a5	-0.037864346
231	0xbc1a529c	-0.00941911
232	0xbd6508e6	-0.05591669
233	0x3d92f285	0.07175163
234	0xbdb08ce0	-0.0862062
235	0x3cf4d368	0.029885963
236	0xbda7a192	-0.08185114
237	0x3d0c35b0	0.034230888
238	0x3d95e5d9	0.073192306
239	0xbce22dec	-0.027609788
240	0x3dfaf0b2	0.1225294
241	0xbc85b633	-0.01632223
242	0xbaba4ba1	-0.0014213213
243	0x3cc0d8be	0.02354085
244	0xbd9fed8d	-0.07808981
245	0xbc3d37dd	-0.011548963
246	0x3caf70e1	0.02141613
247	0x3c72c17d	0.014816639
248	0x3d7e50a1	0.062088612
249	0x3da31bee	0.079643115
250	0xbb2bb120	-0.0026198104
251	0xbd36ef3a	-0.044661738
252	0x3b9611f4	0.004579777
253	0xbd399e75	-0.045317132
254	0xbd83031b	-0.06397077
255	0x3e1d1e8b	0.15343682

vgg.0.bias f4 [63]
0	0xbb82231e	-0.0039714715
1	0x3b3c208b	0.002870592
2	0xb51ca9c8	-5.8361593e-07
3	0xbac1b753	-0.0014779366
4	0xbbae577e	-0.0053204885
5	0xbb0fc74c	-0.0021938859
6	0x3910debc	0.00013815885
7	0xbab66365	-0.001391512
8	0xbb3da40f	-0.0028936898
9	0xbb0059dd	-0.0019584813
10	0xbb37ab89	-0.0028025827
11	0xbb8948d0	-0.004189588
12	0xbb57d27a	-0.003293185
13	0xbbab9524	-0.005236285
14	0xbb929cee	-0.004474274
15	0xba1809d3	-0.0005799804
16	0x397132ad	0.00023002429
17	0xbb998ae9	-0.004685749
18	0xba8860f2	-0.0010404869
19	0xbba0cd17	-0.004907261
20	0xbb257a1d	-0.0025249787
21	0xbb74fab6	-0.003738088
22	0xb91f0427	-0.00015164968
23	0xbb340bc6	-0.0027472838
24	0xbbcbf00b	-0.0062236837
25	0xbb8f3606	-0.004370454
26	0xbba43276	-0.005010898
27	0xbb237a09	-0.0024944565
28	0xbba31577	-0.004976924
29	0xbb111f5f	-0.0022143943
30	0xbb873386	-0.004126015
31	0xbb83d2ff	-0.0040229554
32	0xbb459e1e	-0.003015406
33	0xb98a76af	-0.00026409837
34	0xbb7a5ad3	-0.0038201108
35	0xba970bba	-0.001152388
36	0xbb95d4ed	-0.004572502
37	0x3b23f97f	0.0025020537
38	0x3b47ab6f	0.0030467173
39	0x3c0aea3c	0.008478697
40	0xbb8dd643	-0.0043285205
41	0x3b34dd04	0.0027597556
42	0xbb314031	-0.0027046318
43	0xbb59ba71	-0.00332227
44	0xbbcb08a4	-0.0061960984
45	0x3b9a012e	0.0046998477
46	0xbb04e30c	-0.0020276932
47	0xbb98455b	-0.0046469397
48	0xba01b106	-0.0004947338
49	0xbb95984c	-0.0045652743
50	0xbb01f2de	-0.0019828598
51	0x3b0fa8ae	0.002192061
52	0xbaa1af40	-0.0012335554
53	0xbb33a6ac	-0.0027412577
54	0xb9aba48f	-0.00032738267
55	0xbb9133ee	-0.0044312393
56	0x3a32a50d	0.00068147556
57	0x3a192e82	0.0005843417
58	0x3a681dac	0.0008854519
59	0xbba799da	-0.005114776
60	0x39ae2741	0.00033217113
61	0xbba7ffd7	-0.005126934
62	0x3b23102d	0.0024881468

oconv2.weight f4 [1, 63, 3, 3]
0	0x3c99fbbc	0.018796794
1	0x3d88a8ca	0.06672819
2	0x3c006cce	0.007838441
3	0xbe108eea	-0.14117017
4	0xbd335caf	-0.04378956
5	0xbd91f8cf	-0.071275346
6	0xbd32d99f	-0.04366457
7	0xbd03c501	-0.0321703
8	0xbce7d876	-0.028301459
9	0x3d196893	0.037453245
10	0x3d3af06f	0.04563945
11	0x3d8a28ed	0.06746087
12	0xbd6e3ac0	-0.058161497
13	0x3bc542fa	0.006019947
14	0xbc4fb5e4	-0.012677643
15	0xbc3e071c	-0.011598375
16	0x3d671dc7	0.056424882
17	0xbca0ba41	-0.019620063
18	0x3cc7324f	0.024315981
19	0x3df3eea2	0.1191075
20	0xbb9d8ce0	-0.0048080534
21	0x3ce4ce3d	0.027930373
22	0x3daa1968	0.08305627
23	0xbd0ac34e	-0.033877663
24	0xbcfd5dbe	-0.030928489
25	0x3dd1f355	0.1025149
26	0xbc95700b	-0.018241903
27	0xbd999019	-0.074981876
28	0x3dac52f1	0.08414257
29	0xbbf183c0	-0.007370442
30	0xbd608e28	-0.05482307
31	0xbd57cdb1	-0.052686397
32	0x3d9dd64e	0.07706891
33	0x3c2b73bc	0.010464605
34	0x3dec0bd5	0.11525694
35	0xbd4d9f85	-0.050200958
36	0x3da39602	0.07987596
37	0x3cbed128	0.023293093
38	0xbd4129b5	-0.047158916
39	0xbbf07d33	-0.0073391437
40	0xbb4451a8	-0.0029955897
41	0xbccdf639	-0.025141822
42	0xbda522a6	-0.08063249
43	0x3d090011	0.03344733
44	0x3d8ec4f3	0.06971159
45	0x3d516cef	0.051129278
46	0x3d80b735	0.06284944
47	0xbdc8c361	-0.098028906
48	0x3d3a8662	0.045538314
49	0x3d41dac8	0.047327787
50	0x3d600018	0.05468759
51	0x3d966187	0.073428206
52	0xbbaa52c0	-0.005197853
53	0x3d641117	0.05568036
54	0xbd72358c	-0.059133098
55	0x3d66859a	0.056279756
56	0x3cc299ef	0.023755042
57	0x3df97e7d	0.12182329
58	0x3d3e2b3f	0.04642796
59	0x3e189df0	0.14903998
60	0x3ddf8154	0.10913339
61	0x3d09f05a	0.033676483
62	0x3c9c1466	0.019052695
63	0xbc8a7ec0	-0.016906142
64	0x3d1a2a62	0.037638076
65	0x3cd95784	0.026530989
66	0x3d64cf5f	0.055861827
67	0xbc581590	-0.013188735
68	0x3d96c99e	0.07362674
69	0xbcd8f4d7	-0.026483936
70	0x3cdf7dc9	0.027281659
71	0xbd082008	-0.033233672
72	0x3cec4f67	0.028846456
73	0x3d6f8dc8	0.058484823
74	0x3d4a56d1	0.0493992
75	0x3cee07cf	0.029056458
76	0xbb31b338	-0.002711488
77	0xbd6b0744	-0.057379976
78	0xbdf1b03c	-0.11801192
79	0x3e04f897	0.12985454
80	0x3dc70a4d	0.097187616
81	0x3be5c2f4	0.0070117656
82	0xbd6d09b1	-0.05787057
83	0x3d71fd97	0.059079733
84	0x3dcf526e	0.10123144
85	0x3c288b70	0.010287151
86	0xbd385e04	-0.045011535
87	0xbc840d8d	-0.016119743
88	0x3c3040ba	0.0107576195
89	0x3d0e8b1c	0.034800634
90	0x3e29f15e	0.1659598
91	0x3db6bea5	0.08923081
92	0x3de2cce7	0.11074238
93	0xbc22321d	-0.009899643
94	0xbd9d650a	-0.07685287
95	0x3dcdf457	0.1005637
96	0x3d2869a2	0.041116364
97	0xbd6e29fe	-0.058145516
98	0xbddc2029	-0.107483216
99	0xbc4ff0b3	-0.0126916645
100	0xbc7da680	-0.015481591
101	0x3d8863d0	0.06659663
102	0xbd671c76	-0.056423627
103	0xbd7c43dd	-0.061588157
104	0xbd2010e3	-0.039078604
105	0xbd2cb43f	-0.042164084
106	0xbda0a924	-0.07844761
107	0x3d8a68c3	0.06758263
108	0x3d942709	0.07234008
109	0x3dc45c4e	0.09587918
110	0x3d878d95	0.066188015
111	0xbd4fe671	-0.050756875
112	0xbcb7eec3	-0.022452718
113	0x3d8541f5	0.06506721
114	0x3b21605c	0.0024624085
115	0xbd0e95a3	-0.034810673
116	0xbd2885a9	-0.041143093
117	0xba9620cb	-0.0011453865
118	0xbdf7f0da	-0.12106486
119	0x3cc4b9cd	0.024014378
120	0xbd38f574	-0.045155957
121	0xbdfe7575	-0.12424747
122	0x3d733c8c	0.059383914
123	0x3cfd41a9	0.030915098
124	0xbd0c824a	-0.03430394
125	0x38c372b5	9.3196904e-05
126	0x3cbc6c84	0.023000963
127	0xbd9415fc	-0.07230756
128	0xbdb53b78	-0.088492334
129	0x3d039611	0.032125536
130	0xbda53efb	-0.08068653
131	0xbd6c1d60	-0.0576452
132	0x3c168030	0.009185836
133	0x3d959fdd	0.07305882
134	0x3e36d327	0.17853986
135	0xbd62b1f1	-0.05534548
136	0x3d550f9c	0.05201684
137	0xbc86e491	-0.01646641
138	0x3d503f33	0.05084152
139	0x3dd53e70	0.104123
140	0x3d903671	0.07041634
141	0xbdd91112	-0.10598959
142	0x3c82da01	0.015973093
143	0xbc339435	-0.010960628
144	0x3d2105f4	0.039312318
145	0x3d47326d	0.048632074
146	0xbd5237a2	-0.051322587
147	0xbd30cc40	-0.043163538
148	0xbd6ea3e8	-0.058261782
149	0xbd493134	-0.04911919
150	0xbd6ba495	-0.057530005
151	0xbb14f332	-0.0022727964
152	0x3cade1a0	0.02122575
153	0xbdc5265d	-0.09626458
154	0xbbd279db	-0.0064232177
155	0x3cc6c8e4	0.024265714
156	0xbc67f318	-0.014157079
157	0x3d6d9bf3	0.058010053
158	0xbd769fd6	-0.060211025
159	0x3d1468f7	0.036232915
160	0x3da5c691	0.08094514
161	0x3c6d79c1	0.01449436
162	0x3c8c8262	0.017152015
163	0xbd824e85	-0.06362633
164	0xbda395fe	-0.07987593
165	0x3dc985f9	0.098400064
166	0xbce435e9	-0.027857738
167	0xbd1c1c60	-0.038112998
168	0x3d209d90	0.039212763
169	0x3d46637d	0.048434723
170	0x3cdb7e75	0.026793698
171	0x3dbf7a6f	0.09349524
172	0xbe0bf1eb	-0.13666503
173	0x3d17edd9	0.037092064
174	0x3b901dbf	0.0043980773
175	0x3cfb2eef	0.030662028
176	0x3dd08d51	0.10183204
177	0xbb32ead2	-0.0027300608
178	0x3c81f064	0.015861697
179	0x3c59b09c	0.013286736
180	0x3d30d0e2	0.043167956
181	0xbd528b7a	-0.051402546
182	0x3d2b013a	0.041749217
183	0x3c537e1e	0.012908487
184	0x3d3fb041	0.04679895
185	0x3d6f90e2	0.05848778
186	0x3d72bcac	0.059261963
187	0xbc976974	-0.018482901
188	0xbc139c07	-0.009009368
189	0x3b69de89	0.003568562
190	0x3d8d1c55	0.068901695
191	0x3d250e7d	0.04029702
192	0xbd692e5e	-0.056928985
193	0xbd4af08e	-0.049545817
194	0x3caa16f6	0.020762902
195	0xbd5f7173	-0.054551553
196	0xbdc25742	-0.09489299
197	0x3d810c62	0.0630119
198	0x3d56561d	0.052328218
199	0xbd58a955	-0.052895863
200	0xbc1972b2	-0.009365724
201	0x3d590b23	0.052989136
202	0x3c2a57a6	0.010396874
203	0x3c5b98f9	0.013403171
204	0xbd07ad4c	-0.033124253
205	0x3ce3594d	0.027752543
206	0x3baf9686	0.00535852
207	0xbd1c1877	-0.03810927
208	0xbc16caba	-0.009203607
209	0xbdbd7229	-0.0925029
210	0x3d83a789	0.06428439
211	0xbd8b12dd	-0.06790707
212	0xbcf0d11c	-0.029396586
213	0xbd87b9bc	-0.06627223
214	0xbd12488d	-0.03571372
215	0xbbe6cd22	-0.0070434967
216	0x3a219b4c	0.00061648036
217	0x3c80c15c	0.015717201
218	0x3e61b364	0.22041088
219	0xbd914984	-0.070941
220	0xbd8e2826	-0.069412515
221	0xbd0c827f	-0.03430414
222	0xbdd63aba	-0.1046042
223	0x3ca045e3	0.019564575
224	0x3d8035a0	0.06260228
225	0x3aa9d2ae	0.0012956464
226	0x3d1dbfe3	0.038513076
227	0x3d675f03	0.056487095
228	0xbd1b1535	-0.03786202
229	0x3cf00583	0.029299503
230	0x3df82edf	0.12118315
231	0x3e00fb8d	0.12595959
232	0x3da2fd86	0.07958512
233	0x3cad06a5	0.021121332
234	0xbcc11bbe	-0.023572799
235	0xbcb02dc7	-0.021506203
236	0xbca40143	-0.020020133
237	0xbc2fcb32	-0.010729598
238	0xbc9024d0	-0.017595679
239	0xbd1afe14	-0.037839964
240	0xbd05162d	-0.03249185
241	0xbc7eff6a	-0.015563825
242	0xbd049537	-0.032368865
243	0x3da2018b	0.079104505
244	0xbc680bcd	-0.01416297
245	0x3d1cbedf	0.038267966
246	0xbd43bc3d	-0.04778694
247	0xbda8c6bd	-0.08241031
248	0xbc12e0f6	-0.008964768
249	0xbd45c91c	-0.048287496
250	0x3de7a4c6	0.11310725
251	0xbd8226ec	-0.0635508
252	0x3c1f2c9b	0.009715225
253	0xbcfc1c8a	-0.030775327
254	0xbd068636	-0.032842837
255	0xbd8573e4	-0.06516245
