Models/model29.pth (torch, 151887 bytes, 6 tensors)

oconv1.weight f4 [1, 1, 3, 3]
0	0x3ee24378	0.441921
1	0xbe1b48be	-0.15164468
2	0xbf027e30	-0.50973797
3	0x3e3d12ce	0.18464205
4	0x3e28964b	0.16463582
5	0xbe3f4aac	-0.18680829
6	0x3eb07286	0.34462374
7	0xbeeb6743	-0.4597722
8	0xbe544445	-0.20729168

conv1.weight f4 [63, 1, 3, 3]
0	0xbfc6efce	-1.5541933
1	0x3e973710	0.29534197
2	0x3e3ecc7c	0.18632692
3	0xbd167259	-0.036730144
4	0xbf665cc2	-0.8998529
5	0x3eab76dd	0.33489123
6	0xbe02cde5	-0.12773855
7	0x3e13ebaf	0.14445375
8	0xbe46838e	-0.19386122
9	0xbe2ad4cd	-0.1668274
10	0xbed3c6c0	-0.41362572
11	0xbdefa932	-0.11702193
12	0xbee04705	-0.43804184
13	0x3fa0d96e	1.2566354
14	0x3ea2fdd9	0.31834295
15	0x3e67fbf8	0.22654712
16	0xbf443151	-0.7663775
17	0x3e8d2ce5	0.27573314
18	0x3e660063	0.22461085
19	0xbf0d756f	-0.55257314
20	0x3f076759	0.5289207
21	0xbf3088eb	-0.6895892
22	0x3eedabb2	0.46420056
23	0x3ea0f211	0.31434682
24	0xbe983ced	-0.29733983
25	0x3f2e5ba9	0.6810861
26	0xbe014a0c	-0.12625903
27	0x3ea8abd1	0.32943586
28	0xbf16a1cf	-0.5884065
29	0x3ef6206b	0.48071608
30	0x3f89760d	1.0739151
31	0x3b50e555	0.0031874974
32	0x3f21f2db	0.63261193
33	0xbf13893f	-0.57631296
34	0x3e345f66	0.17614517
35	0x3f2e1ea8	0.6801553
36	0xbf752de6	-0.9577316
37	0xbe5e648b	-0.21718042
38	0x3f0ac8c5	0.542126
39	0x3e3a58d0	0.18197942
40	0x3de864f7	0.113473825
41	0xbd33ad4c	-0.04386644
42	0xbde8ce16	-0.11367433
43	0xbe520f9b	-0.20513766
44	0x3ea5374a	0.32268745
45	0xbe0d67e3	-0.13809161
46	0xbf1f3437	-0.6218905
47	0xbeb30f3d	-0.34972563
48	0xbf2dbc50	-0.6786547
49	0xbdab0a67	-0.083515935
50	0x3f125e74	0.57175374
51	0x3f8642ed	1.0489174
52	0x3c97912b	0.018501839
53	0xbeb94187	-0.36182806
54	0x3db145ea	0.08655913
55	0xbe8c317f	-0.27381513
56	0x3df734f3	0.12070646
57	0xbe69a3f6	-0.22816452
58	0x3ed4755d	0.4149579
59	0xbdb7cb31	-0.089743026
60	0xbf0f2f99	-0.55932003
61	0x3ea8b7bd	0.3295268
62	0x3c43dc2f	0.011954351
63	0x3ea6bf4b	0.3256782
64	0x3edd62c1	0.43239406
65	0xbd7a2741	-0.06107259
66	0x3dfa8813	0.12232985
67	0xbec52037	-0.3850114
68	0x3f48eea1	0.7848912
69	0xbf4a2562	-0.7896329
70	0x3ef520ce	0.4787659
71	0x3e3115ef	0.17293523
72	0x3f00224d	0.5005234
73	0x3ebc4590	0.36771822
74	0xbf96221b	-1.1729158
75	0xbc3e3003	-0.011608127
76	0xbf0255cb	-0.5091216
77	0x3f8fa4f0	1.122221
78	0x3e0fcf64	0.14043957
79	0x3e12408e	0.14282438
80	0x3cf524d1	0.029924782
81	0x3ec8f9a1	0.39252952
82	0x3d9dda2e	0.0770763
83	0xbf1d68e8	-0.614882
84	0xbecb97cf	-0.39764258
85	0xbb65e094	-0.0035076486
86	0x3e8d3fcb	0.27587733
87	0xbeea33f0	-0.4574275
88	0xbca18a76	-0.019719344
89	0xbe16553f	-0.14680956
90	0x3f1cc394	0.6123593
91	0xbe1806fe	-0.14846417
92	0xbf39289d	-0.72327596
93	0xbee95071	-0.45569184
94	0xbf060f8b	-0.52367467
95	0xbe844eca	-0.2584136
96	0x3f499844	0.78747964
97	0xbe908ff5	-0.2823483
98	0xbee7fbd9	-0.45309332
99	0xbe3cce1d	-0.18438001
100	0xbd1b1c5d	-0.037868846
101	0x3e3ebb2c	0.18626088
102	0x3f36b8db	0.7137582
103	0x3de3d325	0.11124257
104	0xbf5b3af2	-0.8563682
105	0x3f071929	0.52772766
106	0x3f0330fb	0.51246613
107	0x3f0c043c	0.5469396
108	0x3f51b965	0.81923515
109	0x3ea5636c	0.32302415
110	0xbf05b5a5	-0.5223029
111	0xbee3af29	-0.44469574
112	0x3e474702	0.19460681
113	0x3f50f599	0.8162475
114	0x3f027495	0.5095914
115	0x3d9ee86b	0.07759174
116	0x3fba77cc	1.4567809
117	0x3f3b9888	0.7327962
118	0xbdbfba9b	-0.09361764
119	0xbe850774	-0.2598225
120	0xbf47653e	-0.7788886
121	0xbdb75c51	-0.08953155
122	0x3dbc3ffa	0.0919189
123	0x3f038600	0.5137634
124	0x3de8289a	0.11335869
125	0x3e848187	0.25880072
126	0x3e3cbf16	0.18432269
127	0xbce9acce	-0.028524783
128	0xbf0df301	-0.5544892
129	0x3d224f0d	0.03962617
130	0x3b55a453	0.0032599166
131	0xbdc03264	-0.09384611
132	0x3e378edb	0.17925589
133	0xbefe9664	-0.49724114
134	0x3ed359c9	0.41279438
135	0xbc9c5601	-0.019083979
136	0x3e5c6cdf	0.21525906
137	0xbeee3db3	-0.46531448
138	0x3eeb09a1	0.45905784
139	0x3ec36221	0.38160804
140	0xbe6ff4fe	-0.23433301
141	0xbf1ce9b8	-0.61294127
142	0xbf3729c6	-0.71548116
143	0xbf0ee104	-0.55812097
144	0x3ec1044a	0.37698585
145	0x3e384f97	0.17999111
146	0x3f2c6b1d	0.6735094
147	0x3f15e4c7	0.5855221
148	0xbf399ec9	-0.7250791
149	0x3ee7ab77	0.45248005
150	0x3d822618	0.06354922
151	0x3ebd2f97	0.3695037
152	0xbdc21e6e	-0.0947846
153	0xbdb6af39	-0.0892014
154	0xbe950638	-0.29106307
155	0xbf38ca52	-0.72183716
156	0x3dde0600	0.10840988
157	0xbf461613	-0.7737743
158	0xbf7ccdfd	-0.98751813
159	0x3f0e0083	0.5546953
160	0x3f5aa0f7	0.8540186
161	0xbf4f6c40	-0.8102455
162	0x3e1b5ef6	0.15172943
163	0x3f7bf31e	0.9841784
164	0xbf8ceb4e	-1.1009309
165	0x3f309ed4	0.6899235
166	0xbe368f2a	-0.1782805
167	0x3e4ce509	0.20009245
168	0xbe85d770	-0.26140928
169	0xbdd545de	-0.10413717
170	0xbe9ca38f	-0.30593535
171	0xbd8feb23	-0.07027271
172	0x3df4f3e3	0.1196058
173	0x3f08d3c1	0.5344811
174	0xbf3893b7	-0.72100395
175	0x3e5b3644	0.2140742
176	0x3eb5a98e	0.35480922
177	0x3dd005df	0.1015737
178	0x3ed05c50	0.4069543
179	0x3f19cd9b	0.60079354
180	0x3ee7e05f	0.4528837
181	0x3e91f07f	0.28503796
182	0xbe9ca883	-0.30597314
183	0x3de5c16c	0.11218533
184	0x3f71dfd5	0.94482166
185	0x3e185cd3	0.1487916
186	0x3ecde7d2	0.40215927
187	0xbe78fd92	-0.2431548
188	0xbe30eb5c	-0.17277282
189	0xbe56a5e6	-0.20961723
190	0xbea23a8a	-0.31685287
191	0xbeb235c0	-0.34806633
192	0x3e89bf6d	0.2690386
193	0x3f18fafc	0.5975797
194	0x3c204ae1	0.0097834775
195	0xbcdc08c1	-0.026859643
196	0xbe2ce882	-0.1688557
197	0xbd64f866	-0.055900954
198	0xbf029274	-0.5100472
199	0xbe4183ba	-0.18897906
200	0xbf07019f	-0.5273685
201	0x3ef238eb	0.4730905
202	0x3df9904b	0.12185725
203	0x3e845e19	0.2585304
204	0x3f08dae4	0.53459
205	0xbe1f707c	-0.15570253
206	0xbe81d283	-0.2535592
207	0xbe2b6864	-0.1673904
208	0xbf560ce4	-0.8361342
209	0x3f6aa073	0.91651076
210	0x3de0c096	0.10974233
211	0x3e8e1a39	0.2775438
212	0xbc8074ac	-0.015680633
213	0xbedab957	-0.42719528
214	0x3eb282d3	0.34865436
215	0x3efdaa67	0.4954407
216	0xbe2f740d	-0.17134114
217	0x3ee4843f	0.44632146
218	0x3e2f86b0	0.17141223
219	0x3d3b81cc	0.04577808
220	0x3ec3f67b	0.38273987
221	0xbc8e0c99	-0.017339991
222	0xbfa0e760	-1.257061
223	0xbed1e65b	-0.4099606
224	0x3eb20027	0.3476574
225	0x3e02469c	0.12722248
226	0x3e334e41	0.1751032
227	0xbec7b378	-0.3900411
228	0x3ea3acc7	0.31967756
229	0x3ece6154	0.4030863
230	0xbe493b4a	-0.19651523
231	0x3e106322	0.14100316
232	0x3f10eb90	0.5660944
233	0x3defd129	0.11709816
234	0xbf4a3629	-0.7898889
235	0xbea9a34f	-0.33132407
236	0xbebde4d2	-0.3708864
237	0xbf30ac4e	-0.69012916
238	0xbe776dc9	-0.24162973
239	0xbec6ef37	-0.3885438
240	0x3e7d6d07	0.24748622
241	0x3d98a353	0.074530266
242	0xbf608588	-0.8770375
243	0x3e4a8222	0.19776204
244	0x3f01c03e	0.50683963
245	0x3f2e4329	0.6807123
246	0x3e66f6e1	0.22555114
247	0xbdf4eab2	-0.11958827
248	0xbf082719	-0.5318466
249	0xbeb390cc	-0.3507141
250	0x3cd47005	0.025932321
251	0x3e624d37	0.22099768
252	0x3e09d75c	0.1346106
253	0xbe11ad16	-0.14226183
254	0xbf30a6f5	-0.69004756
255	0xbf607336	-0.876758

conv1.bias f4 [63]
0	0x3b3ca4ce	0.0028784755
1	0x3a0b6cb2	0.0005318626
2	0x3b5062d3	0.0031797185
3	0x3b67758d	0.0035317868
4	0x3b914829	0.004433651
5	0x3b95d1ea	0.004572143
6	0x3ad17318	0.0015979735
7	0x3b413ff0	0.0029487573
8	0xbbf4791e	-0.0074607274
9	0x3b59ba6e	0.0033222693
10	0x3b280f07	0.0025643723
11	0x3a8c702d	0.0010714583
12	0xbbb41a10	-0.005496271
13	0x3ba71fe8	0.005100239
14	0xbb409167	-0.0029383542
15	0xbb883e31	-0.0041578044
16	0xbb96a7e7	-0.0045976522
17	0xbb835074	-0.0040073935
18	0xbb8b8f80	-0.00425905
19	0xbb7f66b7	-0.0038971135
20	0xbb9ac7f7	-0.0047235447
21	0xbb64753b	-0.0034859914
22	0xbb8c0c9b	-0.0042739636
23	0x3b6a8014	0.0035781907
24	0x3b0f85b8	0.002189977
25	0xbb82ac50	-0.0039878264
26	0xbb377dcb	-0.0027998562
27	0xbb8f69e6	-0.0043766377
28	0xbb05c3d6	-0.0020410917
29	0xbbb9eca4	-0.0056739617
30	0xbba9622e	-0.0051691746
31	0xbb5e7d28	-0.003394911
32	0x3b121e19	0.0022295772
33	0xbb9c0ab3	-0.0047620176
34	0x3a12b1b4	0.0005595938
35	0xb882ef33	-6.2434374e-05
36	0x3b3ca145	0.0028782648
37	0xbb8fad97	-0.004384707
38	0xbb80d1f5	-0.003931279
39	0xbb0855c4	-0.0020803073
40	0xbb85819a	-0.0040742876
41	0xb9a19e3a	-0.000308262
42	0xbb41ed9c	-0.002959109
43	0xbb8a291b	-0.004216326
44	0xbbbba307	-0.0057262215
45	0xbb9bcea2	-0.004754857
46	0xbaf4182c	-0.0018622926
47	0xbb925e2e	-0.0044667935
48	0x3a9e601b	0.0012083085
49	0xbb9137e6	-0.0044317124
50	0xbb7cbc3a	-0.003856434
51	0x3b6edb3a	0.0036446587
52	0xbbad2504	-0.0052839536
53	0xbaa25ef6	-0.001238792
54	0x3ba260d9	0.004955393
55	0x3b576fef	0.0032873114
56	0xbb5fd7f7	-0.0034155825
57	0x3b5117f8	0.0031905156
58	0x3b07724b	0.002066749
59	0xbb8bd365	-0.0042671436
60	0xbb72b9d4	-0.0037037032
61	0xbbb24291	-0.0054400642
62	0xbbb14784	-0.0054101367

vgg.0.weight f4 [63, 63, 3, 3]
0	0x3cc46061	0.023971738
1	0xbd3e8dc1	-0.046521906
2	0xbda52ad0	-0.080648065
3	0x3bee1048	0.0072651245
4	0xbd311956	-0.043237053
5	0xbcc5067b	-0.024050942
6	0x3d2da92e	0.04239767
7	0xbcb56708	-0.022143856
8	0x3c46acc7	0.012126154
9	0x3db121f1	0.08649052
10	0x3d53794a	0.051629342
11	0x3dbb5e81	0.091488846
12	0x3d222c70	0.03959316
13	0xbda322d1	-0.07965625
14	0xbbdb18d0	-0.0066863075
15	0xbb8128ce	-0.003941632
16	0xbd86e754	-0.06587091
17	0xbdb2e0bd	-0.08734272
18	0x3cca591d	0.024700696
19	0xbd422399	-0.04739723
20	0x3ce087ed	0.027408564
21	0xbb97a96f	-0.0046283524
22	0x3c0c178f	0.008550539
23	0x3d9577c5	0.07298235
24	0x3d22fcd4	0.039791897
25	0x3bd35e8b	0.0064504794
26	0x3a3e39ff	0.0007256567
27	0x3d9dfc21	0.077141054
28	0x3d928fc0	0.071563244
29	0x3d4b60ec	0.04965298
30	0x3c93d038	0.018043622
31	0xbca92586	-0.020647775
32	0xbd148ce9	-0.036267195
33	0xbc8c4306	-0.017121803
34	0xbde43587	-0.11143022
35	0x3c87a35d	0.01655739
36	0xbb27efec	-0.0025625182
37	0x3c3ecf8a	0.011646161
38	0xbd087226	-0.033311985
39	0xbd8f9372	-0.07010545
40	0xbd3f2cd1	-0.0466736
41	0xbd86a138	-0.06573719
42	0xbdd36d3c	-0.10323569
43	0xbc346be6	-0.011012053
44	0x3ceccd4f	0.028906493
45	0xbcd751a3	-0.026284045
46	0xbc60a5fd	-0.01371145
47	0x3dc81be7	0.09770947
48	0x3dc6f963	0.097155355
49	0x3d984930	0.074358344
50	0xbcee2238	-0.029069051
51	0xbc34a083	-0.011024597
52	0xba42e107	-0.00074340444
53	0x3d8cbe8f	0.06872284
54	0x3d9fc6f8	0.07801622
55	0x3db86877	0.090043
56	0x3deadd57	0.114679985
57	0xbdcd8648	-0.10035378
58	0xbb74dd47	-0.0037363337
59	0x3c644ef3	0.013934839
60	0xbd9c39ca	-0.0762821
61	0xbceabaff	-0.02865362
62	0xbcaed7e8	-0.021343186
63	0xbd75ce99	-0.06001148
64	0x3df8734b	0.121313654
65	0x3c2d2161	0.01056704
66	0x3ce5ec60	0.028066814
67	0x3d04ee2d	0.032453705
68	0x3d1524d2	0.036412068
69	0xbda91ded	-0.08257661
70	0x3d84cea2	0.064847246
71	0xbba73b34	-0.005103493
72	0xbcfdea2e	-0.030995455
73	0xbccabb42	-0.024747495
74	0x3c2177ef	0.009855255
75	0xbd6f84a2	-0.058476098
76	0x3de183e2	0.11011483
77	0x3d10a375	0.035312135
78	0x3c80bcc3	0.015715009
79	0x3c425624	0.011861358
80	0xbd62f1b3	-0.055406284
81	0x3d545a21	0.051843766
82	0x3d62fd63	0.05541743
83	0xbd8d3234	-0.06894341
84	0x3cfc3abc	0.030789725
85	0x3c851a8b	0.016248008
86	0x3cf36728	0.029712275
87	0xbc16d735	-0.009206583
88	0xbc3b5d8a	-0.011435876
89	0xbca93fab	-0.020660242
90	0xbcbf36f4	-0.023341633
91	0x3be18dae	0.0068833446
92	0x3c0fd4e3	0.0087787835
93	0x3d5be5be	0.053685896
94	0x3dceeb8a	0.10103519
95	0xbd3a0a27	-0.04541984
96	0x3cdfff52	0.027343426
97	0x3db61b93	0.08891978
98	0xbd1f5765	-0.038901705
99	0xbd36a4f0	-0.04459089
100	0xbc9ac697	-0.018893523
101	0x3cb3a48f	0.021929054
102	0xbcfdd1d5	-0.030983845
103	0xbd89f2f6	-0.06735794
104	0xbe282ad4	-0.16422588
105	0xbcd6c841	-0.026218535
106	0xbc45b01a	-0.012065912
107	0xbcd097a4	-0.025462933
108	0xbbd599aa	-0.0065185623
109	0x3d0a7f3f	0.033812758
110	0xbde433c6	-0.111426875
111	0x3d14f2a9	0.03636423
112	0x3bbea5c1	0.0058180992
113	0x3d6dfca8	0.05810228
114	0xbc6394ee	-0.013890488
115	0xbd237552	-0.039906807
116	0xbcd7dcf2	-0.026350472
117	0x3cd7fe5d	0.026366407
118	0x3cbb5ee9	0.022872405
119	0xbad17400	-0.0015980005
120	0x3cd5e43a	0.026109803
121	0xbc12f86b	-0.00897036
122	0xbd3f1a42	-0.0466559
123	0xbdc5c41a	-0.09656544
124	0x3e0258f8	0.12729251
125	0xbce079a7	-0.027401758
126	0xbbd665f0	-0.0065429136
127	0xbd3fd2db	-0.046831947
128	0xbd859ec1	-0.065244205
129	0xbd469195	-0.04847868
130	0xbd8ace38	-0.06777614
131	0xbdac8bb5	-0.084250845
132	0xbd07dafd	-0.033167828
133	0x3deda378	0.11603445
134	0x3cdd54e8	0.027018026
135	0xbc2faf8f	-0.010723009
136	0xbdd7e020	-0.10540795
137	0xbc1df1e9	-0.009640195
138	0xbc7c6dec	-0.015407067
139	0x3dbe260f	0.09284603
140	0xbc3b1952	-0.011419611
141	0x3d73c1de	0.059511058
142	0x3c9baf0b	0.019004365
143	0x3e03c1ad	0.1286685
144	0x3c7a3a2d	0.015272659
145	0x3d71f2e9	0.059069548
146	0xbe25069a	-0.161158
147	0xbc5ce160	-0.013481468
148	0xbc172500	-0.00922513
149	0x3d165192	0.036698885
150	0xbd015ea5	-0.0315844
151	0xbd02a476	-0.031895123
152	0x3cf1f114	0.0295339
153	0xbce6804c	-0.028137349
154	0x3d8e636e	0.069525585
155	0xbd7455f2	-0.059652276
156	0xbcccfdf5	-0.02502344
157	0x3d0476f1	0.032339994
158	0x3d06b795	0.03288992
159	0x3cc46f58	0.023978874
160	0xbd7fbad9	-0.06243405
161	0x3b3a5c11	0.0028436224
162	0x3d76da19	0.060266588
163	0x3d1135c1	0.035451654
164	0xbd861438	-0.06546825
165	0xbce5bf74	-0.028045394
166	0xbdeb38c2	-0.11485435
167	0xbc60a956	-0.013712248
168	0x3c4db0f1	0.012554393
169	0x3c81cb06	0.01584388
170	0xbd4b43fc	-0.04962538
171	0x3d12f6a7	0.035879757
172	0xbc9b80ec	-0.018982373
173	0x3d129e32	0.035795398
174	0x3ca296e7	0.019847346
175	0x3d905c26	0.07048826
176	0xbd57be3e	-0.052671663
177	0x3d35b2b7	0.04435989
178	0x3c8937ca	0.016750235
179	0x3d637c74	0.05553861
180	0x3c64b27f	0.013958572
181	0xbd75f2cc	-0.060046002
182	0xbd7f0ed0	-0.062269986
183	0xbc68b047	-0.014202184
184	0xbcaccea2	-0.021094624
185	0xbbdabe2c	-0.0066755023
186	0x3c584843	0.013200822
187	0xbd114682	-0.035467632
188	0xbc4a99cb	-0.012365769
189	0xbbf86b71	-0.0075811674
190	0xbb55de15	-0.0032633592
191	0x3d1efc84	0.038815036
192	0xbd84f67b	-0.06492325
193	0x3ceeab60	0.029134452
194	0x3dde71f5	0.10861579
195	0xbc6cd4f7	-0.014455072
196	0x3d1f7e72	0.038938947
197	0x3c1ffa77	0.009764305
198	0xbc34e431	-0.011040733
199	0xbc888078	-0.016662821
200	0xbdb17318	-0.086645305
201	0x3c776975	0.0151008265
202	0xbd2e6685	-0.04257824
203	0xbd458546	-0.048222803
204	0xbb2bf9b2	-0.002624136
205	0xbd8a834a	-0.06763323
206	0x3da18273	0.07886209
207	0xbc9d4d3e	-0.019201871
208	0x3d88e921	0.06685091
209	0x3d75a6ab	0.0599734
210	0xbe06e1f3	-0.1317213
211	0x3c3ef339	0.0116546685
212	0x3c51587c	0.012777444
213	0xbdf5f2ad	-0.12009177
214	0xbd5c9f48	-0.05386284
215	0x3de504d8	0.111825645
216	0xbc9de427	-0.01927383
217	0x3be36f19	0.006940734
218	0x3d2e8b96	0.04261359
219	0x3d46ebd5	0.04856475
220	0xbcdacab4	-0.026707985
221	0xbd7173fe	-0.05894851
222	0xbd1a8c99	-0.03773174
223	0xbc35ec1f	-0.011103659
224	0x3c4ceb40	0.01250726
225	0xbd4cdd81	-0.05001593
226	0x3be04879	0.006844577
227	0x3d0959d9	0.03353295
228	0x3d103683	0.035208236
229	0xbd8eda61	-0.06975246
230	0xbd1d50ee	-0.03840726
231	0xbc13f760	-0.009031147
232	0xbd645020	-0.055740476
233	0x3d9155ab	0.07096418
234	0xbdafbc92	-0.08580889
235	0x3cf80aee	0.03027865
236	0xbda6e931	-0.081499465
237	0x3d0dda53	0.03463204
238	0x3d96b75c	0.07359192
239	0xbcdef78c	-0.027217649
240	0x3dfbc243	0.12292912
241	0xbc82b278	-0.015954241
242	0xba8364c9	-0.0010024543
243	0x3cc2bbc4	0.023771174
244	0xbd9f69df	-0.07783865
245	0xbc358eec	-0.0110814385
246	0x3cb403b6	0.021974426
247	0x3c770b55	0.015078385
248	0x3d7fbdae	0.062436752
249	0x3da3c92b	0.07997354
250	0xbb142452	-0.0022604656
251	0xbd350538	-0.04419443
252	0x3ba1ebdc	0.0049414467
253	0xbd3806cc	-0.044928357
254	0xbd8237e4	-0.063583165
255	0x3e1d88fa	0.15384284

vgg.0.bias f4 [63]
0	0xbb699e8a	-0.0035647475
1	0x3b634bfc	0.0034682741
2	0xb99159be	-0.00027723418
3	0xbafa57d6	-0.0019099663
4	0xbb9c1399	-0.0047630784
5	0xbb08512c	-0.0020800335
6	0xb89a74d5	-7.365054e-05
7	0xbab4f3e6	-0.0013805598
8	0xbb375789	-0.002797576
9	0xbac14c77	-0.001474752
10	0xbb14fd86	-0.002273412
11	0xbb806cee	-0.0039192354
12	0xbb665c8e	-0.0035150382
13	0xbba2ad5d	-0.004964514
14	0xbb95cb21	-0.004571334
15	0xb9957cdb	-0.0002851252
16	0x39cd1f4d	0.00039123968
17	0xbb8c3b86	-0.0042795567
18	0xbab1b289	-0.0013557236
19	0xbb940a8e	-0.00451786
20	0xbb13aecd	-0.002253461
21	0xbb861537	-0.0040918845
22	0x393f3458	0.00018234679
23	0xbb1510dc	-0.0022745645
24	0xbbbd8fc3	-0.00578496
25	0xbb80550b	-0.003916388
26	0xbb9101a9	-0.0044252467
27	0xbb195dc8	-0.0023401845
28	0xbb9785c9	-0.0046241027
29	0xbb0f43c6	-0.0021860464
30	0xbb7cd5a5	-0.003857949
31	0xbb64023f	-0.0034791378
32	0xbb3b2900	-0.0028558373
33	0x39888c2e	0.00026044383
34	0xbb6176e9	-0.0034403151
35	0xba08bcbd	-0.00052161125
36	0xbb895404	-0.0041909236
37	0x3b2947ec	0.0025830222
38	0x3b57e094	0.0032940255
39	0x3c076485	0.008263712
40	0xbb7c59e2	-0.0038505723
41	0x3b101f0d	0.0021991164
42	0xbb104226	-0.0022012084
43	0xbb367e0c	-0.0027846126
44	0xbbbbddcb	-0.005733227
45	0x3b8d434e	0.004311002
46	0xbacd3dc2	-0.0015658664
47	0xbb8aef87	-0.0042399797
48	0xb9ccaf61	-0.0003904058
49	0xbb89a717	-0.004200827
50	0xbaa9935d	-0.0012937594
51	0x3b09fef3	0.0021056503
52	0xba8f5460	-0.001093518
53	0xbb17f002	-0.0023183827
54	0xba00eca7	-0.00049180764
55	0xbb81bdf1	-0.0039594104
56	0x389d8f89	7.513079e-05
57	0x3a3b1387	0.00071363937
58	0x3a267fc1	0.0006351434
59	0xbb92d57e	-0.0044810167
60	0x3a00150e	0.000488595
61	0xbb95c602	-0.0045707235
62	0x3b0aa281	0.0021153989

oconv2.weight f4 [1, 63, 3, 3]
0	0x3c95a0dc	0.01826518
1	0x3d89674f	0.06709158
2	0x3bfac236	0.0076525463
3	0xbe111188	-0.14166844
4	0xbd3557bf	-0.044273134
5	0xbd9136a7	-0.07090502
6	0xbd35489a	-0.04425869
7	0xbd034104	-0.032044426
8	0xbced2ff1	-0.028953524
9	0x3d1b64fa	0.037938096
10	0x3d390b14	0.04517658
11	0x3d8b941c	0.06815359
12	0xbd6fdb84	-0.058558956
13	0x3bcd0c5e	0.006257578
14	0xbc469d14	-0.012122411
15	0xbc35f983	-0.0111068515
16	0x3d6540f2	0.05597014
17	0xbca5b129	-0.020226078
18	0x3cc495cd	0.023997212
19	0x3df4f786	0.11961274
20	0xbb99bf70	-0.0046920106
21	0x3ce11871	0.027477475
22	0x3daad3e3	0.083411954
23	0xbd0c3ea1	-0.034239415
24	0xbd0066fe	-0.03134822
25	0x3dd17824	0.10227993
26	0xbc94cd0a	-0.018164176
27	0xbd9a6d40	-0.07540369
28	0x3dad4566	0.08460502
29	0xbbfab353	-0.0076507716
30	0xbd627bac	-0.055293724
31	0xbd59d178	-0.05317828
32	0x3d9ef4a9	0.07761509
33	0x3c31aa9f	0.010843902
34	0x3dec3277	0.11533063
35	0xbd4becf7	-0.049786534
36	0x3da4d9d0	0.08049357
37	0x3cbb877d	0.022891754
38	0xbd4039ad	-0.046930004
39	0xbbe4ce66	-0.0069826124
40	0xbb59b987	-0.0033222155
41	0xbcc98bda	-0.02460282
42	0xbda64026	-0.08117704
43	0x3d06c87d	0.032906044
44	0x3d902cd9	0.07039804
45	0x3d53b6ec	0.05168812
46	0x3d7edbcb	0.06222133
47	0xbdc7e321	-0.09760118
48	0x3d3cb41a	0.046070196
49	0x3d4398c7	0.04775312
50	0x3d5e7254	0.05430825
51	0x3d97c47d	0.07410524
52	0xbba4602b	-0.005016347
53	0x3d6134bb	0.05498193
54	0xbd74284e	-0.05960875
55	0x3d68e1c6	0.05685594
56	0x3cc5c977	0.024143917
57	0x3df93e28	0.121700585
58	0x3d3f75d6	0.046743236
59	0x3e1927ab	0.14956538
60	0x3dded07f	0.10879611
61	0x3d08bf55	0.033385593
62	0x3c97f12d	0.018547619
63	0xbc8cc74e	-0.01718488
64	0x3d1bd622	0.03804601
65	0x3cdce25f	0.02696341
66	0x3d65d4c3	0.05611111
67	0xbc595a3b	-0.0132661415
68	0x3d97f142	0.07419063
69	0xbcdd8032	-0.027038667
70	0x3ce46232	0.027878854
71	0xbd0823f0	-0.033237398
72	0x3cf0cefb	0.029395571
73	0x3d71d33a	0.059039332
74	0x3d4c9f1c	0.049956426
75	0x3cf229ae	0.02956089
76	0xbb14e0e0	-0.0022717044
77	0xbd6bad08	-0.057538062
78	0xbdf2c1dd	-0.11853383
79	0x3e05765b	0.1303343
80	0x3dc81e49	0.097714014
81	0x3bdb70a3	0.006696777
82	0xbd6fedc4	-0.05857636
83	0x3d707adf	0.05871093
84	0x3dcfabe4	0.101402074
85	0x3c33fe37	0.0109859025
86	0xbd3ac3f1	-0.04559702
87	0xbc875fdd	-0.016525203
88	0x3c31f141	0.010860742
89	0x3d104c56	0.03522905
90	0x3e2a9b59	0.16660823
91	0x3db7dc11	0.08977521
92	0x3de3f0f9	0.11129946
93	0xbc2970ef	-0.010341867
94	0xbd9c7c12	-0.07640852
95	0x3dce7f09	0.10082824
96	0x3d292a67	0.041300204
97	0xbd70a67c	-0.058752522
98	0xbddb70b3	-0.10714855
99	0xbc554eb7	-0.013019255
100	0xbc746842	-0.014917435
101	0x3d88f903	0.0668812
102	0xbd6899f1	-0.056787435
103	0xbd7e2f01	-0.062056545
104	0xbd1de5e3	-0.038549315
105	0xbd2a8101	-0.041626934
106	0xbda1b50e	-0.078958616
107	0x3d897f88	0.06713778
108	0x3d95471a	0.07288952
109	0x3dc33eb6	0.095334455
110	0x3d88ac82	0.06673528
111	0xbd511c45	-0.05105235
112	0xbcbb65e8	-0.022875741
113	0x3d865e15	0.065609135
114	0x3b009cda	0.001962474
115	0xbd0fdb63	-0.035121333
116	0xbd26cac7	-0.040720727
117	0xba238f8c	-0.00062393467
118	0xbdf82a49	-0.1211744
119	0x3cc99577	0.024607403
120	0xbd3af1cc	-0.04564075
121	0xbdff3330	-0.12460935
122	0x3d71d93b	0.059045058
123	0x3d016b63	0.031596553
124	0xbd0d8241	-0.034548048
125	0x3a2b6724	0.00065385015
126	0x3cbd8a19	0.02313714
127	0xbd94cceb	-0.072656475
128	0xbdb4d163	-0.08829
129	0x3d058ca7	0.03260484
130	0xbda64de9	-0.08120329
131	0xbd6a6db1	-0.057233516
132	0x3c0e54f1	0.008687244
133	0x3d969309	0.073522635
134	0x3e377dfe	0.17919156
135	0xbd6496bb	-0.05580781
136	0x3d571c18	0.052517027
137	0xbc8ad548	-0.016947404
138	0x3d4fbaf8	0.050715417
139	0x3dd68018	0.10473651
140	0x3d91548d	0.07096205
141	0xbdda342b	-0.106544815
142	0x3c7e06c6	0.015504545
143	0xbc3caa04	-0.011515144
144	0x3d1eb2fa	0.038744904
145	0x3d498c53	0.04920609
146	0xbd5192ba	-0.05116532
147	0xbd3330ea	-0.04374782
148	0xbd70349a	-0.058643915
149	0xbd4774d6	-0.048695408
150	0xbd6d7ba8	-0.057979256
151	0xbb2fdb88	-0.0026833732
152	0x3cb1397f	0.021633862
153	0xbdc64665	-0.096813954
154	0xbbc4af9e	-0.0060023805
155	0x3ccb9e11	0.024855645
156	0xbc643f74	-0.013931144
157	0x3d6cec51	0.057842556
158	0xbd791f83	-0.060821068
159	0x3d16495a	0.036691047
160	0x3da6b72a	0.081404045
161	0x3c649220	0.013950855
162	0x3c8a4a6f	0.016881196
163	0xbd81a886	-0.063309714
164	0xbda41274	-0.08011332
165	0x3dca9bf3	0.09893026
166	0xbce71bd3	-0.02821151
167	0xbd1b3cef	-0.037899908
168	0x3d1ee5a8	0.038793236
169	0x3d4887bc	0.04895757
170	0x3ce0515b	0.027382543
171	0x3dc0a8ef	0.094072215
172	0xbe0c92b3	-0.13727836
173	0x3d189521	0.037251595
174	0x3b84792d	0.0040427656
175	0x3cfd2e34	0.03090582
176	0x3dd1b1b4	0.10238972
177	0xbb4b72a9	-0.0031043685
178	0x3c838f9a	0.016059685
179	0x3c5d47e9	0.013505914
180	0x3d33135c	0.043719634
181	0xbd54a693	-0.05191667
182	0x3d29e4a3	0.04147781
183	0x3c5c27a3	0.0134371845
184	0x3d41fe14	0.04736145
185	0x3d6d8e77	0.057997193
186	0x3d750a41	0.059824232
187	0xbc9b94b3	-0.018991804
188	0xbc191a0b	-0.009344588
189	0x3b830d2f	0.0039993743
190	0x3d8dc917	0.069231205
191	0x3d26e892	0.04074914
192	0xbd6b68b3	-0.057472896
193	0xbd48d824	-0.049034253
194	0x3ca80da1	0.020514311
195	0xbd5df686	-0.05419018
196	0xbdc33851	-0.09532226
197	0x3d7fd15c	0.06245552
198	0x3d58700c	0.05284123
199	0xbd586fd1	-0.05284101
200	0xbc165e27	-0.009177721
201	0x3d595a3c	0.05306457
202	0x3c2d1726	0.010564601
203	0x3c6480af	0.013946696
204	0xbd075045	-0.033035535
205	0x3ce52f36	0.027976613
206	0x3bc17a5e	0.00590448
207	0xbd1e0de5	-0.03858747
208	0xbc0d77ef	-0.008634551
209	0xbdbf09ae	-0.09328018
210	0x3d830deb	0.06399139
211	0xbd8c7c3e	-0.06859635
212	0xbcecebfd	-0.028921122
213	0xbd896234	-0.06708184
214	0xbd12535f	-0.03572404
215	0xbbd3bdb2	-0.0064618224
216	0x3a874078	0.0010318896
217	0x3c7a133d	0.015263376
218	0x3e624bf0	0.2209928
219	0xbd9221d5	-0.07135359
220	0xbd8f31b0	-0.06991899
221	0xbd09caea	-0.03364078
222	0xbdd751c9	-0.10513646
223	0x3ca50f26	0.020148825
224	0x3d7d927e	0.061907284
225	0x3af92b4a	0.0019010094
226	0x3d1fa2f3	0.03897376
227	0x3d65f30e	0.05614
228	0xbd1c5ddb	-0.038175445
229	0x3cefa9b5	0.029255727
230	0x3df90cb9	0.1216063
231	0x3e017d90	0.12645555
232	0x3da24b32	0.079244986
233	0x3ca751d3	0.020424759
234	0xbcc54f6f	-0.024085728
235	0xbcb415be	-0.021983024
236	0xbca530f8	-0.020164952
237	0xbc36c41a	-0.011155153
238	0xbc932f0f	-0.017966775
239	0xbd1d1e0e	-0.03835874
240	0xbd072b04	-0.033000007
241	0xbc8334ef	-0.016016452
242	0xbd06eb01	-0.03293896
243	0x3da3413f	0.07971429
244	0xbc604778	-0.0136889145
245	0x3d1acb47	0.037791517
246	0xbd457734	-0.048209384
247	0xbda9fbde	-0.08299993
248	0xbc143133	-0.009044933
249	0xbd436dea	-0.047712244
250	0x3de8da84	0.113698035
251	0xbd836e40	-0.06417513
252	0x3c258807	0.010103232
253	0xbcffc497	-0.031221671
254	0xbd060af4	-0.03272529
255	0xbd86973b	-0.06571814
