Models/model26.pth (torch, 151759 bytes, 6 tensors)

oconv1.weight f4 [1, 1, 3, 3]
0.44205797 -0.15177956 -0.5098901 0.18452442 0.16477713 -0.18694104 0.3447605 -0.45991886
-0.2074529
00000000: 6c55 e23e 1a6c 1bbe 2888 02bf f8f3 3c3e
00000010: 56bb 283e 796d 3fbe 7384 b03e 7c7a ebbe
00000020: 886e 54be

conv1.weight f4 [63, 1, 3, 3]
-1.5543953 0.29520923 0.18645908 -0.03689214 -0.8999913 0.334765 -0.12787616 0.14462206
-0.19377063 -0.1669948 -0.41379857 -0.11720997 -0.43822047 1.2565069 0.31818733 0.22639793
-0.76618904 0.27591425 0.22475219 -0.5527098 0.5287656 -0.68975544 0.46430364 0.3143709
-0.29729047 0.68098503 -0.12645775 0.32930446 -0.58857244 0.48083028 1.0740613 0.003036577
0.6324386 -0.5764659 0.17599659 0.68026686 -0.9575701 -0.2170001 0.5420839 0.18214019
0.11366694 -0.043680713 -0.113489725 -0.20494898 0.32283944 -0.1379453 -0.62179524 -0.34960356
-0.6785108 -0.08333855 0.571918 1.049107 0.018663114 -0.36196625 0.0866848 -0.27398807
0.120866865 -0.22803745 0.4148057 -0.08963775 -0.5591927 0.32961747 0.01176219 0.32560784
0.43234375 -0.061208237 0.122192465 -0.3851371 0.7850373 -0.78981084 0.47858778 0.17307764
0.50067174 0.36788633 -1.1730813 -0.011429861 -0.50914514 1.1223857 0.14060317 0.1429822
0.03004374 0.39268985 0.07721259 -0.61496466 -0.39782187 -0.0034050145 0.27602264 -0.45730612
-0.019604646 -0.14667915 0.6125181 -0.14864264 -0.72331554 -0.4555413 -0.52352697 -0.25845551
0.787634 -0.28247508 -0.4532554 -0.1842547 -0.037909333 0.18611123 0.7136691 0.11139831
-0.85632 0.5279615 0.5126367 0.5470878 0.8194005 0.32291746 -0.52241796 -0.44458568
0.19462854 0.8161662 0.50975454 0.077728376 1.4569491 0.73266524 -0.09373228 -0.260022
-0.7790616 -0.08967346 0.09179817 0.513922 0.11320857 0.25899997 0.18449523 -0.028332526
-0.5546124 0.039524194 0.003127326 -0.09400791 0.17939173 -0.4970284 0.41298747 -0.018899104
0.21545222 -0.4654399 0.4592888 0.38178492 -0.23446319 -0.61306447 -0.7156069 -0.55826217
0.37712103 0.1801398 0.67366785 0.58566123 -0.7253171 0.452622 0.06371072 0.3696331
-0.09468029 -0.08922191 -0.2910507 -0.7219511 0.108544655 -0.7739262 -0.98768914 0.55460787
0.85416764 -0.81037694 0.15158613 0.98433244 -1.1011456 0.68974715 -0.17815337 0.20015197
-0.26158586 -0.104338236 -0.30613664 -0.07044198 0.119770646 0.53461695 -0.72114974 0.21407562
0.35494336 0.101708174 0.40684736 0.6009544 0.45277274 0.28517807 -0.30612108 0.11203805
0.94496816 0.14892761 0.4022056 -0.2433353 -0.1729316 -0.20950693 -0.31703356 -0.34802222
0.2691782 0.5977036 0.009911864 -0.027065523 -0.16874938 -0.055826373 -0.5101942 -0.18878411
-0.5274129 0.4731484 0.12177528 0.25869596 0.5347498 -0.15577178 -0.2533828 -0.16755688
-0.83640194 0.9166909 0.109565765 0.27738866 -0.015537965 -0.42737293 0.3489047 0.4952523
-0.1715517 0.44609717 0.17117347 0.04560387 0.3825683 -0.01722264 -1.257281 -0.41010624
0.3478152 0.12726687 0.17496173 -0.39022285 0.31977546 0.40293393 -0.1966449 0.14115207
0.5661104 0.1172818 -0.79005635 -0.33132693 -0.37088108 -0.69004637 -0.24182035 -0.3884841
0.24762794 0.07465483 -0.87722933 0.19756903 0.5069872 0.6808497 0.22541492 -0.11977331
-0.5320046 -0.35093743 0.025766453 0.2210779 0.13472417 -0.14241925 -0.6902671 -0.876709
00000000: 6df6 c6bf aa25 973e 21ef 3e3e 361c 17bd
00000010: d465 66bf 5166 ab3e f8f1 02be ce17 143e
00000020: cf6b 46be af00 2bbe 68dd d3be c80b f0bd
00000030: 6f5e e0be 38d5 a03f 73e9 a23e dcd4 673e
00000040: f724 44bf a244 8d3e 7025 663e 647e 0dbf
00000050: 2f5d 073f d093 30bf 35b9 ed3e 39f5 a03e
00000060: 7536 98be 0955 2e3f 247e 01be 989a a83e
00000070: afac 16bf 632f f63e d77a 893f 4f01 473b
00000080: 7fe7 213f 4593 13bf 7338 343e f825 2e3f
00000090: 5023 75bf 4635 5ebe 03c6 0a3f f582 3a3e
000000a0: 36ca e83d 8cea 32bd 4d6d e8bd 25de 51be
000000b0: 364b a53e 8841 0dbe f92d 1fbf 3dff b2be
000000c0: e2b2 2dbf 67ad aabd 3869 123f 2349 863f
000000d0: 63e3 983c a453 b9be cd87 b13d 2a48 8cbe
000000e0: 0c89 f73d a682 69be 6a61 d43e ff93 b7bd
000000f0: 4127 0fbf 9fc3 a83e 33b6 403c 12b6 a63e
00000100: 295c dd3e 7db5 7abd 0b40 fa3d b130 c5be
00000110: 34f8 483f 0b31 4abf 7509 f53e 443b 313e
00000120: 062c 003f 995b bc3e 8727 96bf 5044 3bbc
00000130: 5657 02bf 56aa 8f3f 47fa 0f3e ed69 123e
00000140: 4a1e f63c a50e c93e a221 9e3d 536e 1dbf
00000150: 4faf cbbe aa26 5fbb d752 8d3e 0724 eabe
00000160: ec99 a0bc 0f33 16be fccd 1c3f c735 18be
00000170: 352b 39bf b63c e9be dd05 06bf 4854 84be
00000180: 62a2 493f 93a0 90be 1711 e8be 44ad 3cbe
00000190: d146 1bbd f193 3e3e 05b3 363f cc24 e43d
000001a0: ca37 5bbf 7c28 073f 293c 033f f20d 0c3f
000001b0: 3bc4 513f 7055 a53e 2fbd 05bf bca0 e3be
000001c0: b44c 473e 45f0 503f 467f 023f 0e30 9f3d
000001d0: 4f7d ba3f f38f 3b3f b6f6 bfbd 9b21 85be
000001e0: 9570 47bf b8a6 b7bd ae00 bc3d 6490 033f
000001f0: e5d9 e73d a59b 843e 51ec 3c3e 9d19 e8bc
00000200: 14fb 0dbf 1fe4 213d d3f3 4c3b 3887 c0bd
00000210: 77b2 373e 827a febe 1873 d33e 4bd2 9abc
00000220: 829f 5c3e 234e eebe e727 eb3e 5079 c33e
00000230: 1e17 70be cbf1 1cbf 0432 37bf 45ea 0ebf
00000240: 0216 c13e 9176 383e 7f75 2c3f e5ed 153f
00000250: 62ae 39bf 12be e73e c47a 823d 8d40 bd3e
00000260: bde7 c1bd fab9 b6bd 9904 95be cad1 38bf
00000270: a94c de3d 0720 46bf 32d9 7cbf c8fa 0d3f
00000280: bbaa 5a3f dd74 4fbf 6539 1b3e 36fd 7b3f
00000290: 57f2 8cbf 4593 303f d66d 36be a3f4 4c3e
000002a0: 95ee 85be 49af d5bd f1bd 9cbe e343 90bd
000002b0: 504a f53d a8dc 083f 459d 38bf a436 5b3e
000002c0: 23bb b53e 604c d03d 4c4e d03e 26d8 193f
000002d0: d4d1 e73e dc02 923e e7bb 9cbe 3574 e53d
000002e0: 6fe9 713f 7b80 183e e4ed cd3e e42c 79be
000002f0: fb14 31be fc88 56be 3952 a2be f82f b2be
00000300: bad1 893e 1a03 193f 5f65 223c 84b8 ddbc
00000310: a3cc 2cbe 32aa 64bd 169c 02bf 9f50 41be
00000320: 8804 07bf 8240 f23e 5165 f93d cc73 843e
00000330: 5de5 083f a382 1fbe 64bb 81be 0894 2bbe
00000340: 701e 56bf 41ac 6a3f 0464 e03d e305 8e3e
00000350: f392 7ebc a0d0 dabe a3a3 b23e b691 fd3e
00000360: 40ab 2fbe d966 e43e 1948 2f3e 20cb 3a3d
00000370: fedf c33e 7e16 8dbc 95ee a0bf 72f9 d1be
00000380: d514 b23e 3f52 023e 2b29 333e 4acb c7be
00000390: 9cb9 a33e 5b4d ce3e 485d 49be 2b8a 103e
000003a0: 9cec 103f 7131 f03d 2241 4abf afa3 a9be
000003b0: 20e4 bdbe e1a6 30bf c19f 77be 63e7 c6be
000003c0: 2e92 7d3e a2e4 983d 1a92 60bf 894f 4a3e
000003d0: eac9 013f 2a4c 2e3f 2bd3 663e b64b f5bd
000003e0: 7431 08bf 12ae b3be 2b14 d33c 3f62 623e
000003f0: 22f5 093e 5ad6 11be 58b5 30bf 0070 60bf

conv1.bias f4 [63]
0.002745861 0.000360567 0.0030301798 0.003348531 0.0042647985 0.0044226227 0.0014308671 0.0027959824
-0.0073035737 0.0034208805 0.0023677237 0.000948542 -0.005340263 0.004971956 -0.003035653 -0.0040233596
-0.004449873 -0.003860593 -0.004117606 -0.0037440003 -0.0045973007 -0.0033248719 -0.0041503445 0.0034924261
0.002195285 -0.0039264755 -0.0026026692 -0.004229513 -0.0022532903 -0.0055234893 -0.0049848384 -0.0032226015
0.0022395423 -0.0046185944 0.0007315454 -0.00028979412 0.002747253 -0.004286589 -0.0037889176 -0.0022898805
-0.0039902832 -0.00047180886 -0.0028438403 -0.004067419 -0.0055956137 -0.0046178964 -0.0017069235 -0.00432116
0.0012164777 -0.0043077692 -0.0037592596 0.0035129716 -0.005203008 -0.0011518485 0.004818217 0.0031588243
-0.0033729547 0.0030526947 0.0019618035 -0.004128796 -0.0035991776 -0.005335745 -0.0052673537
00000000: e7f3 333b 7c0a bd39 fb95 463b 0773 5b3b
00000010: b9bf 8b3b a6eb 903b ef8b bb3a cd3c 373b
00000020: d152 efbb da30 603b d02b 1b3b 93a7 783a
00000030: 5ffd aebb caeb a23b cef1 46bb 63d6 83bb
00000040: 3ed0 91bb 0102 7dbb fcec 86bb e75d 75bb
00000050: f4a4 96bb 18e6 59bb 9dff 87bb 30e1 643b
00000060: c5de 0f3b aaa9 80bb 8b91 2abb ba97 8abb
00000070: f0ab 13bb 63fe b4bb db57 a3bb 4832 53bb
00000080: 49c5 123b 9457 97bb 2ec5 3f3a 82ef 97b9
00000090: 420b 343b 8476 8cbb 7d4f 78bb d211 16bb
000000a0: ecc0 82bb 1d5d f7b9 b95f 3abb fc47 85bb
000000b0: 695b b7bb b951 97bb d9ba dfba 8498 8dbb
000000c0: 3872 9f3a 3028 8dbb e95d 76bb e239 663b
000000d0: ff7d aabb 9ff9 96ba 22e2 9d3b 4704 4f3b
000000e0: ca0c 5dbb b80f 483b 9a91 003b da4a 87bb
000000f0: 2ee0 6bbb 79d7 aebb c499 acbb

vgg.0.weight f4 [63, 63, 3, 3]
0.024112932 -0.046396803 -0.08050649 0.0073827226 -0.04310782 -0.023916243 0.042514775 -0.022018578
0.012277679 0.086614646 0.051562693 0.09163072 0.03968102 -0.07955929 -0.0065277047 -0.0037837648
-0.065998614 -0.087240525 0.024819814 -0.04728872 0.027494177 -0.004496277 0.008657374 0.07309775
0.03990789 0.0065361955 0.0008210697 0.07727675 0.071684934 0.049830064 0.018198127 -0.020614203
-0.036136054 -0.017014606 -0.111345395 0.016674168 -0.0024378179 0.011743238 -0.03320367 -0.069986574
-0.046538237 -0.06560778 -0.10312507 -0.010892309 0.029038217 -0.026252748 -0.013754279 0.09782524
0.097264506 0.07450826 -0.028989984 -0.010905111 -0.00062501105 0.06887288 0.07813658 0.09016388
0.11462673 -0.10023373 -0.0037898964 0.013887452 -0.07615555 -0.028650654 -0.021424295 -0.05995611
0.121383324 0.010678834 0.028202591 0.032438107 0.036550827 -0.08252205 0.0649744 -0.0050422163
-0.030877141 -0.024640832 0.009972276 -0.0583652 0.110231176 0.035439342 0.015807012 0.011971339
-0.055300362 0.051970612 0.05554167 -0.06881281 0.030921573 0.016370391 0.029838575 -0.009068003
-0.0113046365 -0.020534439 -0.023201395 0.006875718 0.008883179 0.05382405 0.101171836 -0.045291703
0.027481575 0.08901444 -0.03877413 -0.04448876 -0.018773785 0.022050839 -0.030847501 -0.067285426
-0.16427442 -0.026124544 -0.011947332 -0.025579914 -0.0063909725 0.033758674 -0.111282095 0.036490582
0.0059147687 0.05823209 -0.013783359 -0.039899003 -0.026376523 0.02645959 0.022742799 -0.0014998387
0.02621565 -0.008847887 -0.04648953 -0.096621946 0.12711269 -0.02732173 -0.0064379526 -0.04672032
-0.065135196 -0.048368793 -0.0676409 -0.084217206 -0.033050362 0.1161508 0.027095 -0.010581581
-0.10526631 -0.009669389 -0.015265329 0.0929715 -0.0114345355 0.059666354 0.019144125 0.12876152
0.015201465 0.059179008 -0.16103908 -0.013326966 -0.009136433 0.03682631 -0.03161869 -0.031795815
0.029668918 -0.028039375 0.06967419 -0.0595873 -0.02487514 0.032492504 0.03303957 0.024105161
-0.06229246 0.00300041 0.060451407 0.035593804 -0.06527382 -0.027913855 -0.11490668 -0.013687889
0.012691649 0.015980259 -0.049718507 0.035995446 -0.018899903 0.035914537 0.019962648 0.07059207
-0.0525471 0.044465054 0.016824903 0.055653337 0.014075197 -0.059925847 -0.062364273 -0.014101844
-0.020977093 -0.0066117737 0.013329823 -0.035408404 -0.012320948 -0.0074847196 -0.00309582 0.038740657
-0.06490552 0.02929368 0.10874229 -0.014305161 0.039092187 0.009859771 -0.010921732 -0.0165479
-0.086537726 0.015208578 -0.042456843 -0.048092388 -0.0025271433 -0.06752338 0.07897146 -0.019256525
0.06700291 0.060114384 -0.1318273 0.011639395 0.01293701 -0.119984075 -0.053734392 0.11197013
-0.019157358 0.0070508816 0.042729627 0.04868704 -0.02660452 -0.058819767 -0.037603933 -0.01097808
0.012630327 -0.049901087 0.0069494816 0.03342683 0.035338264 -0.069657676 -0.038529187 -0.008913489
-0.05566127 0.07075403 -0.0856791 0.03040795 -0.08137678 0.034759462 0.073721 -0.027088143
0.123054884 -0.015833925 -0.0008704042 0.023851978 -0.077742636 -0.010931668 0.022133142 0.015165863
0.06254438 0.080077425 -0.002150239 -0.044059455 0.005059303 -0.04478205 -0.06345043 0.15397206
00000000: 7c88 c53c 930a 3ebd 96e0 a4bd c4ea f13b
00000010: d391 30bd ffeb c3bc f923 2e3d 4e60 b4bc
00000020: 5128 493c 0563 b13d 6733 533d e3a8 bb3d
00000030: 9188 223d fbef a2bd 5be6 d5bb 0af9 77bb
00000040: 482a 87bd 29ab b2bd ec52 cb3c d1b1 41bd
00000050: 783b e13c 8155 93bb a9d7 0d3c 46b4 953d
00000060: 7576 233d 952d d63b 0e3d 573a 4643 9e3d
00000070: 8dcf 923d 9c1a 4c3d 3d14 953c 1edf a8bc
00000080: 6603 14bd 3762 8bbc 0e09 e4bd 4498 883c
00000090: ccc3 1fbb b666 403c 9200 08bd 1f55 8fbd
000000a0: e19e 3ebd 5f5d 86bd 3d33 d3bd a875 32bc
000000b0: 8ee1 ed3c 0110 d7bc a159 61bc 9958 c83d
000000c0: 9d32 c73d c997 983d 677c edbc 5aab 32bc
000000d0: c8d7 23ba 390d 8d3d 1206 a03d d7a7 b83d
000000e0: 6bc1 ea3d 5847 cdbd e95f 78bb 3288 633c
000000f0: 71f7 9bbd c7b4 eabc 0182 afbc 8a94 75bd
00000100: d297 f83d 47f6 2e3c 1f09 e73c d2dd 043d
00000110: 52b6 153d 5201 a9bd 4c11 853d 2d39 a5bb
00000120: 0ff2 fcbc 92db c9bc c262 233c 5910 6fbd
00000130: e2c0 e13d d828 113d b57d 813c 6f23 443c
00000140: a282 62bd 23df 543d aa7f 633d bbed 8cbd
00000150: 3d4f fd3c 331b 863c 0770 f43c f691 14bc
00000160: 1537 39bc d737 a8bc da10 bebc b44d e13b
00000170: c18a 113c 9b76 5c3d 2e33 cf3d cb83 39bd
00000180: 0a21 e13c 344d b63d 9fd1 1ebd d939 36bd
00000190: 7bcb 99bc f6a3 b43c e6b3 fcbc f1cc 89bd
000001a0: 8e37 28be 2403 d6bc bebe 43bc f88c d1bc
000001b0: 5d6b d1bb 8946 0a3d dee7 e3bd 2677 153d
000001c0: add0 c13b c684 6e3d 99d3 61bc 236d 23bd
000001d0: 9413 d8bc c8c1 d83c 1b4f ba3c 3c96 c4ba
000001e0: 34c2 d63c baf6 10bc ce6b 3ebd bae1 c5bd
000001f0: d429 023e d2d1 dfbc 76f5 d2bb ce5d 3fbd
00000200: 9a65 85bd 5b1e 46bd 5087 8abd 127a acbd
00000210: d15f 07bd 78e0 ed3d 55f6 dd3c 5e5e 2dbc
00000220: dd95 d7bd 5b6c 1ebc 6e1b 7abc d767 be3d
00000230: eb57 3bbc b564 743d 24d4 9c3c 0fda 033e
00000240: 910f 793c b065 723d 6ee7 24be 5959 5abc
00000250: fab0 15bc 2fd7 163d 9982 01bd 543c 02bd
00000260: 3b0c f33c d5b2 e5bc 57b1 8e3d d011 74bd
00000270: f3c6 cbbc dc16 053d 8054 073d 3078 c53c
00000280: 6126 7fbd 87a2 443b e59b 773d cfca 113d
00000290: 48ae 85bd 99ab e4bc 3254 ebbd 2b43 60bc
000002a0: a2f0 4f3c 08e9 823c a2a5 4bbd f66f 133d
000002b0: f8d3 9abc 1f1b 133d b588 a33c 9392 903d
000002c0: a13b 57bd fd20 363d 61d4 893c c1f4 633d
000002d0: a89b 663c ce74 75bd ae71 7fbd 6c0b 67bc
000002e0: 27d8 abbc 94a7 d8bb 5465 5a3c 6708 11bd
000002f0: cddd 49bc 6142 f5bb 3ee3 4abb 86ae 1e3d
00000300: 2fed 84bd 4df9 ef3c 47b4 de3d 3260 6abc
00000310: 211f 203d e08a 213c 10f1 32bc 768f 87bc
00000320: b13a b1bd 662d 793c 3ae7 2dbd 86fc 44bd
00000330: 6e9e 25bb b349 8abd cabb a13d dcbf 9dbc
00000340: d238 893d 803a 763d bcfd 06be 29b3 3e3c
00000350: c1f5 533c 36ba f5bd 9818 5cbd 9850 e53d
00000360: e4ef 9cbc 150b e73b 4305 2f3d 106c 473d
00000370: b9f1 d9bc ffec 70bd 9506 1abd 68dd 33bc
00000380: 6eef 4e3c 1565 4cbd 7ab8 e33b 92ea 083d
00000390: dbbe 103d afa8 8ebd c8d0 1dbd e209 12bc
000003a0: 12fd 63bd 7de7 903d 8678 afbd 181a f93c
000003b0: dfa8 a6bd f05f 0e3d 09fb 963d f4e7 ddbc
000003c0: 3304 fc3d 26b6 81bc d62b 64ba 3965 c33c
000003d0: 8837 9fbd bd1a 33bc 9050 b53c 3d7a 783c
000003e0: 4517 803d a2ff a33d 06eb 0cbb b077 34bd
000003f0: 82c8 a53b 626d 37bd 4df2 81bd daaa 1d3e

vgg.0.bias f4 [63]
-0.003440785 0.003629335 -0.00035840765 -0.0019858093 -0.004602435 -0.0020065778 -0.00013455078 -0.0013905164
-0.0027642692 -0.0013537214 -0.0021431777 -0.0038342255 -0.0035413515 -0.004877733 -0.004526093 -0.00025655443
0.00042667717 -0.004163321 -0.0014570052 -0.0044100983 -0.0021737523 -0.0041389945 0.0002630908 -0.0021222644
-0.0056593833 -0.003783557 -0.00425804 -0.00227377 -0.004530981 -0.0021888057 -0.0037712199 -0.0033235955
-0.0028074642 0.00040446201 -0.0033286428 -0.0003466099 -0.004079607 0.0026302543 0.003343971 0.0081924945
-0.0037173822 0.0020462882 -0.002056855 -0.002629626 -0.0056143757 0.0042161085 -0.0014305768 -0.0041241646
-0.0003560527 -0.0040896037 -0.0010979852 0.0020923028 -0.0010631016 -0.0021910444 -0.00055054034 -0.0038239092
-0.00011174565 0.00072731386 0.00057337916 -0.0043134266 0.00053347566 -0.0044061816 0.0020067797
00000000: cb7e 61bb 23da 6d3b a9e8 bbb9 5a24 02bb
00000010: 06d0 96bb ca80 03bb 3316 0db9 fd41 b6ba
00000020: be28 35bb 5a6f b1ba 8e74 0cbb a147 7bbb
00000030: 0516 68bb 64d5 9fbb 9f4f 94bb 2782 86b9
00000040: a4b3 df39 786c 88bb fbf8 beba 9682 90bb
00000050: 8375 0ebb 67a0 87bb 73ef 8939 b015 0bbb
00000060: 5972 b9bb 8ef5 77bb 0787 8bbb 8803 15bb
00000070: a078 94bb 1172 0fbb 9226 77bb aed0 59bb
00000080: 6ffd 37bb f90d d439 5c25 5abb 31b9 b5b9
00000090: 39ae 85bb 5860 2c3b 8626 5b3b d039 063c
000000a0: 539f 73bb 051b 063b 4dcc 06bb ce55 2cbb
000000b0: ccf8 b7bb 4827 8a3b 3182 bbba 0024 87bb
000000c0: 96ac bab9 1502 86bb 45ea 8fba 041f 093b
000000d0: c557 8bba a097 0fbb 2352 10ba 8d9a 7abb
000000e0: fd58 eab8 35a9 3e3a d34e 163a a557 8dbb
000000f0: f2d8 0b3a bb61 90bb 2d84 033b

oconv2.weight f4 [1, 63, 3, 3]
0.018114999 0.067208864 0.0076210974 -0.14175688 -0.04441089 -0.07078625 -0.04442526 -0.031973474
-0.029136332 0.038073234 0.04504412 0.06833618 -0.058671344 0.0063388324 -0.011958611 -0.0109632695
0.05584518 -0.020396335 0.023893066 0.11975487 -0.004647356 0.027346939 0.08351156 -0.03432621
-0.0314587 0.10219953 -0.018128984 -0.075526565 0.08473414 -0.007737333 -0.055430304 -0.05331406
0.07776867 0.010964341 0.11534012 -0.049665686 0.08065996 0.022767445 -0.04687939 -0.006864404
-0.003415705 -0.02445206 -0.08133068 0.032748684 0.070585005 0.05184637 0.062047046 -0.09747277
0.04621517 0.047880754 0.05419447 0.07429887 -0.0049583605 0.05479375 -0.05974481 0.057014536
0.024241934 0.12165887 0.04676946 0.14971402 0.10873908 0.033291478 0.018406333 -0.017247485
0.03816263 0.027082248 0.056179773 -0.013239215 0.074337706 -0.027195677 0.028044583 -0.033191342
0.02954952 0.05919389 0.050102193 0.029704228 -0.0021424077 -0.057570186 -0.11867744 0.13047181
0.0978624 0.0066003758 -0.058777057 0.05860061 0.101438895 0.011181556 -0.04576316 -0.016640436
0.0109219095 0.03536145 0.16679369 0.08992524 0.11145822 -0.0104768 -0.07627185 0.1009083
0.041316796 -0.058916993 -0.10704036 -0.0131022725 -0.014757386 0.06697612 -0.056896374 -0.062193792
-0.03838262 -0.04148728 -0.0790981 0.06700774 0.073037714 0.095183216 0.06688437 -0.051147982
-0.022989297 0.06576132 0.0018211866 -0.035221245 -0.04059468 -0.00047590423 -0.12121735 0.024770191
-0.045779318 -0.12461439 0.05894106 0.03178688 -0.03463377 0.00080633943 0.023132982 -0.072765425
-0.0882161 0.032743737 -0.08134894 -0.057107914 0.008543235 0.07365469 0.17937455 -0.055939704
0.05264532 -0.01708461 0.050682902 0.10490938 0.071115725 -0.10669748 0.015370765 -0.011648163
0.038589258 0.049328268 -0.051100083 -0.043908264 -0.058756165 -0.04857475 -0.058102567 -0.0028089113
0.021752447 -0.09696297 -0.005874445 0.025023216 -0.013852229 0.057818033 -0.060984887 0.0368116
0.08154052 0.0137970615 0.016789757 -0.06321093 -0.080176786 0.09907899 -0.028315853 -0.0378251
0.03867006 0.049104877 0.027544836 0.094227694 -0.13744804 0.03726221 0.003935345 0.030983211
0.10254325 -0.0032162047 0.016121836 0.013554165 0.0438754 -0.052061483 0.041399278 0.013589566
0.047516007 0.05786579 0.05997183 -0.019135509 -0.0093997065 0.004122207 0.06927399 0.040873915
-0.057623085 -0.04889258 0.020439707 -0.0540673 -0.09544687 0.06229595 0.05297614 -0.052842256
-0.009143446 0.053042684 0.010623558 0.014102293 -0.03304778 0.028013874 0.0060577467 -0.038730755
-0.008490257 -0.0935035 0.063892856 -0.06878212 -0.028786615 -0.06729908 -0.035738017 -0.0063039414
0.0011511003 0.015128362 0.22115126 -0.071471766 -0.07006599 -0.033461846 -0.10528509 0.020308837
0.061721053 0.0020629417 0.039107945 0.056034323 -0.03827688 0.029234368 0.12173287 0.12657623
0.07913988 0.02023436 -0.024225067 -0.022109438 -0.020209257 -0.011276069 -0.018066747 -0.038506772
-0.03314104 -0.0161431 -0.03309251 0.079882815 -0.013555264 0.037648864 -0.048333988 -0.08314801
-0.009094774 -0.04755074 0.1138693 -0.06430513 0.010223412 -0.03134932 -0.032666624 -0.06586695
00000000: e865 943c cda4 893d 66ba f93b b728 11be
00000010: 32e8 35bd 62f8 90bd 43f7 35bd 9ef6 02bd
00000020: 51af eebc aef2 1b3d 2f80 383d d7f3 8b3d
00000030: 5d51 70bd fbb5 cf3b 0dee 43bc 499f 33bc
00000040: eabd 643d 3716 a7bc 64bb c33c 0b42 f53d
00000050: d948 98bb b006 e03c 1c08 ab3d a499 0cbd
00000060: d6da 00bd fd4d d13d 3c83 94bc acad 9abd
00000070: 1889 ad3d 7489 fdbb e30a 63bd d85f 5abd
00000080: 2e45 9f3d c8a3 333c 7137 ec3d 3f6e 4bbd
00000090: 0d31 a53d cb82 ba3c 9a04 40bd cbee e0bb
000000a0: 05da 5fbb b04f c8bc b390 a6bd 7c23 063d
000000b0: df8e 903d dc5c 543d 0b25 7e3d ce9f c7bd
000000c0: 1e4c 3d3d 9c1e 443d 05fb 5d3d 022a 983d
000000d0: be79 a2bb 696f 603d f9b6 74bd 1388 693d
000000e0: 0597 c63c 4928 f93d 5591 3f3d a24e 193e
000000f0: 98b2 de3d a55c 083d e1c8 963c 994a 8dbc
00000100: 6b50 1c3d 97db dd3c c31c 663d 4be9 58bc
00000110: 5e3e 983d 78c9 debc c1bd e53c a5f3 07bd
00000120: d611 f23c 4b75 723d f537 4d3d 4856 f33c
00000130: a367 0cbb b7ce 6bbd 280d f3bd 679a 053e
00000140: 156c c83d f747 d83b 36c0 70bd 3107 703d
00000150: 32bf cf3d d832 373c 2772 3bbd 8651 88bc
00000160: cff1 323c 2bd7 103d f7cb 2a3e b92a b83d
00000170: 3544 e43d e2a6 2bbc 6a34 9cbd 03a9 ce3d
00000180: cd3b 293d f252 71bd fa37 dbbd eaaa 56bc
00000190: f7c8 71bc c72a 893d 2c0c 69bd ebbe 7ebd
000001a0: 1837 1dbd 91ee 29bd 2ffe a1bd 5b3b 893d
000001b0: cc94 953d 6bef c23d acfa 883d 8c80 51bd
000001c0: 0d54 bcbc dfad 863d e2b4 ee3a 2744 10bd
000001d0: 9b46 26bd c982 f9b9 cd40 f8bd dbea ca3c
000001e0: 1883 3bbd d435 ffbd 2e6c 713d f632 023d
000001f0: 24dc 0dbd 8660 533a 6181 bd3c 0a06 95bd
00000200: a5aa b4bd 4c1e 063d 469a a6bd fde9 69bd
00000210: edf8 0b3c 45d8 963d f6ad 373e 0821 65bd
00000220: 9ea2 573d 06f5 8bbc e098 4f3d bbda d63d
00000230: 1fa5 913d 3584 dabd a9d5 7b3c f0d7 3ebc
00000240: c50f 1e3d 700c 4a3d 524e 51bd 27d9 33bd
00000250: 4eaa 70bd 51f6 46bd f5fc 6dbd b615 38bb
00000260: 3032 b23c 8694 c6bd 6b7e c0bb 7dfd cc3c
00000270: 76f4 62bc 9ad2 6c3d 4acb 79bd c3c7 163d
00000280: b7fe a63d 120d 623c ac8a 893c bb74 81bd
00000290: ba33 a4bd ede9 ca3d a6f6 e7bc 7eee 1abd
000002a0: 7f64 1e3d 3222 493d b5a5 e13c 73fa c03d
000002b0: 2ebf 0cbe 42a0 183d 11f4 803b 81d0 fd3c
000002c0: 3202 d23d f6c6 52bb f111 843c 4a12 5e3c
000002d0: b1b6 333d 6c3e 55bd 4a92 293d c5a6 5e3c
000002e0: 25a0 423d ae04 6d3d 06a5 753d 12c2 9cbc
000002f0: 3a01 1abc 9413 873b 86df 8d3d 686b 273d
00000300: 2f06 6cbd 9643 48bd 2c71 a73c ac75 5dbd
00000310: a679 c3bd 0a2a 7f3d 82fd 583d 1f71 58bd
00000320: 64ce 15bc 4943 593d 6f0e 2e3c 4e0d 673c
00000330: 1c5d 07bd 5a7d e53c 1080 c63b 24a4 1ebd
00000340: b81a 0bbc c37e bfbd 42da 823d a4dd 8cbd
00000350: e8d1 ebbc 1ad4 89bd 0762 12bd 4b91 cebb
00000360: 84e0 963a f3dc 773c 7a75 623e ca5f 92bd
00000370: c27e 8fbd 4a0f 09bd b69f d7bd b85e a63c
00000380: 37cf 7c3d 6b32 073b a72f 203d 3f84 653d
00000390: 38c8 1cbd ea7c ef3c 154f f93d 339d 013e
000003a0: 1714 a23d 87c2 a53c a673 c6bc da1e b5bc
000003b0: e28d a5bc 43bf 38bc b700 94bc 47b9 1dbd
000003c0: e6be 07bd 893e 84bc 038c 07bd 9a99 a33d
000003d0: e616 5ebc b235 1a3d dcf9 45bd 8149 aabd
000003e0: 3f02 15bc 91c4 42bd 4f34 e93d 68b2 83bd
000003f0: 1980 273c 2568 00bd 70cd 05bd 40e5 86bd
