Models/model14.pth (torch, 151311 bytes, 6 tensors)

oconv1.weight f4 [1, 1, 3, 3]
0.4426402 -0.15236714 -0.5105584 0.18397126 0.16537054 -0.1875225 0.3453299 -0.46052969
-0.20813143
00000000: bca1 e23e 2206 1cbe f5b3 02bf f662 3c3e
00000010: e556 293e e605 40be 15cf b03e 8cca ebbe
00000020: 6820 55be

conv1.weight f4 [63, 1, 3, 3]
-1.5551388 0.29464573 0.18704517 -0.037571 -0.9005697 0.33422598 -0.12845819 0.14528906
-0.19367322 -0.16769053 -0.4145214 -0.11794222 -0.43894115 1.2559438 0.3175399 0.22575837
-0.76546127 0.27666104 0.22533585 -0.55290866 0.52812755 -0.6904473 0.46481997 0.3146892
-0.29693562 0.68058234 -0.1271603 0.3287247 -0.5892554 0.48138338 1.0746832 0.0024134095
0.6317237 -0.5770974 0.17538945 0.6808265 -0.9568686 -0.21623732 0.5417551 0.18274531
0.11443783 -0.04292107 -0.112772524 -0.20421346 0.32345098 -0.13736014 -0.62140024 -0.34928155
-0.67795193 -0.0826803 0.5725586 1.0498335 0.019322714 -0.36262503 0.08720372 -0.27475148
0.121493496 -0.22749452 0.41413257 -0.08917821 -0.55870193 0.33004928 0.010997123 0.32565317
0.43208674 -0.06180414 0.12157988 -0.38567132 0.78564155 -0.7905485 0.47785342 0.17369778
0.5012954 0.36858356 -1.1737732 -0.010732792 -0.5091357 1.1230572 0.14121701 0.14360297
0.030562863 0.39334133 0.07778755 -0.6150272 -0.398575 -0.002921148 0.2766285 -0.45679212
-0.019097792 -0.14612879 0.6128441 -0.14940485 -0.7233568 -0.45499733 -0.52292335 -0.258829
0.788271 -0.28306326 -0.45400184 -0.18375382 -0.038195033 0.1855645 0.7132316 0.112050906
-0.8559151 0.5287817 0.5133928 0.5477149 0.8200841 0.32236558 -0.5229609 -0.44416097
0.19474706 0.81566364 0.5104266 0.078295015 1.45763 0.73208976 -0.09427962 -0.2604492
-0.77977127 -0.090286784 0.091253944 0.51459956 0.11255144 0.25979653 0.18520358 -0.027528562
-0.55512625 0.03905351 0.0025752832 -0.09458057 0.17950906 -0.49609843 0.41383252 -0.018368786
0.21609904 -0.46601734 0.46002027 0.3823767 -0.23508497 -0.61369854 -0.71619415 -0.5589006
0.37772107 0.18079282 0.6743235 0.58626807 -0.7262425 0.4532338 0.06441894 0.370224
-0.09420179 -0.08906887 -0.29120433 -0.7224469 0.10920629 -0.7745614 -0.98839283 0.55414766
0.8547852 -0.810936 0.15098743 0.984971 -1.1019613 0.68912005 -0.17756805 0.200594
-0.26228443 -0.1051178 -0.30689722 -0.071149826 0.1204466 0.5351845 -0.7217732 0.21427552
0.3555377 0.10230247 0.4063254 0.60162437 0.452594 0.28559357 -0.3067576 0.11141594
0.9455781 0.14941262 0.4025919 -0.2440696 -0.17359307 -0.20899075 -0.3177726 -0.347691
0.2697848 0.59825873 0.010480815 -0.027916811 -0.1682533 -0.05540762 -0.51082385 -0.18804832
-0.52774554 0.47321078 0.12133066 0.25938895 0.5354319 -0.15614635 -0.25278297 -0.16823997
-0.8371759 0.91744167 0.10885653 0.27673852 -0.014919505 -0.4280731 0.3496266 0.4945431
-0.17240027 0.445268 0.17021103 0.044887796 0.38184592 -0.016727423 -1.2581999 -0.41073528
0.34847352 0.12753597 0.17434146 -0.3909854 0.32023513 0.4022906 -0.19720745 0.14178297
0.5662998 0.1180195 -0.79081196 -0.33111593 -0.37074134 -0.6896304 -0.24264899 -0.38831845
0.24821398 0.0752034 -0.8780654 0.19674145 0.5076321 0.6814467 0.22524336 -0.120535985
-0.532684 -0.351867 0.025067054 0.22150236 0.1352893 -0.14290792 -0.6911008 -0.8766319
00000000: ca0e c7bf cedb 963e c588 3f3e 0de4 19bd
00000010: bc8b 66bf ab1f ab3e 8b8a 03be a8c6 143e
00000020: 4652 46be 11b7 2bbe 263c d4be b18b f1bd
00000030: e5bc e0be c4c2 a03f 9794 a23e 342d 673e
00000040: 45f5 43bf 84a6 8d3e 71be 663e 6c8b 0dbf
00000050: 5e33 073f 27c1 30bf e2fc ed3e f11e a13e
00000060: f207 98be a53a 2e3f 4f36 02be 9b4e a83e
00000070: 71d9 16bf e277 f63e 388f 893f 4b2a 1e3b
00000080: a5b8 213f a8bc 13bf 4b99 333e a54a 2e3f
00000090: 57f5 74bf 516d 5dbe 76b0 0a3f 9621 3b3e
000000a0: 625e ea3d 01ce 2fbd 48f5 e6bd 551d 51be
000000b0: 5e9b a53e 23a8 0cbe 1614 1fbf 08d5 b2be
000000c0: 428e 2dbf 4a54 a9bd 3393 123f f260 863f
000000d0: ab4a 9e3c fda9 b9be dd97 b23d 3aac 8cbe
000000e0: 95d1 f83d 53f4 68be 2f09 d43e 11a3 b6bd
000000f0: 1707 0fbf 38fc a83e 472d 343c 03bc a63e
00000100: 793a dd3e 5726 7dbd dffe f83d b676 c5be
00000110: ce1f 493f 6361 4abf 34a9 f43e d5dd 313e
00000120: e554 003f fcb6 bc3e 333e 96bf 98d8 2fbc
00000130: b856 02bf 57c0 8f3f 319b 103e a80c 133e
00000140: f85e fa3c 0964 c93e 144f 9f3d 6c72 1dbf
00000150: 0612 ccbe bb70 3fbb 40a2 8d3e a8e0 e9be
00000160: f972 9cbc c9a2 15be 5ae3 1c3f 96fd 18be
00000170: e92d 39bf 69f5 e8be 4ede 05bf 3c85 84be
00000180: 21cc 493f abed 90be ee72 e8be f629 3cbe
00000190: 6572 1cbd 9f04 3e3e 5996 363f f27a e53d
000001a0: 411d 5bbf 3d5e 073f b66d 033f 0b37 0c3f
000001b0: 08f1 513f 1a0d a53e c4e0 05bf 1169 e3be
000001c0: c66b 473e 55cf 503f 51ab 023f 2359 a03d
000001d0: 9f93 ba3f 3c6a 3b3f ac15 c1bd 9959 85be
000001e0: 179f 47bf 47e8 b8bd 59e3 ba3d ccbc 033f
000001f0: 5f81 e63d 0d04 853e 02a6 3d3e 9483 e1bc
00000200: c11c 0ebf 93f6 1f3d 15c6 283b 75b3 c1bd
00000210: 39d1 373e 9d00 febe dbe1 d33e 237a 96bc
00000220: 1149 5d3e d399 eebe c787 eb3e e1c6 c33e
00000230: 1dba 70be 591b 1dbf 8058 37bf 1c14 0fbf
00000240: a864 c13e c121 393e 77a0 2c3f aa15 163f
00000250: 07eb 39bf 430e e83e 14ee 833d 008e bd3e
00000260: deec c0bd bd69 b6bd bc18 95be 48f2 38bf
00000270: 8ca7 df3d a849 46bf 5007 7dbf 9fdc 0d3f
00000280: 34d3 5a3f 8099 4fbf 739c 1a3e 0f27 7c3f
00000290: 110d 8dbf 2c6a 303f 66d4 35be 8368 4d3e
000002a0: 254a 86be 0048 d7bd a221 9dbe 00b7 91bd
000002b0: b5ac f63d da01 093f 21c6 38bf 0b6b 5b3e
000002c0: 0a09 b63e f583 d13d e209 d03e 0e04 1a3f
000002d0: 67ba e73e 5239 923e 550f 9dbe 0a2e e43d
000002e0: 6811 723f 9fff 183e 8720 ce3e 62ed 79be
000002f0: 62c2 31be ac01 56be 17b3 a2be 8e04 b2be
00000300: 3c21 8a3e 7c27 193f b9b7 2b3c ccb1 e4bc
00000310: 984a 2cbe 1af3 62bd 5ac5 02bf bd8f 40be
00000320: 551a 07bf af48 f23e 367c f83d a1ce 843e
00000330: 1112 093f d4e4 1fbe c56c 81be 1947 2cbe
00000340: 2951 56bf 75dd 6a3f 2cf0 de3d acb0 8d3e
00000350: f170 74bc 662c dbbe 4202 b33e c134 fd3e
00000360: b289 30be 2bfa e33e cd4b 2e3e 44dc 373d
00000370: 4f81 c33e f307 89bc b20c a1bf e54b d2be
00000380: 1f6b b23e ca98 023e 9186 323e 3d2f c8be
00000390: dcf5 a33e 09f9 cd3e c0f0 49be 8e2f 113e
000003a0: 06f9 103f 35b4 f13d a772 4abf 0788 a9be
000003b0: cfd1 bdbe 9e8b 30bf fa78 78be add1 c6be
000003c0: ce2b 7e3e 3d04 9a3d e5c8 60bf 9776 493e
000003d0: 2df4 013f 4a73 2e3f 32a6 663e 92db f6bd
000003e0: fb5d 08bf e927 b4be 6c59 cd3c 84d1 623e
000003f0: 4789 0a3e 7456 12be fbeb 30bf f36a 60bf

conv1.bias f4 [63]
0.002131463 -0.0003440949 0.0023919647 0.0027140833 0.0035464896 0.0038483287 0.00078437006 0.0021991108
-0.0066513624 0.003576315 0.0017842964 0.00040505803 -0.004697482 0.0044103437 -0.0034794686 -0.0034204558
-0.0038204154 -0.003243198 -0.0035266168 -0.0031006646 -0.0040430333 -0.0026275886 -0.0035884485 0.00306212
0.0021605757 -0.0035697632 -0.0017345296 -0.0035988768 -0.0030189871 -0.004889948 -0.004255946 -0.0026367358
0.0020771255 -0.003990559 0.0014846895 -0.0012328477 0.0021571086 -0.0038430088 -0.0031857498 -0.0028913496
-0.003554903 -0.0011885007 -0.002361646 -0.0034984532 -0.005026061 -0.0040225433 -0.0011066791 -0.0037128376
0.0012990695 -0.0037424662 -0.0033064594 0.0029394096 -0.0047614635 -0.00085114955 0.0042310446 0.002573379
-0.0031274415 0.0024624513 0.0015203768 -0.0035335752 -0.0031227341 -0.0047694496 -0.0046581216
00000000: 04b0 0b3b a367 b4b9 82c2 1c3b c3de 313b
00000010: 396c 683b 3e34 7c3b 2f9e 4d3a f51e 103b
00000020: acf3 d9bb 9c60 6a3b 0ddf e93a f85d d439
00000030: 56ed 99bb a584 903b cc07 64bb ba29 60bb
00000040: ef5f 7abb d58b 54bb d01e 67bb 8534 4bbb
00000050: 6c7b 84bb 9f33 2cbb 2d2c 6bbb d9ad 483b
00000060: 7298 0d3b b0f2 69bb 2859 e3ba 22db 6bbb
00000070: 33da 45bb db3b a0bb 7675 8bbb 16cd 2cbb
00000080: 6220 083b 3cc3 82bb ea99 c23a 8197 a1ba
00000090: 475e 0d3b fdda 7bbb 03c8 50bb cc7c 3dbb
000000a0: 60f9 68bb 77c7 9bba d8c5 1abb 4e46 65bb
000000b0: a8b1 a4bb 8acf 83bb fd0d 91ba 1453 73bb
000000c0: 8a45 aa3a 2a44 75bb 2fb1 58bb 1ca3 403b
000000d0: 0d06 9cbb ae1f 5fba 93a4 8a3b 23a6 283b
000000e0: c3f5 4cbb 1461 213b 6147 c73a 8e93 67bb
000000f0: c9a6 4cbb 0b49 9cbb 28a3 98bb

vgg.0.weight f4 [63, 63, 3, 3]
0.024861284 -0.04578538 -0.07981942 0.007960853 -0.042438775 -0.023301112 0.04308896 -0.021406166
0.012980525 0.08716117 0.051147655 0.09221034 0.040031016 -0.079115525 -0.0058745146 -0.0031015202
-0.06656597 -0.0868612 0.02534218 -0.046819508 0.027848953 -0.003958859 0.009141761 0.07358034
0.040410962 0.0069283647 0.0012563119 0.07782175 0.07222799 0.05056122 0.018833647 -0.020359036
-0.035571404 -0.016524645 -0.11102535 0.017174594 -0.0018627263 0.012232219 -0.032695215 -0.069437206
-0.04591364 -0.065028 -0.102609 -0.01033412 0.029611707 -0.02610621 -0.014042133 0.09836802
0.09777917 0.07519813 -0.028787915 -0.010343876 -9.730763e-05 0.069528714 0.07863257 0.09063978
0.1142713 -0.099769175 -0.004027912 0.013777176 -0.07562464 -0.028699532 -0.0216625 -0.059941895
0.12174034 0.010817153 0.02877934 0.032499682 0.037113577 -0.08228615 0.06552956 -0.0047537456
-0.030350724 -0.024151934 0.010491186 -0.057866294 0.11074945 0.035990544 0.016230533 0.012458707
-0.05481566 0.052543778 0.056107342 -0.06822897 0.031512946 0.016939854 0.030411996 -0.00845358
-0.010720899 -0.019950405 -0.022594124 0.006722993 0.009320168 0.05444579 0.10179848 -0.044835806
0.028107341 0.08946676 -0.03817826 -0.044030096 -0.018227736 0.022618886 -0.030275753 -0.06690989
-0.16420302 -0.025661925 -0.011427512 -0.025763718 -0.0058564176 0.033392813 -0.110724516 0.03702253
0.006314211 0.058737643 -0.013335277 -0.03978383 -0.026390491 0.026918335 0.02216275 -0.0010497615
0.026685731 -0.008302847 -0.045808624 -0.09700084 0.12651303 -0.026917148 -0.005961004 -0.046261698
-0.06465612 -0.04787922 -0.06709537 -0.083950296 -0.032532964 0.11667167 0.027505243 -0.00996848
-0.104678586 -0.009911798 -0.014715734 0.09351808 -0.011538662 0.06036046 0.01977565 0.12920748
0.0148274 0.05968957 -0.16045518 -0.012657437 -0.008707012 0.037392262 -0.031511128 -0.031348355
0.030269016 -0.027770188 0.07034138 -0.05939341 -0.024173936 0.03319428 0.033771288 0.024713302
-0.061643973 0.00378905 0.061088946 0.03619354 -0.06466559 -0.02735244 -0.11529489 -0.013525351
0.013229076 0.016566487 -0.05019032 0.036520787 -0.018488597 0.03644946 0.020485636 0.07107319
-0.05199973 0.044942208 0.01721836 0.056163754 0.014604072 -0.059372228 -0.0626553 -0.013619942
-0.020436086 -0.0062205116 0.013882916 -0.035057195 -0.01201404 -0.0070180604 -0.0024204622 0.038554218
-0.064966924 0.029975016 0.10920763 -0.013613096 0.039697304 0.01035315 -0.010400781 -0.01604637
-0.086043335 0.015701605 -0.041910518 -0.047556624 -0.0020662067 -0.06702879 0.07944708 -0.019388905
0.06765609 0.06072935 -0.13231827 0.011769338 0.013575805 -0.11945684 -0.05324257 0.11255087
-0.018619392 0.0076121497 0.04325745 0.049231764 -0.026112186 -0.05824769 -0.037038594 -0.01041493
0.013176208 -0.049392153 0.0074412334 0.032944366 0.03588085 -0.06920477 -0.038823787 -0.008424903
-0.055250287 0.07003475 -0.08507899 0.031003622 -0.080817595 0.035358038 0.07432355 -0.026478684
0.12364752 -0.015259953 -0.00025298132 0.024283115 -0.07724356 -0.010239486 0.022810122 0.015606713
0.063060805 0.080575615 -0.0016307853 -0.04345826 0.0056259045 -0.04403274 -0.06280981 0.15458062
00000000: e4a9 cb3c 7389 3bbd 5d78 a3bd 3d6e 023c
00000010: 48d4 2dbd f9e1 bebc 0d7e 303d fc5b afbc
00000020: 45ac 543c 8e81 b23d 3480 513d c6d8 bc3d
00000030: 90f7 233d 5207 a2bd 007f c0bb e042 4bbb
00000040: bd53 88bd 49e4 b1bd 679a cf3c d0c5 3fbd
00000050: 7d23 e43c 51b9 81bb 53c7 153c 4ab1 963d
00000060: f785 253d 5607 e33b d5aa a43a 0261 9f3d
00000070: 45ec 933d 4819 4f3d 0549 9a3c fec7 a6bc
00000080: 52b3 11bd b15e 87bc 4261 e3bd bcb1 8c3c
00000090: b926 f4ba a569 483c 6beb 05bd 1835 8ebd
000000a0: f10f 3cbd 662d 85bd ab24 d2bd 7150 29bc
000000b0: 4094 f23c b1dc d5bc fa10 66bc 2c75 c93d
000000c0: 7240 c83d 7a01 9a3d a2d4 ebbc 5c79 29bc
000000d0: a311 ccb8 1265 8e3d 1d0a a13d 59a1 b93d
000000e0: 1207 ea3d c853 ccbd 93fc 83bb aab9 613c
000000f0: 17e1 9abd 481b ebbc 8e75 b1bc a285 75bd
00000100: 0053 f93d 6e3a 313c a7c2 eb3c 631e 053d
00000110: 6804 183d a485 a8bd 5d34 863d 4fc5 9bbb
00000120: 15a2 f8bc 47da c5bc 39e3 2b3c 3505 6dbd
00000130: 9cd0 e23d d26a 133d e5f5 843c 9b1f 4c3c
00000140: 6386 60bd 2538 573d d0d0 653d a1bb 8bbd
00000150: b813 013d 73c5 8a3c 9422 f93c e280 0abc
00000160: b6a6 2fbc 086f a3bc 5017 b9bc 8e4c dc3b
00000170: 9eb3 183c 8c02 5f3d b97b d03d c0a5 37bd
00000180: 5e41 e63c 593a b73d cf60 1cbd e758 34bd
00000190: 5552 95bc 3e4b b93c db04 f8bc 0d08 89bd
000001a0: d624 28be f538 d2bc 763a 3bbc 6f0e d3bc
000001b0: 31e7 bfbb e7c6 083d 89c3 e2bd f0a4 173d
000001c0: 71e7 ce3b e296 703d 357c 5abc 5ff4 22bd
000001d0: df30 d8bc d783 dc3c a88e b53c 2798 89ba
000001e0: 099c da3c aa08 08bc d3a1 3bbd 60a8 c6bd
000001f0: a28c 013e 5a81 dcbc 8754 c3bb e87c 3dbd
00000200: 6e6a 84bd 001d 44bd 4c69 89bd 22ee abbd
00000210: 4941 05bd 8ef1 ee3d ad52 e13c d652 23bc
00000220: ba61 d6bd 1865 22bc 431a 71bc 6886 bf3d
00000230: a80c 3dbc 883c 773d 8b00 a23c f74e 043e
00000240: a0ee 723c 0d7d 743d 5d4e 24be 2361 4fbc
00000250: dba7 0ebc a128 193d d011 01bd 2267 00bd
00000260: baf6 f73c 4e7e e3bc 240f 903d 8146 73bd
00000270: 6b08 c6bc baf6 073d c353 0a3d 8d73 ca3c
00000280: 647e 7cbd b651 783b 6738 7a3d ad3f 143d
00000290: 656f 84bd 3912 e0bc ba1f ecbd 6f99 5dbc
000002a0: c4be 583c 71b6 873c 5d94 4dbd d296 153d
000002b0: 6675 97bc 074c 153d 7ed1 a73c d28e 913d
000002c0: abfd 54bd 5215 383d 850d 8d3c f70b 663d
000002d0: eb45 6f3c 4b30 73bd 6c51 80bd 2d26 5fbc
000002e0: 9469 a7bc 6fd5 cbbb 2c75 633c 2298 0fbd
000002f0: 89d6 44bc c2f7 e5bb 9ea0 1ebb 07eb 1d3d
00000300: 610d 85bd 2a8e f53c 40a8 df3d 7709 5fbc
00000310: a499 223d 42a0 293c 0a68 2abc ad73 83bc
00000320: 7d37 b0bd a7a0 803c 5daa 2bbd bcca 42bd
00000330: 3269 07bb 6446 89bd 27b5 a23d 7bd5 9ebc
00000340: 478f 8a3d 57bf 783d 717e 07be 2ed4 403c
00000350: 0e6d 5e3c caa5 f4bd e214 5abd 1281 e63d
00000360: b287 98bc 576f f93b b92e 313d 3fa7 493d
00000370: 39e9 d5bc 2195 6ebd c8b5 17bd 62a3 2abc
00000380: 06e1 573c 6d4f 4abd 97d5 f33b acf0 063d
00000390: ccf7 123d 3bbb 8dbd b105 1fbd 9b08 0abc
000003a0: 204e 62bd 616e 8f3d e53d aebd 4ffb fd3c
000003b0: b283 a5bd 97d3 103d f236 983d d3e9 d8bc
000003c0: e93a fd3d e204 7abc 94a2 84b9 62ed c63c
000003d0: df31 9ebd 84c3 27bc 4bdc ba3c 4cb3 7f3c
000003e0: 0626 813d d404 a53d 13c0 d5ba 4a01 32bd
000003f0: 8259 b83b ad5b 34bd 6ea2 80bd 624a 1e3e

vgg.0.bias f4 [63]
-0.0028748424 0.00429977 -0.00065118767 -0.0021812352 -0.0040395907 -0.0015642305 -0.00041447903 -0.0014012242
-0.0025607198 -0.0011865771 -0.0016879598 -0.0033986238 -0.003433854 -0.0044488166 -0.0041506253 -0.00031992537
0.00046124306 -0.003662551 -0.0019447737 -0.0039743665 -0.0018316862 -0.00411253 0.0005593935 -0.0014399932
-0.005134614 -0.0032051639 -0.0035901377 -0.001956904 -0.0041123345 -0.0022195186 -0.0033394035 -0.0026579583
-0.0025234735 0.0010080229 -0.0028537193 0.00040770118 -0.0035919617 0.0029417668 0.0032607722 0.00802862
-0.0031570452 0.0014117135 -0.0014379858 -0.0019659826 -0.0051245755 0.00391757 -0.0008201845 -0.0036088082
-0.00018133655 -0.0036085292 -0.00027916094 0.0019863374 -0.0010602695 -0.0016501354 -0.00077328156 -0.0032378987
-0.0009329877 0.00060874084 0.00033984415 -0.0036494161 0.00065735384 -0.0037082823 0.001497863
00000000: da67 3cbb 16e5 8c3b 77b4 2aba 0ef3 0ebb
00000010: 8b5e 84bb de06 cdba 6f4e d9b9 48a9 b7ba
00000020: c0d1 27bb ec86 9bba 883e ddba 72bb 5ebb
00000030: 830a 61bb 61c7 91bb f801 88bb a8bb a7b9
00000040: ffd2 f139 6907 70bb c7e7 feba 673b 82bb
00000050: 3115 f0ba 67c2 86bb 43a4 123a 27be bcba
00000060: 4440 a8bb ba0d 52bb 8448 6bbb 673f 00bb
00000070: c3c0 86bb 5875 11bb e5d9 5abb 2431 2ebb
00000080: dc60 25bb a31f 843a 7705 3bbb bac0 d539
00000090: 1e67 6bbb a8ca 403b aeb2 553b 798a 033c
000000a0: 6ee6 4ebb 3f09 b93a cc7a bcba b7d7 00bb
000000b0: 0eec a7bb f65e 803b a601 57ba c181 6cbb
000000c0: 2925 3eb9 137d 6cbb 595c 92b9 362d 023b
000000d0: bef8 8aba 5b49 d8ba 0cb6 4aba ed32 54bb
000000e0: bf93 74ba e893 1f3a 1c2d b239 0b2b 6fbb
000000f0: 4552 2c3a a706 73bb f153 c43a

oconv2.weight f4 [1, 63, 3, 3]
0.017494285 0.06775693 0.007526522 -0.1419143 -0.044997927 -0.070229255 -0.045125708 -0.03159033
-0.029853435 0.038651142 0.044479758 0.06904341 -0.05918543 0.0067430404 -0.0112691205 -0.010352044
0.055338845 -0.021105545 0.023416443 0.12036862 -0.004371834 0.026777681 0.08393397 -0.034642573
-0.031878274 0.10179374 -0.017953677 -0.07605421 0.08528568 -0.008159512 -0.056034327 -0.05389944
0.078378215 0.011485618 0.11520605 -0.049193196 0.081328854 0.022192204 -0.046754565 -0.006318061
-0.0038356958 -0.023817789 -0.08198731 0.032080777 0.071301445 0.05251935 0.06131524 -0.096905075
0.046812627 0.048452754 0.05370731 0.07515873 -0.0046286164 0.054088637 -0.060327258 0.057677492
0.024686506 0.12136082 0.046624824 0.15034351 0.10855515 0.03282039 0.017799702 -0.0174591
0.038683858 0.027561115 0.056478895 -0.012949539 0.0748737 -0.027865198 0.028704021 -0.03285251
0.03018895 0.059845466 0.050678406 0.030284699 -0.001570266 -0.057607993 -0.11927351 0.13105373
0.098490074 0.006163836 -0.05959395 0.05809934 0.10151944 0.011990398 -0.046458524 -0.017133629
0.011309149 0.03596976 0.1675802 0.09056465 0.112139076 -0.011077647 -0.075648785 0.101297215
0.041230146 -0.059547845 -0.106539495 -0.01330889 -0.014084273 0.06743414 -0.057389375 -0.0628079
-0.037684392 -0.04092846 -0.07965716 0.066445604 0.07363855 0.09454959 0.067493595 -0.05160186
-0.0234512 0.06639928 0.0012267149 -0.0356889 -0.040035848 0.0001515626 -0.121505626 0.025437532
-0.04637547 -0.12430738 0.058514208 0.03261509 -0.03505834 0.00143834 0.022990653 -0.07328342
-0.087833606 0.033346888 -0.08196711 -0.05654046 0.007938447 0.074243516 0.18014438 -0.05650812
0.05318023 -0.017657833 0.050484624 0.10564724 0.07175638 -0.10733716 0.014814351 -0.012070785
0.037954148 0.049570687 -0.050714325 -0.04453155 -0.059261695 -0.048047356 -0.058632135 -0.0033946594
0.022254163 -0.0975721 -0.0053039375 0.025734177 -0.0134230275 0.05782063 -0.061635196 0.037286323
0.08214101 0.013139071 0.01634295 -0.06273815 -0.08045206 0.099705726 -0.02878481 -0.037427265
0.03813191 0.04972571 0.028100416 0.094856225 -0.1381382 0.0371436 0.003436265 0.03134496
0.10315712 -0.0037296964 0.016426785 0.0136504285 0.044524424 -0.052598707 0.041059628 0.014195823
0.04815442 0.057332445 0.060515244 -0.019746177 -0.0094276685 0.0046702414 0.0691944 0.04142021
-0.058255255 -0.048302744 0.020078098 -0.053489108 -0.09599378 0.061611447 0.053508524 -0.052903567
-0.0090531055 0.052804723 0.010938972 0.014771207 -0.03324708 0.028041603 0.006664723 -0.039358433
-0.008222863 -0.0944609 0.06341843 -0.06953844 -0.028215349 -0.06802772 -0.035885185 -0.005653301
0.0016595284 0.014538207 0.22180529 -0.07199448 -0.07069238 -0.03279271 -0.105924204 0.020957034
0.060993206 0.0026635006 0.039698806 0.055533245 -0.03876844 0.029108457 0.1223002 0.12703815
0.078661375 0.01961873 -0.024754174 -0.022617942 -0.020399442 -0.011759408 -0.018488461 -0.03911931
-0.033735316 -0.016695764 -0.03371499 0.080580585 -0.012975693 0.03702521 -0.048870016 -0.083623685
-0.009441888 -0.046875976 0.11458653 -0.06450749 0.0107721295 -0.031900857 -0.0323042 -0.066484086
00000000: 2d50 8f3c 25c4 8a3d 0ba1 f63b fb51 11be
00000010: bf4f 38bd 5bd4 8fbd bcd5 38bd dd64 01bd
00000020: 318f f4bc a950 1e3d 6830 363d a266 8d3d
00000030: 6c6c 72bd b9f4 dc3b 1ea2 38bc 9f9b 29bc
00000040: fcaa 623d 89e5 acbc d7d3 bf3c d383 f63d
00000050: 9a41 8fbb de5c db3c 93e5 ab3d 5fe5 0dbd
00000060: cb92 02bd 3d79 d03d 9713 93bc 4fc2 9bbd
00000070: 42aa ae3d 79af 05bc 4084 65bd a9c5 5cbd
00000080: c284 a03d 2c2e 3c3c 26f1 eb3d ce7e 49bd
00000090: be8f a63d 6dcc b53c b781 3fbd bd07 cfbb
000000a0: 4c60 7bbb 861d c3bc f6e8 a7bd 2267 033d
000000b0: 7e06 923d 881e 573d b025 7b3d 2b76 c6bd
000000c0: 99be 3f3d 6576 463d 32fc 5b3d d2ec 993d
000000d0: a6ab 97bb 0c8c 5d3d b719 77bd 3c3f 6c3d
000000e0: 5b3b ca3c 068c f83d acf9 3e3d a6f3 193e
000000f0: 2a52 de3d ac6e 063d aed0 913c 6306 8fbc
00000100: f772 1e3d d9c7 e13c 6a56 673d 4e2a 54bc
00000110: 6257 993d 8e45 e4bc b224 eb3c 5b90 06bd
00000120: d14e f73c 8520 753d 2994 4f3d 9e17 f83c
00000130: 62d1 cdba 5cf6 6bbd ac45 f4bd f332 063e
00000140: 2ab5 c93d 01fa c93b c918 74bd 93f9 6d3d
00000150: 6de9 cf3d 6073 443c 4b4b 3ebd d35b 8cbc
00000160: 024a 393c 0755 133d 259a 2b3e f679 b93d
00000170: 2ca9 e53d 057f 35bc c0ed 9abd ea74 cf3d
00000180: f1e0 283d 71e8 73bd 6131 dabd 880d 5abc
00000190: b9c1 66bc e91a 8a3d 1f11 6bbd 6ea1 80bd
000001a0: f35a 1abd 9aa4 27bd 4b23 a3bd a214 883d
000001b0: cfcf 963d 37a3 c13d 153a 8a3d 795c 53bd
000001c0: bb1c c0bc 59fc 873d b9c9 a03a 862e 12bd
000001d0: a1fc 23bd c7ec 1e39 f1d7 f8bd 5f62 d03c
000001e0: 34f4 3dbd de94 febd 98ac 6f3d 6797 053d
000001f0: 5599 0fbd af86 bc3a e556 bc3c 9e15 96bd
00000200: 1be2 b3bd bf96 083d 5fde a7bd f896 67bd
00000210: 4310 023c fc0c 983d c577 383e 0f75 67bd
00000220: 83d3 593d 29a7 90bc f7c8 4e3d 955d d83d
00000230: 02f5 923d 96d3 dbbd e4b7 723c 8bc4 45bc
00000240: cf75 1b3d a20a 4b3d d3b9 4fbd b766 36bd
00000250: 64bc 72bd 4ecd 44bd 4028 70bd ef78 5ebb
00000260: 5d4e b63c e2d3 c7bd a7cc adbb 7bd0 d23c
00000270: 42ec 5bbc 53d5 6c3d 3075 7cbd 8bb9 183d
00000280: 8c39 a83d 4245 573c a6e1 853c dc7c 80bd
00000290: 0dc4 a4bd 8432 cc3d 1fce ebbc 554d 19bd
000002a0: 3530 1c3d 30ad 4b3d d832 e63c fb43 c23d
000002b0: 1a74 0dbe e323 183d f632 613b 9363 003d
000002c0: 0a44 d33d ec6d 74bb 7791 863c 0ca6 5f3c
000002d0: 3e5f 363d be71 57bd 242e 283d 9995 683c
000002e0: 923d 453d 6dd5 6a3d d5de 773d bcc2 a1bc
000002f0: 8276 1abc d308 993b cbb5 8d3d 3da8 293d
00000300: 109d 6ebd 19d9 45bd d37a a43c 6517 5bbd
00000310: 6398 c4bd 495c 7c3d c12b 5b3d 69b1 58bd
00000320: 7a53 14bc c449 583d 6039 333c ef02 723c
00000330: 172e 08bd 81b7 e53c c063 da3b 4f36 21bd
00000340: 30b9 06bc b774 c1bd 86e1 813d 2b6a 8ebd
00000350: e023 e7bc 1e52 8bbd 58fc 12bd 533f b9bb
00000360: 8884 d93a a931 6e3c ed20 633e d871 93bd
00000370: 2bc7 90bd a651 06bd caee d8bd 16ae ab3c
00000380: 03d4 793d 208e 2e3b 379b 223d d476 633d
00000390: a8cb 1ebd dc74 ee3c 8778 fa3d 4a16 023e
000003a0: 3719 a13d 75b7 a03c 44c9 cabc 4349 b9bc
000003b0: bb1c a7bc 88aa 40bc 1d75 97bc 923b 20bd
000003c0: 0b2e 0abd 8ec5 88bc bb18 0abd 6f07 a53d
000003d0: 0098 54bc bfa7 173d ed2b 48bd e542 abbd
000003e0: 26b2 1abc 0601 40bd 58ac ea3d 811c 84bd
000003f0: 967d 303c 79aa 02bd 6951 04bd cf28 88bd
