Models/model38.pth (torch, 152399 bytes, 6 tensors)

oconv1.weight f4 [1, 1, 3, 3]
0.44151744 -0.15126254 -0.5093033 0.18495895 0.1642238 -0.1864187 0.3442188 -0.45934033
-0.20681946
00000000: 930e e23e 91e4 1abe b361 02bf e165 3d3e
00000010: 492a 283e 8be4 3ebe 723d b03e a82e ebbe
00000020: 7bc8 53be

conv1.weight f4 [63, 1, 3, 3]
-1.5535994 0.2957251 0.18590136 -0.036258914 -0.89944106 0.33524987 -0.12733229 0.14395149
-0.19423522 -0.16632819 -0.41311148 -0.11644625 -0.4375077 1.2569664 0.31880483 0.22697186
-0.7669437 0.2751892 0.22418852 -0.55203706 0.52938384 -0.6891136 0.46394923 0.31446812
-0.29737574 0.6813695 -0.12563084 0.32980737 -0.58791447 0.48044318 1.0734894 0.0036383772
0.6331269 -0.57586116 0.17657734 0.6798891 -0.95815325 -0.21767016 0.54217446 0.18149154
0.1129184 -0.044397205 -0.11420433 -0.20566587 0.32224375 -0.1385292 -0.622186 -0.35018307
-0.67909867 -0.0840634 0.5712535 1.0483414 0.018025016 -0.36146426 0.08616266 -0.27334404
0.12021165 -0.22854078 0.41536355 -0.09006042 -0.55975044 0.32926765 0.012504801 0.32604274
0.43251458 -0.060691807 0.12272995 -0.3846015 0.78446573 -0.7890993 0.47930068 0.1725407
0.50007486 0.36721742 -1.1724526 -0.01216742 -0.5091609 1.1217146 0.13991967 0.14233097
0.029577427 0.39201528 0.07664954 -0.6146654 -0.39716765 -0.0038129098 0.27543986 -0.45781043
-0.020079777 -0.1472073 0.6117769 -0.14795652 -0.7231029 -0.4561755 -0.5241263 -0.258436
0.7870229 -0.2819807 -0.4526234 -0.18472968 -0.037806448 0.18668903 0.7139753 0.11077296
-0.85639656 0.5269956 0.51198375 0.5464929 0.8187406 0.3232559 -0.522002 -0.44502652
0.19454889 0.8163476 0.5091176 0.077196516 1.4562752 0.7331585 -0.09330985 -0.25917447
-0.7783794 -0.08912781 0.092231765 0.51329327 0.11378404 0.25819936 0.18382168 -0.029072773
-0.55410445 0.03990835 0.0036660077 -0.093309835 0.17869407 -0.49783334 0.41224974 -0.019676358
0.21466273 -0.46496946 0.45837557 0.38104743 -0.23398115 -0.61260074 -0.7151299 -0.557714
0.37660646 0.17956485 0.67302644 0.5851079 -0.7243962 0.45207062 0.06308816 0.3691507
-0.09504357 -0.08903452 -0.29118052 -0.7214843 0.10806665 -0.773323 -0.98700875 0.5549248
0.8535786 -0.8098711 0.15217374 0.98371714 -1.1002756 0.69040567 -0.17863892 0.20006223
-0.26089847 -0.10355049 -0.30533502 -0.06978003 0.11911891 0.5340553 -0.7205831 0.21414962
0.35442486 0.101182126 0.4072233 0.60031277 0.4532708 0.28460145 -0.30555987 0.11262161
0.9443937 0.14835116 0.40209046 -0.24261689 -0.17231418 -0.2099114 -0.31632087 -0.3481061
0.26864117 0.5972398 0.009421011 -0.02624614 -0.16913797 -0.056041457 -0.50960875 -0.18953775
-0.5273451 0.47291616 0.122054815 0.25805795 0.5341313 -0.15552123 -0.25408897 -0.16689104
-0.83533514 0.9159698 0.11026403 0.2780007 -0.016095664 -0.42668778 0.34787488 0.4960053
-0.17072438 0.4469844 0.17209555 0.046295 0.38323238 -0.017700663 -1.256415 -0.40955153
0.34718913 0.1270588 0.1755087 -0.3895049 0.31941202 0.40354115 -0.19613425 0.14061257
0.56609833 0.11654381 -0.7894076 -0.33113903 -0.37079623 -0.6903313 -0.24107327 -0.3887416
0.247061 0.074190244 -0.8764708 0.19830593 0.5064051 0.68031156 0.22607659 -0.11904278
-0.53139657 -0.35006434 0.026419202 0.22082375 0.1343046 -0.14183743 -0.68943596 -0.8769812
00000000: 58dc c6bf 4869 973e ed5c 3e3e 3a84 14bd
00000010: c541 66bf dfa5 ab3e 6563 02be 0568 133e
00000020: 99e5 46be f051 2abe 5983 d3be 5f7b eebd
00000030: 0201 e0be 46e4 a03f 633a a33e 506b 683e
00000040: 6c56 44bf 99e5 8c3e ad91 653e 4d52 0dbf
00000050: b385 073f c069 30bf c18a ed3e f701 a13e
00000060: a241 98be 3b6e 2e3f 5fa5 00be 83dc a83e
00000070: 9081 16bf a6fc f53e 1a68 893f d771 6e3b
00000080: 9b14 223f a36b 13bf b1d0 343e 360d 2e3f
00000090: 8849 75bf ede4 5ebe f2cb 0a3f ebd8 393e
000000a0: c341 e73d d8d9 35bd f6e3 e9bd 139a 52be
000000b0: 22fd a43e 99da 0dbe 9547 1fbf 324b b3be
000000c0: 69d9 2dbf 6f29 acbd ab3d 123f 0d30 863f
000000d0: 33a9 933c d811 b9be 0c76 b03d c0f3 8bbe
000000e0: 8731 f63d 9806 6abe 88aa d43e 9971 b8bd
000000f0: ce4b 0fbf c595 a83e f0e0 4c3c 13ef a63e
00000100: 8d72 dd3e f997 78bd d759 fb3d 7dea c4be
00000110: bfd2 483f 6902 4abf e666 f53e 82ae 303e
00000120: e804 003f ec03 bc3e ed12 96bf dc59 47bc
00000130: 5e58 02bf 5894 8f3f 1a47 0f3e 36bf 113e
00000140: 5c4c f23c 3ab6 c83e 6ffa 9c3d b65a 1dbf
00000150: 8f59 cbbe 03e2 79bb 7406 8d3e 2166 eabe
00000160: 587e a4bc 83bd 16be 699d 1c3f ea81 17be
00000170: 461d 39bf d68f e9be 242d 06bf b951 84be
00000180: 557a 493f c65f 90be 41be e7be c729 3dbe
00000190: efda 1abd 692b 3f3e 16c7 363f efdc e23d
000001a0: ce3c 5bbf 2fe9 063f 5e11 033f f5e6 0b3f
000001b0: fc98 513f cc81 a53e eca1 05bf 84da e3be
000001c0: d337 473e 28fc 503f 8855 023f 3519 9e3d
000001d0: 3a67 ba3f 47b0 3b3f 3c19 bfbd 84b2 84be
000001e0: df43 47bf a488 b6bd 02e4 bc3d 3067 033f
000001f0: 9b07 e93d b532 843e c03b 3c3e 062a eebc
00000200: cad9 0dbf f076 233d 6741 703b 3a19 bfbd
00000210: 94fb 363e 03e4 febe 6612 d33e 5030 a1bc
00000220: 8cd0 5b3e 7a10 eebe 34b0 ea3e a618 c33e
00000230: c198 6fbe 67d3 1cbf c112 37bf 58c6 0ebf
00000240: 90d2 c03e d9df 373e 764b 2c3f a2c9 153f
00000250: 0872 39bf cd75 e73e 5d34 813d 5201 bd3e
00000260: 34a6 c2bd bb57 b6bd 9d15 95be 32b3 38bf
00000270: 0c52 dd3d 7ff8 45bf 9bac 7cbf 8d0f 0e3f
00000280: 2184 5a3f b653 4fbf 6fd3 1b3e e3d4 7b3f
00000290: d5d5 8cbf 6dbe 303f 1fed 36be 1ddd 4c3e
000002a0: 7c94 85be 4812 d4bd df54 9cbe d5e8 8ebd
000002b0: 9df4 f33d d9b7 083f 2278 38bf 0a4a 5b3e
000002c0: 2d77 b53e 9338 cf3d 937f d03e 19ae 193f
000002d0: 1c13 e83e 48b7 913e 5872 9cbe 29a6 e63d
000002e0: c9c3 713f 5ee9 173e cdde cd3e 9070 78be
000002f0: 2173 30be 04f3 56be cff4 a1be f63a b2be
00000300: 568b 893e b5e4 183f 965a 1a3c 2502 d7bc
00000310: 8132 2dbe ba8b 65bd b875 02bf 2f16 42be
00000320: 1700 07bf 1122 f23e e0f7 f93d 2c20 843e
00000330: d4bc 083f f540 1fbe f317 82be 7ce5 2abe
00000340: 86d8 55bf ff7c 6a3f 1cd2 e13d 1c56 8e3e
00000350: 0edb 83bc d276 dabe a81c b23e 68f4 fd3e
00000360: 5fd2 2ebe 24db e43e d139 303e d39f 3d3d
00000370: 0937 c43e fb00 91bc 35d2 a0bf bdb0 d1be
00000380: c6c2 b13e b41b 023e 8db8 333e 306d c7be
00000390: f989 a33e f29c ce3e 6bd7 48be befc 0f3e
000003a0: d2eb 103f 85ae ee3d 9e16 4abf 0e8b a9be
000003b0: 01d9 bdbe 8db9 30bf e9db 76be 2409 c7be
000003c0: 8ffd 7c3e 0ef1 973d 6460 60bf b610 4b3e
000003d0: c4a3 013f e628 2e3f 9f80 673e b3cc f3bd
000003e0: 9b09 08bf a23b b3be 156d d83c 9f1f 623e
000003f0: 2587 093e d53d 11be e07e 30bf d781 60bf

conv1.bias f4 [63]
0.0032456226 0.0010332069 0.0036139362 0.0040959357 0.0049080197 0.0050240355 0.0020998514 0.0033863867
-0.007929922 0.0030271132 0.003164687 0.001417025 -0.005957453 0.0054642027 -0.002793718 -0.004544133
-0.0050362465 -0.0044377474 -0.004678518 -0.00435141 -0.0050864555 -0.0039429297 -0.0046097026 0.0037887837
0.0021832325 -0.0041294903 -0.003355522 -0.004807188 -0.0013696566 -0.0061008385 -0.0057177343 -0.003954296
0.002037855 -0.0051714163 0.000101912934 0.00056821294 0.0032532616 -0.004652105 -0.00435967 -0.0014167315
-0.0042619025 0.00015827043 -0.003323013 -0.004669641 -0.0061076735 -0.005147242 -0.0022826944 -0.004895925
0.001192745 -0.0047796518 -0.004115568 0.0040211426 -0.005472694 -0.0015327412 0.005351714 0.0036625126
-0.0035488862 0.003596395 0.0023854254 -0.0046647335 -0.0039841034 -0.005686296 -0.005824126
00000000: 83b4 543b ac6c 873a cad7 6c3b 3337 863b
00000010: 74d3 a03b aaa0 a43b a99d 093b 24ee 5d3b
00000020: 81ec 01bc 8862 463b a366 4f3b 78bb b93a
00000030: bd36 c3bb 0e0d b33b cf16 37bb f3e6 94bb
00000040: 1907 a5bb 866a 91bb 414e 99bb 4696 8ebb
00000050: 48ac a6bb b133 81bb fd0c 97bb 3e4d 783b
00000060: 9014 0f3b ad50 87bb 51e8 5bbb 9e85 9dbb
00000070: 0d86 b3ba 8be9 c7bb d55b bbbb 0a93 81bb
00000080: 898d 053b fc74 a9bb 17ba d538 20f4 143a
00000090: ac34 553b af70 98bb 90db 8ebb 9fb1 b9ba
000000a0: 6ea7 8bbb 65f5 2539 e8c6 59bb ca03 99bb
000000b0: e122 c8bb 32aa a8bb 4299 15bb ff6d a0bb
000000c0: e255 9c3a a09e 9cbb e3db 86bb cac3 833b
000000d0: 4954 b3bb 43e6 c8ba 6e5d af3b c406 703b
000000e0: 6e94 68bb 7fb1 6b3b cc54 1c3b 9fda 98bb
000000f0: 158d 82bb 1c54 babb 4fd8 bebb

vgg.0.weight f4 [63, 63, 3, 3]
0.0236673 -0.046828967 -0.08098649 0.0069648433 -0.04354421 -0.02441264 0.042095207 -0.022465743
0.011720507 0.086139634 0.051733468 0.0910539 0.039321445 -0.07994756 -0.0071637304 -0.004395084
-0.065516464 -0.087706804 0.02436688 -0.04770732 0.027148059 -0.0050223945 0.008254424 0.07263705
0.039460532 0.006205665 0.00045444482 0.076728195 0.07122346 0.049136583 0.017590927 -0.020686477
-0.036651567 -0.017415917 -0.11168691 0.01620658 -0.0028932618 0.011417672 -0.03359766 -0.07042679
-0.04703467 -0.06609384 -0.10353514 -0.011336715 0.028531056 -0.026233032 -0.013586633 0.09741143
0.09686883 0.07395979 -0.029279292 -0.011339645 -0.0010679603 0.06830635 0.07767653 0.08969513
0.11478903 -0.10071205 -0.0035878043 0.014085021 -0.07665553 -0.028698739 -0.021111904 -0.060240068
0.12113061 0.010119852 0.02767434 0.032534238 0.035990097 -0.082770474 0.06448404 -0.0053029545
-0.03132753 -0.025043981 0.009526961 -0.058784653 0.10978721 0.03494673 0.015468897 0.011551186
-0.05569541 0.05149709 0.055086907 -0.06929787 0.03042726 0.015922626 0.029370077 -0.009590088
-0.011799412 -0.020992799 -0.023709374 0.0068776645 0.008511462 0.05331862 0.100667864 -0.045830533
0.026976591 0.088666216 -0.039240513 -0.044879988 -0.019223517 0.021595383 -0.031370733 -0.0675206
-0.1639391 -0.026442962 -0.0123819485 -0.024970949 -0.0068880753 0.033906035 -0.11187705 0.035995815
0.0055395504 0.057697553 -0.014198801 -0.03988279 -0.026263233 0.02613184 0.023229998 -0.0018790723
0.025807597 -0.009311187 -0.0471385 -0.096435 0.12787308 -0.027596403 -0.0068292716 -0.047156654
-0.06555816 -0.048779353 -0.068169646 -0.084272526 -0.03349232 0.11571444 0.026850726 -0.011083561
-0.105779715 -0.009585496 -0.0157913 0.09250339 -0.0113589 0.05908634 0.018618887 0.1284372
0.0154493125 0.058777533 -0.16145548 -0.013919378 -0.009417441 0.03633382 -0.031327922 -0.032160282
0.029157382 -0.02836189 0.06913597 -0.059782065 -0.025408529 0.031940125 0.03252843 0.023655783
-0.062814005 0.0024596404 0.059705473 0.03504399 -0.06605634 -0.028420778 -0.11479163 -0.013778991
0.012143682 0.015453112 -0.049399707 0.03555928 -0.019185081 0.035462953 0.019529648 0.07020869
-0.053022586 0.044075515 0.01657941 0.05521978 0.013638815 -0.06036737 -0.061947085 -0.014458009
-0.02141767 -0.006777738 0.012840469 -0.035559833 -0.012422144 -0.007815687 -0.0037484225 0.03914908
-0.0649942 0.028690659 0.108283855 -0.0148511715 0.038473986 0.009545786 -0.011364702 -0.016984846
-0.086933024 0.01481364 -0.04289767 -0.04860022 -0.0028742661 -0.06793412 0.07856542 -0.018913347
0.066434555 0.059589304 -0.13142921 0.011873782 0.012314573 -0.12035351 -0.05420702 0.1114064
-0.019590495 0.006677569 0.04229733 0.04822009 -0.026986387 -0.059310723 -0.038094595 -0.011457059
0.0121592805 -0.050336506 0.0065567917 0.033831146 0.034842312 -0.06999729 -0.037962735 -0.00935194
-0.055892922 0.0716153 -0.086142756 0.029947713 -0.081799254 0.03429727 0.07325747 -0.027547369
0.12259603 -0.016262768 -0.0013516074 0.023578506 -0.07805428 -0.011471662 0.021514567 0.014859585
0.06215025 0.07969847 -0.002558988 -0.04457785 0.0046383566 -0.04525979 -0.06391038 0.15350434
00000000: ede1 c13c bbcf 3fbd 3fdc a5bd 5739 e43b
00000010: 6a5b 32bd 04fd c7bc 066c 2c3d 140a b8bc
00000020: 5f07 403c fa69 b03d 79e6 533d 787a ba3d
00000030: 860f 213d 8cbb a3bd babd eabb a304 90bb
00000040: 7f2d 86bd a09f b3bd 0d9d c73c c068 43bd
00000050: 9b65 de3c e692 a4bb 903d 073c bcc2 943d
00000060: 5ea1 213d e458 cb3b 8d42 ee39 ac23 9d3d
00000070: 9bdd 913d 7143 493d d91a 903c b076 a9bc
00000080: f41f 16bd d3ab 8ebc 1bbc e4bd a9c3 843c
00000090: e19c 3dbb 3011 3b3c b39d 09bd ec3b 90bd
000000a0: 6da7 40bd 355c 87bd 3b0a d4bd a1bd 39bc
000000b0: f6b9 e93c a8e6 d6bc 789a 5ebc a57f c73d
000000c0: 2a63 c63d 3b78 973d 20db efbc ebc9 39bc
000000d0: cdfa 8bba 33e4 8b3d df14 9f3d 15b2 b73d
000000e0: 8316 eb3d 1f42 cebd 5e21 6bbb dcc4 663c
000000f0: 93fd 9cbd 9e19 ebbc dff2 acbc 4abe 76bd
00000100: 5313 f83d bccd 253c 4cb5 e23c 9f42 053d
00000110: 5a6a 133d 9183 a9bd 3510 843d 68c4 adbb
00000120: 4c51 00bd 0929 cdbc f816 1c3c 2dc8 70bd
00000130: 1ed8 e03d 4d24 0f3d 4271 7d3c 3041 3d3c
00000140: df20 64bd 9dee 523d cfa2 613d 0bec 8dbd
00000150: 9742 f93c 2b70 823c 8499 f03c bf1f 1dbc
00000160: 5252 41bc 17f9 abbc 293a c2bc 085e e13b
00000170: a973 0b3c a064 5a3d f42a ce3d ccb8 3bbd
00000180: 03fe dc3c a296 b53d a9ba 20bd 14d4 37bd
00000190: a37a 9dbc cde8 b03c 997e 00bd 3e48 8abd
000001a0: a7df 27be e99e d8bc a8dd 4abc e08f ccbc
000001b0: 5db5 e1bb 0ee1 0a3d cb1f e5bd 5970 133d
000001c0: 1e85 b53b 4554 6c3d 16a2 68bc 235c 23bd
000001d0: fe25 d7bc 7112 d63c d64c be3c 344b f6ba
000001e0: 746a d33c f38d 18bc 4d14 41bd b77f c5bd
000001f0: 29f1 023e da11 e2bc 15c8 dfbb 5627 41bd
00000200: 5b43 86bd dccc 47bd 879c 8bbd 1397 acbd
00000210: 3e2f 09bd b1fb ec3d 0ef6 db3c d397 35bc
00000220: 09a3 d8bd 7c0c 1dbc c25c 81bc 6b72 bd3d
00000230: ae1a 3abc 8504 723d a386 983c 0b85 033e
00000240: 1d1f 7d3c b6c0 703d 9654 25be 1a0e 64bc
00000250: 9c4b 1abc c6d2 143d b551 00bd 80ba 03bd
00000260: 76db ee3c 3257 e8bc 2997 8d3d 0ade 74bd
00000270: 8c25 d0bc a6d3 023d 883c 053d c6c9 c13c
00000280: a1a4 80bd eb31 213b ba8d 743d 498a 0f3d
00000290: 8c48 87bd b1d2 e8bc e017 ebbd 47c1 61bc
000002a0: 4bf6 463c 0d2f 7d3c 5957 4abd 9ca6 113d
000002b0: 082a 9dbc 9a41 113d a4fc 9f3c 93c9 8f3d
000002c0: 362e 59bd 8788 343d 8bd1 873c 232e 623d
000002d0: 5675 5f3c c643 77bd 3abc 7dbd 49e1 6cbc
000002e0: 1c74 afbc ca17 debb d560 523c 30a7 11bd
000002f0: 4086 4bbc 5e0d 00bc 18a8 75bb c95a 203d
00000300: ae1b 85bd ac08 eb3c edc3 dd3d 5452 73bc
00000310: e696 1d3d ee65 1c3c 0433 3abc ce23 8bbc
00000320: f109 b2bd e9b4 723c 78b5 2fbd 0611 47bd
00000330: 2f5e 3cbb 0b21 8bbd e8e6 a03d 2af0 9abc
00000340: d70e 883d ea13 743d 6195 06be 408a 423c
00000350: 10c3 493c e77b f6bd 2e08 5ebd 0a29 e43d
00000360: 3f7c a0bc 82cf da3b f73f 2d3d 6e82 453d
00000370: 8e12 ddbc cdef 72bd 1409 1cbd 63b6 3bbc
00000380: b837 473c a72d 4ebd 5bda d63b 8792 0a3d
00000390: d0b6 0e3d bd5a 8fbd d07e 1bbd e138 19bc
000003a0: faef 64bd 0bab 923d 9d6b b0bd e854 f53c
000003b0: 5e86 a7bd 4b7b 0c3d 0308 963d 05ab e1bc
000003c0: a113 fb3d 7f39 85bc 6b28 b1ba b627 c13c
000003d0: ecda 9fbd a3f3 3bbc 513f b03c 9e75 733c
000003e0: 4391 7e3d f438 a33d b2b4 27bb 4397 36bd
000003f0: 5bfd 973b 5462 39bd 72e3 82bd 3e30 1d3e

vgg.0.bias f4 [63]
-0.0039029573 0.002975731 -4.5935652e-05 -0.0015767702 -0.0052269455 -0.0021891396 9.5813666e-05 -0.001382212
-0.0028801344 -0.0018734869 -0.0027039282 -0.004143353 -0.0033410694 -0.005191997 -0.0045202877 -0.00050951634
0.0002605107 -0.0046136854 -0.0010963974 -0.0048405663 -0.0024784217 -0.0038201618 -7.877555e-05 -0.0026711347
-0.0061462712 -0.0042913468 -0.0049126926 -0.002480226 -0.0049109715 -0.0022059258 -0.0040829456 -0.0039286767
-0.0029862362 -0.00016961074 -0.0037552724 -0.0010376724 -0.004506048 0.0025106003 0.003081969 0.008446199
-0.0042417734 0.0026568344 -0.0026166535 -0.0032295033 -0.0061080907 0.0046345745 -0.0019500607 -0.004575532
-0.00047952405 -0.004506191 -0.0018614051 0.0021709837 -0.0012111386 -0.0026694238 -0.00034868065 -0.0043482375
0.0005789524 0.0006144581 0.00083602854 -0.005001143 0.00035706256 -0.00503324 0.002420195
00000000: c2c8 7fbb 7b04 433b 08ab 40b8 a1ab ceba
00000010: cc46 abbb ab77 0fbb 92ef c838 572b b5ba
00000020: a3c0 3cbb ca8f f5ba 6334 31bb f7c4 87bb
00000030: d8f5 5abb a121 aabb ec1e 94bb 1091 05ba
00000040: 2795 8839 662e 97bb feb4 8fba 9d9d 9ebb
00000050: 046d 22bb ae5b 7abb 4d34 a5b8 340e 2fbb
00000060: a966 c9bb 6d9e 8cbb a7fa a0bb 4a8b 22bb
00000070: 37ec a0bb 4b91 10bb 3bca 85bb 21bc 80bb
00000080: bbb4 43bb 89d9 31b9 041b 76bb 8202 88ba
00000090: 78a7 93bb e288 243b dcfa 493b ed61 0a3c
000000a0: 93fe 8abb 491e 2e3b 297c 2bbb 13a6 53bb
000000b0: 6126 c8bb a1dd 973b 2e99 ffba 58ee 95bb
000000c0: a168 fbb9 aba8 93bb 64fa f3ba 1047 0e3b
000000d0: 11bf 9eba 80f1 2ebb 20cf b6b9 a97b 8ebb
000000e0: d6c4 173a 9613 213a ed28 5b3a a1e0 a3bb
000000f0: 2034 bb39 e1ed a4bb 229c 1e3b

oconv2.weight f4 [1, 63, 3, 3]
0.018703045 0.06678888 0.0077996864 -0.14127536 -0.043874856 -0.07121592 -0.043770693 -0.032160252
-0.02842048 0.037541065 0.04555901 0.06758781 -0.058230557 0.006058055 -0.012584736 -0.011515118
0.056343306 -0.019728085 0.024265917 0.119198196 -0.0047916844 0.027850207 0.083119825 -0.033945423
-0.031007338 0.10247683 -0.018230146 -0.075054616 0.0842258 -0.0074150576 -0.05490545 -0.05277497
0.077166215 0.010524868 0.115270875 -0.050128575 0.07998849 0.023226779 -0.04711714 -0.007281201
-0.0030555238 -0.025046185 -0.080728956 0.033353504 0.06983122 0.05123006 0.062737204 -0.097956434
0.04563548 0.047400344 0.054623365 0.073547624 -0.0051659625 0.05555287 -0.059216835 0.056386292
0.023830006 0.12180024 0.046509128 0.1491325 0.10905639 0.033628423 0.018963985 -0.016965909
0.03771168 0.026613751 0.055904515 -0.013221176 0.073732145 -0.026582409 0.027389226 -0.033250973
0.02894381 0.058582302 0.0494997 0.02914289 -0.0026366913 -0.05740846 -0.118107036 0.12993811
0.09728102 0.0069586267 -0.057993505 0.05901471 0.10126192 0.010411887 -0.045114033 -0.016194407
0.010761598 0.034872264 0.16607434 0.08932726 0.110840745 -0.009974592 -0.0767796 0.10060891
0.041158207 -0.058255557 -0.107428916 -0.0127514545 -0.015382025 0.066643916 -0.056488033 -0.06166984
-0.03899391 -0.042065788 -0.078539334 0.06750663 0.07244119 0.095782466 0.0662874 -0.050802935
-0.02252941 0.065162696 0.0023734581 -0.0348618 -0.04107141 -0.0010530755 -0.12108275 0.02412083
-0.0452412 -0.124353476 0.05932196 0.031035455 -0.03434023 0.00019538148 0.02304566 -0.07236378
-0.08846609 0.03220947 -0.08077778 -0.05757575 0.009098286 0.07314066 0.17865545 -0.05542751
0.052111026 -0.016550818 0.05081488 0.10423016 0.07051395 -0.1060913 0.015888399 -0.011063143
0.039209772 0.04874754 -0.051300302 -0.043268897 -0.05832893 -0.049044147 -0.057610944 -0.0023398406
0.02130245 -0.09636451 -0.0063517443 0.024372397 -0.014125105 0.057970934 -0.06031936 0.036313973
0.08102339 0.014399141 0.017110778 -0.06357338 -0.07991983 0.09849413 -0.027919034 -0.038076647
0.039139137 0.048527837 0.026897851 0.09359974 -0.13677233 0.03713757 0.0043370305 0.030702954
0.101931855 -0.002794822 0.015895601 0.013331987 0.04326421 -0.051495444 0.041701496 0.012998598
0.046900094 0.058401547 0.059361603 -0.018573543 -0.009082324 0.0036416682 0.06898251 0.040376674
-0.057028104 -0.04945295 0.020719111 -0.05449855 -0.09496868 0.06291475 0.05242426 -0.052874148
-0.009319471 0.0530249 0.010424557 0.01350048 -0.03309356 0.027807327 0.0054557715 -0.038187828
-0.009087738 -0.09263969 0.06424031 -0.06802978 -0.029315634 -0.06641208 -0.03571425 -0.0069400384
0.00068677607 0.01564127 0.22051612 -0.07101488 -0.069500215 -0.03418557 -0.104699805 0.019667767
0.062476076 0.001404806 0.038593218 0.056430157 -0.03791322 0.029295586 0.1212545 0.1260516
0.07952892 0.0209997 -0.023664743 -0.02159304 -0.020040043 -0.010807751 -0.017660964 -0.037930734
-0.032583863 -0.015644435 -0.032472506 0.07921278 -0.014078633 0.038190015 -0.047860585 -0.0825166
-0.008965355 -0.0481842 0.11321156 -0.06366627 0.009779437 -0.030854108 -0.032839555 -0.065265276
00000000: 2137 993c 9cc8 883d 8394 ff3b 7daa 10be
00000010: 1fb6 33bd a7d9 91bd e648 33bd 78ba 03bd
00000020: 11d2 e8bc a9c4 193d 169c 3a3d 7a6b 8a3d
00000030: 2a83 6ebd a682 c63b 3530 4ebc e8a9 3cbc
00000040: 3dc8 663d cb9c a1bc 51c9 c63c 2f1e f43d
00000050: 9003 9dbb 1e26 e43c ba3a aa3d 5b0a 0bbd
00000060: 1a03 febc 5fdf d13d 6357 95bc 3cb6 99bd
00000070: 947e ac3d 03fa f2bb 8ae4 60bd 912a 58bd
00000080: 5209 9e3d 7f70 2c3c 2313 ec3d 9f53 4dbd
00000090: 01d1 a33d 1646 be3c e7fd 40bd 2497 eebb
000000a0: 2f3f 48bb a82d cdbc 3955 a5bd af9d 083d
000000b0: ac03 8f3d 9dd6 513d 5d7c 803d 629d c8bd
000000c0: 45ec 3a3d dd26 423d c0bc 5f3d 23a0 963d
000000d0: 3c47 a9bb 688b 633d 5a8d 72bd 50f5 663d
000000e0: 2537 c33c 6772 f93d 5b80 3e3d 31b6 183e
000000f0: f558 df3d f5bd 093d 5c5a 9b3c 17fc 8abc
00000100: 9077 1a3d 1505 da3c 22fc 643d a29d 58bc
00000110: e100 973d 5ac3 d9bc 5f5f e03c 2c32 08bd
00000120: 921b ed3c fff3 6f3d 33c0 4a3d 12bd ee3c
00000130: 57cc 2cbb 2225 6bbd 1ae2 f1bd 7f0e 053e
00000140: 453b c73d 3105 e43b 998a 6dbd 69b9 713d
00000150: 6962 cf3d 9f96 2a3c 7ec9 38bd 22aa 84bc
00000160: 6a51 303c 38d6 0e3d 640f 2a3e 36f1 b63d
00000170: 7900 e33d 796c 23bc 9f3e 9dbd 0b0c ce3d
00000180: 8295 283d 619d 6ebd b103 dcbd 7aeb 50bc
00000190: e404 7cbc 9b7c 883d ff5f 67bd 8499 7cbd
000001a0: 14b8 1fbd 2d4d 2cbd 3bd9 a0bd eb40 8a3d
000001b0: 0c5c 943d 9929 c43d b0c1 873d bd16 50bd
000001c0: 998f b8bc 0574 853d 058c 1b3b 3fcb 0ebd
000001d0: 7f3a 28bd 5a07 8aba 3cfa f7bd 0c99 c53c
000001e0: d64e 39bd 09ad febd 95fb 723d 113e fe3c
000001f0: 57a8 0cbd 51df 4c39 41ca bc3c 7633 94bd
00000200: b62d b5bd 14ee 033d d26e a5bd 8dd4 6bbd
00000210: fa10 153c c5ca 953d 74f1 363e f507 63bd
00000220: 5f72 553d 9595 87bc 4323 503d 9f76 d53d
00000230: 9e69 903d 6546 d9bd 6328 823c 2f42 35bc
00000240: 6d9a 203d 80ab 473d 4420 52bd ba3a 31bd
00000250: 51ea 6ebd 84e2 48bd 74f9 6bbd 0358 19bb
00000260: 7a82 ae3c c25a c5bd 4b22 d0bb 9fa8 c73c
00000270: fc6c 67bc ee72 6d3d 6f11 77bd f6bd 143d
00000280: 97ef a53d 60ea 6b3c e72b 8c3c c332 82bd
00000290: 02ad a3bd 4ab7 c93d 75b6 e4bc 42f6 1bbd
000002a0: 5c50 203d 20c5 463d e258 dc3c 38b1 bf3d
000002b0: 0c0e 0cbe 911d 183d a61d 8e3b c384 fb3c
000002c0: a6c1 d03d 5529 37bb 7e37 823c 686e 5a3c
000002d0: d035 313d e3ec 52bd 30cf 2a3d 12f8 543c
000002e0: 501a 403d 7636 6f3d 2725 733d 8b27 98bc
000002f0: 07ce 14bc 0ea9 6e3b b446 8d3d 0362 253d
00000300: 4d96 69bd 2d8f 4abd 20bb a93c df39 5fbd
00000310: f07e c2bd 73d9 803d d2ba 563d 9092 58bd
00000320: b2b0 18bc a330 593d c3cb 2a3c 1e31 5d3c
00000330: 1d8d 07bd 31cc e33c 54c6 b23b d76a 1cbd
00000340: bce4 14bc e1b9 bdbd 6c90 833d 3353 8bbd
00000350: 5727 f0bc 0e03 88bd 1b49 12bd 4369 e3bb
00000360: c308 343a 1f22 803c face 613e 4070 91bd
00000370: 2156 8ebd 2b06 0cbd da6c d6bd 4c1e a13c
00000380: eae6 7f3d 7821 b83a ec13 1e3d 4f23 673d
00000390: e44a 1bbd 4cfd ef3c 4754 f83d ac13 013e
000003a0: 0fe0 a23d 9007 ac3c 90dc c1bc e3e3 b0bc
000003b0: 042b a4bc fe12 31bc baad 90bc 425d 1bbd
000003c0: a876 05bd c228 80bc e401 05bd 4f3a a23d
000003d0: 11aa 66bc 226d 1c3d 7609 44bd 77fe a8bd
000003e0: 6de3 12bc cc5c 45bd 76db e73d 7663 82bd
000003f0: ef39 203c c1c1 fcbc c582 06bd cda9 85bd
