Models/model06.pth (torch, 150991 bytes, 6 tensors)

oconv1.weight f4 [1, 1, 3, 3]
00000000: 4fdc e23e 107e 1cbe a5d5 02bf bcea 3b3e
00000010: c0c9 293e 7478 40be c206 b13e a104 ecbe
00000020: e6a1 55be
0.44308707 -0.15282464 -0.51107246 0.18351263 0.16580868 -0.18795949 0.34575468 -0.46097282
-0.2086254

conv1.weight f4 [63, 1, 3, 3]
00000000: 2b1d c7bf 95a2 963e 90ff 3f3e 71e6 1bbd
00000010: 42a8 66bf bbe7 aa3e ceff 03be de24 153e
00000020: a692 46be eb35 2cbe d97d d4be 8b5a f2bd
00000030: 91fb e0be 29b7 a03f 645a a23e a4b5 663e
00000040: 21d0 43bf bfed 8d3e c72f 673e 7c81 0dbf
00000050: f514 073f b6e0 30bf e332 ee3e 264d a13e
00000060: b5d8 97be 1a2b 2e3f 3c9f 02be 2412 a83e
00000070: 33fa 16bf c2b4 f63e 529e 893f 85ab 003b
00000080: 3897 213f 98da 13bf 5a21 333e 2f64 2e3f
00000090: bfd5 74bf d3ec 5cbe 7896 0a3f df7c 3b3e
000000a0: ef54 eb3d 6de8 2dbd 5217 e6bd bcb2 50be
000000b0: 40d2 a53e 5f36 0cbe 5ffc 1ebf b6b4 b2be
000000c0: 8472 2dbf ea69 a8bd 62b0 123f 5971 863f
000000d0: 5d2f a23c 5be9 b9be b069 b33d d2f7 8cbe
000000e0: 3eb1 f93d fe85 68be 49c5 d33e 8fdc b5bd
000000f0: 9cee 0ebf 202e a93e b801 2d3c f3e5 a63e
00000100: 3311 dd3e c70f 7fbd 9f64 f83d b7b1 c5be
00000110: eb3c 493f d483 4abf 3965 f43e f757 323e
00000120: 7572 003f cbf7 bc3e 0c4f 96bf 21e2 27bc
00000130: 7c4b 02bf 5dcf 8f3f 5003 113e 2d7e 133e
00000140: fac4 fd3c 9fa1 c93e d337 a03d 4e62 1dbf
00000150: 2557 ccbe 0084 24bb 69dd 8d3e 30aa e9be
00000160: 3b1a 99bc 5432 15be a1dc 1c3f 6185 19be
00000170: 021e 39bf c8be e8be a0c0 05bf 9cb8 84be
00000180: f8ea 493f 2329 91be 009e e8be 6903 3cbe
00000190: a3ba 1dbd 48d2 3d3e 677d 363f 8a64 e63d
000001a0: aefc 5abf 8774 073f 4995 033f 4456 0c3f
000001b0: 1511 523f 9dcd a43e aefe 05bf c242 e3be
000001c0: b499 473e e4af 503f 3bca 023f e02e a13d
000001d0: 9aa2 ba3f 914c 3b3f 3604 c2bd 223e 85be
000001e0: febf 47bf 86d4 b9bd c30b ba3d 04de 033f
000001f0: 2180 e53d c948 853e 4c26 3e3e 4b00 ddbc
00000200: e937 0ebf 4558 1e3d 6f46 0d3b 7b82 c2bd
00000210: e888 373e 16b9 fdbe 5133 d43e 1345 94bc
00000220: e5a3 5d3e 0ad6 eebe f7b0 eb3e 5bf6 c33e
00000230: cd3b 71be ad3a 1dbf 1f77 37bf 0f34 0fbf
00000240: 6aa1 c13e 1aa6 393e e5c0 2c3f ea34 163f
00000250: 6406 3abf 284b e83e 5808 853d 6fcb bd3e
00000260: b516 c0bd 80b6 b5bd c13e 95be 4f0c 39bf
00000270: edbb e03d f667 46bf 2427 7dbf 87c2 0d3f
00000280: e1f1 5a3f f6b5 4fbf 5b24 1a3e 2d45 7c3f
00000290: b21e 8dbf 9954 303f 877b 35be b9d4 4d3e
000002a0: e284 86be d554 d8bd 5960 9dbe 5fc1 92bd
000002b0: e6a5 f73d 1f1c 093f 73e5 38bf a8bc 5b3e
000002c0: ad46 b63e 2676 d23d 1cd1 cf3e 8c22 1a3f
000002d0: 2dc9 e73e 364f 923e 244c 9dbe eb3b e33d
000002e0: 002f 723f 313f 193e 2c54 ce3e f26c 7abe
000002f0: 293c 32be 3392 55be 49f6 a2be 11d3 b1be
00000300: a75d 8a3e 4544 193f 9306 333c 85de e7bc
00000310: 43de 2bbe 735b 61bd 96e4 02bf 6c49 40be
00000320: 4134 07bf 2628 f23e 499a f73d 0c0b 853e
00000330: ef31 093f 054b 20be 485d 81be 6bc6 2cbe
00000340: 9649 56bf 3201 6b3f f90f de3d d473 8d3e
00000350: 51e4 6cbc 095f dbbe 70fd b23e f4fc fc3e
00000360: 4b1c 31be 40cb e33e 81c0 2d3e 2bc7 353d
00000370: 703c c33e 98b4 85bc e11d a1bf 4089 d2be
00000380: aea9 b23e 9bea 023e 7309 323e cc76 c8be
00000390: 7d28 a43e 6eba cd3e 3a61 4abe c460 113e
000003a0: a808 113f b4c6 f23d a094 4abf 5d5d a9be
000003b0: abaf bdbe 7c71 30bf 0b14 79be 4bb2 c6be
000003c0: 8ba0 7e3e 9ee7 9a3d b3ef 60bf 23dc 483e
000003d0: b813 023f 3c92 2e3f 20e8 663e 4de6 f7bd
000003e0: c47e 08bf d874 b4be ee42 c93c 0238 633e
000003f0: 060d 0b3e c182 12be 5c07 31bf 936f 60bf
-1.5555776 0.29420915 0.18749833 -0.038061563 -0.9010049 0.3337992 -0.1289055 0.14564845
-0.1939188 -0.16817443 -0.41502264 -0.11833676 -0.4394193 1.2555896 0.31709588 0.22530228
-0.76489455 0.27720448 0.2257682 -0.552757 0.5276635 -0.6909288 0.46523198 0.31504172
-0.29657522 0.6803452 -0.12756056 0.3282634 -0.58975524 0.48184782 1.075144 0.0019633484
0.63121367 -0.5775542 0.17493191 0.6812162 -0.9563865 -0.21574716 0.5413585 0.18309353
0.11490809 -0.042457987 -0.11234917 -0.20380682 0.3238697 -0.13692616 -0.6210384 -0.34903497
-0.6775286 -0.082233265 0.5730039 1.0503341 0.019797975 -0.3631085 0.08760393 -0.27532822
0.121920094 -0.22707364 0.41361454 -0.08879959 -0.5583284 0.33043003 0.010559492 0.32597312
0.43177184 -0.062270906 0.12128567 -0.38612148 0.7860858 -0.79107404 0.47733477 0.17416368
0.5017465 0.369078 -1.1742873 -0.010246784 -0.5089643 1.1235157 0.1416142 0.14403601
0.030977715 0.3938112 0.078231476 -0.61478126 -0.39910236 -0.0025103092 0.27707985 -0.45637655
-0.018689265 -0.1456998 0.61274153 -0.14992286 -0.72311413 -0.45458055 -0.5224705 -0.25922096
0.7887416 -0.28351697 -0.45433044 -0.18360676 -0.03850807 0.18537247 0.712851 0.11249645
-0.8554181 0.5291218 0.51399666 0.5481913 0.82057315 0.3218812 -0.52341735 -0.4438687
0.19492227 0.8151839 0.5108983 0.07870269 1.4580872 0.73163706 -0.094734594 -0.26023966
-0.7802733 -0.09073739 0.090842746 0.51510644 0.11206079 0.26032093 0.18569297 -0.026977679
-0.5555406 0.0386584 0.0021556874 -0.094975434 0.1792332 -0.49555272 0.414454 -0.018099343
0.21644552 -0.46647674 0.4603345 0.38273892 -0.23557968 -0.6141766 -0.7166614 -0.5593881
0.37818462 0.18129769 0.67481834 0.5867449 -0.72666 0.4536984 0.06495732 0.3706927
-0.09379331 -0.088727 -0.2914944 -0.72284406 0.10973344 -0.7750238 -0.9888785 0.5537495
0.8552533 -0.81137025 0.15052931 0.98543054 -1.1024992 0.68879086 -0.17722903 0.20100679
-0.26273257 -0.105630554 -0.3073757 -0.07165789 0.120921895 0.53558534 -0.7222511 0.21458685
0.35600796 0.10276441 0.40589225 0.60208964 0.45270672 0.28576058 -0.30722153 0.11095413
0.94602966 0.14965512 0.40298593 -0.24455622 -0.17405762 -0.20856552 -0.31828526 -0.34731343
0.27024576 0.59869796 0.01092686 -0.028304348 -0.16784005 -0.055018853 -0.51130044 -0.18778008
-0.5281411 0.47296256 0.120899744 0.2598499 0.5359182 -0.15653618 -0.2526648 -0.16872565
-0.83706033 0.917987 0.1084289 0.27627432 -0.014458732 -0.42845944 0.34958982 0.49411738
-0.17295949 0.44491005 0.16967966 0.044379395 0.38132048 -0.016321465 -1.2587243 -0.41120338
0.3489508 0.12784807 0.17386417 -0.39153135 0.3206214 0.40181297 -0.19763651 0.1419707
0.56653833 0.11854306 -0.79133034 -0.33079043 -0.37048087 -0.68923163 -0.24324052 -0.38807902
0.2486593 0.07563709 -0.8786575 0.19615225 0.5081134 0.68191886 0.22549486 -0.12104473
-0.5331843 -0.35245395 0.024568047 0.22189334 0.13579187 -0.14307691 -0.69151855 -0.8767025

conv1.bias f4 [63]
00000000: 91bf da3a cc1c 5eba 3503 fb3a 08e1 1c3b
00000010: 7e87 463b 089f 603b e18a af39 fd93 e83a
00000020: 3dce cabb 42ec 5c3b 21f9 cf3a 5b14 a3b7
00000030: 0402 8bbb f5eb 813b c143 6dbb 33ae 41bb
00000040: bf00 5bbb 0f92 36bb b0f5 49bb 2750 2cbb
00000050: 4a30 6cbb 8e56 0bbb 135e 4dbb 7695 2f3b
00000060: 9730 043b d2d0 53bb 6ae0 93ba 1492 4cbb
00000070: 0809 5abb 00f2 90bb 6ff4 76bb cc6c 14bb
00000080: 996f e83a 4e71 66bb 4368 f63a f710 f3ba
00000090: d223 df3a 567b 62bb a1c4 32bb f8e4 39bb
000000a0: 5a27 4fbb 6211 e4ba a335 f9ba a6ac 49bb
000000b0: fe21 96bb b82f 6abb 360d 3aba a10f 56bb
000000c0: db4e 9d3a 97b7 56bb 2267 3fbb d60e 233b
000000d0: 5ab3 8ebb 8a1f 2fba 87e4 773b acd3 0b3b
000000e0: 25a7 37bb 7aaf 033b 93b6 993a 53ee 49bb
000000f0: 3f35 32bb 0dbf 8cbb edaa 89bb
0.0016689171 -0.0008472919 0.0019150736 0.002393784 0.0030293162 0.0034274478 0.00033482074 0.0017744299
-0.0061891363 0.0033710157 0.0015867093 -1.9440593e-05 -0.0042421836 0.003964896 -0.0036203715 -0.0029553294
-0.0033417193 -0.0027858054 -0.0030816607 -0.0026292892 -0.0036039525 -0.0021261307 -0.003133659 0.0026791967
0.0020170563 -0.0032320512 -0.001128209 -0.0031215 -0.0033269543 -0.00442338 -0.0037682315 -0.0022647856
0.0017733454 -0.003516275 0.0018799383 -0.0018544485 0.0017024225 -0.0034558377 -0.0027277844 -0.0028365236
-0.0031609149 -0.00174002 -0.0019013177 -0.0030773073 -0.004581689 -0.003573401 -0.00070973055 -0.0032663124
0.001200165 -0.0032763237 -0.002920576 0.002488067 -0.0043548765 -0.000668042 0.0037825422 0.0021335883
-0.002802321 0.0020093606 0.0011727385 -0.0030812218 -0.0027192382 -0.004295236 -0.004201284

vgg.0.weight f4 [63, 63, 3, 3]
00000000: 38d0 ce3c 68b2 39bd 17a7 a2bd 7ab8 093c
00000010: 3c17 2cbd 0e3a bbbc 7149 323d 689a abbc
00000020: d619 5c3c 2365 b33d e5f4 4f3d 4fbf bd3d
00000030: 5f5c 253d e134 a1bd e8ad b0bb 76a5 28bb
00000040: 0f20 89bd e331 b1bd f006 d33c eb30 3ebd
00000050: 42c2 e63c a97c 69bb e464 1c3c 4379 973d
00000060: 0b2a 273d 38ad ee3b 816e d63a b720 a03d
00000070: 4ccd 943d 4611 513d 1a95 9d3c 8c40 a4bc
00000080: 03ef 0fbd fb0d 84bc 4fd3 e2bd 9af7 8f3c
00000090: fb4d baba 6f1b 4f3c e63b 04bd cc52 8dbd
000000a0: e93d 3abd 0044 84bd c548 d1bd 824c 22bc
000000b0: d81a f63c b803 d8bc 2109 6dbc 9251 ca3d
000000c0: 1f18 c93d 3cfb 9a3d 25eb edbc ce91 22bc
000000d0: cc0b 9a39 934d 8f3d ffd7 a13d e262 ba3d
000000e0: f64d e93d 0996 cbbd 760c 86bb 373d 643c
000000f0: b403 9abd c626 ebbc 9fbd b0bc 0f57 76bd
00000100: 5c09 fa3d 8a24 2f3c c856 ef3c d605 063d
00000110: 7abc 193d 8af8 a7bd 7816 873d ad89 91bb
00000120: 1e34 f5bc d588 c2bc ac87 323c e15a 6bbd
00000130: 20a9 e33d d41f 153d faf0 873c 4b8f 523c
00000140: e8e5 5ebd 8e00 593d 467f 673d 17de 8abd
00000150: 66e2 023d 9846 8e3c 0165 fc3c 5949 03bc
00000160: c7ac 28bc 75e4 9fbc 9422 b6bc 6c04 d23b
00000170: 6346 1b3c 83b2 603d fe68 d13d 9547 37bd
00000180: 5176 e93c 8ef2 b73d 8f9d 1abd 9acb 32bd
00000190: e8c8 91bc 47e1 bc3c ff93 f4bc 6662 88bd
000001a0: 44e2 27be 6ee9 cebc 6487 34bc 9bc9 d1bc
000001b0: ec52 b2bb bf53 073d 2ef1 e1bd c757 193d
000001c0: f9ef d93b 6626 723d 1361 54bc 59f2 21bd
000001d0: 1482 d6bc 13ca df3c 9fd8 b13c 7e4a 2fba
000001e0: 37c9 dd3c 49fd 00bc d7cf 39bd b985 c7bd
000001f0: de7b 013e a770 d9bc b351 b6bb bc05 3cbd
00000200: b09d 83bd 5080 42bd bb9b 88bd cc4c abbd
00000210: 4697 03bd aecb ef3d 8962 e43c 91fa 1cbc
00000220: faad d5bd 318e 28bc 7be5 6dbc fe47 c03d
00000230: 4896 41bc b937 793d a4b7 a53c 2699 043e
00000240: 7ae0 6c3c 2030 763d 33dc 23be 71b5 47bc
00000250: cd4e 09bc 0ae0 1a3d 480a 00bd a6d5 fdbc
00000260: d297 fb3c f9b2 e5bc d4ef 903d ed67 74bd
00000270: e022 c2bc 32c6 093d 20c4 0b3d 4704 ce3c
00000280: 08a5 7abd 2d1e 893b 3fa9 7b3d 681b 163d
00000290: e035 84bd ac7d dcbc 26f2 ecbd a92e 59bc
000002a0: 274e 5f3c 2e67 8b3c 423d 4fbd 7b51 173d
000002b0: 38b0 94bc 0b09 173d 7043 ab3c b55d 923d
000002c0: 9741 53bd 6fb0 393d b00c 903c 67b6 673d
000002d0: c13d 763c 078a 71bd fdbd 80bd e880 58bc
000002e0: 7ae0 a3bc ae4e c0bb dc37 6a3c a445 0ebd
000002f0: 0a92 3fbc fc0a d9bb 212f 01bb 8a8d 1d3d
00000300: 9599 85bd e791 f93c fbea df3d a486 56bc
00000310: 7652 243d f650 303c 95dc 23bc 363d 80bc
00000320: a064 afbd 70ec 833c 5ef4 29bd b03f 41bd
00000330: 53f7 dbba 9f75 88bd 4779 a33d 62ab 9fbc
00000340: f882 8b3d 57a5 7a3d 1cec 07be ebf5 443c
00000350: d7a6 653c 81c7 f3bd cca0 58bd 9358 e73d
00000360: 98ff 94bc 92ba 033c 51e0 323d 0b62 4b3d
00000370: 90a1 d2bc 92cb 6cbd c0f8 15bd 4887 23bc
00000380: f7ab 5e3c cca5 48bd f077 003c b424 053d
00000390: b99c 143d 4cf9 8cbd 55e1 1ebd 41f4 03bc
000003a0: 97de 60bd 732d 8f3d 9860 adbd 33b5 003d
000003b0: 52d6 a4bd 5ca4 123d 231c 993d 7092 d5bc
000003c0: ed22 fe3d 6c01 73bc 88cd 3239 d62e ca3c
000003d0: 9f54 9dbd fa51 1fbc 1cd4 be3c b3f4 823c
000003e0: 1702 823d f4db a53d fe5f 9eba 8932 30bd
000003f0: 4c9d c63b 1dda 32bd 7295 7fbd dcba 1e3e
0.02524577 -0.045336157 -0.07942026 0.008405799 -0.042014346 -0.022854831 0.04352707 -0.02094765
0.013433894 0.08759525 0.05077066 0.09265005 0.040371295 -0.07871414 -0.005391825 -0.0025733388
-0.06695568 -0.08652093 0.025760144 -0.04643337 0.028168801 -0.0035627282 0.009545539 0.07396176
0.04081158 0.007283833 0.0016359837 0.0781874 0.0726572 0.051041864 0.019236136 -0.02005031
-0.03514005 -0.016119948 -0.1107546 0.01757412 -0.0014213914 0.012640818 -0.032283686 -0.06900558
-0.0454692 -0.064582825 -0.10218958 -0.009905936 0.030042097 -0.02636896 -0.0144675085 0.098788396
0.09819054 0.075674504 -0.02904279 -0.009922458 0.00029381958 0.06997218 0.07902526 0.09100892
0.11391823 -0.09940726 -0.004090841 0.01393061 -0.075202376 -0.028705012 -0.021574793 -0.06014162
0.122088164 0.010689864 0.029216185 0.03272041 0.03753326 -0.08201702 0.065960824 -0.004441461
-0.029932078 -0.023746887 0.0108966045 -0.057459716 0.111162424 0.036407307 0.016594399 0.0128515465
-0.054418474 0.052979045 0.05651786 -0.067806415 0.03195419 0.017367646 0.030809881 -0.008013093
-0.0102951 -0.019518116 -0.022233285 0.0064092185 0.009477231 0.054857742 0.10225104 -0.044746
0.0284988 0.089818105 -0.037747916 -0.0436512 -0.017795995 0.02305664 -0.029855726 -0.06659393
-0.16394907 -0.025257792 -0.011018608 -0.025608828 -0.005442014 0.03303885 -0.110323295 0.037437227
0.0066509214 0.05911865 -0.012962597 -0.03953776 -0.026185073 0.027318036 0.021709738 -0.00066868204
0.027073486 -0.007872888 -0.045364227 -0.097423024 0.12644908 -0.026542975 -0.0055639385 -0.045903906
-0.06426561 -0.04748565 -0.06670328 -0.08364257 -0.032126687 0.11708771 0.027879016 -0.009581224
-0.10433574 -0.010287807 -0.014520044 0.093887314 -0.011815615 0.060844157 0.020229168 0.12949046
0.014457816 0.06010449 -0.16001968 -0.012189255 -0.008380604 0.037811317 -0.031259805 -0.030985665
0.030712042 -0.028039442 0.070769936 -0.059669424 -0.02369827 0.03363628 0.034122586 0.025148524
-0.061192542 0.0041845054 0.061440703 0.03664723 -0.06455588 -0.026915394 -0.11569624 -0.013255754
0.013629473 0.017016973 -0.05059553 0.03694294 -0.018150434 0.03687386 0.02090618 0.071467794
-0.051576223 0.045334276 0.017584175 0.056570437 0.015029372 -0.058969524 -0.062862374 -0.013214327
-0.0200045 -0.0058687543 0.0142955445 -0.034734383 -0.011692533 -0.006623624 -0.001971193 0.03846506
-0.06523434 0.03046508 0.10933491 -0.013093624 0.040117703 0.01076149 -0.010001321 -0.015654188
-0.085641146 0.016103953 -0.041492812 -0.047179878 -0.0016782082 -0.066630594 0.07982116 -0.019490901
0.0681209 0.061192837 -0.13273662 0.012021522 0.0140168285 -0.11903287 -0.052887723 0.11296191
-0.018188283 0.008040087 0.043670956 0.049654048 -0.025711805 -0.057811327 -0.03661418 -0.009980984
0.013590804 -0.04898624 0.007841095 0.032505706 0.036282275 -0.06883487 -0.038789112 -0.00805384
-0.05489978 0.069910906 -0.084656894 0.031422805 -0.08048691 0.035801277 0.0747607 -0.026070803
0.12409005 -0.014831882 0.00017051969 0.024680536 -0.07682156 -0.009724135 0.023294501 0.015985822
0.06348055 0.08098593 -0.0012083051 -0.043016944 0.0060612317 -0.04366504 -0.06239838 0.15500969

vgg.0.bias f4 [63]
00000000: d71a 1fbb d15c 9a3b 9668 54ba cf21 0cbb
00000010: aa55 71bb d15c 9aba 17ad 29ba a179 abba
00000020: 8906 18bb c582 bbba a6d2 b2ba 882c 44bb
00000030: b187 4fbb 1a25 85bb 4013 7abb 24f8 03ba
00000040: 6b99 bd39 a4b2 55bb 581c 1abb 9b4e 6ebb
00000050: 84ee cbba ab97 7ebb ec3a 393a f0b8 70ba
00000060: ca8c 9bbb 8e6e 35bb 1a13 4ebb 9e1e deba
00000070: d1f5 75bb 9ed1 11bb 87c2 41bb e3ee 0cbb
00000080: d894 11bb d296 bf3a c553 24bb 5b99 773a
00000090: 0a89 51bb 49ab 4e3b 5446 413b 4e09 033c
000000a0: 3200 33bb 0a80 773a d811 7fba beaf c4ba
000000b0: 14a9 9bbb bbde 713b 57e9 b3b9 8d67 51bb
000000c0: 52b7 2b38 add1 53bb d3b7 9739 2b03 ee3a
000000d0: 5802 9cba fffa a2ba 2497 69ba ec52 37bb
000000e0: 9306 a1ba f39a fb39 c949 7b39 89b9 4fbb
000000f0: 70c0 373a c604 52bb 63d1 913a
-0.0024277472 0.0047107716 -0.0008102743 -0.0021382456 -0.0036824741 -0.0011776929 -0.0006472631 -0.0013082513
-0.0023197255 -0.001430594 -0.00136431 -0.002993377 -0.0031666572 -0.0040632607 -0.0038158447 -0.0005034229
0.00036163194 -0.0032607699 -0.002351543 -0.003636277 -0.0015558754 -0.0038847725 0.000706597 -0.0009182831
-0.004747008 -0.0027684304 -0.003144449 -0.001694638 -0.0037530551 -0.0022250186 -0.002956541 -0.0021504692
-0.0022213962 0.0014617092 -0.0025074345 0.0009445154 -0.003197255 0.00315352 0.0029491382 0.007997824
-0.002731335 0.00094413816 -0.0009730137 -0.0015005989 -0.0047503803 0.003690644 -0.00034315392 -0.003195259
4.0940307e-05 -0.0032321021 0.00028937924 0.0018158903 -0.0011902554 -0.0012434422 -0.00089107663 -0.002797301
-0.0012285284 0.00047989897 0.00023964712 -0.003169628 0.00070095714 -0.0032046302 0.0011125024

oconv2.weight f4 [1, 63, 3, 3]
00000000: 879b 8b3c b0ac 8b3d 29fb f23b df53 11be
00000010: 2023 3abd 41e5 8ebd 2ae4 3abd c5c0 ffbc
00000020: 7251 f8bc c123 203d 6e69 343d bb4a 8e3d
00000030: e133 74bd c5b9 e83b 62d7 2fbc bb0f 22bc
00000040: 4b19 613d 8717 b1bc 59b7 bc3c d174 f73d
00000050: 4e85 85bb 25c4 d73c 5098 ac3d 739b 0ebd
00000060: b295 03bd 5bbc cf3d 1e6e 91bc a69b 9cbd
00000070: 698b af3d f4c5 0bbc 2d6e 67bd 9096 5ebd
00000080: f363 a13d df45 423c 9b68 eb3d 2c0e 48bd
00000090: a083 a73d 0f07 b23c 7bb4 3fbd 4d4c c1bb
000000a0: 69e7 88bb 9f45 bfbc dee4 a8bd 4777 013d
000000b0: 0cc9 923d 4f18 593d 19d7 783d 928c c5bd
000000c0: c885 413d 9654 483d 946a 5a3d 533b 9b3d
000000d0: 3585 8fbb 3b13 5c3d 8ae5 78bd f737 6e3d
000000e0: 9d5d cd3c 98db f73d a4bc 3d3d aa6c 1a3e
000000f0: 2c30 de3d 44c9 043d 473b 8e3c 124b 90bc
00000100: 331f 203d 96c6 e43c 5b4f 683d 3ba9 4ebc
00000110: 3b1b 9a3d 6c45 e8bc 96bf ee3c 5d17 05bd
00000120: 9821 fb3c 8b1b 773d 1733 513d ca68 fb3c
00000130: 7f05 93ba 32dc 6bbd e224 f5bd 69a1 063e
00000140: e6a5 ca3d 367b bd3b 3357 76bd e357 6c3d
00000150: 7828 d03d 7c6f 4d3c 1361 40bd f79c 8fbc
00000160: ab20 3f3c 485d 153d be2c 2c3e ad63 ba3d
00000170: 63ac e63d d2ed 3cbc e3eb 99bd 4117 d03d
00000180: 7cf3 273d c4a2 75bd 485d d9bd a97a 58bc
00000190: b4b4 5ebc 9fe8 8a3d e3aa 6cbd 459c 81bd
000001a0: e736 19bd 0218 26bd 24f6 a3bd 7e32 873d
000001b0: 3fae 973d 84ad c03d 3022 8b3d acf2 54bd
000001c0: 4bf7 c2bc 94f1 883d 998b 4f3a 76cb 13bd
000001d0: 6936 22bd 497e 213a b187 f9bd 7338 d43c
000001e0: 4bd0 3fbd ecac fdbd 545d 6e3d 9138 083d
000001f0: 5e29 11bd cbe6 f63a 6fd2 ba3c aaff 96bd
00000200: 5d2d b3bd 8872 0a3d decc a8bd 7bc2 65bd
00000210: 4fbe f53b 2f03 993d 7406 393e 1738 69bd
00000220: c87d 5b3d 7336 94bc 46c2 4d3d 8076 d93d
00000230: 17e6 933d f7ca dcbd efcd 6b3c d601 48bc
00000240: 3d93 193d 17e0 4a3d b825 4ebd 3219 38bd
00000250: 005e 74bd ff1c 43bd b7d7 71bd 96f4 7cbb
00000260: 29a1 b83c 10be c8bd 1718 9fbb 5fdd d63c
00000270: a0da 55bc a7d0 6c3d b351 7ebd b257 193d
00000280: 6328 a93d b256 4f3c 32c0 823c ec54 7fbd
00000290: 294a a5bd 9b25 cd3d edf9 eebc 6cca 17bd
000002a0: b878 1a3d 4e8c 4d3d 801b e73c b22c c33d
000002b0: 50f3 0dbe 5c2f 173d ef25 463b 56a0 013d
000002c0: a828 d43d 721f 88bb 2dde 883c 4817 5f3c
000002d0: 724d 383d 0a3c 58bd f4fd 263d e76f 6f3c
000002e0: e81e 473d 0333 693d f765 793d da7c a5bc
000002f0: f578 17bc 999f a73b b919 8d3d 3462 2b3d
00000300: c388 70bd d406 44bd e0a3 a13c 0f3a 59bd
00000310: 7478 c5bd 0e4c 7a3d d198 5c3d 2cf0 58bd
00000320: 7a78 13bc 1917 573d 4194 383c 6b76 7a3c
00000330: c061 09bd 4d88 e43c 544c e63b 392a 23bd
00000340: 95aa 09bc acce c2bd 840a 813d 0e7d 8fbd
00000350: f479 e3bc 95f2 8bbd 7df0 13bd c285 acbb
00000360: 33a0 073b 9ac5 663c 5f9a 633e 594a 94bd
00000370: 29bc 91bd c382 04bd c8eb d9bd 0e6b af3c
00000380: 7fe0 773d 3b53 483b d47a 243d 69b8 613d
00000390: a878 20bd 4251 ed3c 9e5d fb3d 5770 023e
000003a0: 0a4b a03d 51f6 9f3c c8b9 cdbc dd79 bcbc
000003b0: 0f87 a8bc 45e8 45bc 923d 9abc 260e 22bd
000003c0: abff 0bbd 8943 8cbc f9e5 0bbd 8106 a63d
000003d0: 6937 4dbc 10c1 153d cfd4 49bd 5a8f abbd
000003e0: 3f1c 21bc e016 3ebd c0b1 eb3d fbb5 83bd
000003f0: 5b97 373c a46d 04bd 10d7 02bd 8d15 89bd
0.017041935 0.06820047 0.0074151945 -0.1419215 -0.045443654 -0.069773205 -0.04562775 -0.03121985
-0.030312274 0.039096598 0.044045858 0.069478475 -0.059619788 0.0071022236 -0.010732504 -0.009891446
0.054955762 -0.021617664 0.023036646 0.12082828 -0.004074729 0.026338646 0.08427489 -0.034816217
-0.032125182 0.10143348 -0.017752703 -0.07646875 0.08571512 -0.008531082 -0.056501556 -0.054342806
0.07880392 0.011857479 0.11494561 -0.04884164 0.08179402 0.021731881 -0.04680298 -0.0058989883
-0.004177977 -0.023348628 -0.08246778 0.031607892 0.07167253 0.053001698 0.060752008 -0.09645952
0.047246724 0.048908792 0.053324297 0.075796746 -0.004379893 0.053729277 -0.06076578 0.05815884
0.025069052 0.12102431 0.04632248 0.15080515 0.10849032 0.032418504 0.01736225 -0.017613921
0.039092254 0.027926724 0.056716304 -0.01261359 0.07524725 -0.028353415 0.02914409 -0.032492984
0.030655667 0.060329 0.051074114 0.030689616 -0.0011216848 -0.05758304 -0.119699255 0.1314751
0.09894924 0.00578251 -0.060141753 0.057701003 0.10163969 0.012538787 -0.046967577 -0.017530901
0.0116655035 0.036465913 0.16813943 0.09101043 0.11263349 -0.01153131 -0.07515695 0.10160685
0.04100369 -0.05996968 -0.10613495 -0.013212838 -0.013592888 0.0678265 -0.057780158 -0.06328634
-0.037405875 -0.04055024 -0.08005932 0.066014275 0.07406282 0.094080955 0.0679363 -0.051989242
-0.02379956 0.06686702 0.0007917225 -0.036082707 -0.03960267 0.00061604806 -0.12184084 0.025905823
-0.046829503 -0.12386498 0.058194473 0.03325707 -0.03543984 0.0018837092 0.02280542 -0.07372983
-0.08748887 0.03380063 -0.082422 -0.056093674 0.007499493 0.0747131 0.18068868 -0.056938257
0.05358675 -0.01809237 0.0502341 0.10618305 0.072216205 -0.107809 0.01439236 -0.012207469
0.037493933 0.049530115 -0.05032894 -0.044945903 -0.059659958 -0.047635075 -0.059043612 -0.0038597933
0.022537785 -0.098018765 -0.0048551667 0.026228605 -0.013052613 0.057816174 -0.062089633 0.03743715
0.08259656 0.012654947 0.015960786 -0.062336847 -0.080707856 0.10016938 -0.029171908 -0.03705828
0.037712783 0.050182633 0.028211355 0.09530009 -0.13862348 0.0369104 0.0030235013 0.03164705
0.10359317 -0.004154139 0.016707504 0.0136163905 0.044995733 -0.052791633 0.040769532 0.014614082
0.04861346 0.056933414 0.060888257 -0.020201135 -0.009245147 0.005115461 0.06889672 0.0418417
-0.058724176 -0.047858074 0.019731462 -0.053033885 -0.09642115 0.061107688 0.053856675 -0.05296342
-0.009000892 0.052512262 0.011265815 0.015287022 -0.033540487 0.027897025 0.007028142 -0.03983519
-0.008402486 -0.09512076 0.06300834 -0.07006274 -0.027768113 -0.06833378 -0.03611802 -0.0052649686
0.0020694851 0.014085198 0.22226857 -0.07240743 -0.07115967 -0.032351267 -0.10640675 0.021413352
0.06051683 0.0030567187 0.0401562 0.055107508 -0.039177567 0.02896941 0.122737154 0.12738167
0.078268126 0.019526633 -0.025113001 -0.023007328 -0.020572213 -0.012079303 -0.018828187 -0.039564274
-0.03417937 -0.017122047 -0.034154866 0.08106709 -0.012525418 0.036561072 -0.049275216 -0.083769515
-0.009833395 -0.046408534 0.115085125 -0.064311944 0.01120552 -0.032331124 -0.03194338 -0.066935636
