Models/model02.pth (torch, 150863 bytes, 6 tensors)

oconv1.weight f4 [1, 1, 3, 3]
00000000: 34fd e23e aac1 1cbe 16e8 02bf 03a7 3b3e
00000010: a809 2a3e d1b7 40be c226 b13e 8a24 ecbe
00000020: c2e6 55be
0.44333804 -0.15308252 -0.51135385 0.18325429 0.16605246 -0.1882012 0.34599882 -0.46121627
-0.20888808

conv1.weight f4 [63, 1, 3, 3]
00000000: 7924 c7bf 7782 963e 463e 403e cef5 1cbd
00000010: 3fb8 66bf dac7 aa3e 6041 04be ee4a 153e
00000020: 14c8 46be 8178 2cbe 479f d4be 99c2 f2bd
00000030: ec1b e1be c8b0 a03f 2d3b a23e 7c75 663e
00000040: 8fc1 43bf 3813 8e3e de6f 673e 2176 0dbf
00000050: 4604 073f 59ef 30bf 4051 ee3e 6668 a13e
00000060: beb9 97be d727 2e3f d2d3 02be b2ef a73e
00000070: 890b 17bf 0bd7 f63e b0a6 893f 9a2f e13a
00000080: fc85 213f f0ea 13bf 52df 323e 0368 2e3f
00000090: 5dc6 74bf 08b2 5cbe f585 0a3f bbaf 3b3e
000000a0: bccb eb3d abfb 2cbd 14a5 e5bd da7d 50be
000000b0: bcf0 a53e e1f6 0bbe 81ed 1ebf 1e9e b2be
000000c0: 8f62 2dbf a0ea a7bd 23c0 123f c279 863f
000000d0: 8f43 a43c 6d0a babe afe4 b33d b21b 8dbe
000000e0: 062c fa3d 7d46 68be 29a1 d33e 1764 b5bd
000000f0: 71df 0ebf cf4c a93e cd4d 2a3c 1401 a73e
00000100: adf3 dc3e 1c11 80bd ed7d f83d d0d3 c5be
00000110: 364d 493f 5795 4abf 0c42 f43e 9f9a 323e
00000120: b382 003f dd19 bd3e 8e57 96bf 96a4 23bc
00000130: c43f 02bf 3bd7 8f3f 913e 113e 18be 133e
00000140: 36c1 ff3c 9cc2 c93e f2ba a03d 3c55 1dbf
00000150: dd7a ccbe 22d9 14bb e9fd 8d3e 8d8a e9be
00000160: 2a27 97bc 88f2 14be bed0 1c3f 0fcb 19be
00000170: 1f12 39bf 6aa0 e8be 5fb0 05bf 06d9 84be
00000180: 9efb 493f ce4a 91be 9b9a e8be 0a1e 3cbe
00000190: 209e 1ebd e9b5 3d3e e06d 363f 2edb e63d
000001a0: 6ae9 5abf 447d 073f 56a9 033f 2e67 0c3f
000001b0: cd21 523f 69a9 a43e b60f 06bf 2029 e3be
000001c0: 3ac5 473e f29d 503f 77da 023f eba8 a13d
000001d0: ceaa ba3f fe3b 3b3f aa8b c2bd 9221 85be
000001e0: fcd0 47bf d055 babd 2c92 b93d 96ef 033f
000001f0: 59f5 e43d 6e6a 853e 6469 3e3e 4bbb dabc
00000200: 6747 0ebf 0f61 1d3d fb53 fb3a 77fa c2bd
00000210: 5f4e 373e feb8 fdbe 665a d43e 6025 93bc
00000220: bac9 5d3e e2f7 eebe 7ec4 eb3e 8c10 c43e
00000230: 6b82 71be ae45 1dbf 0e88 37bf 4b45 0fbf
00000240: fcc2 c13e 64ed 393e 5fd2 2c3f 0746 163f
00000250: f70e 3abf 306c e83e 7c98 853d b0ed bd3e
00000260: f797 bfbd 9f38 b5bd af5a 95be 021c 39bf
00000270: 024d e13d 9c78 46bf e837 7dbf 02b3 0d3f
00000280: ae02 5b3f 1ec6 4fbf 93e3 193e b955 7c3f
00000290: ab26 8dbf b34c 303f ef6a 35be 5f13 4e3e
000002a0: 00a3 86be 6ddd d8bd e880 9dbe 834a 93bd
000002b0: 472a f83d eb2a 093f a1f6 38bf 85f6 5b3e
000002c0: 4569 b63e 0afd d23d 92b0 cf3e d532 1a3f
000002d0: fed7 e73e 9d4c 923e e06c 9dbe b7b8 e23d
000002e0: 553f 723f d544 193e e66f ce3e 58ac 7abe
000002f0: ae7c 32be d952 55be 7b19 a3be 2cb4 b1be
00000300: 787e 8a3e 4f54 193f 5c0f 373c ab94 e7bc
00000310: 669f 2bbe 446d 60bd 75f5 02bf 053b 40be
00000320: b043 07bf 420f f23e 2417 f73d fa2a 853e
00000330: ed42 093f d689 20be ce58 81be 4309 2dbe
00000340: 333b 56bf 5b14 6b3f e1a6 dd3d 7453 8d3e
00000350: 90bb 68bc b876 dbbe 73e7 b23e 4be0 fc3e
00000360: b265 31be 0dc3 e33e 2baf 2d3e 58ab 343d
00000370: 4517 c33e 11c0 83bc 261f a1bf e7aa d2be
00000380: 40cb b23e 8120 033e bfc4 313e 1b9b c8be
00000390: 9946 a43e f197 cd3e 0fa1 4abe e747 113e
000003a0: 3014 113f fa47 f33d a4a2 4abf 8d41 a9be
000003b0: 3497 bdbe 5562 30bf 175f 79be e299 c6be
000003c0: 57e1 7e3e 7667 9b3d f802 61bf 138f 483e
000003d0: b124 023f 14a3 2e3f d320 673e 936b f8bd
000003e0: 2990 08bf 0f93 b4be 6022 c73c 8e77 633e
000003f0: 6752 0b3e b3ac 12be f314 31bf ce79 60bf
-1.5558006 0.29396412 0.18773755 -0.038320355 -0.9012489 0.333556 -0.12915564 0.14579365
-0.19412261 -0.16842844 -0.4152777 -0.11853523 -0.43966615 1.2553949 0.31685773 0.22505754
-0.7646722 0.27749038 0.22601268 -0.55258375 0.52740896 -0.69115216 0.46546364 0.31524962
-0.29633898 0.6802954 -0.12776116 0.3280006 -0.59001976 0.4821094 1.0753994 0.0017180324
0.6309507 -0.5778036 0.17468002 0.6812746 -0.9561518 -0.21552289 0.5411065 0.18328755
0.115134686 -0.042232197 -0.11213127 -0.20360509 0.32410228 -0.13668396 -0.6208115 -0.3488626
-0.67728513 -0.08199048 0.5732443 1.0505908 0.020051746 -0.3633608 0.08783852 -0.27560192
0.12215428 -0.22683139 0.41333893 -0.08856981 -0.55809695 0.33066413 0.010394526 0.3261801
0.4315466 -0.06253263 0.121333934 -0.38638163 0.7863344 -0.79134125 0.4770664 0.17441796
0.5019943 0.36933795 -1.174547 -0.009987971 -0.5087855 1.1237558 0.14184023 0.14427984
0.03122006 0.39406288 0.07848157 -0.6145818 -0.39937487 -0.002271243 0.2773278 -0.45613518
-0.018451292 -0.14545643 0.61256015 -0.15018867 -0.72293276 -0.45434886 -0.52222246 -0.25946826
0.7889956 -0.28377384 -0.45430455 -0.18370834 -0.03872502 0.18526424 0.71261406 0.11272274
-0.8551241 0.52925515 0.5143026 0.5484494 0.82082826 0.321605 -0.52367723 -0.44367313
0.1950883 0.81491005 0.511146 0.07893547 1.4583375 0.73138416 -0.09499295 -0.26002175
-0.7805326 -0.09098399 0.09061083 0.51537454 0.11179609 0.26057762 0.18594891 -0.026700636
-0.555777 0.03842264 0.0019174808 -0.09520429 0.1790099 -0.495552 0.4147522 -0.017962158
0.21658984 -0.46673495 0.4604835 0.38293874 -0.23584907 -0.6143445 -0.7169198 -0.5596511
0.37844074 0.18156964 0.675085 0.58700603 -0.72679085 0.4539504 0.06523225 0.37095404
-0.09355157 -0.0884869 -0.2917075 -0.7230836 0.11001016 -0.77527785 -0.9891343 0.5535127
0.85550964 -0.8116168 0.15028219 0.985683 -1.1027426 0.68867034 -0.17716573 0.20124577
-0.26296234 -0.105891086 -0.3076241 -0.07191946 0.12117439 0.5358111 -0.72251326 0.21480758
0.3562719 0.103021696 0.405644 0.60233814 0.45281976 0.28574076 -0.30747128 0.11070388
0.94627887 0.14967664 0.40319747 -0.24479806 -0.17430374 -0.20832385 -0.31855378 -0.34707773
0.27049613 0.5989427 0.011173096 -0.028269133 -0.16760024 -0.054791704 -0.5115579 -0.18772514
-0.5283766 0.47277266 0.120649606 0.2600935 0.53617746 -0.1567758 -0.25263065 -0.16898064
-0.8368408 0.91827935 0.10822845 0.27602732 -0.014204875 -0.42864013 0.34942207 0.49389872
-0.1732395 0.4448475 0.16961353 0.04410872 0.3810369 -0.016082795 -1.2587631 -0.41146013
0.34920692 0.12805368 0.17360209 -0.39180836 0.32085112 0.40154985 -0.19788001 0.14187585
0.5667143 0.11878963 -0.7915442 -0.33057824 -0.3702942 -0.6890004 -0.2435268 -0.38789278
0.24890648 0.07588093 -0.87895155 0.19585828 0.50837237 0.6821759 0.22571115 -0.12129893
-0.5334497 -0.35268447 0.024308383 0.22213575 0.13605653 -0.14323692 -0.6917259 -0.8768586

conv1.bias f4 [63]
00000000: cef1 bb3a 3e7a 91ba 4339 d83a 542b 123b
00000010: c9ff 343b 5ad9 503b 799d b438 33db c93a
00000020: 70be c2bb 8b24 503b 2aa6 cb3a cc21 8db9
00000030: 0407 83bb 9d52 733b fe0d 6abb 20f9 30bb
00000040: f9b3 49bb b902 26bb 5b85 39bb ec9a 1bbb
00000050: 7e21 5cbb 054c f4ba 169a 3cbb 8872 203b
00000060: b817 f33a 0fc6 46bb cc46 5fba 8ac1 3bbb
00000070: 159e 55bb 01a8 88bb a876 66bb 8660 05bb
00000080: 6fd4 cc3a 108f 55bb aa9e f83a f180 08bb
00000090: 8a51 bf3a 2d07 53bb 9320 22bb b01f 2ebb
000000a0: c98b 3fbb 5a13 06bb 18e4 d6ba b53d 3abb
000000b0: 4af1 8dbb 1ef0 59bb 5c81 01ba e2aa 45bb
000000c0: fa9c 8b3a 1c5f 45bb a01a 30bb 434e 123b
000000d0: 58db 86bb e755 05ba f87a 673b 2184 f73a
000000e0: b955 29bb a96f e63a 3b7c 7f3a 436f 39bb
000000f0: 5b98 22bb e9df 84bb 126e 81bb
0.0014339031 -0.0011099053 0.0016496558 0.0022303658 0.002761828 0.0031867833 8.6124004e-05 0.001540041
-0.005943112 0.0031760063 0.0015537192 -0.00026918796 -0.003998639 0.0037128099 -0.0035713906 -0.0027003959
-0.0030777438 -0.0025331213 -0.0028308246 -0.0023743464 -0.00335893 -0.0018638378 -0.0028778366 0.0024482328
0.0018546497 -0.0030330454 -0.00085173245 -0.0028649294 -0.0032595445 -0.0041704183 -0.003516594 -0.0020351722
0.0015627275 -0.0032586493 0.0018968184 -0.0020828808 0.0014596444 -0.0032200322 -0.0024738654 -0.002656918
-0.0029227606 -0.0020458312 -0.0016394882 -0.0028418128 -0.0043317424 -0.0033254693 -0.00049402355 -0.0030161669
0.0010651641 -0.0030116504 -0.0026871338 0.002232448 -0.0041155033 -0.0005086348 0.0035321098 0.0018883982
-0.0025838448 0.0017580885 0.000974599 -0.0028295077 -0.002481005 -0.0040550125 -0.003949889

vgg.0.weight f4 [63, 63, 3, 3]
00000000: 013c d03c f7af 38bd 8739 a2bd 95ca 0d3c
00000010: 2f2b 2bbd 3335 b9bc 244d 333d 438a a9bc
00000020: 0505 603c 04e6 b33d 0605 4f3d c941 be3d
00000030: ce4c 263d 4ab5 a0bd ac42 a8bb 4f7e 16bb
00000040: c37e 89bd 1ebd b0bd 80fa d43c 8743 3dbd
00000050: 9e5f e83c 6a14 5bbb 7447 203c abed 973d
00000060: 691b 283d cee3 f53b f480 f43a 5f88 a03d
00000070: e34c 953d d5fb 513d 5236 9f3c 637f a2bc
00000080: 52f0 0ebd c91e 82bc 3b7b e2bd aae1 913c
00000090: c47b 9aba 2cf5 523c 4041 03bd 8fd4 8cbd
000000a0: 704c 39bd c7c1 83bd 61ca d0bd 4f69 1ebc
000000b0: 8414 f83c 616e d9bc 9e3a 71bc 21d1 ca3d
000000c0: f595 c93d 527c 9b3d 4933 efbc 57a3 1ebc
000000d0: 52c0 093a 2fcc 8f3d 9b51 a23d f8d5 ba3d
000000e0: 2be5 e83d 9a2e cbbd 221c 84bb 6c22 673c
000000f0: a786 99bd f01d ebbc ca7a afbc ce08 77bd
00000100: 717e fa3d 548a 2d3c d452 f13c 64ca 063d
00000110: a6b4 1a3d a392 a7bd 3995 873d b1b5 8abb
00000120: 6544 f3bc 84a3 c0bc a439 363c 9563 6abd
00000130: a824 e43d 7f11 163d c4c0 893c 5d54 563c
00000140: 91f3 5dbd 23fe 593d c770 683d a362 8abd
00000150: 10e2 033d 0e3a 903c 7236 fe3c 1dc9 febb
00000160: f8c5 24bc a5ee 9dbc 1d86 b4bc b405 ce3b
00000170: 12cb 1c3c 909c 613d dbe8 d13d 3406 37bd
00000180: 1d33 eb3c b465 b83d e0a0 19bd 74de 31bd
00000190: edcc 8fbc 63d2 be3c 41ab f2bc d3f9 87bd
000001a0: a2ad 27be 76f3 ccbc d3a1 30bc b959 d0bc
000001b0: b393 aabb 5882 063d 227b e1bd a850 1a3d
000001c0: 84c2 e03b 2e0c 733d dbba 50bc 5527 21bd
000001d0: ecfe d4bc 1abe e13c 35cf af3c bb95 e3b9
000001e0: 43b7 df3c 60ff f9bb e0df 38bd e605 c8bd
000001f0: 0ea1 013e 6088 d7bc fab3 aebb d628 3bbd
00000200: a824 83bd 988f 41bd 5b2b 88bd 69e0 aabd
00000210: 7ca4 02bd cf47 f03d 493c e63c bd7f 19bc
00000220: 804a d5bd eb49 2cbc 8e5c 6cbc 37ba c03d
00000230: edad 44bc 5c43 7a3d a6bc a73c 24c6 043e
00000240: ad07 693c a52b 773d 6fa1 23be f5d7 43bc
00000250: de33 06bc 35d5 1b3d fe80 febc 1d0d fcbc
00000260: ce90 fd3c 084b e7bc 4d6a 913d 8233 75bd
00000270: 6d17 c0bc a0bb 0a3d 187b 0c3d c802 d03c
00000280: 2fa3 79bd 1096 8e3b 9c52 7c3d 2320 173d
00000290: 326f 84bd ec76 dabc 0571 edbd 0ce8 55bc
000002a0: 4717 633c 3272 8d3c 0235 50bd 994c 183d
000002b0: 920f 93bc 3b06 183d 8d38 ad3c 19d6 923d
000002c0: c346 52bd 44a0 3a3d f6e6 913c e2ab 683d
000002d0: 7a37 7a3c dfac 70bd 48eb 80bd e1a7 54bc
000002e0: f8e2 a1bc 8e64 b9bb fef8 6d3c 646b 0dbd
000002f0: 090b 3cbc af40 d1bb 46c6 e2ba 6380 1d3d
00000300: fdfb 85bd 52b7 fb3c bde7 df3d fd10 52bc
00000310: fc4c 253d f826 343c c423 20bc 39c6 7cbc
00000320: 95e9 aebd dcd9 853c cffe 28bd 1862 40bd
00000330: 34d4 bdba 5afb 87bd d1ee a33d e05f a0bc
00000340: 6204 8c3d dbad 7b3d 252c 08be 304f 483c
00000350: 879e 693c 9949 f3bd 75be 57bd 75d2 e73d
00000360: 4eff 92bc cf56 073c 2dd8 333d aa5b 4c3d
00000370: 9aba d0bc e9cc 6bbd bf01 15bd d094 1fbc
00000380: 627b 623c 76ae 47bd 5b46 043c ee14 043d
00000390: ef89 153d c884 8cbd 6d47 1ebd 755c 00bc
000003a0: 1200 60bd c273 8f3d 38e5 acbd 0aaa 013d
000003b0: 746f a4bd c7a5 133d 5f9a 993d f5b9 d3bc
000003c0: e8a3 fe3d e80d 6fbc 4d2a d439 0a29 cc3c
000003d0: f2d7 9cbd ab42 1bbc 49da c03c ccd3 843c
000003e0: 637e 823d 0757 a63d e524 7eba bb3d 2fbd
000003f0: b7b0 ce3b 3e22 32bd 23a5 7ebd f4f9 1e3e
0.025419237 -0.04508969 -0.07921129 0.008654256 -0.04178923 -0.022608375 0.04377474 -0.020695811
0.013673072 0.087841064 0.0505419 0.09289891 0.04060059 -0.07847078 -0.005134901 -0.002296347
-0.06713631 -0.08629821 0.025998354 -0.046206977 0.028365906 -0.0033428916 0.009782661 0.074183784
0.041041765 0.007503963 0.0018654154 0.07838511 0.072900556 0.051265556 0.019435082 -0.019836133
-0.034897156 -0.01588382 -0.110586606 0.0178078 -0.0011786153 0.012875836 -0.03204465 -0.0687648
-0.045238912 -0.064334445 -0.10194851 -0.009668662 0.03028322 -0.02654189 -0.014723448 0.099031694
0.09843055 0.075920716 -0.02919926 -0.009682498 0.0005254793 0.07021367 0.07925721 0.091228426
0.11371835 -0.09920998 -0.004031674 0.014107328 -0.07496386 -0.028700799 -0.021420855 -0.06031113
0.12231148 0.010592062 0.02945844 0.03290786 0.037769936 -0.081822656 0.06620259 -0.004233085
-0.029695699 -0.02351547 0.011122141 -0.057223875 0.11139804 0.03663778 0.01681555 0.013081637
-0.05418736 0.05322088 0.056748178 -0.06757095 0.032198012 0.017605808 0.03103182 -0.0077754394
-0.010056965 -0.019278834 -0.022036606 0.006287301 0.0095699 0.05508095 0.10249492 -0.04468365
0.028710896 0.09003773 -0.037506938 -0.04342504 -0.01755377 0.02329368 -0.029622676 -0.06639447
-0.1637483 -0.025018435 -0.010780769 -0.025433408 -0.0052055954 0.03283915 -0.11009814 0.037674576
0.0068591256 0.059337787 -0.012739862 -0.03934415 -0.026000462 0.027556468 0.021461109 -0.00043408372
0.027309066 -0.00762932 -0.04513538 -0.0976675 0.12659094 -0.026310146 -0.0053315135 -0.04569324
-0.06403476 -0.047256082 -0.066488944 -0.08343584 -0.031895146 0.117324464 0.028104918 -0.009368834
-0.104146 -0.01051567 -0.014426364 0.09410518 -0.012004358 0.061099395 0.020475697 0.1296621
0.014223021 0.060344357 -0.15979551 -0.011953344 -0.008191077 0.038045127 -0.031067368 -0.030767972
0.030952837 -0.02823402 0.071003534 -0.059863575 -0.02344867 0.03387034 0.03429708 0.025391951
-0.06094664 0.004351385 0.06160222 0.036895882 -0.06466521 -0.026668034 -0.115938224 -0.013055813
0.01386053 0.017266367 -0.050831802 0.037182424 -0.01795176 0.037115317 0.02114513 0.07169742
-0.051337015 0.045562997 0.017810326 0.056804545 0.015272016 -0.058758613 -0.06294876 -0.012979479
-0.019761547 -0.005657739 0.014524696 -0.034526244 -0.01147724 -0.0063858847 -0.0017301522 0.038452517
-0.065422036 0.030727062 0.109328724 -0.012821433 0.04035662 0.010995619 -0.009774152 -0.015428119
-0.08540646 0.016339235 -0.04125863 -0.04696855 -0.0014482797 -0.066397384 0.08004535 -0.019576967
0.068367735 0.0614451 -0.1329809 0.012225911 0.014258987 -0.11879272 -0.05267187 0.11319438
-0.017944004 0.008260443 0.043907333 0.049892105 -0.025479604 -0.057568464 -0.03637862 -0.0097400695
0.013823362 -0.048750363 0.008073415 0.032246523 0.036508497 -0.068612635 -0.038642336 -0.0078345435
-0.054687567 0.07004501 -0.084421575 0.031656303 -0.080290705 0.03604677 0.07500147 -0.025845507
0.124336064 -0.014590718 0.00040467308 0.024921913 -0.07658376 -0.009476344 0.023541586 0.016214274
0.063717626 0.08122068 -0.0009694829 -0.04278348 0.006307687 -0.043489687 -0.062169205 0.15525037

vgg.0.bias f4 [63]
00000000: 73c5 0ebb 2a7d 9e3b 8985 5dba c44a 03bb
00000010: 8c36 63bb e45d 78ba 5495 45ba 53c6 9dba
00000020: 6c8c 0cbb 4f8f daba 9003 98ba 386b 34bb
00000030: 8b9a 42bb f2fc 7abb cd9f 6dbb d0cd 27ba
00000040: d140 8b39 c52e 46bb 8a5d 29bb 9cc0 60bb
00000050: e7a0 b4ba 796d 71bb ea1e 3a3a 8411 2aba
00000060: 4621 94bb cc8e 25bb 933f 3ebb 0391 c5ba
00000070: 4662 67bb ce35 0ebb 86b7 32bb 04ce f6ba
00000080: ff83 03bb c31a e13a 6796 16bb 1015 9e3a
00000090: 9b0f 42bb 2f4f 513b db6a 323b cad7 013c
000000a0: 2751 23bb abcd 353a a46b 3cba 7006 a5ba
000000b0: c05a 94bb dada 653b d06f b6b8 ebb1 41bb
000000c0: 701b 6639 2805 45bb e233 153a 9641 db3a
000000d0: 6a11 a6ba b98b 84ba 36c4 6fba 461f 27bb
000000e0: dc0a 94ba e1b2 f239 c1c0 7f39 81e0 3ebb
000000f0: 13bb 393a 9be9 40bb b23a 703a
-0.002178517 0.004836698 -0.0008450379 -0.0020033577 -0.0034669964 -0.000947444 -0.0007537205 -0.0012037255
-0.0021446003 -0.0016674789 -0.0011597741 -0.0027529728 -0.0029694166 -0.003829774 -0.0036258579 -0.0006401213
0.00026560438 -0.003024028 -0.0025843107 -0.0034294492 -0.0013780863 -0.0036838932 0.00070999435 -0.00064875954
-0.004520568 -0.0025262116 -0.0029029592 -0.0015073124 -0.0035306378 -0.002169955 -0.0027270033 -0.0018829708
-0.002006769 0.0017174113 -0.002297783 0.001206072 -0.0029611352 0.0031938066 0.0027224335 0.007924983
-0.0024920197 0.0006935249 -0.00071876706 -0.001259042 -0.00452742 0.0035073073 -8.699263e-05 -0.002955551
0.0002194473 -0.0030062888 0.000569163 0.001672792 -0.0012669985 -0.0010112441 -0.0009146364 -0.0025500818
-0.001129474 0.00046291112 0.00024390501 -0.0029125514 0.0007085066 -0.0029436115 0.000916402

oconv2.weight f4 [1, 63, 3, 3]
00000000: c093 893c 3c30 8c3d d122 f03b 9065 11be
00000010: 7e26 3bbd 935e 8ebd 0bf9 3bbd c9f0 fdbc
00000020: 46fc f9bc 952b 213d db68 333d 09c0 8e3d
00000030: 733c 75bd 8127 f03b ad01 2bbc 8bef 1dbc
00000040: 822f 603d 7e4c b3bc 5005 bb3c d0f7 f73d
00000050: fcd1 7ebb ddc2 d53c 7703 ad3d e6e9 0ebd
00000060: f6f0 03bd 7c4a cf3d 8735 90bc a216 9dbd
00000070: 170a b03d 6e73 0fbc a677 68bd cf98 5fbd
00000080: b3db a13d 8198 453c 8010 eb3d 813f 47bd
00000090: b906 a83d ccef af3c e70c 40bd 2386 b9bb
000000a0: 25bc 8dbb 852e bdbc 0b6b a9bd 3977 003d
000000b0: 7cde 923d b424 5a3d 739d 773d 1809 c5bd
000000c0: 3a83 423d d662 493d 6d7e 593d 4581 9b3d
000000d0: cd36 8cbb d3d1 5b3d e4e2 79bd 6641 6f3d
000000e0: 672e cf3c cd68 f73d fadc 3c3d 43ae 1a3e
000000f0: 8d39 de3d b2d3 033d 86fb 8c3c 4002 91bc
00000100: 5013 213d da7e e63c 55e8 683d ea41 4bbc
00000110: 0b8c 9a3d b456 eabc c3ab f03c ce2a 04bd
00000120: de39 fd3c 302c 783d 760e 523d 1c20 fd3c
00000130: ff0f 64ba c5df 6bbd 7e9e f5bd 72d8 063e
00000140: e926 cb3d 92ee b53b 0262 77bd b463 6b3d
00000150: ee78 d03d bee4 513c 4376 41bd 818b 91bc
00000160: 73aa 423c eb71 163d 1f76 2c3e dad4 ba3d
00000170: 0034 e73d 4aec 40bc 8c5e 99bd 397a d03d
00000180: 6b35 273d ad5c 76bd 36e4 d8bd 419b 55bc
00000190: f062 5abc 4765 8b3d 8e9b 6dbd de24 82bd
000001a0: 4555 19bd 4337 25bd f16d a4bd dbb2 863d
000001b0: ef29 983d fb2a c03d 66a1 8b3d 21d9 55bd
000001c0: cb95 c4bc b674 893d bc3a 113a 8bbb 14bd
000001d0: 923e 21bd c347 643a 4dfe f9bd cd42 d63c
000001e0: 0dd7 40bd 3a1d fdbd fd83 6d3d 478d 093d
000001f0: 3e1e 12bd 4d28 0b3b 271e ba3c 7681 97bd
00000200: 63c1 b2bd 3c7b 0b3d 764d a9bd c3ba 64bd
00000210: 8ceb ed3b 188b 993d 854d 393e e932 6abd
00000220: 3f6f 5c3d 6531 96bc e900 4d3d f106 da3d
00000230: 1468 943d 3851 ddbd 6902 683c 0ef3 47bc
00000240: 2790 183d ff9f 4a3d 002e 4dbd c0e4 38bd
00000250: 7452 75bd e023 42bd c1c8 72bd b5ac 86bb
00000260: 39c0 b83c 433e c9bd 56c2 96bb 70d2 d83c
00000270: 94fc 52bc e899 6c3d cb53 7fbd 8a13 193d
00000280: e5ab a93d fc1a 4b3c f6e8 803c 795d 7ebd
00000290: deaa a5bd e3aa cd3d cbdd f0bc 07e0 16bd
000002a0: b97e 193d 5c91 4e3d d841 e63c 63ab c33d
000002b0: c134 0ebe 758c 163d 48cc 363b 5267 023d
000002c0: 67a4 d43d 32e8 8fbb 3d5b 8a3c 389f 5d3c
000002d0: 3a58 393d 1b24 58bd 7683 263d f133 733c
000002e0: c026 483d 4242 683d 743f 7a3d 2385 a7bc
000002f0: 6391 14bc b0c9 af3b 3ca6 8c3d dc5a 2c3d
00000300: 0f95 71bd 4902 43bd 69cc 9f3c da36 58bd
00000310: 61f8 c5bd ed32 793d 9c52 5d3d 8b04 59bd
00000320: 7bd0 12bc cb51 563d fb06 3c3c 85b4 7e3c
00000330: 773a 0abd 023e e33c c2a2 e93b 6a23 24bd
00000340: 7971 0cbc 3a6b c3bd 2c8a 803d d3fa 8fbd
00000350: 6769 e1bc 5c06 8cbd 46b7 14bd a29a a8bb
00000360: 2143 173b 2ab3 623c 7edb 633e 82c6 94bd
00000370: 2a3e 92bd 2396 03bd fb73 dabd 5c4d b13c
00000380: 67ef 763d 7517 573b 0086 253d 9fb6 603d
00000390: d470 21bd b114 ed3c f0dc fb3d 64a8 023e
000003a0: ebd1 9f3d a8ed a03c 654e cfbc 374e bebc
000003b0: 5968 a9bc a483 48bc 87e0 9bbc 2105 23bd
000003c0: 1b01 0dbd 5229 8ebc 2ed8 0cbd fd8a a63d
000003d0: 9716 49bc 61bb 143d c6c9 4abd 4c73 abbd
000003e0: ca34 25bc cd12 3dbd f939 ec3d 7a4d 83bd
000003f0: aa9e 3b3c 816c 05bd 50ed 01bd a296 89bd
0.016794086 0.068451375 0.007328369 -0.141989 -0.045691006 -0.06951632 -0.045891803 -0.030998604
-0.030515801 0.039348204 0.04380117 0.069702215 -0.059872102 0.007328928 -0.010437411 -0.009639631
0.054732807 -0.02188706 0.022829682 0.12107813 -0.0038882485 0.026093895 0.084479265 -0.03489103
-0.03221222 0.10121629 -0.017603649 -0.076703325 0.085956745 -0.008755548 -0.05675473 -0.05458909
0.079032324 0.012060286 0.114777565 -0.048644546 0.08204407 0.021476649 -0.046887305 -0.0056617423
-0.004325407 -0.023093471 -0.0827237 0.0313637 0.07171342 0.05325766 0.06045289 -0.09620875
0.04748843 0.049166523 0.053099085 0.075930156 -0.0042789937 0.0536669 -0.061007395 0.05841198
0.025290681 0.12080536 0.046109177 0.15105538 0.10850821 0.03218431 0.01720978 -0.017701268
0.03932506 0.02813666 0.056862194 -0.012405852 0.07546242 -0.028605796 0.029378777 -0.032267384
0.030911382 0.060589015 0.051283322 0.0308991 -0.00086998934 -0.05758645 -0.119931206 0.13168505
0.09919531 0.0055521214 -0.060396202 0.05746813 0.101793155 0.012810884 -0.047231924 -0.017766716
0.011881459 0.036729734 0.16841935 0.091226295 0.11289215 -0.011775086 -0.074887365 0.10179562
0.040822428 -0.060146976 -0.10590403 -0.013037504 -0.013329253 0.068064265 -0.058009677 -0.06354688
-0.037434835 -0.040335905 -0.08028782 0.06577083 0.07429873 0.09383198 0.06817894 -0.052209023
-0.023997208 0.06711714 0.0005540063 -0.036311667 -0.039366312 0.0008708203 -0.12206707 0.0261549
-0.04708009 -0.1235909 0.057987202 0.033582 -0.035673372 0.0021233738 0.022719456 -0.073977396
-0.08728292 0.034053072 -0.082667276 -0.055842172 0.0072607454 0.07497233 0.18095978 -0.057177458
0.05381703 -0.0183341 0.050049696 0.10645855 0.07246414 -0.10806507 0.014160731 -0.012203945
0.03724685 0.04946899 -0.050092697 -0.045140028 -0.059893087 -0.047397494 -0.059273485 -0.0041099438
0.022552596 -0.098263286 -0.0046008034 0.026467532 -0.012877602 0.057763964 -0.06233577 0.03737215
0.082847394 0.01239657 0.015736084 -0.06210086 -0.08089231 0.1004236 -0.029402634 -0.036834743
0.037474368 0.050431594 0.028107569 0.09554174 -0.13887312 0.036755044 0.0027892757 0.031836815
0.1038292 -0.0043916935 0.016889209 0.01352673 0.045250155 -0.052768808 0.040652715 0.014843927
0.04886508 0.056703813 0.06109567 -0.020449227 -0.009067866 0.005364619 0.06867644 0.042078838
-0.058980044 -0.0476096 0.01950665 -0.052786686 -0.09666515 0.060839582 0.05403386 -0.05298285
-0.008960838 0.052324098 0.011476274 0.015545969 -0.033747163 0.027739529 0.007129998 -0.040072836
-0.008571976 -0.09541936 0.06276354 -0.07030263 -0.02751608 -0.068371505 -0.036307596 -0.005145387
0.0023080783 0.013836661 0.22251698 -0.07264425 -0.07140763 -0.032125603 -0.10666653 0.021643333
0.060286906 0.0032820378 0.040410995 0.05486166 -0.039414242 0.02894053 0.12298 0.12759548
0.078037106 0.019644573 -0.025305936 -0.023230655 -0.02067964 -0.012238417 -0.019027961 -0.039799813
-0.034424882 -0.017353687 -0.034385853 0.08131979 -0.012273452 0.03631151 -0.049508832 -0.083716005
-0.010083387 -0.046160508 0.11534495 -0.06411262 0.011451403 -0.03257418 -0.03172046 -0.06718184
