Models/model28.pth (torch, 151887 bytes, 6 tensors)

oconv1.weight f4 [1, 1, 3, 3]
0.44196665 -0.15168998 -0.50978786 0.18460341 0.16468163 -0.18685156 0.3446693 -0.4598217
-0.207345
00000000: 7449 e23e 9e54 1bbe 7581 02bf ad08 3d3e
00000010: 4da2 283e 0456 3fbe 7f78 b03e c06d ebbe
00000020: 3f52 54be

conv1.weight f4 [63, 1, 3, 3]
-1.5542605 0.29529774 0.18637075 -0.03678377 -0.8998993 0.33484948 -0.12778486 0.14450508
-0.19383045 -0.1668828 -0.413683 -0.117080666 -0.4381007 1.256595 0.3182932 0.22649908
-0.7663091 0.2757947 0.22465795 -0.55262935 0.52886856 -0.6896456 0.46422887 0.31434715
-0.29732695 0.68104506 -0.12633076 0.32939208 -0.588463 0.48075333 1.0739635 0.0031371147
0.63255477 -0.5763636 0.17609625 0.6801956 -0.95767605 -0.21711838 0.54211503 0.1820356
0.113538995 -0.043804087 -0.11361347 -0.20507629 0.32273746 -0.13804221 -0.6218587 -0.34968415
-0.6786056 -0.083456494 0.5718084 1.048983 0.018555505 -0.36187208 0.086601965 -0.27387133
0.12076064 -0.22812213 0.41490805 -0.089708015 -0.55927515 0.32955655 0.011892947 0.3256527
0.43237862 -0.061116844 0.122276425 -0.38505685 0.7849395 -0.7896943 0.47870427 0.17298065
0.500573 0.3677741 -1.172969 -0.0115476325 -0.50912654 1.1222764 0.14049509 0.14287706
0.029964462 0.3925843 0.07712227 -0.6149092 -0.39770073 -0.0034731533 0.27592573 -0.45738754
-0.019681284 -0.14676695 0.61241794 -0.14852217 -0.72329026 -0.4556396 -0.52362496 -0.25842494
0.78753096 -0.28238663 -0.45314777 -0.18434648 -0.03788109 0.18621285 0.7137281 0.11129444
-0.8563519 0.5278029 0.51252246 0.5469889 0.81929135 0.32299203 -0.5223394 -0.44465926
0.19461864 0.8162233 0.50964427 0.07763601 1.4568366 0.7327527 -0.093654655 -0.25989175
-0.77894634 -0.089577556 0.09188001 0.5138156 0.11331081 0.25886685 0.1843794 -0.028461574
-0.5545307 0.03959243 0.0032157751 -0.09390023 0.1793087 -0.49716836 0.41285843 -0.019016968
0.2153238 -0.46535528 0.45913386 0.38166645 -0.23437506 -0.612985 -0.7155232 -0.55816805
0.3770309 0.18004109 0.67356384 0.5855699 -0.7251532 0.45252755 0.06360325 0.3695461
-0.09474988 -0.089213185 -0.29106405 -0.72187555 0.108453415 -0.7738257 -0.9875749 0.5546678
0.85406774 -0.81028897 0.15168007 0.9842293 -1.1010044 0.6898645 -0.17824008 0.2001088
-0.2614645 -0.10420205 -0.3060011 -0.070328854 0.11966092 0.53452754 -0.72105247 0.21407564
0.3548537 0.1016184 0.40692005 0.6008466 0.4528433 0.28509295 -0.30602092 0.11213651
0.9448705 0.1488362 0.40217382 -0.24321286 -0.17282526 -0.20958033 -0.3169119 -0.34805146
0.2690849 0.5976207 0.009826148 -0.026931213 -0.16882133 -0.05587587 -0.51009595 -0.18891327
-0.5273814 0.47311315 0.12183232 0.25858492 0.5346431 -0.15572332 -0.2534995 -0.1674464
-0.8362254 0.9165697 0.109683804 0.27749225 -0.015634514 -0.427248 0.34874195 0.49537662
-0.17141041 0.4462503 0.1713394 0.045720603 0.38268453 -0.017298993 -1.2571365 -0.41000816
0.34771043 0.1272363 0.17505625 -0.39010173 0.3197092 0.4030357 -0.19655748 0.14105287
0.5661055 0.11716309 -0.7899474 -0.33132884 -0.3708908 -0.6901038 -0.24169359 -0.38852683
0.2475332 0.074570276 -0.877103 0.19769865 0.50688845 0.68075895 0.22550178 -0.119650476
-0.5318993 -0.35079014 0.02587584 0.2210201 0.13464601 -0.1423095 -0.69011676 -0.8767446
00000000: 02f2 c6bf 4431 973e f9d7 3e3e 94aa 16bd
00000010: cd5f 66bf 6471 ab3e 09da 02be 24f9 133e
00000020: 7d7b 46be 53e3 2abe 42ce d3be fdc7 efbd
00000030: bc4e e0be 1bd8 a03f 54f7 a23e 60ef 673e
00000040: d52c 44bf f734 8d3e bc0c 663e 1e79 0dbf
00000050: ee63 073f 9d8c 30bf 68af ed3e 1cf2 a03e
00000060: 3d3b 98be f858 2e3f da5c 01be 14a6 a83e
00000070: 83a5 16bf 4d25 f63e a377 893f 0d98 4d3b
00000080: 1cef 213f 918c 13bf 9352 343e 4d21 2e3f
00000090: 422a 75bf 4854 5ebe 0dc8 0a3f 8a67 3a3e
000000a0: 2287 e83d ea6b 33bd 2eae e8bd 85ff 51be
000000b0: d83d a53e f05a 0dbe 2232 1fbf cd09 b3be
000000c0: 19b9 2dbf 3deb aabd 0962 123f 1345 863f
000000d0: b701 983c 4c47 b9be 5f5c b13d dd38 8cbe
000000e0: 5b51 f73d d998 69be d46e d43e d6b8 b7bd
000000f0: a82c 0fbf a3bb a83e a3da 423c f3bb a63e
00000100: bb60 dd3e a855 7abd 106c fa3d 2c26 c5be
00000110: ccf1 483f 6829 4abf ba18 f53e d721 313e
00000120: 8d25 003f e34c bc3e d923 96bf 4832 3dbc
00000130: 1e56 02bf c1a6 8f3f f2dd 0f3e 5d4e 123e
00000140: 0878 f53c cf00 c93e 48f2 9d3d b06a 1dbf
00000150: 6e9f cbbe d89d 63bb 2346 8d3e b32e eabe
00000160: a53a a1bc 134a 16be 6cc7 1c3f 3216 18be
00000170: 8d29 39bf 9849 e9be 490c 06bf 4650 84be
00000180: a19b 493f fb94 90be fc02 e8be 53c5 3cbe
00000190: 3429 1bbd 95ae 3e3e e2b6 363f 57ee e33d
000001a0: e139 5bbf 171e 073f ac34 033f 7707 0c3f
000001b0: 14bd 513f 365f a53e 09b8 05bf 61aa e3be
000001c0: 1c4a 473e 03f4 503f 0c78 023f a1ff 9e3d
000001d0: 9f79 ba3f ae95 3b3f 03ce bfbd 8810 85be
000001e0: 0769 47bf 7074 b7bd 962b bc3d 6b89 033f
000001f0: 7f0f e83d 328a 843e f4cd 3c3e 3f28 e9bc
00000200: b9f5 0dbf ac2b 223d c1bf 523b c44e c0bd
00000210: b39c 373e da8c febe 2e62 d33e 79c9 9bbc
00000220: d87d 5c3e 0c43 eebe 9813 eb3e c969 c33e
00000230: 0400 70be 96ec 1cbf 872c 37bf 1ae4 0ebf
00000240: 320a c13e b15c 383e ae6e 2c3f e9e7 153f
00000250: a4a3 39bf b1b1 e73e 6c42 823d 2535 bd3e
00000260: 3a0c c2bd 67b5 b6bd 5906 95be d6cc 38bf
00000270: d31c de3d 7119 46bf b5d1 7cbf b5fe 0d3f
00000280: 2fa4 5a3f 196f 4fbf 0552 1b3e 74f6 7b3f
00000290: b6ed 8cbf f69a 303f 9184 36be 52e9 4c3e
000002a0: adde 85be e267 d5bd 2dac 9cbe 9308 90bd
000002b0: c910 f53d ccd6 083f e596 38bf a536 5b3e
000002c0: 62af b53e 4f1d d03d d357 d03e 15d1 193f
000002d0: 14db e73e b4f7 913e c6ae 9cbe d4a7 e53d
000002e0: 08e3 713f 8468 183e bae9 cd3e cb0c 79be
000002f0: 1bf9 30be 3a9c 56be 4742 a2be cd33 b2be
00000300: 7fc5 893e acfd 183f dafd 203c d99e dcbc
00000310: 80df 2cbe 19de 64bd a695 02bf 7b72 41be
00000320: 7802 07bf e33b f23e 3983 f93d 3e65 843e
00000330: 5fde 083f ef75 1fbe b0ca 81be 1277 2bbe
00000340: de12 56bf 50a4 6a3f e7a1 e03d 7713 8e3e
00000350: f413 80bc 40c0 dabe 4e8e b23e 01a2 fd3e
00000360: 3686 2fbe eb7a e43e 9873 2f3e 8745 3b3d
00000370: 3aef c33e 9eb6 8dbc d9e9 a0bf 97ec d1be
00000380: 1a07 b23e 3c4a 023e f241 333e 6abb c7be
00000390: edb0 a33e b25a ce3e 5d46 49be 2a70 103e
000003a0: 4aec 103f 34f3 ef3d fe39 4abf efa3 a9be
000003b0: 66e5 bdbe a5aa 30bf 867e 77be fdec c6be
000003c0: 5879 7d3e 4db8 983d d289 60bf 8471 4a3e
000003d0: 71c3 013f 3846 2e3f f0e9 663e 4f0b f5bd
000003e0: 8d2a 08bf c49a b3be 92f9 d33c 1853 623e
000003f0: a5e0 093e 95b9 11be 7eab 30bf 5672 60bf

conv1.bias f4 [63]
0.0028354265 0.00047532175 0.003129808 0.0034688148 0.004377057 0.00452267 0.0015408582 0.0029001362
-0.007408731 0.0033585844 0.0024989618 0.001030069 -0.0054448685 0.005057681 -0.0029702336 -0.0041127913
-0.004548019 -0.003958882 -0.004212777 -0.0038463033 -0.0046823304 -0.0034330776 -0.0042333584 0.0035494585
0.0021980966 -0.0039687385 -0.002733695 -0.0043279463 -0.0021118508 -0.0056246165 -0.0051083136 -0.0033343646
0.0022377535 -0.0047144857 0.00061480823 -0.00013496295 0.0028355112 -0.004353409 -0.0038836254 -0.002152147
-0.0040466515 -0.00036401564 -0.0029193 -0.0041661724 -0.005683305 -0.0047101825 -0.001813114 -0.0044184634
0.0012053411 -0.004389441 -0.0038232573 0.0036014905 -0.005258424 -0.0012096819 0.004910571 0.003244496
-0.0033975276 0.003145222 0.002034945 -0.004221682 -0.003669762 -0.0054091536 -0.0053631007
00000000: 90d2 393b 9b34 f939 771d 4d3b 0e55 633b
00000010: 6a6d 8f3b e832 943b 9ff6 c93a 3610 3e3b
00000020: f1c4 f2bb b21b 5c3b 9fc5 233b 6103 873a
00000030: de6a b2bb e7ba a53b 40a8 42bb 98c4 86bb
00000040: 8c07 95bb 82b9 81bb 560b 8abb 4312 7cbb
00000050: 3c6e 99bb 7cfd 60bb fcb7 8abb 089e 683b
00000060: f10d 103b 310c 82bb cb27 33bb 72d1 8dbb
00000070: fa66 0abb b44e b8bb a463 a7bb 5b85 5abb
00000080: 46a7 123b f97b 9abb 152b 213a d784 0db9
00000090: fcd3 393b 0ba7 8ebb 6c84 7ebb 090b 0dbb
000000a0: c699 84bb 5ad9 beb9 ba51 3fbb 6384 88bb
000000b0: 053b babb e057 9abb 03a6 edba c2c8 90bb
000000c0: 89fc 9d3a 4dd5 8fbb 9d8f 7abb fc06 6c3b
000000d0: dc4e acbb 308e 9eba dbe8 a03b 9ca1 543b
000000e0: 0ea9 5ebb 1220 4e3b b65c 053b 0956 8abb
000000f0: 6480 70bb 453f b1bb f3bc afbb

vgg.0.weight f4 [63, 63, 3, 3]
0.024016153 -0.046482015 -0.080603376 0.0073029078 -0.04319595 -0.02400734 0.042435627 -0.02210339
0.01217528 0.08653222 0.051612712 0.091537505 0.039626405 -0.07962246 -0.0066307834 -0.0038885945
-0.065909974 -0.087305255 0.024740467 -0.047360547 0.027438486 -0.004583153 0.008586122 0.07302172
0.039831206 0.0064798817 0.0007580549 0.07719017 0.07160428 0.049714334 0.018098 -0.020634577
-0.036222667 -0.017085519 -0.11139733 0.016597366 -0.0025219384 0.011677656 -0.03327684 -0.07006659
-0.04662847 -0.065694936 -0.10319962 -0.010972439 0.02895003 -0.026275009 -0.013723901 0.09774701
0.09719047 0.07440702 -0.029044788 -0.010986234 -0.0007047299 0.06877166 0.07805717 0.09008479
0.1146662 -0.100310855 -0.0037506102 0.013922103 -0.07623745 -0.02864778 -0.021367135 -0.059985433
0.121338785 0.01061209 0.028112939 0.032451782 0.036460046 -0.08255385 0.064890236 -0.0050797504
-0.03095589 -0.024711616 0.009894241 -0.058439333 0.11015345 0.035354666 0.015745275 0.011897542
-0.055371366 0.051885422 0.055457998 -0.06890092 0.030833114 0.016287692 0.029753448 -0.009160871
-0.011392906 -0.020619562 -0.023295859 0.0068815122 0.008812755 0.05373083 0.101079985 -0.045376055
0.027388748 0.08895091 -0.038860306 -0.04455333 -0.01885265 0.021972002 -0.030937789 -0.06733316
-0.16424245 -0.026187716 -0.012027199 -0.025505753 -0.006474497 0.033801887 -0.11137551 0.036407325
0.005853475 0.058148544 -0.013853386 -0.03990214 -0.026356516 0.026397733 0.022831835 -0.0015647188
0.026145017 -0.008929872 -0.04660033 -0.09658259 0.12723386 -0.02737575 -0.0065080705 -0.046793956
-0.06520783 -0.0484422 -0.06773085 -0.08424035 -0.033129167 0.116072774 0.027042184 -0.010676164
-0.105361156 -0.009648021 -0.015358578 0.09288797 -0.011422885 0.059562624 0.019050749 0.12870054
0.015251832 0.05910647 -0.16111624 -0.0134281805 -0.009191309 0.036742378 -0.03159494 -0.03185997
0.029579323 -0.028105844 0.06957335 -0.059630774 -0.024975711 0.03238895 0.03293794 0.024019513
-0.06238837 0.0028931766 0.0603322 0.035499897 -0.065400444 -0.028001158 -0.114867024 -0.013700117
0.012601563 0.015889456 -0.049654335 0.035918392 -0.018952945 0.035835154 0.019885525 0.070523076
-0.05263007 0.044394504 0.01677457 0.0555768 0.013997661 -0.06000236 -0.062297158 -0.014167178
-0.02105484 -0.006652046 0.013244559 -0.0354482 -0.012350664 -0.0075493637 -0.0032071264 0.038791817
-0.064913526 0.029187134 0.1086611 -0.014405672 0.038990278 0.009796937 -0.011000697 -0.016624717
-0.0866098 0.015136096 -0.04253831 -0.048179816 -0.0025928721 -0.06759738 0.078897685 -0.019216701
0.066902235 0.06002095 -0.13175485 0.011650828 0.012831542 -0.12005655 -0.053819194 0.111874655
-0.019235557 0.006976069 0.0426516 0.0486056 -0.026673276 -0.058905758 -0.037688863 -0.011061802
0.012548712 -0.04997639 0.006881527 0.0335028 0.035252914 -0.06972046 -0.038443737 -0.008991432
-0.05571612 0.070894465 -0.08576653 0.030320678 -0.08145952 0.0346735 0.073633865 -0.02717573
0.12297024 -0.01591514 -0.00095951447 0.023799121 -0.07780634 -0.011031062 0.02202877 0.015108226
0.062474817 0.08001025 -0.0022216218 -0.044146813 0.004979345 -0.044882618 -0.063540585 0.15388468
00000000: 86bd c43c ed63 3ebd 6213 a5bd 3b4d ef3b
00000010: 3dee 30bd 0bab c4bc fbd0 2d3d 2b12 b5bc
00000020: d37a 473c ce37 b13d da67 533d 0478 bb3d
00000030: 4c4f 223d 1a11 a3bd 0b47 d9bb cad7 7ebb
00000040: cffb 86bd 19cd b2bd 85ac ca3c 22fd 41bd
00000050: adc6 e03c 462e 96bb ceac 0c3c 698c 953d
00000060: 0c26 233d 3055 d43b 34b8 463a e115 9e3d
00000070: 44a5 923d 42a1 4b3d 4242 943c d809 a9bc
00000080: 385e 14bd eef6 8bbc 4924 e4bd 33f7 873c
00000090: 1b47 25bb a453 3f3c 4c4d 08bd 137f 8fbd
000000a0: 7ffd 3ebd 118b 86bd 535a d3bd bfc5 33bc
000000b0: 9d28 ed3c b03e d7bc 36da 60bc 962f c83d
000000c0: cc0b c73d b562 983d 56ef edbc 9bff 33bc
000000d0: 9fbd 38ba 28d8 8c3d 70dc 9f3d 607e b83d
000000e0: 1dd6 ea3d c76f cdbd cccc 75bb 8819 643c
000000f0: 6122 9cbd c0ae eabc 210a afbc 49b3 75bd
00000100: 7880 f83d 55de 2d3c 1b4d e63c 29ec 043d
00000110: 2157 153d fe11 a9bd 2ce5 843d 0974 a6bb
00000120: 3597 fdbc 0470 cabc 741b 223c 155e 6fbd
00000130: 2298 e13d 0ed0 103d 3cfc 803c e8ed 423c
00000140: 16cd 62bd cf85 543d ed27 633d ed1b 8dbd
00000150: ba95 fc3c c46d 853c 81bd f33c 7a17 16bc
00000160: 50a9 3abc 5bea a8bc f5d6 bebc 4f7e e13b
00000170: 6063 103c dc14 5c3d 0603 cf3d 3edc 39bd
00000180: 5e5e e03c e52b b63d fc2b 1fbd 8d7d 36bd
00000190: df70 9abc a1fe b33c 3f71 fdbc f8e5 89bd
000001a0: 2c2f 28be 9f87 d6bc bb0d 45bc 71f1 d0bc
000001b0: 0428 d4bb d973 0a3d d818 e4bd d91f 153d
000001c0: 82ce bf3b 2b2d 6e3d 50f9 62bc 6d70 23bd
000001d0: 9fe9 d7bc 0f40 d83c d409 bb3c 4017 cdba
000001e0: 132e d63c 994e 12bc fddf 3ebd 18cd c5bd
000001f0: 9849 023e 1c43 e0bc a741 d5bb 05ab 3fbd
00000200: af8b 85bd 546b 46bd 79b6 8abd 3486 acbd
00000210: 73b2 07bd 90b7 ed3d 9287 dd3c 14eb 2ebc
00000220: 97c7 d7bd bc12 1ebc 8ca2 7bbc 0c3c be3d
00000230: 0d27 3bbc f0f7 733d 5110 9c3c 13ca 033e
00000240: d2e2 793c a019 723d a8fb 24be df01 5cbc
00000250: 2597 16bc 2d7f 163d b269 01bd 9a7f 02bd
00000260: 5650 f23c 3a3e e6bc 797c 8e3d 663f 74bd
00000270: dd99 ccbc 47aa 043d efe9 063d 92c4 c43c
00000280: f38a 7fbd 739b 3d3b e61e 773d 5768 113d
00000290: abf0 85bd af62 e5bc 673f ebbd 7576 60bc
000002a0: c976 4e3c 9b2a 823c 5862 4bbd 2a1f 133d
000002b0: 3543 9bbc e2c7 123d f8e6 a23c 676e 903d
000002c0: a192 57bd 03d7 353d d36a 893c 80a4 633d
000002d0: 7256 653c 09c5 75bd 4e2b 7fbd 741d 68bc
000002e0: 337b acbc 68f9 d9bb b5ff 583c 2232 11bd
000002f0: 705a 4abc a760 f7bb a72e 52bb 2be4 1e3d
00000300: 62f1 84bd db19 ef3c b689 de3d c505 6cbc
00000310: 45b4 1f3d 5583 203c 443c 34bc 8f30 88bc
00000320: 7b60 b1bd 63fd 773c a73c 2ebd 3358 45bd
00000330: 2ded 29bb 7f70 8abd 1c95 a13d 586c 9dbc
00000340: 0a04 893d 87d8 753d beea 06be 1de3 3e3c
00000350: 633b 523c 35e0 f5bd 8471 5cbd 8a1e e53d
00000360: e393 9dbc 8297 e43b 72b3 2e3d aa16 473d
00000370: ea81 dabc 2a47 71bd a35f 1abd 8f3c 35bc
00000380: 1d99 4d3c 0bb4 4cbd 6f7e e13b 3b3a 093d
00000390: 5c65 103d 9ac9 8ebd 2e77 1dbd cd50 13bc
000003a0: 9636 64bd 1e31 913d 5da6 afbd 1263 f83c
000003b0: 40d4 a6bd cd05 0e3d 5acd 963d a39f debc
000003c0: d2d7 fb3d 7860 82bc ed87 7bba 60f6 c23c
000003d0: ee58 9fbd a1bb 34bc ae75 b43c 7e88 773c
000003e0: 98e5 7f3d 6adc a33d a198 11bb 4ad3 34bd
000003f0: c629 a33b d6d6 37bd 9121 82bd f293 1d3e

vgg.0.bias f4 [63]
-0.0035238722 0.003519461 -0.00030480235 -0.0019349423 -0.0047083856 -0.002058677 -9.397286e-05 -0.0013840838
-0.0027873327 -0.0014356482 -0.0022289557 -0.0038918126 -0.0035259386 -0.0049361377 -0.0045584664 -0.00027241753
0.0004037421 -0.004240695 -0.0013889056 -0.0044819126 -0.0022262526 -0.0041101053 0.00021016199 -0.0022248887
-0.0057438877 -0.0038722958 -0.004369592 -0.0023196172 -0.0045934436 -0.0021863615 -0.0038303912 -0.0034281372
-0.0028392836 0.00030800802 -0.0034036818 -0.0004639902 -0.0041543525 0.0025945955 0.0033110306 0.008237343
-0.003807038 0.0021480415 -0.0021537128 -0.00273344 -0.0056942566 0.004279068 -0.0015218103 -0.0042015226
-0.00037812928 -0.0041653104 -0.0012311402 0.002100931 -0.0010844931 -0.0022765116 -0.00051107764 -0.003914418
1.3891501e-05 0.0007213407 0.00061437214 -0.004424028 0.0005046487 -0.0045159208 0.0020801378
00000000: c4f0 66bb c2a6 663b e1cd 9fb9 e49d fdba
00000010: cd48 9abb deea 06bb 4c13 c5b8 256a b5ba
00000020: afab 36bb 5c2c bcba ac13 12bb c80d 7fbb
00000030: 6f13 67bb 53bf a1bb 305f 95bb 43d3 8eb9
00000040: 59ad d339 87f5 8abb f00b b6ba 02dd 92bb
00000050: 52e6 11bb 10ae 86bb ee5e 5c39 70cf 11bb
00000060: 3937 bcbb 58c6 7dbb cb2e 8fbb b804 18bb
00000070: 9984 96bb 0f49 0fbb 4d07 7bbb 99aa 60bb
00000080: 4613 3abb 237c a139 4e10 5fbb b643 f3b9
00000090: 3c21 88bb 170a 2a3b e0fd 583b ecf5 063c
000000a0: 807f 79bb 28c6 0c3b 4e25 0dbb 8323 33bb
000000b0: e396 babb 6d37 8c3b 7b77 c7ba edac 89bb
000000c0: a73f c6b9 287d 88bb 365e a1ba c6af 093b
000000d0: 8d25 8eba 8731 15bb d7f9 05ba 8544 80bb
000000e0: 8b0f 6937 5b18 3d3a d10d 213a 70f7 90bb
000000f0: 674a 043a 4afa 93bb ec52 083b

oconv2.weight f4 [1, 63, 3, 3]
0.018214423 0.06712924 0.007643002 -0.14170636 -0.044318505 -0.0708664 -0.044314012 -0.032022525
-0.0290135 0.037982345 0.045132335 0.06821411 -0.05859667 0.006281875 -0.012068911 -0.011058794
0.05592763 -0.020282812 0.02396324 0.11965964 -0.00467652 0.027434507 0.08344527 -0.03426717
-0.031385675 0.102254346 -0.018152049 -0.075444214 0.08464862 -0.007678003 -0.055339433 -0.053223316
0.07766616 0.01088281 0.115336165 -0.049745813 0.080548406 0.02285159 -0.04690938 -0.0069457213
-0.0033511212 -0.024552813 -0.0812285 0.032854527 0.070461825 0.051739134 0.062163226 -0.097559616
0.046118192 0.04779529 0.05427058 0.07416985 -0.004991681 0.05491966 -0.059653316 0.056908853
0.024177551 0.12168606 0.046753682 0.14961486 0.10877149 0.03335359 0.018499766 -0.017207524
0.03808404 0.027004996 0.05613019 -0.013261674 0.07423996 -0.027091471 0.02793345 -0.03322381
0.029447284 0.05909091 0.050004438 0.029610043 -0.002228636 -0.0575498 -0.118580334 0.13038135
0.09776345 0.0066648177 -0.05864351 0.058676116 0.101415336 0.011050062 -0.045651004 -0.016563384
0.010880526 0.03527505 0.16666949 0.08982497 0.11135116 -0.010386138 -0.076364025 0.100852765
0.04130609 -0.05880754 -0.1071142 -0.01304977 -0.01486524 0.06691037 -0.05682237 -0.062102314
-0.038497787 -0.041575406 -0.07900422 0.067094915 0.07293792 0.0952838 0.06678469 -0.05108468
-0.0229136 0.06565988 0.0019159707 -0.03515313 -0.04067862 -0.0005752453 -0.12118815 0.024660718
-0.045686487 -0.12461239 0.059011564 0.031660207 -0.03457497 0.00070415816 0.023135763 -0.072692186
-0.08826718 0.03265001 -0.08125119 -0.057192676 0.0086401 0.073567264 0.17925262 -0.055851366
0.052559502 -0.016992792 0.05070419 0.10479443 0.0710133 -0.10659533 0.015459989 -0.011560686
0.03869278 0.04925133 -0.05114508 -0.043801755 -0.058679454 -0.048655707 -0.05802031 -0.002722818
0.021675162 -0.09686334 -0.0059611704 0.024910275 -0.013904504 0.057831027 -0.060876377 0.036735624
0.08144904 0.013899311 0.016851524 -0.06327796 -0.08013521 0.09897969 -0.028245518 -0.037876472
0.038753595 0.04900642 0.027438296 0.094123945 -0.13733561 0.037258707 0.0040067355 0.030929394
0.102441564 -0.0031408432 0.016079264 0.0135258045 0.043772455 -0.051963426 0.041450445 0.013488983
0.047412235 0.057952005 0.059876386 -0.019039758 -0.009365951 0.004039292 0.06924522 0.04079036
-0.057522602 -0.04898782 0.02049094 -0.054149687 -0.09536349 0.06240315 0.052884728 -0.05284126
-0.009167481 0.053059395 0.010584845 0.013999029 -0.033035334 0.027994629 0.00595847 -0.0386385
-0.008588532 -0.093352884 0.063957535 -0.06865955 -0.028875504 -0.06715717 -0.035727028 -0.0064082304
0.0010718534 0.015218545 0.22104654 -0.071393766 -0.06996862 -0.033579066 -0.10518653 0.02020033
0.06184601 0.0019551471 0.039017417 0.056104526 -0.03820824 0.02924307 0.12164756 0.12650041
0.079210624 0.020360863 -0.02413365 -0.022026742 -0.020180821 -0.011195152 -0.018000862 -0.03840813
-0.03304676 -0.016058862 -0.03299035 0.079770856 -0.013644408 0.03774534 -0.048250258 -0.08305312
-0.00906112 -0.047659952 0.11375318 -0.064225584 0.010142616 -0.03126416 -0.03270666 -0.06576727
00000000: 6a36 953c 0e7b 893d 2672 fa3b 791b 11be
00000010: 5287 35bd 6722 91bd 9c82 35bd 0d2a 03bd
00000020: b8ad edbc 6093 1b3d afdc 383d d7b3 8b3d
00000030: 1003 70bd 30d8 cd3b afbc 45bc f22f 35bc
00000040: 5f14 653d 2428 a6bc 8f4e c43c 1d10 f53d
00000050: 7e3d 99bb 55be e03c 5be5 aa3d bb5b 0cbd
00000060: 448e 00bd ba6a d13d 9bb3 94bc 7f82 9abd
00000070: 415c ad3d c297 fbbb 9aab 62bd b100 5abd
00000080: 700f 9f3d d04d 323c 5e35 ec3d 44c2 4bbd
00000090: 90f6 a43d 4233 bb3c 0d24 40bd ef98 e3bb
000000a0: 7c9e 5bbb fb22 c9bc 215b a6bd 7892 063d
000000b0: 4a4e 903d 6aec 533d de9e 7e3d 56cd c7bd
000000c0: 6ee6 3c3d fec4 433d d44a 5e3d 5de6 973d
000000d0: 4191 a3bb 70f3 603d 0957 74bd 4219 693d
000000e0: 0010 c63c 8b36 f93d ca80 3f3d a334 193e
000000f0: 96c3 de3d c69d 083d d28c 973c cbf6 8cbc
00000100: 03fe 1b3d 9539 dd3c c5e8 653d 7e47 59bc
00000110: 1f0b 983d efee ddbc b1d4 e43c b115 08bd
00000120: 6e3b f13c 4f09 723d 74d1 4c3d c390 f23c
00000130: 4f0e 12bb 57b9 6bbd 3fda f2bd b082 053e
00000140: 3438 c83d 8b64 da3b 2d34 70bd 5e56 703d
00000150: d8b2 cf3d 520b 353c 8cfc 3abd efaf 87bc
00000160: 3c44 323c 927c 103d 68ab 2a3e 27f6 b73d
00000170: 140c e43d 9f2a 2abc be64 9cbd e58b ce3d
00000180: 9330 293d 2de0 70bd b15e dbbd b4ce 55bc
00000190: 568d 73bc 4e08 893d 93be 68bd ff5e 7ebd
000001a0: dbaf 1dbd f94a 2abd f7cc a1bd 0f69 893d
000001b0: 7a60 953d 2724 c33d 69c6 883d 2b3e 51bd
000001c0: 4db5 bbbc b078 863d 4f21 fb3a bafc 0fbd
000001d0: a09e 26bd 0fcc 16ba 7e31 f8bd 4605 ca3c
000001e0: c121 3bbd c834 ffbd 1cb6 713d 22ae 013d
000001f0: 7c9e 0dbd 4197 383a 3687 bd3c a4df 94bd
00000200: 6cc5 b4bd 04bc 053d 0667 a6bd de42 6abd
00000210: 358f 0d3c 6faa 963d 008e 373e 67c4 64bd
00000220: a248 573d 7834 8bbc 32af 4f3d 769e d63d
00000230: 6c6f 913d a74e dabd e54b 7d3c 0869 3dbc
00000240: 527c 1e3d c3bb 493d 817d 51bd 7869 33bd
00000250: de59 70bd 354b 47bd b4a6 6dbd 4e71 32bb
00000260: 1c90 b13c 4960 c6bd ec55 c3bb a210 cc3c
00000270: b7cf 63bc 3ae0 6c3d 8259 79bd 1878 163d
00000280: c1ce a63d f0b9 633c 350c 8a3c e097 81bd
00000290: ee1d a4bd ddb5 ca3d 2563 e7bc 5c24 1bbd
000002a0: 17bc 1e3d f5ba 483d 47c6 e03c 0ec4 c03d
000002b0: b5a1 0cbe 969c 183d ef4a 833b a45f fd3c
000002c0: e2cc d13d 9bd6 4dbb a9b8 833c 569b 5d3c
000002d0: bf4a 333d 9ad7 54bd f1c7 293d e500 5d3c
000002e0: 5533 423d 155f 6d3d f140 753d 44f9 9bbc
000002f0: a573 19bc 0a5c 843b 70d0 8d3d cb13 273d
00000300: d29c 6bbd 74a7 48bd 9edc a73c 10cc 5dbd
00000310: ef4d c3bd 729a 7f3d a89d 583d 1470 58bd
00000320: 3433 16bc cf54 593d 0f6c 2d3c 2f5c 653c
00000330: 0f50 07bd fe54 e53c 453f c33b 6743 1ebd
00000340: eab6 0cbc cc2f bfbd 2bfc 823d 619d 8cbd
00000350: 528c ecbc b389 89bd 8156 12bd 22fc d1bb
00000360: 6f7d 8c3a 3457 793c 065a 623e e536 92bd
00000370: b54b 8fbd 348a 09bd 096c d7bd 2a7b a53c
00000380: 3e52 7d3d ed21 003b bad0 1f3d dccd 653d
00000390: 3e80 1cbd 2a8f ef3c 5b22 f93d 5389 013e
000003a0: 2e39 a23d d3cb a63c efb3 c5bc 6d71 b4bc
000003b0: 4052 a5bc df6b 37bc 8b76 93bc d851 1dbd
000003c0: 0a5c 07bd e08d 83bc e420 07bd e75e a33d
000003d0: cc8c 5fbc dc9a 1a3d 10a2 45bd c117 aabd
000003e0: 1875 14bc 1537 43bd 6df7 e83d b488 83bd
000003f0: 372d 263c d90e 00bd 6bf7 05bd feb0 86bd
