Models/model19.pth (torch, 151503 bytes, 6 tensors)

oconv1.weight f4 [1, 1, 3, 3]
00000000: cf80 e23e d4c2 1bbe e2a0 02bf 2aa4 3c3e
00000010: 7214 293e 74c3 3fbe 30af b03e 91a8 ebbe
00000020: 5ad4 54be
0.44238898 -0.1521104 -0.5102674 0.18421999 0.16511706 -0.18726903 0.34508657 -0.46027043
-0.2078413

conv1.weight f4 [63, 1, 3, 3]
00000000: 4105 c7bf 8afb 963e da42 3f3e 1ab5 18bd
00000010: a07b 66bf 533e ab3e d748 03be 7d7f 143e
00000020: 4c4c 46be 116a 2bbe 1b14 d4be fdf3 f0bd
00000030: a595 e0be 81ca a03f 3bb8 a23e 8574 673e
00000040: c209 44bf f07c 8d3e a57d 663e 768a 0dbf
00000050: 0b45 073f abad 30bf 61de ed3e e208 a13e
00000060: ec1e 98be 1b45 2e3f b3ef 01be 3a70 a83e
00000070: 7ac6 16bf 2e57 f63e 6586 893f a784 2f3b
00000080: 69cc 213f 3bab 13bf f2dc 333e 023a 2e3f
00000090: 6009 75bf e2c2 5dbe 99bb 0a3f e2e2 3a3e
000000a0: 23b7 e93d 2717 31bd 858d e7bd da6a 51be
000000b0: 0d7a a53e f2e7 0cbe 451f 1fbf b7e2 b2be
000000c0: 699d 2dbf 71dd a9bd f381 123f 4457 863f
000000d0: 4704 9c3c 8b83 b9be 8424 b23d 8b80 8cbe
000000e0: 934a f83d b131 69be 2530 d43e 130c b7bd
000000f0: 7d14 0fbf 9ee2 a83e c061 393c a1b0 a63e
00000100: 144b dd3e 2a16 7cbd 6388 f93d 3058 c5be
00000110: f80e 493f da4c 4abf 28d2 f43e 3c98 313e
00000120: 9f43 003f 5690 bc3e 8b34 96bf 8b94 34bc
00000130: bc58 02bf 26b7 8f3f 515a 103e d6c8 123e
00000140: 6983 f83c df3f c93e bacc 9e3d d674 1dbf
00000150: f3e7 cbbe e0c7 4dbb 3d80 8d3e 10fe e9be
00000160: d149 9ebc 63e1 15be 05df 1c3f 6fa8 18be
00000170: dd2f 39bf 3512 e9be 19ef 05bf ff6b 84be
00000180: 72ba 493f 33cb 90be 2a49 e8be 635d 3cbe
00000190: 74d8 1bbd 2a3c 3e3e 72a3 363f 8deb e43d
000001a0: 0f2b 5bbf 974a 073f 1f58 033f 7a25 0c3f
000001b0: 17de 513f 222e a53e d7d0 05bf 4380 e3be
000001c0: 5c5c 473e 3cdf 503f bd98 023f 95db 9f3d
000001d0: 538a ba3f bd7a 3b3f bf94 c0bd d14f 85be
000001e0: 7a8b 47bf f65d b8bd 9d5f bb3d 9fa9 033f
000001f0: b916 e73d bfd8 843e d957 3d3e cd4b e4bc
00000200: 190e 0ebf 93d1 203d b039 383b f83c c1bd
00000210: dad9 373e 6d35 febe c9b1 d33e 12ef 97bc
00000220: d90a 5d3e 1778 eebe ec66 eb3e cfa9 c33e
00000230: ef70 70be 2008 1dbf 5447 37bf b701 0fbf
00000240: 5842 c13e 43d7 383e 0c8e 2c3f 4904 163f
00000250: 22d3 39bf 9beb e73e d94c 833d e06b bd3e
00000260: 6e5c c1bd 1fa3 b6bd c60a 95be 1ce4 38bf
00000270: 320b df3d ea37 46bf e0f3 7cbf 5fea 0d3f
00000280: d0c1 5a3f 8489 4fbf 2fe0 1a3e 5215 7c3f
00000290: 0802 8dbf 1d7a 303f 0115 36be 8830 4d3e
000002a0: b024 86be 56a1 d6bd 4cf9 9cbe bf18 91bd
000002b0: 9617 f63d 3bf2 083f 71b4 38bf 7b4b 5b3e
000002c0: fde6 b53e 4afc d03d c328 d03e 8bf1 193f
000002d0: 9abd e73e 1326 923e a8eb 9cbe b6b9 e43d
000002e0: 5b00 723f 6bce 183e 2e07 ce3e 069d 79be
000002f0: fa78 31be 783e 56be 748a a2be 401b b2be
00000300: 74fe 893e 7617 193f 5e9f 273c 07d2 e1bc
00000310: bd84 2cbe 6dc2 63bd a1b3 02bf f0da 40be
00000320: d50e 07bf 414c f23e 46eb f83d a6a8 843e
00000330: 09ff 083f a1b5 1fbe 7a88 81be 34fb 2bbe
00000340: 0743 56bf 9ac8 6a3f c889 df3d e5d4 8d3e
00000350: c4c4 78bc 6d07 dbbe f6e6 b23e be59 fd3e
00000360: b12d 30be 3623 e43e 9bb1 2e3e 8d19 393d
00000370: afa9 c33e 39cc 8abc feff a0bf 3928 d2be
00000380: 7a46 b23e 8277 023e 74cd 323e a404 c8be
00000390: 4fdb a33e 411d ce3e f8b0 49be 62ed 103e
000003a0: 56f2 103f 8111 f13d 695c 4abf d098 a9be
000003b0: 4fdd bdbe 3498 30bf 3e1b 78be b0db c6be
000003c0: f4e9 7d3e 1086 993d 4db1 60bf 8cd3 493e
000003d0: fde1 013f 3762 2e3f 32a4 663e fa33 f6bd
000003e0: d04a 08bf f4f4 b3be adca cf3c f79d 623e
000003f0: 5744 0a3e 0d2c 12be 55d6 30bf 066c 60bf
-1.5548478 0.29488784 0.18677846 -0.037282087 -0.90032387 0.33445987 -0.12820755 0.14501758
-0.19365042 -0.1673968 -0.4142159 -0.11765287 -0.4386417 1.2561799 0.31781182 0.22603042
-0.7657739 0.27634382 0.22508867 -0.552894 0.52839726 -0.69014996 0.46458724 0.3145209
-0.29711092 0.68074197 -0.12689094 0.32898122 -0.588966 0.48113388 1.0744139 0.0026781948
0.6320253 -0.5768315 0.17564753 0.6805726 -0.9571743 -0.21656373 0.541925 0.18250611
0.11411884 -0.04323497 -0.113062896 -0.20450917 0.3231968 -0.13760355 -0.6215709 -0.34938595
-0.67818314 -0.0829419 0.57229537 1.0495381 0.019045008 -0.36233172 0.08698371 -0.2744182
0.12123599 -0.22772862 0.4144298 -0.0893785 -0.5589064 0.32985395 0.011314809 0.32556632
0.43221343 -0.061544575 0.12184217 -0.38543844 0.78538465 -0.79023516 0.47816586 0.17343229
0.5010318 0.3682887 -1.1734785 -0.0110217435 -0.5091665 1.1227767 0.14096953 0.14334425
0.030336099 0.39306542 0.07753892 -0.615064 -0.398254 -0.0031399652 0.276369 -0.45701647
-0.019322308 -0.1463676 0.612778 -0.14908002 -0.7233866 -0.45521703 -0.5231796 -0.25863644
0.7880012 -0.2828003 -0.4536832 -0.18394999 -0.038048223 0.18577638 0.7134315 0.1117774
-0.8561258 0.5284819 0.5130634 0.54744685 0.8197951 0.3226176 -0.5227179 -0.44433793
0.19468826 0.8159063 0.5101431 0.07805554 1.4573463 0.7323416 -0.09403371 -0.26037458
-0.779472 -0.090022966 0.09149096 0.51430696 0.11283631 0.25946614 0.18490542 -0.027868176
-0.5549026 0.039262366 0.0028110556 -0.09435457 0.17954198 -0.49650136 0.41346577 -0.018546615
0.2158617 -0.46575996 0.4597696 0.3821549 -0.23480581 -0.6134052 -0.71593213 -0.5586199
0.3774593 0.18050866 0.67404246 0.5860029 -0.7258779 0.4529694 0.06411142 0.36996365
-0.09441458 -0.08917832 -0.29109782 -0.7222307 0.10890807 -0.7742907 -0.98809624 0.55435747
0.85451984 -0.8106921 0.15124582 0.9847003 -1.1016245 0.6893633 -0.1778145 0.20038044
-0.26199865 -0.10479991 -0.30658948 -0.07084798 0.120162174 0.53494614 -0.7215033 0.21415512
0.35527793 0.1020437 0.406561 0.6013419 0.45261842 0.28544673 -0.3064854 0.11168234
0.9453179 0.14922492 0.40239853 -0.24376306 -0.17331305 -0.20922267 -0.31746256 -0.34786415
0.26951945 0.59801424 0.010230867 -0.02756597 -0.1684751 -0.05560534 -0.5105534 -0.18833518
-0.52757007 0.47323802 0.1215425 0.2590992 0.5351415 -0.1559663 -0.25299436 -0.16795045
-0.83696026 0.91712344 0.109149516 0.27701488 -0.015183631 -0.42779103 0.34941834 0.4948253
-0.1720493 0.44558114 0.17059939 0.045190383 0.38215396 -0.016943084 -1.2578123 -0.41046312
0.34819394 0.12740901 0.17461187 -0.3906604 0.32003257 0.40256694 -0.19696414 0.14153054
0.56619775 0.11770917 -0.79047257 -0.331244 -0.37082908 -0.68982244 -0.24229142 -0.38839483
0.24796277 0.074962735 -0.8777054 0.19709605 0.50735456 0.68118614 0.22523573 -0.120216325
-0.53239155 -0.35147822 0.025365198 0.22130571 0.13502632 -0.14274617 -0.69077045 -0.8766483

conv1.bias f4 [63]
00000000: 846e 1d3b 1d55 3cb8 17b1 2e3b 9cad 413b
00000010: 44b0 7c3b 4de2 853b 2745 8a3a 34ef 203b
00000020: d8fe e2bb 4713 6a3b 4e2c 023b 44ca 283a
00000030: e9c7 a2bb 029b 983b acff 57bb af79 71bb
00000040: 4a1e 86bb b6e1 65bb 8fb5 77bb 592b 5dbb
00000050: e567 8cbb 69e4 3fbb 636b 7bbb 9595 553b
00000060: 7977 0f3b b801 75bb 425b 0abb 16b4 7dbb
00000070: 2804 32bb 171c a9bb 945b 95bb c9bd 3bbb
00000080: e97d 0f3b aeaf 8bbb 8f43 983a aa71 5bba
00000090: 7762 1e3b 2166 84bb d9cb 61bb b383 31bb
000000a0: 7634 76bb 0882 65ba 1cba 28bb af7c 74bb
000000b0: e1c6 acbb 5643 8cbb 7c9d b2ba 4627 82bb
000000c0: eb57 a53a 88d2 82bb e805 66bb d604 513b
000000d0: d6ca a2bb ddf9 7dba 36f0 923b 0b87 393b
000000e0: 0b2a 55bb fb0d 323b 79a3 df3a 646b 78bb
000000f0: da77 5abb 6ff5 a4bb dc3c a1bb
0.0024022171 -4.490196e-05 0.0026655847 0.0029552942 0.003855721 0.004085815 0.0010549173 0.0024556639
-0.0069273524 0.0035717057 0.0019862833 0.00064388313 -0.004967679 0.0046571502 -0.0032958789 -0.003684621
-0.004092966 -0.003507716 -0.0037797426 -0.003374776 -0.004284846 -0.002928043 -0.0038363568 0.0032590379
0.002189128 -0.0037385058 -0.0021111523 -0.0038712076 -0.0027163122 -0.0051608193 -0.004558036 -0.0028647056
0.0021895117 -0.004262886 0.0011616814 -0.0008371124 0.0024167576 -0.004040495 -0.0034453778 -0.0027086555
-0.003756789 -0.0008755033 -0.0025745695 -0.0037305763 -0.0052727317 -0.004280488 -0.0013627256 -0.003971967
0.0012614703 -0.0039923824 -0.0035098735 0.0031893752 -0.0049680276 -0.00096884166 0.004484202 0.0028309252
-0.003252628 0.0027168978 0.0017062268 -0.0037905807 -0.0033335597 -0.005034141 -0.004920585

vgg.0.weight f4 [63, 63, 3, 3]
00000000: 53d6 c83c 6fab 3cbd 1618 a4bd 1540 fc3b
00000010: 2c15 2fbd de1a c1bc 7e6c 2f3d 28a1 b1bc
00000020: 039c 4f3c 2a04 b23d 8452 523d 7e57 bc3d
00000030: ee53 233d 3a71 a2bd 0f88 c9bb 41b3 5ebb
00000040: add3 87bd c138 b2bd 35bc cd3c eb9b 40bd
00000050: cbe0 e23c 8e23 89bb d141 123c c644 963d
00000060: 29a1 243d e347 dd3b d421 8b3a a6ea 9e3d
00000070: b46f 933d dad9 4d3d 9f23 983c a4da a7bc
00000080: 68b3 12bd 3c25 89bc eea5 e3bd ffe9 8a3c
00000090: 79d4 0abb cfbe 443c d5d9 06bd 94b5 8ebd
000000a0: ef31 3dbd fab2 85bd 2b9e d2bd 6465 2dbc
000000b0: 9d8a f03c ae26 d6bc e998 63bc c4f5 c83d
000000c0: 23c7 c73d 8262 993d 3823 ecbc 5a92 2dbc
000000d0: 56e1 abb9 d9d0 8d3d a49b a03d fd39 b93d
000000e0: f763 ea3d 96b7 ccbd acbc 80bb c707 623c
000000f0: 8757 9bbd f1d6 eabc 87df b0bc c655 75bd
00000100: 8bfc f83d 0161 313c 79bb e93c 45e6 043d
00000110: f00a 173d 40bd a8bd 03b6 853d bb10 a0bb
00000120: 5387 fabc cfa3 c7bc eb2d 283c 1ded 6dbd
00000130: 4f59 e23d 9570 123d 7e67 833c 3e9d 483c
00000140: c667 61bd 7c2f 563d 8dcc 643d e840 8cbd
00000150: 4403 003d a4b3 883c 3314 f73c 05e2 0ebc
00000160: 7bd2 33bc 3f8e a5bc b434 bbbc 646b df3b
00000170: 8cd1 153c 93e6 5d3d 62eb cf3d eb51 38bd
00000180: 3b0a e43c e4cf b63d bc74 1dbd 6531 35bd
00000190: 4f4e 97bc 1036 b73c ea04 fabc 0364 89bd
000001a0: a93a 28be 39f6 d3bc fff3 3ebc 54f5 d2bc
000001b0: f864 c7bb 5787 093d 363b e3bd 63b5 163d
000001c0: 7755 c93b 1fbb 6f3d 5d9f 5dbc 143d 23bd
000001d0: ff5c d8bc 6ccb da3c 6aa3 b73c a745 a4ba
000001e0: 23e6 d83c 99f3 0bbc 6fcb 3cbd 8f42 c6bd
000001f0: f9c2 013e c60b debc a549 cabb 7949 3ebd
00000200: bdd8 84bd c0fe 44bd 22e1 89bd a335 acbd
00000210: 242e 06bd 7679 ee3d 72c1 df3c 4f9d 27bc
00000220: 29e2 d6bd 6f39 20bc e7a7 74bc c60a bf3d
00000230: 3808 3cbc eafe 753d 50bb 9f3c 631b 043e
00000240: ced1 753c 788e 733d 8492 24be e018 54bc
00000250: 3ec7 11bc d125 183d 4971 01bd 1136 01bd
00000260: 68d2 f53c feff e3bc 4d77 8f3d f470 73bd
00000270: e895 c8bc 4fb5 063d f501 093d dc37 c83c
00000280: 6aa9 7dbd 9b23 613b cd3d 793d f531 133d
00000290: 44d9 84bd f10e e2bc c1b7 ebbd 1315 5fbc
000002a0: db15 553c 57a2 853c 5ab0 4cbd f6a2 143d
000002b0: abfc 98bc 8355 143d 8feb a53c 291e 913d
000002c0: 8ef7 55bd cf36 373d 888b 8b3c 0f21 653d
000002d0: e470 6b3c 5c2f 74bd 3d18 80bd fab9 62bc
000002e0: 5361 a9bc 37fd d1bb db8d 5f3c 4547 10bd
000002f0: dd56 47bc a3d9 ecbb c706 31bb da2f 1e3d
00000300: ceeb 84bd 7f29 f33c 754d df3d fb04 64bc
00000310: 9992 213d beef 253c 461b 2ebc 513c 85bc
00000320: 1eaa b0bd f7ab 7d3c aaa4 2cbd 4ab6 43bd
00000330: dced 14bb 7eb8 89bd ef48 a23d ca85 9ebc
00000340: 92fc 893d e9a7 773d 9244 07be e456 3f3c
00000350: 2d14 5a3c de21 f5bd 81e8 5abd 4101 e63d
00000360: 6e7f 9abc 1a08 f13b 7c3a 303d 33ac 483d
00000370: 1fba d7bc cc9b 6fbd 8ab8 18bd a3b2 2ebc
00000380: a0f6 533c dd39 4bbd c89e ec3b 11d3 073d
00000390: 9a04 123d e225 8ebd 50b5 1ebd e070 0dbc
000003a0: 4514 63bd 7af4 8f3d 13c8 aebd 44d8 fb3c
000003b0: 5601 a6bd 86bc 0f3d 4bab 973d 421c dbbc
000003c0: 8cb0 fc3d c936 7ebc acab 09ba f640 c53c
000003d0: 86aa 9ebd a5c7 2cbc 677a b83c b164 7c3c
000003e0: ebab 803d 2b8f a43d c561 f4ba 4615 33bd
000003f0: 7afe af3b 71bc 35bd d137 81bd 6903 1e3e
0.02451626 -0.04606193 -0.080124065 0.007698069 -0.0427448 -0.023572382 0.042828076 -0.02168329
0.012671473 0.086922005 0.051348224 0.09196375 0.039874963 -0.079317525 -0.0061502527 -0.0033981355
-0.06632171 -0.08702231 0.025114158 -0.047023695 0.02769508 -0.0041851467 0.008926825 0.07337336
0.040192757 0.0067529543 0.001061494 0.077595994 0.0719904 0.050256588 0.018571673 -0.020489998
-0.035815626 -0.016741388 -0.11115633 0.016957281 -0.0021183772 0.012008383 -0.032922585 -0.06968227
-0.0461902 -0.06528278 -0.102840744 -0.010583255 0.029362971 -0.02614149 -0.013891437 0.09812501
0.09754779 0.07489492 -0.028825387 -0.010593975 -0.0003278355 0.069246 0.07842186 0.090442635
0.11444848 -0.09995954 -0.0039287414 0.0137958 -0.07585054 -0.028666945 -0.021590961 -0.059896253
0.12157544 0.01082635 0.028531777 0.032446165 0.036875665 -0.082392216 0.065288566 -0.004884807
-0.030582106 -0.024370102 0.010264854 -0.058087457 0.110521905 0.035751898 0.01604056 0.012244521
-0.055030607 0.05229138 0.055859137 -0.068483174 0.031253114 0.016687222 0.030160999 -0.008720879
-0.010975475 -0.02020943 -0.02285228 0.006818222 0.009144198 0.05417497 0.101523176 -0.044999998
0.02783691 0.08926371 -0.038441405 -0.04423656 -0.018469958 0.022364646 -0.030519921 -0.06708529
-0.16428627 -0.025874244 -0.011654853 -0.025751747 -0.0060850345 0.033576336 -0.11095278 0.036794078
0.0061442214 0.058528062 -0.013526765 -0.03985317 -0.026411531 0.026708327 0.02241679 -0.0012532965
0.026476925 -0.008541965 -0.046092447 -0.09680664 0.12672032 -0.027105223 -0.00617333 -0.046456788
-0.06486652 -0.04809451 -0.06732394 -0.08408668 -0.032758847 0.116442606 0.027313922 -0.010230376
-0.104923554 -0.009779318 -0.014932609 0.09328227 -0.011476569 0.060057558 0.019498497 0.12901072
0.015003635 0.05946204 -0.16071516 -0.012945384 -0.008897601 0.03714544 -0.031602178 -0.031545702
0.030007556 -0.027832028 0.07005177 -0.059433892 -0.024485543 0.032887753 0.033449132 0.024440698
-0.061929144 0.0034353498 0.060849953 0.035936315 -0.06486753 -0.027595015 -0.11509658 -0.013615864
0.013005699 0.016312761 -0.04997287 0.036288224 -0.018675169 0.036214363 0.020253925 0.07085831
-0.05223804 0.044730004 0.017034307 0.05593973 0.014370177 -0.059615478 -0.06254623 -0.013838286
-0.02067629 -0.0064083594 0.013644661 -0.035224218 -0.012166706 -0.0072280928 -0.0027012096 0.038619854
-0.06490289 0.029682873 0.10903446 -0.013917203 0.039446447 0.01012796 -0.01062662 -0.016264113
-0.08626197 0.015482894 -0.042149223 -0.047781266 -0.0022724783 -0.06724642 0.07924067 -0.019350905
0.06737627 0.060462866 -0.13209751 0.011678431 0.013310474 -0.1196935 -0.05344439 0.11230708
-0.018859591 0.007355702 0.043024525 0.048992347 -0.026333867 -0.05849819 -0.037285365 -0.0106627075
0.012937218 -0.04961573 0.0072210766 0.033160273 0.03564892 -0.06940819 -0.03874713 -0.0086328685
-0.055439252 0.07029052 -0.08534255 0.030742772 -0.081057236 0.0350919 0.074057184 -0.026746873
0.12338361 -0.0155159915 -0.00052517164 0.024078827 -0.077473685 -0.010545646 0.022519303 0.015404866
0.06282791 0.080351196 -0.001864486 -0.04372146 0.005370912 -0.044369165 -0.06309474 0.15430988

vgg.0.bias f4 [63]
00000000: fbdb 4cbb 83d0 833b 8d6b 0bba 7c05 0bbb
00000010: e1b2 8bbb 033b e8ba adfd 95b9 da8d b8ba
00000020: 4270 2ebb c47e 9aba a4d5 f4ba b313 6cbb
00000030: 84af 66bb f73e 98bb c110 8ebb 6935 87b9
00000040: c89e f439 415b 7ebb 8bf0 e1ba d148 88bb
00000050: 5eaa 01bb d078 88bb 2d6b e739 081f e4ba
00000060: 8a93 afbb ed6d 62bb da42 7dbb 5b39 09bb
00000070: efdb 8cbb 3281 10bb 01f5 67bb 9a15 41bb
00000080: 8b4e 2ebb 5e13 453a 235f 48bb dde5 ab38
00000090: 7666 79bb 336b 373b 220b 5c3b bc3b 043c
000000a0: bcbf 5ebb ad79 dc3a 4c4b dfba 4c4f 13bb
000000b0: 4ec3 aebb d00c 843b 34c7 8eba 6e45 7bbb
000000c0: aedf 8cb9 ab13 7abb aa30 24ba c7db 053b
000000d0: 1fbe 87ba 48aa f6ba e087 32ba ebd4 64bb
000000e0: 8036 19ba c3f4 333a 8218 e339 18ba 80bb
000000f0: 26a0 203a 3351 83bb 593e e13a
-0.0031259048 0.0040226593 -0.00053184555 -0.0021212986 -0.0042632674 -0.0017717782 -0.00028608498 -0.0014080361
-0.0026617204 -0.0011787047 -0.0018679393 -0.0036022484 -0.003519983 -0.004646178 -0.0043354933 -0.00025789
0.00046657608 -0.0038811716 -0.0017237825 -0.004159071 -0.0019785385 -0.0041647926 0.00044139606 -0.0017404268
-0.005358164 -0.0034550384 -0.0038644583 -0.0020938728 -0.004298679 -0.0022049663 -0.0035393836 -0.0029462338
-0.0026597108 0.00075178395 -0.0030574284 8.196731e-05 -0.0038055456 0.002798748 0.0033575972 0.008070882
-0.0033988794 0.001682093 -0.001703599 -0.0022477685 -0.0053333407 0.0040298477 -0.0010893107 -0.0038340944
-0.00026869535 -0.0038158696 -0.0006263355 0.0020425187 -0.0010356343 -0.0018819058 -0.0006810408 -0.0034916948
-0.0005844608 0.00068647804 0.00043315074 -0.003928434 0.00061273796 -0.0040074824 0.0017184719

oconv2.weight f4 [1, 63, 3, 3]
00000000: 2779 913c 3743 8a3d c6ca f73b 9e49 11be
00000010: 6746 37bd 5057 90bd 5d9c 37bd df21 02bd
00000020: 3f23 f2bc a84a 1d3d 2e2f 373d facf 8c3d
00000030: 8c7b 71bd 3ae4 d63b 4d83 3dbc 07ef 2dbc
00000040: fc8a 633d 146c aabc b58b c13c fcf8 f53d
00000050: d6b2 93bb b065 dd3c 9185 ab3d 1463 0dbd
00000060: 54de 01bd 19dc d03d 93be 93bc 2b4a 9bbd
00000070: 152d ae3d 628c 02bc e86e 64bd 20bc 5bbd
00000080: 8800 a03d b490 383c 2023 ec3d 164c 4abd
00000090: 2ffd a53d 75e1 b73c 54a2 3fbd 8ee0 d6bb
000000a0: 9715 6fbb 5c57 c5bc 4a55 a7bd a291 043d
000000b0: fe71 913d 70f1 553d 7b71 7c3d 70f8 c6bd
000000c0: 19b4 3e3d ac6d 453d 36d8 5c3d f925 993d
000000d0: a8ab 9cbb f6ab 5e3d 1413 76bd 3b16 6b3d
000000e0: 9896 c83c 7adc f83d b86c 3f3d 49ad 193e
000000f0: 9576 de3d 6151 073d 2afa 933c d456 8ebc
00000100: 5284 1d3d 181b e03c 6bd3 663d 06a3 56bc
00000110: e6e5 983d 9be9 e1bc 82e7 e83c 6641 07bd
00000120: 5116 f53c 85fc 733d 0e9b 4e3d 5e1c f63c
00000130: a685 eeba caf4 6bbd 1dc1 f3bd bff1 053e
00000140: 6f28 c93d 615d d03b 3ab3 72bd aae2 6e3d
00000150: b5d7 cf3d 49de 3e3c b113 3dbd f996 8abc
00000160: 314e 363c be39 123d cc41 2b3e c1e9 b83d
00000170: d40f e53d 4534 31bc f97d 9bbd e119 cf3d
00000180: 362d 293d 87d8 72bd 0fa6 dabd 2f15 59bc
00000190: 7774 6bbc 61af 893d 072d 6abd 0014 80bd
000001a0: e983 1bbd 2e96 28bd aaa8 a2bd f993 883d
000001b0: c94b 963d 5531 c23d e7b2 893d e584 52bd
000001c0: 5781 bebc f66d 873d 8c16 c23a 8752 11bd
000001d0: b6fc 24bd de31 f6b8 618a f8bd 3915 ce3c
000001e0: 05e6 3cbd bcf6 febd d469 703d 521d 043d
000001f0: 61ce 0ebd 386d 993a 2b09 bd3c ef99 95bd
00000200: f23c b4bd d085 073d 5053 a7bd d69c 68bd
00000210: 624a 063c 2c85 973d c921 383e c873 66bd
00000220: c2e2 583d c7a5 8ebc d233 4f3d 16b8 d73d
00000230: 8d65 923d fb43 dbbd 95a5 763c da47 43bc
00000240: 5190 1c3d 12d4 4a3d d87d 50bd 0657 35bd
00000250: 19d2 71bd b6bc 45bd 2938 6fbd 1958 4dbb
00000260: c68b b43c 6b4c c7bd 2306 b6bb 5952 d03c
00000270: a338 5fbc 33bf 6c3d e65a 7bbd f5f9 173d
00000280: 37b0 a73d 4ae5 5b3c 3a8c 873c ebec 80bd
00000290: 7d83 a4bd cea5 cb3d af1a eabc 1d12 1abd
000002a0: 7026 1d3d 9496 4a3d a58b e43c d2b9 c13d
000002b0: 1528 0dbe 2b7b 183d 0ade 6f3b 407a ff3c
000002c0: cbbd d23d 0765 65bb 406e 853c 1453 5f3c
000002d0: ef3d 353d b497 56bd cfce 283d b07f 643c
000002e0: 1a23 443d 40c3 6b3d 54fc 763d 349b 9fbc
000002f0: 7be6 1abc bf1e 913b 76e3 8d3d f2ad 283d
00000300: bc80 6dbd 79e2 46bd 65d7 a53c 3626 5cbd
00000310: 4b1b c4bd 1d90 7d3d bc46 5a3d e38f 58bd
00000320: 14d9 14bc 97cf 583d bdc0 303c 9e41 6d3c
00000330: c8b5 07bd 90d4 e53c a125 d23b f119 20bd
00000340: 573a 07bc c09d c0bd f251 823d e6c3 8dbd
00000350: 8728 e9bc 67c5 8abd eaa5 12bd 5e36 c2bb
00000360: c68f bc3a b764 723c 74d8 623e 2bf9 92bd
00000370: e438 90bd 3b6d 07bd c45d d8bd f374 a93c
00000380: e410 7b3d 76b4 1e3b bb8d 213d f263 643d
00000390: 49e3 1dbd 94fb ee3c fdf6 f93d 54e4 013e
000003a0: 3f88 a13d 7874 a23c e606 c9bc 0085 b7bc
000003b0: b177 a6bc ec63 3dbc e8fa 95bc a02b 1fbd
000003c0: 0622 09bd 1fcd 86bc be05 09bd c56c a43d
000003d0: 29ba 58bc 61bf 183d a839 47bd d4ea aabd
000003e0: 33d1 17bc 312b 41bd b40d ea3d 5e15 84bd
000003f0: ee85 2c3c a5ae 01bd 3e08 05bd 2d9f 87bd
0.017757965 0.067511015 0.0075620143 -0.14188239 -0.044744875 -0.070479035 -0.044826854 -0.031770583
-0.029557822 0.038401276 0.04472273 0.06875606 -0.058955714 0.0065579684 -0.011566949 -0.010616071
0.055552468 -0.020803489 0.023626188 0.120103806 -0.004507403 0.027026027 0.08375085 -0.034518316
-0.03170617 0.1019823 -0.018035209 -0.07582506 0.085046925 -0.00796804 -0.05576983 -0.053646207
0.07812601 0.011264969 0.11530137 -0.049388967 0.081049316 0.022446373 -0.046785668 -0.0065575307
-0.0036481374 -0.024089508 -0.081705645 0.03236545 0.071018204 0.052232206 0.06163166 -0.097153544
0.046558473 0.048200294 0.053917132 0.07477946 -0.004781205 0.054363213 -0.060076788 0.057394248
0.024485871 0.121514276 0.04673454 0.1500751 0.108624615 0.033036593 0.018063623 -0.017375387
0.03845627 0.02735667 0.056353968 -0.013100391 0.07465725 -0.027577212 0.028430704 -0.033021353
0.029917868 0.059566993 0.05044084 0.030042823 -0.0018197789 -0.057606496 -0.11902068 0.130805
0.09822165 0.006358788 -0.059252955 0.058321632 0.10148565 0.011649677 -0.046161357 -0.016917692
0.011127041 0.0356996 0.16724318 0.0902896 0.111846596 -0.010815685 -0.07592387 0.10112358
0.041302882 -0.059288528 -0.106762044 -0.0132496795 -0.014371029 0.06722904 -0.057171848 -0.06253815
-0.037967596 -0.041158848 -0.07942326 0.066688485 0.073386736 0.094820656 0.06723576 -0.05139627
-0.023255033 0.0661277 0.0014807745 -0.035479095 -0.040280066 -0.000117394826 -0.12135769 0.025156604
-0.0461178 -0.124494046 0.058694676 0.032254525 -0.034864787 0.0011705523 0.02307566 -0.07304751
-0.08800687 0.033086598 -0.081701875 -0.056790195 0.008196445 0.073984474 0.17981638 -0.05626276
0.052950628 -0.017413033 0.05058653 0.105331585 0.071482755 -0.107063256 0.015054126 -0.011918986
0.03822357 0.049518652 -0.050901264 -0.044272445 -0.059038255 -0.048275672 -0.058403168 -0.0031333028
0.022039305 -0.097313724 -0.005554931 0.025429891 -0.013624343 0.05779953 -0.061365984 0.037103612
0.08187907 0.013421366 0.016546357 -0.062951885 -0.08032892 0.09943734 -0.028577177 -0.03761493
0.038366735 0.04946001 0.027898619 0.094592705 -0.13784821 0.037226837 0.0036600851 0.031186223
0.102901064 -0.0035002844 0.016287923 0.013630647 0.044248518 -0.05239077 0.041212853 0.013946459
0.047885038 0.05755925 0.060299233 -0.019483186 -0.009454365 0.004428714 0.0692815 0.041181512
-0.0579841 -0.048555825 0.02024431 -0.05374738 -0.09575518 0.061905015 0.053290114 -0.052871596
-0.009084959 0.052932348 0.01078814 0.014480976 -0.033132344 0.02805546 0.006413177 -0.03908724
-0.008253655 -0.094050884 0.06363286 -0.0692213 -0.028461708 -0.06775933 -0.03580276 -0.005926891
0.001438611 0.01479452 0.22152883 -0.07176431 -0.07042101 -0.033063155 -0.105647594 0.020685649
0.061295405 0.002421645 0.039441805 0.055759378 -0.038546834 0.029172696 0.122053124 0.12684757
0.07887315 0.019830927 -0.024539422 -0.022402287 -0.020320745 -0.011559468 -0.018308118 -0.038859963
-0.033479713 -0.016455231 -0.03345274 0.08028559 -0.013227978 0.03729189 -0.04863897 -0.08345571
-0.009266186 -0.04716033 0.11428395 -0.06449388 0.010529978 -0.031660695 -0.032478563 -0.06622157
