Models/model01.pth (torch, 150799 bytes, 6 tensors)

oconv1.weight f4 [1, 1, 3, 3]
0	0x3ee305d6	0.4434039
1	0xbe1cd32f	-0.15314935
2	0xbf02ecb5	-0.51142436
3	0x3e3b954a	0.18318668
4	0x3e2a1aaa	0.16611734
5	0xbe40c86a	-0.18826452
6	0x3eb12f57	0.3460643
7	0xbeec2d05	-0.46128097
8	0xbe55f839	-0.2089547

conv1.weight f4 [63, 1, 3, 3]
0	0xbfc7265e	-1.5558584
1	0x3e967a00	0.29389954
2	0x3e404b52	0.18778732
3	0xbd1d3b81	-0.038386825
4	0xbf66bc7b	-0.9013135
5	0x3eaabf5d	0.33349124
6	0xbe0452a4	-0.1292215
7	0x3e1552ba	0.14582339
8	0xbe46d7f5	-0.19418319
9	0xbe2c89cb	-0.16849439
10	0xbed4a7e2	-0.41534334
11	0xbdf2e265	-0.118595876
12	0xbee1245b	-0.4397305
13	0x3fa0aefa	1.2553399
14	0x3ea232b3	0.31679305
15	0x3e6664ab	0.2249934
16	0xbf43c15e	-0.7646693
17	0x3e8e1c68	0.27756047
18	0x3e678103	0.22607808
19	0xbf0d7295	-0.55252963
20	0x3f06ffe7	0.52734226
21	0xbf30f32c	-0.6912105
22	0x3eee5956	0.46552533
23	0x3ea17074	0.31531107
24	0xbe97b16a	-0.29627544
25	0x3f2e27c5	0.68029433
26	0xbe02e265	-0.12781675
27	0x3ea7e6e1	0.32793334
28	0xbf170fe0	-0.590086
29	0x3ef6dfe4	0.4821769
30	0x3f89a8d8	1.0754652
31	0x3ad8ad8c	0.0016531213
32	0x3f21819c	0.63088393
33	0xbf13ef38	-0.57786894
34	0x3e32ce4f	0.17461513
35	0x3f2e65fc	0.68124366
36	0xbf74c277	-0.9560923
37	0xbe5ca2a0	-0.21546412
38	0x3f0a819b	0.5410401
39	0x3e3bbe7f	0.18334387
40	0x3debeb46	0.11519484
41	0xbd2cbbd1	-0.042171303
42	0xbde585e7	-0.112071805
43	0xbe506f25	-0.20354898
44	0x3ea5f8f2	0.32416493
45	0xbe0be646	-0.13662061
46	0xbf1ee972	-0.6207496
47	0xbeb2975f	-0.34881112
48	0xbf2d5e71	-0.6772223
49	0xbda7ca11	-0.08192838
50	0x3f12c450	0.573308
51	0x3f867bcc	1.050653
52	0x3ca4cc40	0.020116925
53	0xbeba12d0	-0.36342478
54	0x3db405ee	0.087901935
55	0xbe8d2321	-0.27565864
56	0x3dfa4cab	0.122216545
57	0xbe683565	-0.22676618
58	0x3ed39840	0.41327095
59	0xbdb542ed	-0.08850656
60	0xbf0edb3e	-0.5580329
61	0x3ea9553b	0.33072838
62	0x3c29a5fb	0.010354514
63	0x3ea708b3	0.32623824
64	0x3edcebf9	0.43148783
65	0xbd803462	-0.06259991
66	0x3df89627	0.12138014
67	0xbec5dc6d	-0.38644734
68	0x3f49518a	0.78640044
69	0xbf4a99b3	-0.79140776
70	0x3ef4398a	0.4770015
71	0x3e32ac14	0.17448455
72	0x3f0086f8	0.50205946
73	0x3ebd22b4	0.3694054
74	0xbf9659ae	-1.1746118
75	0xbc228baa	-0.009920994
76	0xbf023bca	-0.5087248
77	0x3f8fd956	1.1238201
78	0x3e114f3f	0.14190386
79	0x3e13cf4c	0.14434546
80	0x3d00254c	0.03128557
81	0x3ec9cb25	0.394128
82	0x3da0dd29	0.07854683
83	0xbf1d5151	-0.61452204
84	0xbecc8411	-0.3994451
85	0xbb10a954	-0.0022073584
86	0x3e8e0676	0.27739304
87	0xbee9821d	-0.4560708
88	0xbc96a26d	-0.018387998
89	0xbe14e1ab	-0.1453921
90	0x3f1cccc5	0.61249954
91	0xbe19dced	-0.15025683
92	0xbf390e9d	-0.72287923
93	0xbee898c7	-0.4542906
94	0xbf05ac36	-0.522159
95	0xbe84e1d5	-0.25953546
96	0x3f49ffe2	0.7890607
97	0xbe9153cb	-0.2838424
98	0xbee8967d	-0.45427313
99	0xbe3c27b5	-0.18374522
100	0xbd1edfb1	-0.038787547
101	0x3e3daa6e	0.18522045
102	0x3f3669a4	0.71254945
103	0x3de6faf5	0.11278335
104	0xbf5ae60e	-0.85507286
105	0x3f078034	0.5293
106	0x3f03ad9c	0.5143678
107	0x3f0c6b85	0.5485156
108	0x3f522625	0.82089454
109	0x3ea4a039	0.3215349
110	0xbf061427	-0.523745
111	0xbee3217a	-0.44361478
112	0x3e47d3ff	0.19514464
113	0x3f50998e	0.81484306
114	0x3f02dea7	0.5112099
115	0x3da1ca0e	0.07899867
116	0x3fbaacee	1.4584024
117	0x3f3b379f	0.73131746
118	0xbdc2af73	-0.095061205
119	0xbe851960	-0.25995922
120	0xbf47d550	-0.78059864
121	0xbdba7839	-0.09104962
122	0x3db970e1	0.09054733
123	0x3f03f402	0.515442
124	0x3de4d1d7	0.11172836
125	0x3e857286	0.26063937
126	0x3e3e7ab9	0.18601502
127	0xbcda2aa8	-0.026631668
128	0xbf0e4b9c	-0.5558412
129	0x3d1d1e0d	0.038358737
130	0x3af2e57e	0.0018531529
131	0xbdc31b28	-0.09526664
132	0x3e373dee	0.17894718
133	0xbefdbe53	-0.49559268
134	0x3ed46302	0.41481787
135	0xbc92d271	-0.017922612
136	0x3e5dd435	0.21662982
137	0xbeef00ab	-0.46680197
138	0x3eebca0a	0.4605258
139	0x3ec417fb	0.38299546
140	0xbe71944b	-0.23591726
141	0xbf1d46bb	-0.6143605
142	0xbf378c6b	-0.71698636
143	0xbf0f49b2	-0.55971825
144	0x3ec1cbc8	0.37850785
145	0x3e39ff78	0.1816386
146	0x3f2cd6d6	0.67515314
147	0x3f164a6a	0.58707297
148	0xbf3a1114	-0.7268231
149	0x3ee874d6	0.4540164
150	0x3d85bba5	0.06529931
151	0x3ebdf65a	0.37102014
152	0xbdbf75ea	-0.09348662
153	0xbdb5176e	-0.088423595
154	0xbe9562d2	-0.29176956
155	0xbf392041	-0.7231484
156	0x3de17033	0.110077284
157	0xbf467ce6	-0.7753433
158	0xbf7d3c43	-0.9892008
159	0x3f0daed6	0.55344903
160	0x3f5b0700	0.85557556
161	0xbf4fca65	-0.81168205
162	0x3e19d2a9	0.15021767
163	0x3f7c5a03	0.98574847
164	0xbf8d2876	-1.1027973
165	0x3f304aa3	0.68863887
166	0xbe356ed3	-0.17718057
167	0x3e4e2446	0.20131025
168	0xbe86aaad	-0.2630209
169	0xbdd8ff17	-0.105955295
170	0xbe9d8940	-0.30768776
171	0xbd936d44	-0.07198575
172	0x3df84cc1	0.12124015
173	0x3f092efe	0.5358733
174	0xbf38fb12	-0.722581
175	0x3e5c06de	0.21486995
176	0x3eb67238	0.35634017
177	0x3dd3205c	0.103089064
178	0x3ecfa7ea	0.40557796
179	0x3f1a3716	0.60240304
180	0x3ee7dc71	0.4528537
181	0x3e92485b	0.28570828
182	0xbe9d7567	-0.30753633
183	0x3de29688	0.11063868
184	0x3f72439c	0.94634414
185	0x3e193e70	0.14965224
186	0x3ece7539	0.4032381
187	0xbe7abcf3	-0.24486141
188	0xbe328d7e	-0.17436787
189	0xbe5541ce	-0.20825884
190	0xbea3225b	-0.3186215
191	0xbeb1abec	-0.34701478
192	0x3e8a8719	0.27056196
193	0x3f195890	0.5990076
194	0x3c381f1c	0.011237886
195	0xbce73c32	-0.028226946
196	0xbe2b8e78	-0.16753566
197	0xbd602b31	-0.05472869
198	0xbf02f9df	-0.51162523
199	0xbe403c31	-0.18772961
200	0xbf0747b6	-0.528438
201	0x3ef2081d	0.47271815
202	0x3df6f466	0.12058334
203	0x3e853344	0.26015675
204	0x3f094739	0.536243
205	0xbe209b01	-0.1568413
206	0xbe81568a	-0.25261337
207	0xbe2d1ac6	-0.16904745
208	0xbf5636fd	-0.83677655
209	0x3f6b1917	0.9183516
210	0x3ddd8807	0.10816961
211	0x3e8d4ade	0.27596182
212	0xbc67a4e2	-0.014138432
213	0xbedb7dd5	-0.4286944
214	0x3eb2dfe1	0.3493643
215	0x3efcd834	0.493837
216	0xbe317763	-0.17330699
217	0x3ee3c4fc	0.44486225
218	0x3e2db5bf	0.16963862
219	0x3d346359	0.044040058
220	0x3ec30e0a	0.38096648
221	0xbc833acf	-0.016019253
222	0xbfa11e14	-1.2587304
223	0xbed2b3b4	-0.41152728
224	0x3eb2d3e4	0.34927285
225	0x3e032fc6	0.12811193
226	0x3e31b30d	0.17353459
227	0xbec8a3ea	-0.39187557
228	0x3ea44ede	0.3209142
229	0x3ecd8f2c	0.40148294
230	0xbe4ab21e	-0.19794509
231	0x3e113ca2	0.14183286
232	0x3f1117b8	0.56676817
233	0x3df366bb	0.11884829
234	0xbf4aa4de	-0.7915782
235	0xbea939d9	-0.33051947
236	0xbebd8fd4	-0.37023795
237	0xbf305e44	-0.6889384
238	0xbe796fb1	-0.24359013
239	0xbec69287	-0.38783666
240	0x3e7ef282	0.24897197
241	0x3d9b8971	0.07594574
242	0xbf61077c	-0.87902045
243	0x3e487d48	0.19579041
244	0x3f022914	0.5084393
245	0x3f2ea789	0.6822439
246	0x3e67312b	0.2257735
247	0xbdf88daf	-0.12136399
248	0xbf089487	-0.53351635
249	0xbeb49a5b	-0.35274014
250	0x3cc698ba	0.024242748
251	0x3e6388af	0.2222011
252	0x3e0b63d8	0.13612306
253	0xbe12ba55	-0.14328893
254	0xbf3118ee	-0.69178665
255	0xbf607d54	-0.87691236

conv1.bias f4 [63]
0	0x3ab3eefe	0.0013727841
1	0xba9a2760	-0.0011761002
2	0x3acf4cd7	0.0015815747
3	0x3b0f55bf	0.0021871177
4	0x3b309c08	0.002694847
5	0x3b4cc149	0.0031243137
6	0x37ba93a3	2.2241677e-05
7	0x3ac28066	0.0014839291
8	0xbbc09a8c	-0.0058777984
9	0x3b4c5249	0.0031176975
10	0x3ac8e9d2	0.0015328473
11	0xb9b009b0	-0.00033576554
12	0xbb80ebda	-0.0039343657
13	0x3b6ef55b	0.0036462161
14	0xbb67607e	-0.0035305317
15	0xbb2ca064	-0.0026340717
16	0xbb45373e	-0.0030092741
17	0xbb21a77e	-0.0024666484
18	0xbb35381b	-0.002765185
19	0xbb1741cb	-0.0023079987
20	0xbb57edf4	-0.0032948228
21	0xbaeb79ad	-0.0017965339
22	0xbb383f6b	-0.0028113972
23	0x3b1c46ab	0.0023845832
24	0x3aec20cd	0.0018015146
25	0xbb43107f	-0.002976447
26	0xba4f9e84	-0.0007920044
27	0xbb3768bb	-0.0027986008
28	0xbb529cff	-0.0032137034
29	0xbb867fb8	-0.0041045807
30	0xbb6230ef	-0.003451403
31	0xbb0173fe	-0.0019752975
32	0x3ac50f1a	0.0015034408
33	0xbb5128c5	-0.003191517
34	0x3af44404	0.0018635993
35	0xbb0a7b26	-0.002113053
36	0x3ab74130	0.0013981219
37	0xbb4ecd9e	-0.0031555663
38	0xbb1dcd56	-0.0024078689
39	0xbb2a4b9d	-0.002598501
40	0xbb3b3d6e	-0.002857055
41	0xbb0aaea4	-0.0021161223
42	0xbace82db	-0.0015755551
43	0xbb36288a	-0.002779516
44	0xbb8bcaca	-0.0042661177
45	0xbb55a976	-0.0032602227
46	0xb9e668c2	-0.0004394707
47	0xbb415533	-0.0029500246
48	0x3a86cf47	0.0010285162
49	0xbb40ea95	-0.0029436697
50	0xbb2be40b	-0.0026228453
51	0x3b0deaa3	0.0021654747
52	0xbb84bc30	-0.004050754
53	0xb9f08f30	-0.0004588305
54	0x3b6327c5	0.0034661156
55	0x3aef0c27	0.0018237875
56	0xbb256339	-0.0025236143
57	0x3addd1a8	0.0016923444
58	0x3a70f1b9	0.0009191293
59	0xbb351884	-0.002763302
60	0xbb1e5c1d	-0.002416379
61	0xbb82de90	-0.0039938167
62	0xbb7e870d	-0.003883782

vgg.0.weight f4 [63, 63, 3, 3]
0	0x3cd09754	0.025462784
1	0xbd386c21	-0.045024995
2	0xbda21b82	-0.07915403
3	0x3c0edd1f	0.008719712
4	0xbd2aeb38	-0.04172823
5	0xbcb8ac54	-0.02254311
6	0x3d339226	0.04384055
7	0xbca90005	-0.020629892
8	0x3c611016	0.013736745
9	0x3db4088b	0.08790692
10	0x3d4ec43a	0.050480105
11	0x3dbe6490	0.092965245
12	0x3d269075	0.04066511
13	0xbda0928a	-0.0784045
14	0xbba618b9	-0.005068865
15	0xbb11ffd8	-0.002227774
16	0xbd89962b	-0.067180954
17	0xbdb09bc3	-0.08623459
18	0x3cd58154	0.026062645
19	0xbd3d01dd	-0.046144355
20	0x3ce8d4e6	0.02842183
21	0xbb5711ad	-0.0032816932
22	0x3c215787	0.009847528
23	0x3d980e40	0.07424593
24	0x3d285dd1	0.041105095
25	0x3bf7ee2c	0.007566234
26	0x3afcde62	0.001929235
27	0x3da0a626	0.0784419
28	0x3d956f13	0.07296576
29	0x3d5237ab	0.05132262
30	0x3c9fad2a	0.01949175
31	0xbca1fbe4	-0.019773431
32	0xbd0eab85	-0.034831543
33	0xbc81993b	-0.015820136
34	0xbde261b8	-0.110537946
35	0x3c9265e2	0.017870847
36	0xba9203ac	-0.001114001
37	0x3c54009f	0.012939601
38	0xbd02fd80	-0.031980038
39	0xbd8cb28f	-0.06869995
40	0xbd390c44	-0.045177713
41	0xbd839f50	-0.06426871
42	0xbdd0a816	-0.1018831
43	0xbc1d5b3b	-0.009604271
44	0x3cf89cb4	0.03034816
45	0xbcd9a755	-0.026569048
46	0xbc724137	-0.014786056
47	0x3dcaf36c	0.0990971
48	0x3dc9b7f9	0.09849543
49	0x3d9b9e09	0.07598502
50	0xbcef5f98	-0.029220387
51	0xbc1d93b9	-0.009617739
52	0x3a1a8748	0.0005894792
53	0x3d8fee0d	0.070278265
54	0x3da2726d	0.07931981
55	0x3dbaf519	0.0912878
56	0x3de8cb8e	0.1136695
57	0xbdcb166f	-0.09916388
58	0xbb831923	-0.0040007993
59	0x3c680be7	0.014162994
60	0xbd996709	-0.074903555
61	0xbceb1ea7	-0.02870114
62	0xbcaf11c9	-0.021370785
63	0xbd773450	-0.060352623
64	0x3dfa9eff	0.12237357
65	0x3c2d3d20	0.010573655
66	0x3cf1db13	0.029523408
67	0x3d0707a3	0.032966267
68	0x3d1af7fe	0.03783416
69	0xbda7743c	-0.08176467
70	0x3d87b732	0.066267386
71	0xbb88c8d4	-0.004174331
72	0xbcf2be26	-0.029631685
73	0xbcc01eb7	-0.023452146
74	0x3c373d6b	0.011184077
75	0xbd6a1fbd	-0.057159174
76	0x3de4466a	0.11146243
77	0x3d1653f6	0.036701165
78	0x3c8a43ec	0.01687809
79	0x3c5760c2	0.013145627
80	0xbd5db057	-0.05412325
81	0x3d5a41ce	0.053285412
82	0x3d68b26b	0.056810778
83	0xbd8a416a	-0.06750758
84	0x3d042647	0.032263067
85	0x3c90c053	0.017669832
86	0x3cfeb781	0.03109336
87	0xbbfcb2a5	-0.007711726
88	0xbc23b7f7	-0.009992591
89	0xbc9d6823	-0.019214695
90	0xbcb4168d	-0.02198341
91	0x3bcdb178	0.0062772594
92	0x3c1d47fd	0.009599683
93	0x3d61dbf7	0.055141415
94	0x3dd20a80	0.10255909
95	0xbd36e4e6	-0.04465189
96	0x3cebaec2	0.028769854
97	0x3db886a0	0.09010053
98	0xbd195d09	-0.03744224
99	0xbd319c88	-0.04336217
100	0xbc8f4449	-0.017488616
101	0x3cbf574d	0.023357058
102	0xbcf22886	-0.029560339
103	0xbd87db0f	-0.06633579
104	0xbe279dc6	-0.1636878
105	0xbccc6c5a	-0.02495401
106	0xbc2f95b8	-0.010716848
107	0xbccfe541	-0.025377871
108	0xbba87f0d	-0.0051420988
109	0x3d0651a9	0.03279272
110	0xbde15b7d	-0.11003778
111	0x3d1a936f	0.03773826
112	0x3be2b3f6	0.0069184257
113	0x3d734af0	0.059397638
114	0xbc4fbb08	-0.012678869
115	0xbd20eb00	-0.039286613
116	0xbcd48893	-0.02594403
117	0x3ce246fa	0.027621735
118	0x3caf490d	0.021397138
119	0xb9c117e0	-0.00036829617
120	0x3ce03e47	0.027373446
121	0xbbf7db11	-0.0075639565
122	0xbd389f15	-0.045073587
123	0xbdc82423	-0.097725175
124	0x3e01af8e	0.12664625
125	0xbcd7002b	-0.026245197
126	0xbbaca04c	-0.0052681323
127	0xbd3aea95	-0.04563387
128	0xbd83038b	-0.0639716
129	0xbd414db0	-0.04719323
130	0xbd880c52	-0.06642975
131	0xbdaac110	-0.08337605
132	0xbd0261ef	-0.031831678
133	0x3df06978	0.117388666
134	0x3ce6bff8	0.02816771
135	0xbc18948c	-0.00931276
136	0xbdd52f15	-0.10409371
137	0xbc2d3ac6	-0.010573095
138	0xbc6be29e	-0.0143972915
139	0x3dc0d9e1	0.09416557
140	0xbc457f13	-0.012054223
141	0x3d7a87b1	0.06116456
142	0x3ca843aa	0.020540077
143	0x3e04d314	0.12971145
144	0x3c67f835	0.014158298
145	0x3d776fb1	0.06040925
146	0xbe239249	-0.15973772
147	0xbc42d3c1	-0.011891306
148	0xbc054d01	-0.008136035
149	0x3d1c17fd	0.038108815
150	0xbcfe0a02	-0.031010631
151	0xbcfb8b50	-0.030706078
152	0x3cfe1724	0.031016894
153	0xbce7ac05	-0.028280267
154	0x3d918b09	0.07106597
155	0xbd756607	-0.059911754
156	0xbcbf90c6	-0.023384463
157	0x3d0afd08	0.033932716
158	0x3d0cad1d	0.03434478
159	0x3cd08af0	0.025456876
160	0xbd795ef7	-0.06088158
161	0x3b8ff734	0.0043934826
162	0x3d7c7ee2	0.061644442
163	0x3d176450	0.0369609
164	0xbd848689	-0.06470973
165	0xbcd9ecf4	-0.026602246
166	0xbded9112	-0.115999356
167	0xbc54f233	-0.012997198
168	0x3c642135	0.013923933
169	0x3c8dfca7	0.017332388
170	0xbd507686	-0.050894283
171	0x3d18905b	0.037247043
172	0xbc92983b	-0.017894855
173	0x3d184a3a	0.037180163
174	0x3cadc028	0.021209791
175	0x3d92f759	0.07176084
176	0xbd520322	-0.05127252
177	0x3d3ae2ea	0.04562656
178	0x3c926c33	0.017873859
179	0x3d68ef16	0.056868635
180	0x3c7b4894	0.015337128
181	0xbd7071ae	-0.058702163
182	0xbd80ee96	-0.06295507
183	0xbc539d42	-0.012915911
184	0xbca15a4c	-0.019696377
185	0xbbb76ae1	-0.0055974578
186	0x3c6efd96	0.014586827
187	0xbd0d2cee	-0.034466676
188	0xbc3b0542	-0.011414828
189	0xbbcf24b2	-0.006321513
190	0xbada7fdd	-0.0016670186
191	0x3d1d83bb	0.038455706
192	0xbd8617c8	-0.06547505
193	0x3cfc43aa	0.030793983
194	0x3ddfe65d	0.1093261
195	0xbc50f52a	-0.012753764
196	0x3d2590a9	0.04042116
197	0x3c352dcb	0.011058281
198	0xbc1f1e6b	-0.009711842
199	0xbc7bc04c	-0.015365671
200	0xbdaec819	-0.08534259
201	0x3c866099	0.016403483
202	0xbd28bc03	-0.041194927
203	0xbd4022eb	-0.0469083
204	0xbab57c0e	-0.0013846175
205	0xbd87d9ba	-0.06633325
206	0x3da40fe5	0.08010844
207	0xbca08c0c	-0.01959803
208	0x3d8c2682	0.06843282
209	0x3d7bf2e0	0.06151092
210	0xbe083d54	-0.13304645
211	0x3c49504d	0.012287212
212	0x3c6aaf98	0.014324091
213	0xbdf3275c	-0.118727416
214	0xbd577d76	-0.052609883
215	0x3de7f3e3	0.113258146
216	0xbc927651	-0.017878683
217	0x3c084c79	0.008319014
218	0x3d341b6e	0.04397147
219	0x3d4c9f74	0.049956754
220	0xbcd0343b	-0.02541553
221	0xbd6b88b4	-0.057503417
222	0xbd14be54	-0.036314324
223	0xbc1e8437	-0.009675077
224	0x3c6385fc	0.013886925
225	0xbd476b10	-0.048686087
226	0x3c0552f1	0.008137451
227	0x3d03d14b	0.03218202
228	0x3d15caf5	0.036570508
229	0xbd8c644e	-0.06855069
230	0xbd1e0e3e	-0.0385878
231	0xbbfebbab	-0.0077738366
232	0xbd5fc1dd	-0.05462824
233	0x3d8f8fb0	0.07009828
234	0xbdacc450	-0.08435881
235	0x3d01eb80	0.03171873
236	0xbda4523e	-0.08023499
237	0x3d13e9a8	0.036111504
238	0x3d99bbf2	0.07506551
239	0xbcd33a0b	-0.025784513
240	0x3dfec620	0.12440133
241	0xbc6dfe87	-0.014526016
242	0x39f559d4	0.0004679697
243	0x3cccb24e	0.024987366
244	0xbd9cb626	-0.076519296
245	0xbc1a46b0	-0.009416267
246	0x3cc1619d	0.023606116
247	0x3c855a16	0.016278308
248	0x3d82a0dc	0.06378338
249	0x3da678f2	0.08128537
250	0xba6d1eba	-0.0009045411
251	0xbd2efc3b	-0.042721014
252	0x3bd0d527	0.006373066
253	0xbd31efa1	-0.04344142
254	0xbd7e6413	-0.062107157
255	0x3e1f0af7	0.15531527

vgg.0.bias f4 [63]
0	0xbb0a74a6	-0.0021126657
1	0x3b9e29b8	0.0048267506
2	0xba5d7485	-0.0008447844
3	0xbaffdbd7	-0.0019520473
4	0xbb5f22ac	-0.0034047766
5	0xba6820e4	-0.0008854999
6	0xba4a9736	-0.00077282207
7	0xba985770	-0.0011622738
8	0xbb090bf6	-0.002091167
9	0xbae24759	-0.0017263695
10	0xba9072b1	-0.0011020509
11	0xbb301cbe	-0.00268726
12	0xbb3ea826	-0.0029091923
13	0xbb76c702	-0.003765524
14	0xbb6a2555	-0.0035727818
15	0xba319a1b	-0.00067749777
16	0x3977ac35	0.00023619908
17	0xbb41ff5d	-0.0029601671
18	0xbb2d938a	-0.0026485645
19	0xbb5cd58b	-0.0033696617
20	0xbaadba57	-0.0013254386
21	0xbb6d6a40	-0.003622666
22	0x3a328b19	0.00068108883
23	0xba18ad98	-0.00058242073
24	0xbb921224	-0.004457729
25	0xbb21513e	-0.0024615075
26	0xbb3a00d6	-0.0028381846
27	0xbabe131a	-0.0014501542
28	0xbb634534	-0.00346787
29	0xbb0c580d	-0.0021414787
30	0xbb2e99db	-0.0026641998
31	0xbaee1e7b	-0.0018167043
32	0xbafef615	-0.0019452
33	0x3ae986a2	0.0017816613
34	0xbb1292d6	-0.0022365353
35	0x3aa64733	0.0012686014
36	0xbb3dd01a	-0.002896315
37	0x3b50470f	0.0031780635
38	0x3b2e2d7b	0.0026577401
39	0x3c01394d	0.007887197
40	0xbb1f143e	-0.002427354
41	0x3a24b18c	0.000628256
42	0xba2af953	-0.00065221376
43	0xba9cde14	-0.001196804
44	0xbb924f02	-0.004464985
45	0x3b6237e8	0.0034518186
46	0xb7a30930	-1.9435392e-05
47	0xbb3d72fa	-0.0028907643
48	0x398c5e82	0.00026773295
49	0xbb40fe30	-0.0029448383
50	0x3a26e607	0.0006366674
51	0x3ad522ba	0.001626096
52	0xbaa84aed	-0.0012839712
53	0xba78b2d2	-0.00094870955
54	0xba6e824f	-0.0009098397
55	0xbb22cbfe	-0.0024840827
56	0xba8ed623	-0.0010897558
57	0x39f41161	0.00046552255
58	0x39810d19	0.00024614556
59	0xbb3a664a	-0.0028442317
60	0x3a3982e8	0.00070766965
61	0xbb3c90a7	-0.0028772743
62	0x3a63c790	0.00086891

oconv2.weight f4 [1, 63, 3, 3]
0	0x3c890d80	0.01673007
1	0x3d8c52b6	0.06851713
2	0x3bef21b2	0.007297718
3	0xbe116ddf	-0.14202069
4	0xbd3b6ac5	-0.04575612
5	0xbd8e3be9	-0.06945021
6	0xbd3c3f85	-0.045959014
7	0xbcfd781f	-0.030941067
8	0xbcfa663e	-0.030566331
9	0x3d2170bd	0.039414156
10	0x3d332459	0.043735836
11	0x3d8edfec	0.069763035
12	0xbd758302	-0.059939392
13	0x3bf23383	0.0073913946
14	0xbc29e30b	-0.010369073
15	0xbc1cde51	-0.009574489
16	0x3d5fed99	0.05466995
17	0xbcb3db61	-0.021955194
18	0x3cba93ca	0.02277555
19	0x3df819ac	0.121142715
20	0xbb7b4e60	-0.0038346276
21	0x3cd53b24	0.026029177
22	0x3dad1fb7	0.08453315
23	0xbd0efac4	-0.034907117
24	0xbd040090	-0.0322271
25	0x3dcf2b83	0.10115721
26	0xbc8fd806	-0.017559063
27	0xbd9d36f1	-0.07676495
28	0x3db02bee	0.08602129
29	0xbc106a57	-0.008814416
30	0xbd68bcc8	-0.05682066
31	0xbd5fdd91	-0.05465466
32	0x3da1fb10	0.079092145
33	0x3c4670ba	0.012111837
34	0x3deafcf3	0.114740275
35	0xbd4709e3	-0.048593413
36	0x3da82911	0.08210958
37	0x3caf6512	0.021410499
38	0xbd40252f	-0.04691046
39	0xbbb76dc3	-0.0055978014
40	0xbb8e5e02	-0.0043447027
41	0xbcbca3d5	-0.02302734
42	0xbda98dc4	-0.08278993
43	0x3d00345a	0.031299926
44	0x3d92d3b3	0.07169285
45	0x3d5a6989	0.053323302
46	0x3d7758c1	0.060387377
47	0xbdc4e691	-0.096142896
48	0x3d42c723	0.047553193
49	0x3d49a961	0.049233798
50	0x3d593d22	0.053036816
51	0x3d9b7322	0.07590319
52	0xbb8b612c	-0.004253527
53	0x3d5bd9a4	0.053674355
54	0xbd7a2440	-0.061069727
55	0x3d6f83a7	0.058475163
56	0x3ccfaa0c	0.02534964
57	0x3df74b1b	0.12074872
58	0x3d3c9d6f	0.046048578
59	0x3e1abf3c	0.15112013
60	0x3dde4180	0.10852337
61	0x3d0390e6	0.032120608
62	0x3c8ce4ba	0.01719891
63	0xbc912714	-0.01771883
64	0x3d21559f	0.039388295
65	0x3ce6f5ad	0.02819332
66	0x3d690e0c	0.05689816
67	0xbc4a548b	-0.012349258
68	0x3d9aab1c	0.07552168
69	0xbceadeab	-0.02867063
70	0x3cf12ee1	0.029441299
71	0xbd03eab7	-0.032206263
72	0x3cfdc441	0.03097737
73	0x3d78723c	0.060655817
74	0x3d524876	0.051338635
75	0x3cfd840b	0.030946752
76	0xba52d421	-0.0008042474
77	0xbd6be785	-0.05759384
78	0xbdf5bf94	-0.11999431
79	0x3e06e5e0	0.13173628
80	0x3dcb490b	0.09926041
81	0x3bb3e5e8	0.0054900534
82	0xbd779f92	-0.060454912
83	0x3d6b20f7	0.057404485
84	0x3dd0939a	0.10184403
85	0x3c52df1e	0.012870578
86	0xbd41bc2b	-0.04729859
87	0xbc921192	-0.017830644
88	0x3c43969e	0.011937765
89	0x3d16b476	0.036793195
90	0x3e2c8823	0.16848807
91	0x3dbaef41	0.09127665
92	0x3de7569d	0.11295817
93	0xbc41f346	-0.011837786
94	0xbd993af8	-0.074819505
95	0x3dd095f6	0.10184853
96	0x3d26f8ed	0.040764738
97	0xbd76864d	-0.060186673
98	0xbdd8c455	-0.10584322
99	0xbc54ba80	-0.012983918
100	0xbc59471f	-0.0132615855
101	0x3d8b876f	0.06812941
102	0xbd6dde8c	-0.058073565
103	0xbd82486a	-0.06361468
104	0xbd197051	-0.03746063
105	0xbd24f976	-0.040276967
106	0xbda48edd	-0.080350615
107	0x3d8690c9	0.06570584
108	0x3d984a78	0.07436079
109	0x3dc009ca	0.09376867
110	0x3d8bc2ca	0.068242624
111	0xbd561718	-0.052268118
112	0xbcc508b6	-0.024052005
113	0x3d8995c5	0.067180194
114	0x3a0097f9	0.0004905458
115	0xbd14fccd	-0.036373902
116	0xbd20feb8	-0.03930542
117	0x3a759c00	0.0009369254
118	0xbdfa1f8a	-0.12213047
119	0x3cd6cae3	0.02621979
120	0xbd411c6f	-0.047146257
121	0xbdfcfa80	-0.123524666
122	0x3d6d456e	0.05792754
123	0x3d09c125	0.033631463
124	0xbd126228	-0.03573814
125	0x3b0f58e2	0.0021873047
126	0x3cb9f2df	0.022698818
127	0xbd97a189	-0.07403857
128	0xbdb2a34e	-0.08722554
129	0x3d0bbf67	0.034118082
130	0xbda96f4a	-0.0827318
131	0xbd6475b9	-0.05577633
132	0x3bebd351	0.0071968217
133	0x3d99adad	0.07503829
134	0x3e395f17	0.1810268
135	0xbd6a7559	-0.057240818
136	0x3d5ca786	0.0538707
137	0xbc96b60f	-0.01839736
138	0x3d4cc8b1	0.04999608
139	0x3dda2973	0.10652437
140	0x3d9489bd	0.07252834
141	0xbddd73eb	-0.10813125
142	0x3c66ffb8	0.014099054
143	0xbc47e4a6	-0.01220051
144	0x3d184cfe	0.0371828
145	0x3d4a8ba8	0.049449593
146	0xbd4ceb42	-0.050029047
147	0xbd3915c1	-0.04518676
148	0xbd7594c8	-0.059956342
149	0xbd41e091	-0.047333304
150	0xbd730a14	-0.059335783
151	0xbb88bd11	-0.004172929
152	0x3cb888d7	0.022526188
153	0xbdc96037	-0.09832805
154	0xbb94966d	-0.0045345337
155	0x3cd94a9a	0.02652483
156	0xbc528d1d	-0.012851027
157	0x3d6c7606	0.057729743
158	0xbd7f969d	-0.062399495
159	0x3d18e894	0.03733118
160	0x3da9cdc0	0.08291197
161	0x3c4a03eb	0.012330036
162	0x3c80671e	0.01567417
163	0xbd7e1ae5	-0.062037367
164	0xbda5c6f7	-0.0809459
165	0x3dcdcd85	0.10048965
166	0xbcf16241	-0.029465796
167	0xbd16a03c	-0.036773905
168	0x3d193b32	0.03740997
169	0x3d4ed5ae	0.05049675
170	0x3ce5e975	0.028065423
171	0x3dc3ccb5	0.09560529
172	0xbe0e44db	-0.13893454
173	0x3d16658e	0.036717944
174	0x3b32aec4	0.0027264813
175	0x3d029e38	0.03188917
176	0x3dd4c509	0.10389144
177	0xbb91f22b	-0.0044539175
178	0x3c8ac045	0.016937384
179	0x3c5d033b	0.01348954
180	0x3d399d01	0.045315746
181	0xbd580b9a	-0.05274544
182	0x3d268849	0.040657315
183	0x3c74309b	0.014904167
184	0x3d486be0	0.048931003
185	0x3d680380	0.056643963
186	0x3d7a71d5	0.061143715
187	0xbca80ddb	-0.02051442
188	0xbc139de8	-0.009009816
189	0x3bb1c063	0.0054245456
190	0x3d8c85f7	0.06861489
191	0x3d2c9eab	0.042143505
192	0xbd71dac2	-0.059046514
193	0xbd42bdb6	-0.047544204
194	0x3c9f4901	0.01944399
195	0xbd57f481	-0.05272341
196	0xbdc61a97	-0.0967304
197	0x3d78ec31	0.060772125
198	0x3d5d7a10	0.054071486
199	0xbd590b03	-0.052989017
200	0xbc129b34	-0.008948136
201	0x3d5619bd	0.05227064
202	0x3c3cf1bc	0.011532243
203	0x3c7f9c65	0.015601252
204	0xbd0a7924	-0.033806935
205	0x3ce2cde5	0.027686069
206	0x3be9f0ba	0.0071392925
207	0xbd245ab0	-0.04012555
208	0xbc0d1cd6	-0.008612832
209	0xbdc38e92	-0.095486775
210	0x3d806804	0.062698394
211	0xbd9013b2	-0.070350066
212	0xbce0dee4	-0.027450033
213	0xbd8c001d	-0.06835959
214	0xbd14f572	-0.036366887
215	0xbba887d7	-0.0051431465
216	0x3b1b8007	0.0023727433
217	0x3c61a621	0.013772518
218	0x3e63ec99	0.22258224
219	0xbd94e806	-0.072708175
220	0xbd925ed9	-0.07146997
221	0xbd035bbf	-0.032069918
222	0xbdda96ba	-0.1067328
223	0x3cb1b243	0.021691447
224	0x3d76b1e7	0.060228255
225	0x3b5b1579	0.0033429547
226	0x3d25cc31	0.040477935
227	0x3d6072eb	0.054797094
228	0xbd21b46e	-0.03947871
229	0x3ced233c	0.028947465
230	0x3dfbff42	0.12304546
231	0x3e02b855	0.1276563
232	0x3d9fb09c	0.077973574
233	0x3ca149b5	0.019688467
234	0xbccfbc60	-0.025358379
235	0xbcbec96e	-0.023289409
236	0xbca9a5f5	-0.020709017
237	0xbc4934d6	-0.0122806635
238	0xbc9c5314	-0.019082583
239	0xbd2344bd	-0.039860476
240	0xbd0d4508	-0.03448966
241	0xbc8ea662	-0.017413322
242	0xbd0d16e5	-0.034445662
243	0x3da6ad37	0.08138507
244	0xbc47ffa7	-0.012206948
245	0x3d14792d	0.036248375
246	0xbd4b0cf4	-0.0495729
247	0xbdab61b0	-0.08368242
248	0xbc264542	-0.010148348
249	0xbd3ccf58	-0.046096176
250	0x3dec5c54	0.11541048
251	0xbd832f32	-0.06405486
252	0x3c3cb13e	0.011516867
253	0xbd05af48	-0.032637864
254	0xbd01ad16	-0.03165921
255	0xbd89b89f	-0.06724667
