Models/model12.pth (torch, 151247 bytes, 6 tensors)

oconv1.weight f4 [1, 1, 3, 3]
000000 9e af e2 3e 93 22 1c be 01 bc 02 bf 05 47 3c 3e
       0.4427461 -0.15247564 -0.5106812 0.18386467
000010 7d 72 29 3e 37 21 40 be 82 dc b0 3e 93 d8 eb be
       0.1654758 -0.1876267 0.34543234 -0.4606367
000020 c3 3f 55 be
       -0.20825104

conv1.weight f4 [63, 1, 3, 3]
000000 77 12 c7 bf 3e ce 96 3e 02 a5 3f 3e ed 60 1a bd
       -1.555251 0.29454225 0.18715289 -0.037690092
000010 72 92 66 bf 8f 12 ab 3e 2f a6 03 be ed e0 14 3e
       -0.9006721 0.33412597 -0.12856363 0.14538927
000020 6d 5c 46 be 59 d6 2b be 70 4c d4 be 83 c2 f1 bd
       -0.19371195 -0.16780986 -0.41464567 -0.11804678
000030 a6 cc e0 be bc bf a0 3f 22 86 a2 3e fc 0f 67 3e
       -0.43906134 1.2558513 0.3174296 0.22564691
000040 9d ec 43 bf 9a b7 8d 3e 7d d9 66 3e a2 8a 0d bf
       -0.7653292 0.2767914 0.22543903 -0.5528966
000050 04 2c 07 3f 18 c9 30 bf e1 09 ee 3e d4 29 a1 3e
       0.5280154 -0.69056845 0.46491912 0.31477225
000060 6c fd 97 be 8e 36 2e 3f e8 50 02 be 9a 40 a8 3e
       -0.29685533 0.68051994 -0.12726176 0.32861787
000070 54 e1 16 bf 33 86 f6 3e e7 92 89 3f 3e 09 17 3b
       -0.58937573 0.4814926 1.0747956 0.002304628
000080 6d b0 21 3f ee c3 13 bf c6 7c 33 3e 3f 51 2e 3f
       0.6315983 -0.5772084 0.17528066 0.6809272
000090 7a ed 74 bf 10 4d 5d be b7 aa 0a 3f 21 38 3b 3e
       -0.9567486 -0.21611428 0.5416674 0.1828313
0000a0 34 9d ea 3d ef 51 2f bd 82 bc e6 bd 51 01 51 be
       0.11455765 -0.042802747 -0.11266424 -0.20410658
0000b0 b7 a8 a5 3e 22 8d 0c be d9 0e 1f bf 2e ce b2 be
       0.32355282 -0.13725713 -0.6213203 -0.34922928
0000c0 bb 87 2d bf b5 1a a9 bd 5c 9a 12 3f fb 64 86 3f
       -0.67785233 -0.08257047 0.57266784 1.0499567
0000d0 71 3d 9f 3c 3a b9 b9 be 8c c8 b2 3d d2 be 8c be
       0.019438477 -0.3627413 0.087296575 -0.27489334
0000e0 d3 07 f9 3d 6f da 68 be cb f8 d3 3e e8 75 b6 bd
       0.121596955 -0.22739576 0.4140075 -0.089092076
0000f0 93 01 0f bf 84 07 a9 3e 99 2c 32 3c b6 c3 a6 3e
       -0.5586178 0.33013546 0.010874891 0.3257119
000100 73 31 dd 3e 2e 9a 7d bd 50 cc f8 3d 58 84 c5 be
       0.4320179 -0.061914615 0.121483445 -0.38577533
000110 cb 26 49 3f db 69 4a bf 93 98 f4 3e f2 fa 31 3e
       0.7857482 -0.7906777 0.47772655 0.17380884
000120 fc 5b 00 3f d9 c6 bc 3e 59 42 96 bf c8 e2 2d bc
       0.50140357 0.3687046 -1.1738998 -0.010613151
000130 4c 55 02 bf 15 c4 8f 3f 3f b5 10 3e 37 28 13 3e
       -0.509114 1.1231714 0.1413164 0.1437081
000140 f2 29 fb 3c 16 73 c9 3e 49 86 9f 3d 94 6f 1d bf
       0.03065965 0.39345616 0.07789285 -0.6149838
000150 d5 22 cc be 1d 19 39 bb 8a b0 8d 3e f0 d3 e9 be
       -0.39870325 -0.0028243728 0.2767375 -0.45669508
000160 21 a5 9b bc ea 87 15 be 7e e3 1c 3f 6b 1f 19 be
       -0.018999638 -0.14602628 0.61284626 -0.14953391
000170 fb 2a 39 bf 8e e8 e8 be 2b d7 05 bf 6e 90 84 be
       -0.7233121 -0.45489925 -0.52281445 -0.2589144
000180 8f d3 49 3f 0b fb 90 be be 80 e8 be 7b 18 3c be
       0.7883844 -0.2831653 -0.45410722 -0.18368714
000190 21 ba 1c bd 7f f3 3d 3e b3 90 36 3f 98 b4 e5 3d
       -0.038263444 0.18549918 0.71314543 0.11216086
0001a0 58 16 5b bf e8 64 07 3f 0a 77 03 3f 7e 3e 0c 3f
       -0.8558097 0.52888346 0.51353514 0.54782856
0001b0 d4 f8 51 3f 41 fe a4 3e bc e7 05 bf 2a 60 e3 be
       0.82020307 0.3222523 -0.52306724 -0.44409305
0001c0 67 73 47 3e e8 c7 50 3f fc b2 02 3f b3 8c a0 3d
       0.19477616 0.8155503 0.5105436 0.07839336
0001d0 57 97 ba 3f 3b 63 3b 3f 9b 4d c1 bd 42 57 85 be
       1.4577435 0.7319829 -0.0943863 -0.26043135
0001e0 3a a7 47 bf 9f 21 b9 bd e8 ae ba 3d be c4 03 3f
       -0.7798954 -0.09039616 0.09115392 0.5147208
0001f0 3c 43 e6 3d 09 15 85 3e c5 c5 3d 3e 3e 62 e0 bc
       0.11243293 0.2599261 0.18532474 -0.027390596
000200 20 23 0e bf 10 97 1f 3d c3 40 22 3b d7 e3 c1 bd
       -0.55522346 0.038962424 0.002475784 -0.09467285
000210 ed c4 37 3e 50 ec fd be b0 f5 d3 3e be e2 95 bc
       0.17946215 -0.49594355 0.41398382 -0.018296596
000220 9d 61 5d 3e 0a a8 ee be b8 93 eb 3e c9 d2 c3 3e
       0.21619268 -0.4661258 0.46011138 0.38246754
000230 c6 d8 70 be 35 23 1d bf bb 5f 37 bf be 1b 0f bf
       -0.23520193 -0.61381847 -0.7163045 -0.55901706
000240 32 73 c1 3e 50 41 39 3e 28 a8 2c 3f ff 1c 16 3f
       0.377832 0.18091321 0.67444086 0.58637995
000250 fc f3 39 bf e6 1c e8 3e ea 31 84 3d 57 9c bd 3e
       -0.72637916 0.45334548 0.06454833 0.3703334
000260 75 bb c0 bd c8 47 b6 bd 33 20 95 be 3d f8 38 bf
       -0.094107546 -0.0890041 -0.2912613 -0.7225378
000270 73 e9 df 3d 05 51 46 bf 38 0f 7d bf 92 d6 0d 3f
       0.10933199 -0.77467376 -0.98851347 0.55405533
000280 9e da 5a 3f 4f a0 4f bf c0 80 1a 3e 6a 2e 7c 3f
       0.85489833 -0.81103987 0.15088177 0.9850832
000290 6c 11 8d bf 7e 64 30 3f 75 b9 35 be 97 82 4d 3e
       -1.1020942 0.6890334 -0.17746527 0.20069347
0002a0 a0 58 86 be 1a 8a d7 bd 1e 31 9d be a3 f8 91 bd
       -0.2623949 -0.10524388 -0.30701536 -0.07127502
0002b0 c2 e9 f6 3d 30 08 09 3f 91 cd 38 bf 17 7c 5b 3e
       0.120563045 0.5352812 -0.7218867 0.21434055
0002c0 82 17 b6 3e 40 bd d1 3d a2 fc cf 3e 81 0b 1a 3f
       0.3556481 0.10241175 0.4062243 0.60173804
0002d0 0c bc e7 3e 96 40 92 3e 17 1e 9d be e7 f3 e3 3d
       0.45260656 0.285649 -0.3068702 0.11130505
0002e0 85 18 72 3f 7b 12 19 3e 95 2c ce 3e b1 0d 7a be
       0.94568664 0.14948456 0.40268388 -0.24419285
0002f0 5f e0 31 be 7c e7 55 be 90 c3 a2 be 6a f9 b1 be
       -0.17370747 -0.20889086 -0.31789827 -0.347606
000300 ca 2f 8a 3e 4e 2e 19 3f f0 75 2d 3c 10 b5 e5 bc
       0.26989585 0.5983628 0.0105872005 -0.028040439
000310 51 31 2c be 99 94 62 bd d1 cc 02 bf 85 77 40 be
       -0.16815688 -0.055317495 -0.51093775 -0.18795593
000320 06 20 07 bf 78 43 f2 3e d6 49 f8 3d be dd 84 3e
       -0.5278324 0.473171 0.12123458 0.25950426
000330 ca 19 09 3f 26 fb 1f be dd 65 81 be 16 66 2c be
       0.53554976 -0.1562315 -0.25273028 -0.16835818
000340 80 52 56 bf 08 e6 6a 3f f3 b2 de 3d d9 a1 8d 3e
       -0.83719635 0.9175725 0.108739756 0.27662542
000350 8e a2 72 bc 25 3b db be 17 06 b3 3e 2d 26 fd 3e
       -0.014809264 -0.4281856 0.34965584 0.49443188
000360 c8 ae 30 be 19 ea e3 3e 76 22 2e 3e d9 5a 37 3d
       -0.17254174 0.4451454 0.17005333 0.044764373
000370 a2 70 c3 3e 7b 44 88 bc 96 11 a1 bf ab 5a d2 be
       0.3817187 -0.016634217 -1.2583492 -0.410848
000380 33 7a b2 3e 13 aa 02 3e d5 68 32 3e c7 40 c8 be
       0.34858856 0.1276019 0.17422803 -0.3911192
000390 75 01 a4 3e 0d ea cd 3e 75 0b 4a be 29 46 11 3e
       0.32032362 0.4021763 -0.19730933 0.1418692
0003a0 88 fc 10 3f 4d f8 f1 3d 83 7b 4a bf bf 7e a9 be
       0.5663533 0.11814938 -0.79094714 -0.33104512
0003b0 fa ca bd be cb 85 30 bf e3 9e 78 be 90 cb c6 be
       -0.3706892 -0.6895415 -0.2427936 -0.3882718
0003c0 8f 47 7e 3e d7 39 9a 3d 5f d2 60 bf 86 50 49 3e
       0.24831985 0.07530563 -0.87821 0.19659624
0003d0 c2 fb 01 3f a0 7a 2e 3f e6 b0 66 3e 85 1e f7 bd
       0.50774777 0.6815586 0.22528419 -0.12066368
0003e0 e8 65 08 bf 3f 3c b4 be 67 5b cc 3c d5 e8 62 3e
       -0.53280497 -0.35202214 0.024945928 0.22159131
0003f0 94 a7 0a 3e b6 62 12 be 08 f4 30 bf 0a 6b 60 bf
       0.13540488 -0.14295468 -0.6912236 -0.8766333

conv1.bias f4 [63]
000000 ba 42 04 3b 92 2b f5 b9 5e 58 15 3b 81 0c 2c 3b
       0.0020181374 -0.00046762504 0.0022788267 0.002625257
000010 fa 1f 60 3b a0 be 75 3b 12 79 31 3a 11 46 09 3b
       0.0034198747 0.0037497655 0.0006770055 0.0020946304
000020 5b 3d d6 bb 3c 9d 68 3b 88 9c df 3a 19 2b a0 39
       -0.006538076 0.003549411 0.00170602 0.00030549688
000030 70 4d 96 bb 50 10 8d 3b 0c 44 67 bb 7a dd 58 bb
       -0.004586868 0.004304923 -0.0035288362 -0.0033090995
000040 48 ee 72 bb 30 5f 4d bb 46 2d 60 bb c4 c5 43 bb
       -0.0037068296 -0.0031337254 -0.0034206673 -0.0029872516
000050 0a 16 81 bb c6 31 24 bb 9f 34 64 bb 51 e4 42 3b
       -0.003939395 -0.0025054081 -0.0034821404 0.0029738138
000060 e4 23 0c 3b fc d7 64 bb a5 43 cf ba d7 65 64 bb
       0.0021383697 -0.0034918776 -0.0015813006 -0.003485074
000070 91 d4 4c bb 25 8c 9c bb aa 7f 87 bb 89 ee 26 bb
       -0.003125463 -0.0047774487 -0.004135092 -0.0025471768
000080 a8 cf 03 3b c3 0e 7e bb c6 b3 d1 3a 55 81 b6 ba
       0.0020112786 -0.0038766123 0.0015999011 -0.0013924042
000090 c4 35 06 3b ee 1f 76 bb c8 aa 49 bb 57 14 3f bb
       0.0020478824 -0.0037555653 -0.003077196 -0.002915641
0000a0 75 1f 63 bb 9c c6 ac ba 1a d6 13 bb c3 d3 5e bb
       -0.00346562 -0.0013181749 -0.0022558034 -0.0034000732
0000b0 ba 4a a1 bb ac 4c 80 bb a0 45 84 ba ff 45 6c bb
       -0.004922238 -0.00391539 -0.0010091551 -0.0036052463
0000c0 68 91 a9 3a b3 30 6e bb f6 ee 52 bb 18 b1 39 3b
       0.0012937011 -0.0036344945 -0.003218589 0.0028334316
0000d0 a9 fc 98 bb 27 c3 54 ba 8c 25 87 3b a8 c1 21 3b
       -0.0046687913 -0.0008116238 0.004124349 0.0024682079
0000e0 91 7b 48 bb c9 5a 1a 3b 15 7c bc 3a 5c 7d 60 bb
       -0.003059123 0.0023552647 0.0014380241 -0.0034254408
0000f0 15 9b 46 bb ee 7d 98 bb 19 0f 95 bb
       -0.0030304838 -0.004653684 -0.004548919

vgg.0.weight f4 [63, 63, 3, 3]
000000 ec 89 cc 3c d4 16 3b bd d4 41 a3 bd df 2a 04 3c
       0.02496811 -0.045676067 -0.0797154 0.008066862
000010 1f 63 2d bd 32 ff bd bc 43 eb 30 3d 13 75 ae bc
       -0.042330857 -0.023192976 0.043193113 -0.02129606
000020 ec 89 56 3c 74 b6 b2 3d f2 23 51 3d ee 0e bd 3d
       0.013094407 0.087262064 0.05105967 0.09231363
000030 aa 40 24 3d 66 d8 a1 bd 88 c0 bc bb a4 0e 43 bb
       0.04010073 -0.07902603 -0.005760256 -0.0029763365
000040 bf 88 88 bd fd bd b1 bd f7 67 d0 3c 15 68 3f bd
       -0.06666707 -0.086788155 0.0254402 -0.04673012
000050 0d b9 e4 3c be 3f 7d bb 83 4d 17 3c b1 df 96 3d
       0.02792027 -0.003864273 0.009234789 0.073668845
000060 ec e7 25 3d ec 9c e5 3b aa e9 af 3a ad 8e 9f 3d
       0.04050438 0.007007232 0.0013421078 0.07790885
000070 0d 21 94 3d 8e 97 4f 3d 4b 1b 9b 3c d1 42 a6 bc
       0.072328664 0.050681643 0.018933913 -0.020295532
000080 9f 48 11 bd 3f 9c 86 bc 8b 42 e3 bd 33 70 8d 3c
       -0.035469647 -0.016431926 -0.110966764 0.017265415
000090 a1 4c e6 ba ae fb 49 3c 51 86 05 bd 31 ff 8d bd
       -0.0017570445 0.0123280715 -0.032598797 -0.069334395
0000a0 10 9c 3b bd be f5 84 bd 3e f1 d1 bd 19 a2 27 bc
       -0.04580313 -0.06492184 -0.102510914 -0.010231518
0000b0 ea 6b f3 3c 31 34 d6 bc 0b 8a 67 bc fa a8 c9 3d
       0.029714543 -0.026147934 -0.014132033 0.09846683
0000c0 ef 72 c8 3d bf 3f 9a 3d b6 2d ec bc ae d4 27 bc
       0.09787547 0.0753169 -0.02883039 -0.010243578
0000d0 83 50 a1 b6 e6 9d 8e 3d 33 39 a1 3d 83 cd b9 3d
       -4.8075467e-06 0.069637105 0.07872238 0.090724014
0000e0 6b dc e9 3d 13 2a cc bd 8d 20 85 bb 33 e5 61 3c
       0.114189945 -0.099689625 -0.0040627182 0.0137875555
0000f0 31 af 9a bd 5e 2f eb bc bb 85 b1 bc f1 aa 75 bd
       -0.07552946 -0.02870911 -0.021670213 -0.059977476
000100 8d 7a f9 3d bb f2 30 3c c9 9b ec 3c 29 44 05 3d
       0.12181578 0.010800059 0.028882878 0.032535706
000110 ef 6c 18 3d a4 69 a8 bd 6b 69 86 3d 37 b5 99 bb
       0.037213262 -0.08223274 0.06563076 -0.004690792
000120 66 d2 f7 bc ab 13 c5 bc 77 79 2d 3c c1 a1 6c bd
       -0.030251693 -0.02405723 0.0105880415 -0.057771448
000130 7d 03 e3 3d 9d d3 13 3d 15 a5 85 3c 18 a0 4d 3c
       0.1108465 0.036090482 0.016314069 0.012550376
000140 3f 25 60 bd 9a a5 57 3d 5a 39 66 3d a9 85 8b bd
       -0.05472302 0.052648164 0.05620704 -0.06812603
000150 d5 82 01 3d 49 9c 8b 3c 93 ee f9 3c 31 bd 08 bc
       0.03161891 0.017042296 0.030509269 -0.008345888
000160 70 f7 2d bc a3 93 a2 bc 0e 57 b8 bc f2 0d da 3b
       -0.010618076 -0.01984579 -0.022502448 0.0066544944
000170 df 6a 19 3c e7 6c 5f 3d 1b b5 d0 3d 1a 87 37 bd
       0.009363859 0.054547217 0.10190793 -0.044806577
000180 d6 0f e7 3c 95 64 b7 3d 8c f4 1b bd 3b fd 33 bd
       0.028205793 0.089547314 -0.038075015 -0.04394267
000190 11 7d 94 bc c4 24 ba 3c 05 2e f7 bc 32 e2 88 bd
       -0.018126043 0.02272261 -0.030173311 -0.06683768
0001a0 3f 19 28 be 20 75 d1 bc e7 a6 39 bc 04 f2 d2 bc
       -0.1641588 -0.025568545 -0.0113312965 -0.025750168
0001b0 49 bb bc bb 81 70 08 3d 80 92 e2 bd dd 09 18 3d
       -0.005759631 0.033310417 -0.11063099 0.03711878
0001c0 63 56 d1 3b 46 f2 70 3d 00 1f 59 bc fe c7 22 bd
       0.006388472 0.0588248 -0.01325202 -0.03974151
0001d0 f7 f8 d7 bc 13 44 dd 3c a9 ab b4 3c 49 b8 7c ba
       -0.026363833 0.02701 0.02205451 -0.0009640498
0001e0 58 55 db 3c 36 60 06 bc 44 2d 3b bd 2e da c6 bd
       0.026774094 -0.008201649 -0.045697466 -0.09709583
0001f0 56 7e 01 3e ef d1 db bc 25 4f c0 bb 09 25 3d bd
       0.1264585 -0.026833503 -0.0058688098 -0.046177898
000200 0e 3b 84 bd 79 bc 43 bd 8f 37 89 bd 93 cb ab bd
       -0.06456576 -0.047787163 -0.0670005 -0.08388438
000210 b8 dc 04 bd 02 25 ef 3d 3b 05 e2 3c b0 c2 21 bc
       -0.032437056 0.116769806 0.027590385 -0.009873077
000220 c7 34 d6 bd f1 b1 23 bc 8b 2c 70 bc 10 b4 bf 3d
       -0.10459285 -0.009991155 -0.014659057 0.09360516
000230 4c f5 3d bc 85 b8 77 3d 6c e5 a2 3c 13 60 04 3e
       -0.011594128 0.060478706 0.019884787 0.12927274
000240 3e 99 71 3c d3 e2 74 3d 53 32 24 be 1f 78 4d bc
       0.014746008 0.05978663 -0.16034822 -0.012540846
000250 51 5c 0d bc 50 92 19 3d 4c e1 00 bd 32 0f 00 bd
       -0.008627967 0.03749305 -0.03146486 -0.03126449
000260 13 d6 f8 3c 08 cd e3 bc 24 47 90 3d 34 75 73 bd
       0.030375516 -0.027807727 0.07044819 -0.059437945
000270 8d 0f c5 bc d3 6b 08 3d d3 b8 0a 3d b0 50 cb 3c
       -0.024055267 0.033305954 0.03386767 0.024818748
000280 dc 0a 7c bd 73 92 7f 3b 07 99 7a 3d b1 b0 14 3d
       -0.061533794 0.0038997203 0.061181094 0.03630132
000290 ad 50 84 bd cc 3a df bc ed 4f ec bd 3c cb 5c bc
       -0.064607 -0.027249716 -0.11538682 -0.013476189
0002a0 52 4a 5a 3c cc 96 88 3c 6b f7 4d bd 23 ff 15 3d
       0.013323383 0.016673468 -0.050284784 0.03662027
0002b0 e3 cc 96 bc 53 b5 15 3d 2f a1 a8 3c 2a bf 91 3d
       -0.018408244 0.036549877 0.02058467 0.0711654
0002c0 0d 94 54 bd 12 75 38 3d d1 b9 8d 3c 30 70 66 3d
       -0.051899005 0.045033522 0.017300518 0.056259334
0002d0 25 ea 70 3c a2 c8 72 bd f5 6b 80 bd bb 99 5d bc
       0.014704262 -0.05927337 -0.06270591 -0.013525422
0002e0 dc 94 a6 bc 36 36 c9 bb 86 19 65 3c 2c 4d 0f bd
       -0.020334654 -0.0061404957 0.013983136 -0.034985706
0002f0 5b b6 43 bc 50 07 e3 bb 5a 6e 17 bb ed c8 1d 3d
       -0.011945332 -0.006928362 -0.0023106546 0.038521696
000300 fc 28 85 bd 12 86 f6 3c 33 be df 3d 2e fd 5c bc
       -0.06501958 0.030093227 0.109249495 -0.013488097
000310 93 01 23 3d 02 23 2b 3c 8e d9 28 bc 49 b1 82 bc
       0.039796423 0.010445358 -0.010305775 -0.015953677
000320 6b 06 b0 bd 97 65 81 3c ef 41 2b bd 00 6b 42 bd
       -0.08594974 0.015795512 -0.041810926 -0.047465324
000330 da 85 01 bb a2 15 89 bd ed e2 a2 3d c4 04 9f bc
       -0.001976362 -0.06693579 0.07953439 -0.019411452
000340 b8 ca 8a 3d cc 34 79 3d d5 97 07 be d7 95 41 3c
       0.06776947 0.060841367 -0.13241513 0.01181551
000350 a4 2e 60 3c bf 71 f4 bd ca bd 59 bd f8 b4 e6 3d
       0.013682995 -0.11935758 -0.053159513 0.11264986
000360 13 b2 97 bc 2c ea fc 3b f9 95 31 3d 4d 10 4a 3d
       -0.01851753 0.007718345 0.043355916 0.049331952
000370 8d 24 d5 bc 93 27 6e bd a4 4a 17 bd fc ef 28 bc
       -0.026018405 -0.05814321 -0.036936417 -0.010311123
000380 da 82 59 3c a3 eb 49 bd d9 de f6 3b 4e 87 06 3d
       0.013275826 -0.049296986 0.0075338897 0.03284388
000390 a3 5d 13 3d d1 8e 8d bd b0 1a 1f bd fa 94 08 bc
       0.03597797 -0.06912006 -0.03884381 -0.0083363
0003a0 1c fb 61 bd 7d 45 8f 3d 33 08 ae bd c4 d0 fe 3c
       -0.055171117 0.06995676 -0.084976576 0.031105407
0003b0 43 59 a5 bd 12 43 11 3d 44 6e 98 3d 0d 19 d8 bc
       -0.08073666 0.035464354 0.074429065 -0.026379133
0003c0 4b 72 fd 3d fe 59 78 bc 88 9f 1d b9 72 aa c7 3c
       0.12375315 -0.015158175 -0.00015032117 0.024373267
0003d0 e7 fd 9d bd b2 a6 25 bc 6a d3 bb 3c 9b 8f 80 3c
       -0.07714444 -0.010110544 0.022927959 0.015693476
0003e0 f2 59 81 3d 74 37 a5 3d da b7 c8 ba 0f 90 31 bd
       0.06315984 0.080672175 -0.0015313581 -0.043350276
0003f0 7a bc bb 3b fa ef 33 bd cc 6c 80 bd a0 65 1e 3e
       0.0057292553 -0.04393003 -0.06270751 0.15468454

vgg.0.bias f4 [63]
000000 73 78 35 bb bc 6e 90 3b 07 35 36 ba 96 8e 0f bb
       -0.0027690202 0.004407732 -0.0006950651 -0.0021905056
000010 75 a0 81 bb 7e fc c0 ba 5c e6 f3 b9 7c 14 b6 ba
       -0.0039558955 -0.0014723686 -0.00046520203 -0.0013891603
000020 b5 83 24 bb 68 b4 9f ba 10 e4 d3 ba 07 cb 58 bb
       -0.0025102918 -0.0012184503 -0.001616599 -0.0033079998
000030 e4 c9 5d bb 12 ef 8e bb b1 6c 85 bb fb bf b9 b9
       -0.003384226 -0.0043619955 -0.004071795 -0.00035428986
000040 9f a2 ea 39 1e df 69 bb 78 76 05 bb 81 44 7f bb
       0.0004475312 -0.0035685967 -0.0020364802 -0.0038950744
000050 55 fb e7 ba fe 85 85 bb 20 78 1d 3a 69 25 ac ba
       -0.0017698804 -0.004074811 0.0006006975 -0.0013133708
000060 31 3d a5 bb f0 38 4b bb 09 04 64 bb f6 ed f8 ba
       -0.005042695 -0.003100928 -0.0034792444 -0.0018991816
000070 34 13 84 bb 21 08 12 bb df 0b 55 bb d6 23 26 bb
       -0.0040306095 -0.0022282677 -0.0032508296 -0.002535095
000080 5c 1d 21 bb e7 37 92 3a 70 8a 35 bb 35 c3 0d 3a
       -0.002458415 0.0011155576 -0.0027700923 0.0005407811
000090 b5 6b 65 bb fb db 44 3b 50 f3 51 3b af 82 03 3c
       -0.0035006825 0.0030038345 0.0032035895 0.008026763
0000a0 31 4f 48 bb b1 35 aa 3a 2e d5 ad ba 83 75 f2 ba
       -0.003056478 0.0012985972 -0.0013262385 -0.0018498156
0000b0 09 0d a5 bb f8 63 7d 3b f1 13 39 ba 00 33 66 bb
       -0.0050369543 0.0038664322 -0.00070601614 -0.0035125613
0000c0 dd ea 10 b9 d3 bb 66 bb 38 f6 11 b9 0f 0d 00 3b
       -0.00013820404 -0.0035207167 -0.00013920001 0.0019539034
0000d0 ee 5a 8d ba bd a5 cb ba e9 78 53 ba 78 50 4d bb
       -0.0010784545 -0.0015537065 -0.0008067028 -0.003132848
0000e0 b3 08 8a ba c9 d1 14 3a a8 74 a0 39 32 9a 67 bb
       -0.0010531157 0.00056770124 0.00030604494 -0.003533971
0000f0 42 42 2f 3a 56 e7 6a bb ee 68 b8 3a
       0.00066855934 -0.0035843453 0.0014069357

oconv2.weight f4 [1, 63, 3, 3]
000000 e7 6a 8e 3c 0a fb 8a 3d c1 07 f6 3b f9 51 11 be
       0.01738496 0.06786163 0.0075082486 -0.14191426
000010 1c bf 38 bd 25 9c 8f bd a8 55 39 bd e4 0b 01 bd
       -0.04510413 -0.07012204 -0.045247704 -0.03150548
000020 65 83 f5 bc 03 bf 1e 3d cf c4 35 3d 42 a0 8d 3d
       -0.02996988 0.03875638 0.044377144 0.069153324
000030 80 d4 72 bd 14 af df 3b c4 86 36 bc b2 c4 27 bc
       -0.059284687 0.006826291 -0.011140529 -0.010239767
000040 d1 4b 62 3d 17 ea ad bc 45 15 bf 3c 65 bd f6 3d
       0.055248085 -0.021229787 0.023325572 0.12047843
000050 44 28 8d bb d6 82 da 3c b1 0e ac 3d 07 14 0e bd
       -0.0043077786 0.026673716 0.0840124 -0.03468707
000060 3d d6 02 bd a0 4e d0 3d 94 bb 92 bc ce f5 9b bd
       -0.031942595 0.101712465 -0.01791171 -0.07615243
000070 fa de ae 3d 6b 1b 07 bc 40 f8 65 bd 58 33 5d bd
       0.08538623 -0.008246283 -0.056144953 -0.054004043
000080 b6 bb a0 3d 16 a9 3d 3c 58 d7 eb 3d 89 27 49 bd
       0.07848303 0.011575958 0.11515683 -0.04910997
000090 dd ca a6 3d a5 e7 b4 3c 83 81 3f bd fd c0 cb bb
       0.08144162 0.022083113 -0.04675437 -0.0062180744
0000a0 55 50 80 bb ed 31 c2 bc dc 25 a8 bd 72 ed 02 3d
       -0.0039158263 -0.023705447 -0.08210346 0.031964727
0000b0 de 3f 92 3d 63 9a 57 3d 5e 9d 7a 3d a8 3e c6 bd
       0.07141088 0.05263747 0.061185233 -0.096799195
0000c0 b5 2c 40 3d 5c e7 46 3d 38 9f 5b 3d 53 41 9a 3d
       0.046917636 0.048560485 0.05361864 0.07531991
0000d0 43 7f 95 bb b9 22 5d 3d af 88 77 bd a6 b8 6c 3d
       -0.00456229 0.053988192 -0.060433086 0.057793282
0000e0 9e ef ca 3c 02 68 f8 3d e7 ba 3e 3d f1 10 1a 3e
       0.024772462 0.12129213 0.046564963 0.15045525
0000f0 21 47 de 3d 7a 0c 06 3d 5a eb 90 3c 0e 4d 8f bc
       0.108534105 0.032726742 0.01769035 -0.017492797
000100 8c d7 1e 3d 17 77 e2 3c ce 93 67 3d f3 fa 52 bc
       0.03877978 0.027644677 0.056537442 -0.012877214
000110 f9 85 99 3d 26 3e e5 bc e7 0a ec 3c 18 3c 06 bd
       0.074962564 -0.027983736 0.028813792 -0.032772154
000120 80 39 f8 3c 8c 9a 75 3d 15 f8 4f 3d 93 e9 f8 3c
       0.030300856 0.05996184 0.0507737 0.030384814
000130 db d1 bf ba 57 f1 6b bd 27 7c f4 bd 76 4e 06 3e
       -0.0014634685 -0.057603206 -0.11937743 0.13115868
000140 db ef c9 3d 09 24 c7 3b 87 ac 74 bd 61 96 6d 3d
       0.09860202 0.006077294 -0.059734847 0.05800474
000150 5a f4 cf 3d 3e b4 46 3c b4 cc 3e bd 13 1b 8d bc
       0.10154028 0.012127934 -0.04658194 -0.017224824
000160 27 96 3a 3c 9d cf 13 3d 66 be 2b 3e 54 b4 b9 3d
       0.011388338 0.036086667 0.1677185 0.09067598
000170 36 e8 e5 3d 56 45 37 bc 74 b0 9a bd bf 9a cf 3d
       0.11225931 -0.011185965 -0.07553187 0.10136937
000180 1e b3 28 3d cd 57 74 bd 65 ff d9 bd 9c 0d 5a bc
       0.041186444 -0.059654046 -0.10644416 -0.013308909
000190 76 ca 64 bc d0 49 8a 3d dd 70 6b bd 88 dc 80 bd
       -0.013964286 0.0675236 -0.05748068 -0.06292063
0001a0 0b e9 19 bd 20 43 27 bd 89 55 a3 bd dc de 87 3d
       -0.037575763 -0.0408355 -0.07975299 0.06634304
0001b0 4f 05 97 3d 0c 68 c1 3d b5 71 8a 3d 6e ba 53 bd
       0.073740594 0.094436735 0.06759969 -0.051691465
0001c0 06 c6 c0 bc 58 37 88 3d 89 15 93 3a a5 8d 12 bd
       -0.023531925 0.06651181 0.0011221628 -0.035779614
0001d0 95 8f 23 bd 54 f7 89 39 b8 fb f8 bd 09 53 d1 3c
       -0.039931852 0.0002631495 -0.121573865 0.02555229
0001e0 76 65 3e bd ac 61 fe bd 9b 5f 6f 3d d5 35 06 3d
       -0.04648348 -0.12420973 0.058440786 0.032766182
0001f0 90 f3 0f bd b0 e5 ca 3a 76 f7 bb 3c 94 4b 96 bd
       -0.03514439 0.0015479829 0.022945147 -0.07338634
000200 2b b8 b3 bd c1 08 09 3d a5 17 a8 bd 26 28 67 bd
       -0.087753616 0.033455614 -0.08207635 -0.056434773
000210 63 52 00 3c 1a 47 98 3d 18 9b 38 3e 4c e0 67 bd
       0.0078321425 0.074354365 0.18027914 -0.05661039
000220 0d 37 5a 3d 28 80 91 bc ce 92 4e 3d 3b a2 d8 3d
       0.053275157 -0.017761305 0.050432973 0.10577818
000230 a5 2f 93 3d e7 0e dc bd 5a 16 71 3c b7 8c 46 bc
       0.07186822 -0.1074503 0.014714802 -0.01211851
000240 24 01 1b 3d bb 0b 4b 3d 47 61 4f bd 57 d5 36 bd
       0.037842885 0.049571734 -0.05062988 -0.04463705
000250 9c 1e 73 bd 3d 68 44 bd 8e 8e 70 bd b7 99 65 bb
       -0.059355363 -0.047950972 -0.0587297 -0.0035034248
000260 09 fc b6 3c f5 0b c8 bd 59 50 aa bb 14 d6 d3 3c
       0.022336977 -0.097679056 -0.0051975665 0.025858916
000270 2d 7c 5a bc 85 db 6c 3d 0d e7 7c bd 6b f8 18 3d
       -0.01333527 0.057826538 -0.061743785 0.037346285
000280 a0 72 a8 3d 7b 5c 55 3c 48 28 85 3c 4b 4c 80 bd
       0.08224988 0.013022537 0.01625456 -0.06264552
000290 7f e0 a4 bd 23 6d cc 3d 12 88 ec bc e6 f4 18 bd
       -0.08050632 0.09981754 -0.028873477 -0.03734293
0002a0 8d c8 1b 3d f5 20 4c 3d 33 b6 e6 3c 63 7c c2 3d
       0.038033057 0.049836118 0.028163051 0.09496381
0002b0 88 93 0d be 3a f2 17 3d 0d e7 5a 3b 82 ab 00 3d
       -0.1382581 0.03709624 0.0033401877 0.031413563
0002c0 3e 7b d3 3d 84 cd 7a bb 42 13 87 3c 45 b6 5f 3c
       0.10326241 -0.003826947 0.016488675 0.013654296
0002d0 4d d6 36 3d 22 bb 57 bd f4 e5 27 3d a1 49 6a 3c
       0.044637967 -0.052668698 0.040990785 0.014299781
0002e0 92 b2 45 3d 91 71 6a 3d d1 3b 78 3d 7f a7 a2 bc
       0.048266 0.05723721 0.06060392 -0.019855259
0002f0 08 f8 19 bc 8f 7d 9c 3b 59 98 8d 3d 80 11 2a 3d
       -0.009397514 0.00477571 0.06913824 0.041520596
000300 01 13 6f bd b1 69 45 bd 28 dc a3 3c 7d a2 5a bd
       -0.058367733 -0.0481965 0.02000244 -0.053377617
000310 2c cd c4 bd b8 dd 7b 3d 42 85 5b 3d 94 c1 58 bd
       -0.09609446 0.061490744 0.05359388 -0.052918985
000320 19 20 14 bc e6 07 58 3d 59 6a 34 3c 91 0d 74 3c
       -0.009040856 0.052741908 0.011011683 0.014895813
000330 4a 6b 08 bd 13 90 e5 3c 22 b6 dd 3b 67 af 21 bd
       -0.033305444 0.028022802 0.0067660967 -0.039473917
000340 bf fc 06 bc 38 cc c1 bd a9 b0 81 3d 8b ae 8e bd
       -0.00823897 -0.0946278 0.063325234 -0.06966885
000350 fb 44 e6 bc f1 7f 8b bd b2 2a 13 bd 15 df b5 bb
       -0.028109064 -0.06811512 -0.03592939 -0.005550275
000360 c5 10 e6 3a 6e 6b 6c 3c 8a 3e 63 3e 3c a4 93 bd
       0.0017552605 0.01442991 0.22191826 -0.072090596
000370 71 02 91 bd cd de 05 bd dd 2a d9 bd 9b 9b ac 3c
       -0.07080544 -0.032683183 -0.10603879 0.021070292
000380 04 58 79 3d 5a 03 35 3b 77 0d 23 3d 6f 0e 63 3d
       0.060874954 0.0027620406 0.039807763 0.055433687
000390 91 2f 1f bd 2c 36 ee 3c ac af fa 3d bd 2b 02 3e
       -0.038863722 0.029078566 0.12240538 0.12711997
0003a0 8e e9 a0 3d 2d 3e a0 3c 33 81 cb bc 06 06 ba bc
       0.07857047 0.019560898 -0.02484188 -0.02270795
0003b0 39 6d a7 bc a4 f7 41 bc 02 19 98 bc a4 ac 20 bd
       -0.020437824 -0.011838827 -0.018566612 -0.039227143
0003c0 ac 9c 0a bd 32 98 89 bc a2 88 0a bd 49 46 a5 3d
       -0.03384082 -0.016796205 -0.03382171 0.080700465
0003d0 cb db 52 bc bd 30 17 3d 74 90 48 bd 9e 61 ab bd
       -0.012869786 0.036911715 -0.048965886 -0.083682284
0003e0 f8 0f 1c bc 19 88 3f bd 35 ed ea 3d 1d 10 84 bd
       -0.009525292 -0.046760652 0.11471025 -0.06448386
0003f0 e9 2a 32 3c 66 15 03 bd 22 fe 03 bd 7d 61 88 bd
       0.010874488 -0.03200283 -0.03222478 -0.066592194
