Models/model13.pth (torch, 151247 bytes, 6 tensors)

oconv1.weight f4 [1, 1, 3, 3]
0.44269305 -0.15242006 -0.5106182 0.18391792 0.16542344 -0.18757518 0.3453804 -0.46058264
-0.20819113
00000000: aaa8 e23e 0114 1cbe e0b7 02bf fb54 3c3e
00000010: c364 293e b513 40be b3d5 b03e 7dd1 ebbe
00000020: 0e30 55be

conv1.weight f4 [63, 1, 3, 3]
-1.5551955 0.29459426 0.18709883 -0.037630428 -0.9006207 0.33417657 -0.12851061 0.14533965
-0.19369073 -0.16775018 -0.4145829 -0.11799856 -0.43900135 1.255898 0.31748384 0.22570255
-0.76539564 0.27672577 0.22538781 -0.552894 0.5280723 -0.69050497 0.46487212 0.31473276
-0.2968942 0.68055737 -0.12720792 0.3286709 -0.58931327 0.48143688 1.0747399 0.002359011
0.6316621 -0.57715297 0.17533733 0.68087566 -0.9568102 -0.21617699 0.5417122 0.18278678
0.11449713 -0.04286197 -0.11271851 -0.20415999 0.32350177 -0.13730963 -0.6213618 -0.34925646
-0.67790294 -0.08262647 0.5726126 1.0498935 0.019380229 -0.36268488 0.087249696 -0.27482086
0.12154542 -0.22744545 0.41407055 -0.089135244 -0.5586609 0.3300917 0.010933487 0.32568127
0.43205824 -0.061858725 0.12153253 -0.38572025 0.78569496 -0.79061186 0.47778994 0.17375235
0.50134885 0.36864424 -1.1738366 -0.0106735965 -0.5091202 1.1231145 0.14126667 0.14365517
0.030610606 0.3933978 0.07783948 -0.61500883 -0.39863995 -0.002873957 0.2766822 -0.45674458
-0.019050397 -0.1460785 0.61284775 -0.14946972 -0.72333884 -0.45494908 -0.5228691 -0.2588712
0.7883275 -0.28311512 -0.45405936 -0.18371682 -0.038230296 0.1855179 0.7131875 0.11210524
-0.8558698 0.5288357 0.51345927 0.547771 0.82014364 0.32231057 -0.5230133 -0.4441238
0.19476041 0.8156098 0.5104849 0.07834446 1.4576868 0.73203653 -0.09433271 -0.2604487
-0.7798324 -0.09034171 0.09120397 0.51466006 0.112491585 0.25986254 0.1852636 -0.02746038
-0.5551745 0.039008483 0.0025256067 -0.09462788 0.17948718 -0.49601957 0.41390744 -0.018332982
0.21614766 -0.46607113 0.46006784 0.382423 -0.23514326 -0.61375797 -0.7162491 -0.5589586
0.3777756 0.1808516 0.67438114 0.5863232 -0.7263149 0.45328882 0.06448184 0.37027907
-0.094154984 -0.08903724 -0.2912304 -0.7224916 0.10927014 -0.7746177 -0.9884535 0.55410165
0.8548418 -0.8109872 0.1509329 0.98502636 -1.1020297 0.6890726 -0.17752036 0.20064083
-0.2623417 -0.10518151 -0.30695736 -0.0712111 0.1205048 0.53523403 -0.7218292 0.21430787
0.3555927 0.10235704 0.40627465 0.6016813 0.45260298 0.2856206 -0.3068136 0.11136142
0.9456319 0.14944758 0.40263864 -0.24413224 -0.17365064 -0.20894136 -0.3178357 -0.34764943
0.26984012 0.59831065 0.010533859 -0.027980074 -0.1682054 -0.05536387 -0.51088053 -0.18800256
-0.5277881 0.4731924 0.1212826 0.25944686 0.5354911 -0.15618943 -0.25275657 -0.16829944
-0.83719534 0.9175063 0.108795315 0.2766811 -0.01486476 -0.4281335 0.34963956 0.49448705
-0.17247224 0.4452014 0.17012432 0.04482585 0.3817819 -0.01668317 -1.2582767 -0.4107923
0.34853023 0.12756793 0.17428525 -0.39105162 0.32028073 0.40223327 -0.19725803 0.1418301
0.56632376 0.11808244 -0.79087627 -0.3310812 -0.37071627 -0.68958503 -0.24272147 -0.3882966
0.248267 0.07525474 -0.87813735 0.1966701 0.50768965 0.6815021 0.225261 -0.12059895
-0.53274465 -0.35194367 0.025006358 0.22154687 0.13534425 -0.14293633 -0.69116503 -0.8766356
00000000: a510 c7bf 0fd5 963e d696 3f3e 5d22 1abd
00000010: 148f 66bf 3119 ab3e 4998 03be ebd3 143e
00000020: dd56 46be b4c6 2bbe 3644 d4be 3ba9 f1bd
00000030: c9c4 e0be 44c1 a03f 3e8d a23e 921e 673e
00000040: f8f0 43bf 00af 8d3e 10cc 663e 768a 0dbf
00000050: bf2f 073f efc4 30bf b803 ee3e a724 a13e
00000060: 8402 98be 0239 2e3f cb42 02be 8d47 a83e
00000070: 3cdd 16bf e57e f63e 1491 893f a399 1a3b
00000080: 9bb4 213f 4cc0 13bf a18b 333e de4d 2e3f
00000090: 83f1 74bf 805d 5dbe a7ad 0a3f 752c 3b3e
000000a0: 797d ea3d 0890 2fbd f6d8 e6bd 510f 51be
000000b0: 06a2 a53e e59a 0cbe 9111 1fbf bed1 b2be
000000c0: 0c8b 2dbf 1138 a9bd bd96 123f e962 863f
000000d0: 49c3 9e3c d5b1 b9be f8af b23d 52b5 8cbe
000000e0: ceec f83d 76e7 68be 0e01 d43e 8a8c b6bd
000000f0: 6704 0fbf c801 a93e 5e22 333c b2bf a63e
00000100: bd36 dd3e 935f 7dbd 0ce6 f83d 207d c5be
00000110: 4e23 493f 8a65 4abf e2a0 f43e 23ec 313e
00000120: 6658 003f f0be bc3e 4740 96bf 4fe0 2ebc
00000130: b455 02bf 37c2 8f3f 36a8 103e 571a 133e
00000140: 18c3 fa3c 706b c93e 4e6a 9f3d 3871 1dbf
00000150: 891a ccbe ff58 3cbb 4aa9 8d3e 6dda e9be
00000160: 940f 9cbc 9a95 15be 97e3 1c3f 970e 19be
00000170: bc2c 39bf 16ef e8be c0da 05bf c48a 84be
00000180: d5cf 493f 77f4 90be 787a e8be 4320 3cbe
00000190: 5f97 1cbd 68f8 3d3e 7593 363f 6f97 e53d
000001a0: 491a 5bbf c761 073f 1172 033f b83a 0c3f
000001b0: eff4 513f e405 a53e 33e4 05bf 3264 e3be
000001c0: 466f 473e cecb 503f 23af 023f 0f73 a03d
000001d0: 7b95 ba3f bf66 3b3f 8231 c1bd 8859 85be
000001e0: 19a3 47bf 1305 b9bd 26c9 ba3d c3c0 033f
000001f0: fd61 e63d b40c 853e beb5 3d3e 97f4 e0bc
00000200: eb1f 0ebf 5cc7 1f3d a684 253b 43cc c1bd
00000210: 7dcb 373e 47f6 fdbe adeb d33e 0d2f 96bc
00000220: d055 5d3e e0a0 eebe 038e eb3e f3cc c33e
00000230: 65c9 70be 3e1f 1dbf 1a5c 37bf e917 0fbf
00000240: ce6b c13e 2931 393e 3ea4 2c3f 4719 163f
00000250: c6ef 39bf 7915 e83e 0e0f 843d 3895 bd3e
00000260: 54d4 c0bd 2859 b6bd 271c 95be 36f5 38bf
00000270: 06c9 df3d 584d 46bf 4a0b 7dbf 9bd9 0d3f
00000280: ead6 5a3f db9c 4fbf 278e 1a3e b02a 7c3f
00000290: 4f0f 8dbf 1067 303f e6c7 35be ca74 4d3e
000002a0: a751 86be 6769 d7bd 8429 9dbe 20d7 91bd
000002b0: 38cb f63d 1905 093f ccc9 38bf 8673 5b3e
000002c0: 3f10 b63e 91a0 d13d 3b03 d03e c907 1a3f
000002d0: 94bb e73e dd3c 923e ac16 9dbe 7511 e43d
000002e0: ef14 723f c908 193e a726 ce3e cdfd 79be
000002f0: 79d1 31be b9f4 55be 5cbb a2be 1bff b1be
00000300: 7c28 8a3e e32a 193f 3596 2c3c 7836 e5bc
00000310: 093e 2cbe 3ac5 62bd 11c9 02bf be83 40be
00000320: 1f1d 07bf 4646 f23e 0363 f83d 38d6 843e
00000330: f215 093f 1ff0 1fbe 4f69 81be b056 2cbe
00000340: 6f52 56bf b1e1 6a3f 14d0 de3d 25a9 8d3e
00000350: 538b 73bc 5034 dbbe f503 b33e 682d fd3e
00000360: 909c 30be 70f1 e33e 1235 2e3e 4f9b 373d
00000370: eb78 c33e 25ab 88bc 360f a1bf 5e53 d2be
00000380: 8e72 b23e 2ba1 023e d577 323e eb37 c8be
00000390: d6fb a33e 85f1 cd3e 02fe 49be e93b 113e
000003a0: 98fa 103f 35d5 f13d de76 4abf 7a83 a9be
000003b0: 86ce bdbe a588 30bf fa8b 78be d0ce c6be
000003c0: b439 7e3e 281f 9a3d 9ccd 60bf e363 493e
000003d0: f3f7 013f ec76 2e3f d2aa 663e 95fc f6bd
000003e0: f461 08bf f631 b4be 22da cc3c 2fdd 623e
000003f0: af97 0a3e e75d 12be 31f0 30bf 316b 60bf

conv1.bias f4 [63]
0.0020754745 -0.00040576802 0.002335723 0.002670786 0.0034836133 0.0037987293 0.0007313605 0.0021497938
-0.006595118 0.0035650819 0.0017403672 0.00035394775 -0.004641853 0.004357999 -0.0035075694 -0.0033650012
-0.0037639213 -0.003188409 -0.0034741263 -0.003043519 -0.0039911293 -0.0025657283 -0.003535383 0.0030186148
0.0021507277 -0.0035324846 -0.00165912 -0.0035421634 -0.0030716069 -0.004833767 -0.004194598 -0.0025929045
0.002046141 -0.003933933 0.0015426856 -0.0013133743 0.00210028 -0.0037995563 -0.003131856 -0.0029059148
-0.0035110957 -0.0012523719 -0.002310581 -0.0034496842 -0.0049741035 -0.003968721 -0.0010561142 -0.0036592528
0.0012972855 -0.0036890449 -0.003263186 0.0028865999 -0.004715675 -0.0008318722 0.004178057 0.0025211708
-0.0030935358 0.0024090821 0.0014761849 -0.0034794773 -0.0030771631 -0.0047117737 -0.0046035675
00000000: af04 083b 43bd d4b9 ee12 193b 5b08 2f3b
00000010: 554d 643b 1af4 783b c6b8 3f3a 8ee3 0c3b
00000020: dc1b d8bb 26a4 693b 081d e43a 1092 b939
00000030: af1a 98bb 8ccd 8e3b 40df 65bb 5a87 5cbb
00000040: 1fac 76bb a0f4 50bb 2bae 63bb c775 47bb
00000050: 05c8 82bb c725 28bb e2b1 67bb f4d3 453b
00000060: 39f3 0c3b 4281 67bb d476 d9ba a423 68bb
00000070: 034d 49bb 9464 9ebb d772 89bb b8ed 29bb
00000080: 8d18 063b 39e8 80bb f033 ca3a 8725 acba
00000090: daa4 093b fa01 79bb d33f 4dbb 2971 3ebb
000000a0: 691a 66bb a126 a4ba 1e6d 17bb 1914 62bb
000000b0: cefd a2bb 0b0c 82bb 506d 8aba 13d0 6fbb
000000c0: ae09 aa3a e7c3 71bb 2ddb 55bb 1c2d 3d3b
000000d0: f385 9abb 0012 5aba 15e8 883b 3a3a 253b
000000e0: ebbc 4abb b1e1 1d3b 8c7c c13a f107 64bb
000000f0: 3baa 49bb 3965 9abb 86d9 96bb

vgg.0.weight f4 [63, 63, 3, 3]
0.02491483 -0.045730967 -0.07976721 0.008013424 -0.042384923 -0.02324722 0.043140687 -0.02135155
0.0130376 0.08721168 0.051103346 0.09226118 0.040065974 -0.07907135 -0.0058183777 -0.0030389847
-0.0666151 -0.086826436 0.025390368 -0.04677587 0.02788299 -0.003912668 0.009187687 0.07362374
0.040456988 0.006966848 0.0012984343 0.07786619 0.072278 0.0506222 0.0188851 -0.020327823
-0.035520606 -0.016478091 -0.11099621 0.0172211 -0.0018106682 0.012278941 -0.032647744 -0.06938668
-0.04585993 -0.06497534 -0.10256049 -0.010283902 0.029662566 -0.02612696 -0.014085997 0.0984173
0.097827 0.075257905 -0.028805483 -0.010294048 -5.149681e-05 0.06958313 0.07867686 0.0906809
0.114230946 -0.09972978 -0.004045187 0.0137800295 -0.07557714 -0.028704297 -0.021667665 -0.05995832
0.12177708 0.010808562 0.028830769 0.03251683 0.037163217 -0.08225968 0.06557989 -0.004721664
-0.030302297 -0.024105906 0.01053799 -0.057819672 0.110797115 0.03603982 0.01627108 0.012503698
-0.054770272 0.05259489 0.05615588 -0.06817843 0.031565033 0.016990073 0.030459613 -0.00840094
-0.010670371 -0.019899122 -0.022549136 0.0066900733 0.009342161 0.05449645 0.10185292 -0.044821013
0.028156228 0.08950629 -0.038126983 -0.04398553 -0.018176416 0.022672383 -0.030224236 -0.066871226
-0.1641787 -0.025615167 -0.011378894 -0.025753945 -0.0058081727 0.03335196 -0.1106773 0.037070785
0.0063510863 0.058781713 -0.013293305 -0.03976256 -0.02637761 0.02696416 0.022108745 -0.0010060917
0.026730005 -0.008252467 -0.045751803 -0.09704436 0.12648462 -0.026875803 -0.0059163165 -0.04622161
-0.064612195 -0.047834497 -0.06704945 -0.08391902 -0.03248613 0.1167198 0.02754662 -0.009921172
-0.10463593 -0.009950459 -0.014686578 0.09356148 -0.011564921 0.060419697 0.019830149 0.12923959
0.014787577 0.059737846 -0.1604007 -0.012598703 -0.00866762 0.037443615 -0.031485483 -0.03130672
0.030323558 -0.027786566 0.070394926 -0.05941369 -0.02411444 0.03325032 0.03381932 0.024765693
-0.061589018 0.0038444144 0.061133415 0.036247037 -0.06463366 -0.02730134 -0.1153404 -0.0135001615
0.013275709 0.016619653 -0.050236426 0.036569793 -0.018450359 0.036498904 0.020534571 0.07111836
-0.05195015 0.044987284 0.017258648 0.05621076 0.014653737 -0.059322126 -0.0626783 -0.013572908
-0.02038524 -0.006179478 0.013932895 -0.03501947 -0.011979155 -0.0069740387 -0.0023658748 0.03853741
-0.06499215 0.030033896 0.10922982 -0.013550878 0.03974675 0.010398607 -0.010354572 -0.016001172
-0.08599741 0.01574767 -0.041861467 -0.047511168 -0.0020221693 -0.066983245 0.0794902 -0.019392924
0.067713 0.060785554 -0.13236476 0.011793115 0.013629584 -0.11940631 -0.053201366 0.112600714
-0.018569438 0.0076625217 0.04330572 0.049280904 -0.026066698 -0.05819632 -0.036988474 -0.010363953
0.013225135 -0.049344707 0.0074879294 0.032896187 0.03592922 -0.06916096 -0.03883154 -0.008380837
-0.055208135 0.06999651 -0.08502845 0.03105382 -0.08077762 0.035410743 0.07437578 -0.026429353
0.12369977 -0.0152096 -0.0002020147 0.024327807 -0.07719434 -0.0101744225 0.022869037 0.01564969
0.06310863 0.08062362 -0.0015815388 -0.04340312 0.005677345 -0.04398127 -0.06275889 0.15463254
00000000: 301a cc3c 6550 3bbd fe5c a3bd bd4a 033c
00000010: d09b 2dbd f470 bebc 4ab4 303d 72e9 aebc
00000020: a89b 553c 0a9c b23d be51 513d 6ef3 bc3d
00000030: 381c 243d 29f0 a1bd 17a8 bebb b429 47bb
00000040: 7f6d 88bd 0fd2 b1bd 76ff cf3c 0e98 3fbd
00000050: de6a e43c d735 80bb f487 163c 0bc8 963d
00000060: 3ab6 253d 284a e43b 3a30 aa3a 4f78 9f3d
00000070: 7d06 943d 3959 4f3d edb4 9a3c 8986 a6bc
00000080: 0e7e 11bd 10fd 86bc fb51 e3bd 4413 8d3c
00000090: f153 edba 9d2d 493c a4b9 05bd 9b1a 8ebd
000000a0: 9fd7 3bbd cb11 85bd 3c0b d2bd d07d 28bc
000000b0: e9fe f23c 3508 d6bc f4c8 66bc 028f c93d
000000c0: 8659 c83d d120 9a3d 7af9 ebbc 5ea8 28bc
000000d0: 47fe 57b8 9a81 8e3d 5521 a13d e8b6 b93d
000000e0: eaf1 e93d 203f ccbd 7d8d 84bb a2c5 613c
000000f0: 30c8 9abd 4625 ebbc 6380 b1bc db96 75bd
00000100: 4366 f93d 6516 313c 812e ec3c 5e30 053d
00000110: 7538 183d c377 a8bd c04e 863d 30b8 9abb
00000120: 863c f8bc c079 c5bc 89a7 2c3c 52d4 6cbd
00000130: 99e9 e23d 7e9e 133d ee4a 853c 4fdc 4c3c
00000140: cb56 60bd bd6d 573d b503 663d 22a1 8bbd
00000150: 564a 013d c42e 8b3c 7086 f93c 19a4 09bc
00000160: c8d2 2ebc 7c03 a3bc f7b8 b8bc 6738 db3b
00000170: dd0f 193c ab37 5f3d 4498 d03d 3d96 37bd
00000180: e4a7 e63c 134f b73d 0a2b 1cbd 2c2a 34bd
00000190: b5e6 94bc 6fbb b93c d198 f7bc c8f3 88bd
000001a0: 761e 28be e6d6 d1bc 8a6e 3abc f0f9 d2bc
000001b0: 7c52 bebb 119c 083d c8aa e2bd 89d7 173d
000001c0: c61c d03b 18c5 703d 2acc 59bc 11de 22bd
000001d0: dc15 d8bc f1e3 dc3c 661d b53c d6de 83ba
000001e0: e2f8 da3c 5b35 07bc 3e66 3bbd 32bf c6bd
000001f0: 2f85 013e a52a dcbc a9dd c1bb df52 3dbd
00000200: 6653 84bd 1bee 43bd 3951 89bd bcdd abbd
00000210: 2d10 05bd ca0a ef3d 73a9 e13c 698c 22bc
00000220: 5d4b d6bd 4007 23bc f99f 70bc 299d bf3d
00000230: cb7a 3dbc a57a 773d d672 a23c 6257 043e
00000240: 9847 723c acaf 743d 1540 24be ca6a 4ebc
00000250: a202 0ebc 7a5e 193d ecf6 00bd 7a3b 00bd
00000260: 1c69 f83c a7a0 e3bc 372b 903d c55b 73bd
00000270: a58b c5bc 7d31 083d 2186 0a3d 6ce1 ca3c
00000280: c444 7cbd 92f2 7b3b 0867 7a3d c677 143d
00000290: a75e 84bd 0fa7 dfbc 9637 ecbd c82f 5dbc
000002a0: 5c82 593c f025 883c b6c4 4dbd 35ca 153d
000002b0: 3525 97bc e07f 153d 1e38 a83c 81a6 913d
000002c0: aec9 54bd 9644 383d 0262 8d3c 413d 663d
000002d0: 3a16 703c c2fb 72bd 7b5d 80bd e760 5ebc
000002e0: f2fe a6bc 387d cabb cc46 643c 9370 0fbd
000002f0: 3844 44bc 7a86 e4bb cb0c 1bbb 67d9 1d3d
00000300: 9b1a 85bd a509 f63c e2b3 df3d 8004 5ebc
00000310: 7dcd 223d eb5e 2a3c 39a6 29bc e414 83bc
00000320: 691f b0bd 4201 813c ee76 2bbd 129b 42bd
00000330: 5f86 04bb 832e 89bd c2cb a23d e9dd 9ebc
00000340: 1dad 8a3d 46fa 783d a18a 07be e937 413c
00000350: 9e4e 5f3c 4c8b f4bd ade9 59bd 349b e63d
00000360: ef1e 98bc e415 fb3b 5761 313d c6da 493d
00000370: d489 d5bc 445f 6ebd 3a81 17bd 92cd 29bc
00000380: 3dae 583c ad1d 4abd 4e5d f53b 27be 063d
00000390: 852a 133d 43a4 8dbd d20d 1fbd c74f 09bc
000003a0: ed21 62bd 555a 8f3d 6523 aebd 9564 fe3c
000003b0: bd6e a5bd db0a 113d 5452 983d 5f82 d8bc
000003c0: 4e56 fd3d b031 79bc e8d3 53b9 1c4b c73c
000003d0: 1118 9ebd 9fb2 26bc d957 bb3c c733 803c
000003e0: 193f 813d ff1d a53d a34b cfba 78c7 31bd
000003f0: 0609 ba3b b425 34bd bc87 80bd fe57 1e3e

vgg.0.bias f4 [63]
-0.0028222913 0.0043589133 -0.00067287794 -0.0021915634 -0.003997317 -0.0015174834 -0.00043920387 -0.0013966381
-0.0025366314 -0.0012002044 -0.0016525635 -0.0033541622 -0.0034107494 -0.00440624 -0.0041133417 -0.0003352182
0.0004565227 -0.003615376 -0.0019893323 -0.0039359774 -0.0018020018 -0.004094789 0.0005816846 -0.00137722
-0.0050883503 -0.0031533786 -0.0035337014 -0.0019280909 -0.004072357 -0.0022258079 -0.0032962344 -0.0025962717
-0.0024911347 0.0010624875 -0.0028119325 0.00047298137 -0.0035467644 0.0029759337 0.0032336134 0.008028677
-0.003107352 0.0013545065 -0.0013819711 -0.00190619 -0.0050810347 0.00389061 -0.00076388335 -0.0035611717
-0.00016193288 -0.0035640995 -0.00020860517 0.001971429 -0.0010683422 -0.0016025048 -0.0007908052 -0.0031852026
-0.0009917938 0.0005900083 0.0003226223 -0.0035916888 0.000662962 -0.0036467235 0.0014518049
00000000: 31f6 38bb 37d5 8e3b 1364 30ba 55a0 0fbb
00000010: edfb 82bb 4be6 c6ba f244 e6b9 660f b7ba
00000020: 9d3d 26bb 2d50 9dba d49a d8ba 81d1 5bbb
00000030: e186 5fbb 3862 90bb 36c9 86bb 3ac0 afb9
00000040: 7159 ef39 f2ef 6cbb 755f 02bb 5ff9 80bb
00000050: 2631 ecba 942d 86bb 317c 183a d683 b4ba
00000060: 2dbc a6bb eaa8 4ebb ac95 67bb ffb7 fcba
00000070: 6871 85bb dcde 11bb a305 58bb 3626 2abb
00000080: 4e42 23bb 2a43 8b3a 6648 38bb 7cfa f739
00000090: d570 68bb e207 433b 08eb 533b b68a 033c
000000a0: b7a4 4bbb b289 b13a 4123 b5ba 1fd9 f9ba
000000b0: cf7e a6bb 9bf9 7e3b 583f 48ba 8c62 69bb
000000c0: 87cc 29b9 ab93 69bb 06bd 5ab9 1733 013b
000000d0: 9e07 8cba 230b d2ba 0a4e 4fba d5be 50bb
000000e0: 14ff 81ba c9aa 1a3a a225 a939 8a62 6bbb
000000f0: a0ca 2d3a defd 6ebb 7d4a be3a

oconv2.weight f4 [1, 63, 3, 3]
0.017440477 0.06780904 0.0075170216 -0.14191322 -0.045050547 -0.07017608 -0.045186475 -0.03154914
-0.02991103 0.03870423 0.044429626 0.069100946 -0.059234753 0.0067856857 -0.011206148 -0.010296173
0.055295292 -0.021167327 0.023373172 0.12042413 -0.004340801 0.026726153 0.083974294 -0.034664977
-0.03190911 0.10175416 -0.01793368 -0.07610226 0.08533584 -0.00820217 -0.05608858 -0.05395122
0.07843035 0.011531507 0.11518183 -0.049152523 0.08138606 0.022138564 -0.046751615 -0.0062674223
-0.0038763706 -0.023761783 -0.0820449 0.032023184 0.07135504 0.052579004 0.061248865 -0.09685281
0.046864964 0.048505895 0.053662766 0.07523978 -0.0045975964 0.054038927 -0.060379166 0.0577359
0.024730178 0.12132719 0.04659797 0.1503993 0.10854667 0.032775186 0.0177464 -0.017472295
0.038732633 0.027603196 0.056512192 -0.012912619 0.0749168 -0.02792379 0.028758658 -0.032813225
0.030244876 0.059903175 0.05072699 0.030334638 -0.0015171086 -0.057604995 -0.119325094 0.1311054
0.09854581 0.0061225616 -0.05966214 0.05805128 0.10153128 0.012060406 -0.046519957 -0.017178753
0.0113510145 0.036023997 0.16764921 0.09062066 0.11219908 -0.01113144 -0.07559057 0.10133325
0.0412111 -0.05960061 -0.10649228 -0.013309963 -0.014024484 0.06747909 -0.057435077 -0.06286367
-0.03762601 -0.040880773 -0.07970435 0.06639484 0.073691115 0.09449436 0.06754667 -0.051644623
-0.023490703 0.066455066 0.0011752045 -0.035732947 -0.03998426 0.00020757758 -0.12154012 0.025495645
-0.046429127 -0.124259025 0.05847747 0.03269031 -0.035100557 0.0014936838 0.022972556 -0.073332995
-0.087795325 0.033401582 -0.08202154 -0.056487653 0.007886108 0.07429837 0.18021141 -0.05655889
0.053229436 -0.017709225 0.050460294 0.10571199 0.07181156 -0.107393526 0.014765725 -0.012097535
0.037899185 0.049577013 -0.05067218 -0.044580936 -0.059308905 -0.04799936 -0.058679458 -0.003449158
0.022295736 -0.09762557 -0.00525147 0.025795743 -0.013378991 0.057824124 -0.061689693 0.0373186
0.08219538 0.013081106 0.016299339 -0.062691994 -0.08047878 0.09976165 -0.028828857 -0.037385084
0.038082965 0.04978064 0.02813225 0.09491108 -0.13819647 0.037121892 0.003389689 0.031380348
0.103209406 -0.0037775864 0.016458707 0.013651239 0.0445812 -0.052633196 0.041028865 0.014245523
0.048210558 0.05728604 0.060558125 -0.019800171 -0.009413458 0.0047228937 0.069169365 0.041470386
-0.058311395 -0.048249986 0.020041216 -0.053433415 -0.0960435 0.061551627 0.053554866 -0.052909244
-0.009046833 0.0527757 0.010974788 0.014832192 -0.033274017 0.028033372 0.0067146686 -0.039411485
-0.008228653 -0.09454576 0.06337266 -0.069602475 -0.02816407 -0.068068154 -0.0359074 -0.005601662
0.0017082028 0.014485713 0.22186232 -0.07204109 -0.07074708 -0.032738734 -0.10598082 0.021014258
0.060933232 0.0027129282 0.03975305 0.055485357 -0.03881596 0.029097691 0.1223523 0.12707736
0.07861676 0.019589882 -0.024796044 -0.022662094 -0.020417856 -0.011798082 -0.018526068 -0.039172526
-0.033787582 -0.016744602 -0.03376739 0.08064114 -0.012922387 0.036970045 -0.048917416 -0.083645895
-0.009479789 -0.046817176 0.11464924 -0.0644961 0.010822927 -0.031951 -0.03226502 -0.0665385
00000000: 55df 8e3c 77df 8a3d 5951 f63b b351 11be
00000010: ec86 38bd 7ab8 8fbd 7415 39bd ac39 01bd
00000020: fa07 f5bc 5488 1e3d d7fb 353d cc84 8d3d
00000030: 24a0 72bd 755a de3b fe99 37bc 48b1 28bc
00000040: 517d 623d 1a67 adbc 1879 bf3c eda0 f63d
00000050: 473d 8ebb cef0 da3c b7fa ab3d ddfc 0dbd
00000060: 20b3 02bd 7c64 d03d a7e9 92bc 80db 9bbd
00000070: 8fc4 ae3d 6562 06bc 24bd 65bd f4fb 5cbd
00000080: 17a0 a03d a5ee 3c3c 74e4 eb3d 2854 49bd
00000090: bcad a63d ef5b b53c 9f7e 3fbd f35e cdbb
000000a0: b50a 7ebb 12a8 c2bc 2807 a8bd be2a 033d
000000b0: 9722 923d 155d 573d 17e0 7a3d c45a c6bd
000000c0: 7af5 3f3d 1eae 463d 7dcd 5b3d 5017 9a3d
000000d0: 6fa7 96bb ec57 5d3d 2550 77bd 7b7c 6c3d
000000e0: f196 ca3c 647a f83d 83dd 3e3d 4602 1a3e
000000f0: b74d de3d 463f 063d e660 913c 0f22 8fbc
00000100: 1ca6 1e3d 1920 e23c 5479 673d 738f 53bc
00000110: fb6d 993d 6fc0 e4bc 4797 eb3c 2967 06bd
00000120: 1ac4 f73c 085d 753d 1bc7 4f3d 5980 f83c
00000130: b8d9 c6ba 37f3 6bbd b760 f4bd 7e40 063e
00000140: 63d2 c93d c59f c83b 4a60 74bd 2ec7 6d3d
00000150: a2ef cf3d 0299 453c b68b 3ebd 75ba 8cbc
00000160: 9bf9 393c e68d 133d 3cac 2b3e 5397 b93d
00000170: a2c8 e53d a560 36bc 3bcf 9abd cf87 cf3d
00000180: f8cc 283d c51f 74bd a018 dabd 0812 5abc
00000190: f3c6 65bc 7a32 8a3d 0b41 6bbd abbe 80bd
000001a0: bb1d 1abd 9972 27bd 093c a3bd 05fa 873d
000001b0: 5eeb 963d 4286 c13d e955 8a3d 5089 53bd
000001c0: 936f c0bc 9819 883d 5209 9a3a b65c 12bd
000001d0: 89c6 23bd 2fa9 5939 07ea f8bd 3edc d03c
000001e0: 782c 3ebd 847b febd 1286 6f3d 46e6 053d
000001f0: 9ac5 0fbd b6c7 c33a f130 bc3c 9c2f 96bd
00000200: 09ce b3bd 19d0 083d e9fa a7bd 995f 67bd
00000210: bc34 013c be29 983d 5789 383e 4baa 67bd
00000220: 1c07 5a3d f012 91bc 74af 4e3d 877f d83d
00000230: f011 933d 23f1 dbbd f0eb 713c bd34 46bc
00000240: 2d3c 1b3d 4411 4b3d a28d 4fbd 809a 36bd
00000250: e5ed 72bd fa9a 44bd df59 70bd 450b 62bb
00000260: 8ca5 b63c eaef c7bd 8614 acbb 9851 d33c
00000270: 8e33 5bbc fdd8 6c3d 55ae 7cbd 63db 183d
00000280: 0d56 a83d 2352 563c 3186 853c a964 80bd
00000290: 0fd2 a4bd d64f cc3d 7f2a ecbc 1a21 19bd
000002a0: e2fc 1b3d c9e6 4b3d 9b75 e63c be60 c23d
000002b0: 6083 0dbe 200d 183d 8b25 5e3b ae88 003d
000002c0: 745f d33d 6291 77bb 69d4 863c 72a9 5f3c
000002d0: c79a 363d e895 57bd e20d 283d 0e66 693c
000002e0: 6f78 453d c4a4 6a3d cc0b 783d f833 a2bc
000002f0: e83a 1abc 81c2 9a3b aba8 8d3d dadc 293d
00000300: eed7 6ebd c7a1 45bd 7a2d a43c ffdc 5abd
00000310: 74b2 c4bd 8f1d 7c3d 595c 5b3d 5db7 58bd
00000320: 2b39 14bc 552b 583d 99cf 333c b902 733c
00000330: 564a 08bd 3ea6 e53c b906 dc3b f06d 21bd
00000340: 79d1 06bc 35a1 c1bd 86c9 813d be8b 8ebd
00000350: 56b8 e6bc 5167 8bbd a313 13bd 268e b7bb
00000360: c6e5 df3a 7c55 6d3c e02f 633e 478a 93bd
00000370: d8e3 90bd 0d19 06bd 790c d9bd 1826 ac3c
00000380: 2095 793d 62cb 313b 18d4 223d 9d44 633d
00000390: 7cfd 1ebd 485e ee3c d893 fa3d 9120 023e
000003a0: d301 a13d f67a a03c 1321 cbbc dba5 b9bc
000003b0: 5943 a7bc be4c 41bc fbc3 97bc 5f73 20bd
000003c0: d964 0abd fa2b 89bc ad4f 0abd 2f27 a53d
000003d0: 6bb8 53bc e76d 173d a15d 48bd 8a4e abbd
000003e0: 1e51 1bbc 5ec3 3fbd 39cd ea3d 8816 84bd
000003f0: a552 313c 0ddf 02bd 5328 04bd 5645 88bd
