Models/model05.pth (torch, 150927 bytes, 6 tensors)

oconv1.weight f4 [1, 1, 3, 3]
000000 4e e4 e2 3e 36 8e 1c be 06 da 02 bf 50 da 3b 3e
       0.44314808 -0.15288624 -0.5111393 0.18344998
000010 67 d9 29 3e de 87 40 be 9a 0e b1 3e 3a 0c ec be
       0.16586839 -0.18801829 0.34581453 -0.46103078
000020 c5 b2 55 be
       -0.20868976

conv1.weight f4 [63, 1, 3, 3]
000000 f0 1e c7 bf c5 9a 96 3e da 0e 40 3e 81 29 1c bd
       -1.5556316 0.29414955 0.18755665 -0.03812552
000010 31 ac 66 bf ef df aa 3e c0 0f 04 be 03 2e 15 3e
       -0.90106493 0.33373973 -0.12896633 0.14568333
000020 67 9f 46 be e4 45 2c be dc 85 d4 be 9e 72 f2 bd
       -0.19396745 -0.16823536 -0.41508377 -0.11838268
000030 4a 03 e1 be df b5 a0 3f ea 52 a2 3e c9 a6 66 3e
       -0.43947822 1.2555503 0.31703883 0.22524561
000040 fa ca 43 bf 1e f7 8d 3e 4a 3f 67 3e b7 7e 0d bf
       -0.7648159 0.27727598 0.22582737 -0.55271477
000050 f6 10 07 3f 44 e4 30 bf ca 3a ee 3e ff 53 a1 3e
       0.52760255 -0.69098306 0.46529227 0.31509396
000060 18 d1 97 be 7c 2a 2e 3f b8 aa 02 be cb 09 a8 3e
       -0.29651713 0.68033576 -0.12760437 0.3281997
000070 54 fe 16 bf 0a bd f6 3e 65 a0 89 3f 66 97 f9 3a
       -0.58981824 0.481911 1.0752074 0.0019042313
000080 06 93 21 3f 8d de 13 bf d0 11 33 3e 3d 66 2e 3f
       0.63114965 -0.5776146 0.17487264 0.68124753
000090 c4 d1 74 bf 95 dd 5c be 96 92 0a 3f aa 88 3b 3e
       -0.95632577 -0.21568902 0.5412992 0.18313852
0000a0 f2 72 eb 3d b7 ac 2d bd 7d fb e5 bd 71 a5 50 be
       0.114965335 -0.04240104 -0.11229608 -0.20375611
0000b0 ae d9 a5 3e d4 26 0c be c4 f8 1e bf 26 af b2 be
       0.3239264 -0.13686687 -0.62098336 -0.34899253
0000c0 a5 6e 2d bf aa 4a a8 bd 4e b4 12 3f 72 73 86 3f
       -0.67746955 -0.08217366 0.57306373 1.0503981
0000d0 15 b3 a2 3c 57 f1 b9 be 36 87 b3 3d c9 00 8d be
       0.019860784 -0.3631694 0.08766024 -0.27539662
0000e0 bb cf f9 3d a5 76 68 be 9e bc d3 3e 76 bf b5 bd
       0.121978246 -0.2270151 0.4135484 -0.08874409
0000f0 f1 ea 0e bf 7e 35 a9 3e 28 51 2c 3c 47 ec a6 3e
       -0.5582724 0.33048624 0.010517396 0.3260214
000100 cd 0a dd 3e 6e 51 7f bd ba 61 f8 3d af b9 c5 be
       0.43172303 -0.062333517 0.12128015 -0.38618228
000110 df 40 49 3f 19 88 4a bf 76 5c f4 3e 3a 68 32 3e
       0.7861461 -0.7911392 0.47726792 0.17422572
000120 70 76 00 3f 25 00 bd 3e 2c 51 96 bf ac d8 26 bc
       0.5018072 0.36914173 -1.1743522 -0.010183495
000130 d2 48 02 bf 45 d1 8f 3f 3f 11 11 3e 97 8d 13 3e
       -0.50892365 1.1235739 0.14166735 0.14409481
000140 d1 3d fe 3c 99 a9 c9 3e 9a 57 a0 3d 67 5f 1d bf
       0.031035336 0.39387205 0.07829209 -0.614737
000150 53 60 cc be d1 c3 20 bb 53 e5 8d 3e a1 a2 e9 be
       -0.3991724 -0.0024530778 0.27714023 -0.45631889
000160 30 a4 98 bc f0 22 15 be 1a da 1c 3f b7 96 19 be
       -0.018632978 -0.14564109 0.61270297 -0.149989
000170 59 1b 39 bf a0 b7 e8 be a9 bc 05 bf 48 c0 84 be
       -0.72307354 -0.45452595 -0.52241 -0.2592795
000180 06 ef 49 3f 7b 31 91 be 3a 9f e8 be ce 06 3c be
       0.78880346 -0.28358063 -0.4543398 -0.18361971
000190 d2 ef 1d bd 08 ca 3d 3e b8 79 36 3f 22 81 e6 3d
       -0.03855879 0.185341 0.7127948 0.11255099
0001a0 5c f8 5a bf 91 76 07 3f 1d 9a 03 3f 55 5a 0c 3f
       -0.85535216 0.5291529 0.51407033 0.54825336
0001b0 31 15 52 3f e2 c4 a4 3e ca 02 06 bf f1 3c e3 be
       0.82063586 0.3218146 -0.52348006 -0.44382432
0001c0 1c a2 47 3e 8d ab 50 3f 2b ce 02 3f d1 4b a1 3d
       0.19495434 0.81511766 0.5109584 0.07875789
0001d0 7d a4 ba 3f 94 48 3b 3f 78 24 c2 bd f4 37 85 be
       1.4581448 0.7315762 -0.09479612 -0.2601925
0001e0 22 c4 47 bf 08 f4 b9 bd d1 ee b9 3d 64 e2 03 3f
       -0.7803365 -0.090797484 0.09078754 0.5151732
0001f0 70 5d e5 3d 63 51 85 3e e3 36 3e 3e 2b 70 dc bc
       0.111994624 0.26038656 0.18575625 -0.026908955
000200 a8 3b 0e bf 06 1e 1e 3d e0 83 09 3b 8a 9f c2 bd
       -0.5555978 0.03860285 0.0020983145 -0.09503086
000210 b9 7b 37 3e 53 b5 fd be 9c 3d d4 3e 1d fd 93 bc
       0.1791829 -0.49552402 0.41453254 -0.01806503
000220 8e ae 5d 3e 2a de ee be 6c b5 eb 3e b8 fc c3 3e
       0.21648619 -0.46653873 0.4603685 0.38278747
000230 e7 4c 71 be cd 3d 1d bf 3c 7b 37 bf 43 38 0f bf
       -0.23564492 -0.61422426 -0.71672416 -0.55945224
000240 82 a9 c1 3e 6f b7 39 3e 25 c5 2c 3f 11 39 16 3f
       0.37824637 0.1813638 0.6748832 0.58680826
000250 d5 08 3a bf 29 53 e8 3e c2 2b 85 3d d3 d3 bd 3e
       -0.72669727 0.45375946 0.06502487 0.37075672
000260 7f f8 bf bd 7c 98 b5 bd ee 44 95 be 08 10 39 bf
       -0.09373569 -0.08866975 -0.29154152 -0.72290087
000270 9e e0 e0 3d f6 6b 46 bf 39 2b 7d bf dc be 0d 3f
       0.10980342 -0.77508485 -0.9889408 0.55369353
000280 0d f6 5a 3f f0 b9 4f bf 26 14 1a 3e 1e 49 7c 3f
       0.85531694 -0.81143093 0.15046749 0.9854907
000290 fa 20 8d bf 5b 52 30 3f 61 76 35 be f0 e2 4d 3e
       -1.1025689 0.68875664 -0.17720939 0.20106101
0002a0 a2 8c 86 be 53 77 d8 bd 7a 68 9d be ec e2 92 bd
       -0.2627917 -0.10569634 -0.30743772 -0.07172188
0002b0 6b c6 f7 3d c0 1f 09 3f a2 e9 38 bf 18 ca 5b 3e
       0.12098392 0.5356407 -0.72231495 0.21463811
0002c0 14 4f b6 3e 10 97 d2 3d 49 c9 cf 3e 8b 26 1a 3f
       0.35607207 0.10282719 0.40583256 0.6021506
0002d0 b8 cc e7 3e 1a 50 92 3e f5 53 9d be 41 1c e3 3d
       0.45273376 0.28576738 -0.30728117 0.110893734
0002e0 f4 32 72 3f 24 44 19 3e 7d 5b ce 3e ad 7c 7a be
       0.94609 0.149674 0.40304175 -0.24461623
0002f0 d3 4b 32 be c8 82 55 be fa fe a2 be b3 cb b1 be
       -0.17411737 -0.2085067 -0.31835157 -0.34725723
000300 bd 65 8a 3e 26 48 19 3f 5a 03 34 3c f8 f2 e7 bc
       0.27030745 0.59875715 0.010987127 -0.028314099
000310 18 cf 2b be 04 23 61 bd b9 e8 02 bf 56 45 40 be
       -0.16778219 -0.054965034 -0.51136357 -0.1877645
000320 1c 38 07 bf fd 21 f2 3e 03 7a f7 3d ca 12 85 3e
       -0.5281999 0.47291556 0.12083819 0.25990897
000330 20 36 09 3f 64 5a 20 be 75 5c 81 be e2 d6 2c be
       0.53598213 -0.15659481 -0.25265852 -0.16878846
000340 a5 46 56 bf d4 05 6b 3f 27 f6 dd 3d d3 6b 8d 3e
       -0.83701545 0.9180577 0.108379655 0.27621326
000350 7e e2 6b bc e7 64 db be be f8 b2 3e 17 f6 fc 3e
       -0.014397262 -0.4285042 0.349554 0.49406502
000360 7e 2e 31 be 13 c8 e3 3e 42 b5 2d 3e 4d 81 35 3d
       -0.17302892 0.44488582 0.16963676 0.044312764
000370 5f 33 c3 3e 5d 3e 85 bc d0 1e a1 bf 8a 91 d2 be
       0.3812513 -0.016265089 -1.2587528 -0.41126662
000380 d6 b1 b2 3e e6 f6 02 3e dd f8 31 3e b1 7f c8 be
       0.34901303 0.12789497 0.1738009 -0.3915992
000390 d3 2f a4 3e 34 b2 cd 3e 4e 70 4a be a6 5f 11 3e
       0.32067737 0.4017502 -0.19769403 0.14196643
0003a0 6c 0b 11 3f e5 e6 f2 3d cd 98 4a bf b5 56 a9 be
       0.56658053 0.11860446 -0.79139405 -0.33073965
0003b0 f0 a9 bd be b9 6d 30 bf 12 27 79 be 92 ac c6 be
       -0.37043715 -0.68917423 -0.2433131 -0.38803536
0003c0 63 b0 7e 3e 21 07 9b 3d 66 f4 60 bf da c8 48 3e
       0.24871974 0.07569719 -0.8787292 0.19607869
0003d0 e8 17 02 3f 50 96 2e 3f 7d f4 66 3e 32 07 f8 bd
       0.5081773 0.6819811 0.22554202 -0.121107474
0003e0 1b 83 08 bf 0c 7d b4 be 48 bb c8 3c 09 47 63 3e
       -0.5332505 -0.35251653 0.024503365 0.22195067
0003f0 00 1f 0b 3e 88 89 12 be 8b 0a 31 bf 62 71 60 bf
       0.13586044 -0.14310277 -0.6915671 -0.8767301

conv1.bias f4 [63]
000000 9a 18 d3 3a 83 15 6f ba ae a7 f2 3a 8d 90 1a 3b
       0.0016105354 -0.0009120332 0.0018513107 0.0023584694
000010 a3 21 42 3b 08 c4 5c 3b 4a eb 8f 39 e1 13 e1 3a
       0.00296221 0.003368618 0.0002745039 0.0017172062
000020 22 d3 c8 bb e6 13 5a 3b dd 3e cf 3a 07 c4 a8 b8
       -0.0061286846 0.003327602 0.0015811581 -8.047377e-05
000030 99 0f 89 bb 92 d8 7f 3b d7 3e 6d bb a4 a3 3d bb
       -0.0041827676 0.0039038998 -0.0036200786 -0.0028936649
000040 30 d0 56 bb ec 86 32 bb 7f fb 45 bb 49 2c 28 bb
       -0.0032777898 -0.0027241064 -0.0030209718 -0.0025661162
000050 70 40 68 bb e0 0e 07 bb e7 49 49 bb 32 f4 2b 3b
       -0.0035438798 -0.0020608231 -0.0030714215 0.002623808
000060 55 e8 01 3b 14 a8 50 bb 61 b8 8a ba 53 64 48 bb
       0.0019822319 -0.0031838464 -0.0010583514 -0.0030577376
000070 af 55 5a bb bf ea 8e bb d7 d9 72 bb 5a 0d 11 bb
       -0.0033315232 -0.00436148 -0.0037056112 -0.0022133202
000080 ea 25 e2 3a 7a 4e 62 bb 30 b2 f9 3a 0d 8e fb ba
       0.0017253731 -0.003453164 0.0019050296 -0.0019192115
000090 1c f0 d6 3a 02 cd 5e bb bf b7 2e bb 2f 7b 37 bb
       0.0016398462 -0.0033996706 -0.0026659814 -0.0027997007
0000a0 d2 77 4b bb 4a e9 ed ba 71 fb f0 ba 80 f4 45 bb
       -0.003104676 -0.0018151191 -0.0018385482 -0.0030205548
0000b0 a0 25 94 bb c8 36 66 bb f1 b8 2b ba b9 1c 52 bb
       -0.004521087 -0.0035127867 -0.0006550691 -0.0032060577
0000c0 63 b4 99 3a 08 84 52 bb c7 d5 3b bb d9 fc 1e 3b
       0.0011726733 -0.0032122154 -0.0028661357 0.0024259596
0000d0 ab d0 8c bb df 6f 25 ba d3 ec 73 3b 56 e8 07 3b
       -0.004297336 -0.00063109206 0.0037220016 0.0020737848
0000e0 dd 49 34 bb d7 44 ff 3a 99 30 93 3a 1a eb 45 bb
       -0.0027509846 0.0019475472 0.0011229693 -0.0030199946
0000f0 c9 81 2e bb 78 c4 8a bb eb a5 87 bb
       -0.002662765 -0.0042348467 -0.004139652

vgg.0.weight f4 [63, 63, 3, 3]
000000 ff 2f cf 3c ce 72 39 bd b9 8b a2 bd db b7 0a 3c
       0.025291441 -0.045275502 -0.07936806 0.008466686
000010 8b dc 2b bd 53 bb ba bc fd 88 32 3d d8 17 ab bc
       -0.041958373 -0.022794401 0.043587673 -0.020885393
000020 0e 15 5d 3c 84 84 b3 3d 85 bc 4f 3d c2 de bd 3d
       0.013493789 0.0876551 0.050716896 0.09271003
000030 7c 96 25 3d 5e 16 a1 bd a0 9a ae bb 93 0d 24 bb
       0.040426716 -0.07865594 -0.0053284913 -0.0025032505
000040 41 36 89 bd e2 16 b1 bd c6 7e d3 3c e3 f8 3d bd
       -0.06699801 -0.08646943 0.025817286 -0.046379935
000050 18 22 e7 3c 84 13 66 bb d3 52 1d 3c e2 94 97 3d
       0.0282145 -0.0035106847 0.009602266 0.07401444
000060 82 63 27 3d 99 5f f0 3b b0 a0 dd 3a 03 3a a0 3d
       0.040866382 0.007335615 0.001690885 0.07823565
000070 23 ec 94 3d 82 4e 51 3d b9 fd 9d 3c 6d d7 a3 bc
       0.07271602 0.05110026 0.019286023 -0.020000184
000080 1a b1 0f bd 7d 96 83 bc 8e bd e2 bd 85 71 90 3c
       -0.035081007 -0.01606297 -0.11071311 0.017632255
000090 6a 9e b2 ba e4 05 50 3c 24 00 04 bd 77 34 8d bd
       -0.0013627533 0.012696717 -0.032226697 -0.068947725
0000a0 4f 03 3a bd 6c 24 84 bd 71 2a d1 bd 40 5e 21 bc
       -0.04541331 -0.064522594 -0.10213173 -0.009849131
0000b0 dd 94 f6 3c 43 62 d8 bc 7d 0c 6e bc 9d 70 ca 3d
       0.03010028 -0.026414042 -0.014529345 0.098847605
0000c0 55 36 c9 3d 45 1b 9b 3d db 36 ee bc 14 9d 21 bc
       0.09824816 0.075735606 -0.029078892 -0.0098641105
0000d0 f6 0a b7 39 e5 6c 8f 3d c3 f5 a1 3d e8 7e ba 3d
       0.00034912647 0.07003192 0.079082035 0.09106237
0000e0 14 35 e9 3d 3a 79 cb bd ec b0 85 bb 4a e7 64 3c
       0.11387077 -0.099352315 -0.0040799286 0.013971159
0000f0 00 e4 99 bd 2c 19 eb bc 9c 74 b0 bc 21 7f 76 bd
       -0.07514191 -0.028698526 -0.021539979 -0.060179833
000100 1c 25 fa 3d de cc 2e 3c 1a d2 ef 3c dc 32 06 3d
       0.12214109 0.010668961 0.029274989 0.032763347
000110 19 f9 19 3d 17 e1 a7 bd 5b 35 87 3d 70 db 8f bb
       0.037591074 -0.08197229 0.066019736 -0.0043901727
000120 73 be f4 bc 8a 16 c2 bc 9e 65 33 3c 55 20 6b bd
       -0.02987597 -0.023692388 0.01094952 -0.05740388
000130 76 c6 e3 3d 5b 59 15 3d a6 5c 88 3c aa 72 53 3c
       0.11121838 0.03646217 0.01664574 0.012905756
000140 b2 ac 5e bd a5 3d 59 3d f2 b8 67 3d 5c c0 8a bd
       -0.054363914 0.053037304 0.056572862 -0.06774971
000150 2b 20 03 3d e7 be 8e 3c 6f d5 fc 3c 3b 59 02 bc
       0.0320131 0.017425014 0.030863492 -0.0079558445
000160 ab bb 27 bc 91 6a 9f bc b0 bc b5 bc 33 e7 d0 3b
       -0.010237615 -0.019459995 -0.0221847 0.0063752173
000170 ef ad 1b 3c 88 ec 60 3d b7 88 d1 3d 10 38 37 bd
       0.009501918 0.054913074 0.102311544 -0.0447312
000180 6e e4 e9 3c c8 0d b8 3d 0f 5f 1a bd 95 92 32 bd
       0.028551307 0.089870036 -0.03768831 -0.043596823
000190 86 4d 91 bc 94 5c bd 3c 60 1e f4 bc 1d 49 88 bd
       -0.017737161 0.023115434 -0.02979964 -0.0665457
0001a0 f4 d5 27 be dd 71 ce bc 1c 97 33 bc 20 74 d1 bc
       -0.1639021 -0.025200779 -0.01096132 -0.025568068
0001b0 5d 73 b0 bb ca 20 07 3d aa d3 e1 bd 17 94 19 3d
       -0.005384846 0.032990254 -0.110267 0.037494745
0001c0 c6 90 db 3b 69 5f 72 3d 92 7e 53 bc d5 c2 21 bd
       0.006700608 0.05917302 -0.012908595 -0.039492447
0001d0 d1 26 d6 bc e6 40 e0 3c 96 58 b1 3c e7 94 20 ba
       -0.026141556 0.027374696 0.021648686 -0.0006125704
0001e0 b6 3d de 3c f5 07 00 bc 8c 95 39 bd c6 a5 c7 bd
       0.027129035 -0.007814397 -0.045308635 -0.09748416
0001f0 13 82 01 3e 34 fe d8 bc de 84 b4 bb 6f d2 3b bd
       0.12647276 -0.026488401 -0.005509003 -0.045854982
000200 e6 80 83 bd 93 47 42 bd 35 81 88 bd ef 33 ab bd
       -0.0642107 -0.04743154 -0.06665269 -0.08359515
000210 af 5d 03 bd 5b e9 ef 3d ab d2 e4 3c d9 1b 1c bc
       -0.032071766 0.11714431 0.027932486 -0.009528124
000220 e2 94 d5 bd 59 6d 29 bc a4 78 6d bc 2d 64 c0 3d
       -0.10428788 -0.010341012 -0.014494095 0.09394107
000230 06 43 42 bc dd 7b 79 3d ab 39 a6 3c c3 a4 04 3e
       -0.0118568 0.06090914 0.02029117 0.12953477
000240 c8 f9 6b 3c 71 6c 76 3d 76 cd 23 be ba c4 46 bc
       0.014402814 0.06016201 -0.15996346 -0.012131864
000250 85 95 08 bc 4d 1b 1b 3d 93 b7 ff bc 44 6b fd bc
       -0.0083364295 0.037867833 -0.031215465 -0.030934937
000260 25 14 fc 3c 0a 10 e6 bc 43 0e 91 3d 0a 95 74 bd
       0.030771324 -0.02808382 0.07082798 -0.059712447
000270 2c 9f c1 bc cb 03 0a 3d e4 f4 0b 3d 82 81 ce 3c
       -0.02363547 0.033695024 0.034169093 0.025208239
000280 25 65 7a bd e5 b0 8a 3b 1c d1 7b 3d 51 5b 16 3d
       -0.061131615 0.0042325133 0.06147872 0.03670818
000290 13 3d 84 bd 01 00 dc bc c8 10 ed bd 0d 62 58 bc
       -0.064569615 -0.02685547 -0.115754664 -0.013206971
0002a0 8a 36 60 3c ae e6 8b 3c 93 77 4f bd 73 8d 17 3d
       0.013684878 0.01707777 -0.050651144 0.03700013
0002b0 d1 51 94 bc 6c 45 17 3d 41 bb ab 3c 07 7a 92 3d
       -0.01810542 0.03693144 0.020963313 0.07152181
0002c0 be 05 53 bd 01 e9 39 3d 3d 7b 90 3c b0 f0 67 3d
       -0.051519148 0.045388225 0.01763689 0.05662602
0002d0 90 31 77 3c 0f 54 71 bd e6 c9 80 bd 0a 95 57 bc
       0.0150875 -0.058918055 -0.06288509 -0.013158092
0002e0 5e 65 a3 bc 03 aa be bb 79 1d 6b 3c 1f 12 0e bd
       -0.019945797 -0.005818607 0.014350289 -0.03468525
0002f0 82 c0 3e bc b7 2b d7 bb 2a 94 fa ba ff 8a 1d 3d
       -0.011642577 -0.0065664905 -0.0019117643 0.038462635
000300 f0 ae 85 bd 37 1b fa 3c 0c ee df 3d 81 67 55 bc
       -0.06527507 0.030530555 0.10934076 -0.013025166
000310 b5 8f 24 3d e6 47 31 3c 0e fc 22 bc 13 9b 7f bc
       0.040176112 0.010820365 -0.00994779 -0.015600937
000320 24 47 af bd 45 61 84 3c 8b b9 29 bd ea 0a 41 bd
       -0.08558491 0.016159663 -0.041436713 -0.04712955
000330 8b de d4 ba ab 58 88 bd 11 95 a3 3d fd c6 9f bc
       -0.0016240639 -0.06657537 0.079874165 -0.019504065
000340 75 a2 8b 3d 9f e5 7a 3d 45 fb 07 be 5b b9 45 3c
       0.068180956 0.06125414 -0.13279445 0.012068118
000350 82 9a 66 3c 12 a9 f3 bd 8d 6b 58 bd ec 75 e7 3d
       0.0140749235 -0.11897482 -0.052836943 0.11301789
000360 a7 84 94 bc 8a 96 04 3c 77 1b 33 3d a2 9d 4b 3d
       -0.01812966 0.008092532 0.043727364 0.049710877
000370 77 2e d2 bc 52 8e 6c bd b7 bd 15 bd c9 94 22 bc
       -0.025656922 -0.057752915 -0.03655788 -0.009923168
000380 9a 94 5f 3c f1 6a 48 bd ad 60 01 3c aa e4 04 3d
       0.013646269 -0.048930112 0.007896584 0.032444634
000390 ec d4 14 3d 83 dd 8c bd e2 c2 1e bd 16 1e 03 bc
       0.03633587 -0.068781875 -0.038760073 -0.0080027785
0003a0 36 a9 60 bd be 39 8f 3d 9d 42 ad bd c4 f0 00 3d
       -0.054848872 0.06993435 -0.08459971 0.031479612
0003b0 4e bd a4 bd 6d e3 12 3d 1e 3b 99 3d 39 1d d5 bc
       -0.080439195 0.03586142 0.07481979 -0.026014911
0003c0 81 42 fe 3d 90 09 72 bc ce d5 6f 39 96 a8 ca 3c
       0.12415028 -0.014772788 0.00022872465 0.024738591
0003d0 65 36 9d bd 51 45 1e bc fe 53 bf 3c 89 66 83 3c
       -0.076763906 -0.009660081 0.02335548 0.016040104
0003e0 bd 1f 82 3d 49 f9 a5 3d a8 d6 96 ba 10 f7 2f bd
       0.0635371 0.08104188 -0.0011508064 -0.042960227
0003f0 b8 95 c8 3b 42 ab 32 bd 3b 5a 7f bd 45 ca 1e 3e
       0.0061213635 -0.043620355 -0.06234191 0.15506847

vgg.0.bias f4 [63]
000000 ad 26 1b bb 14 1a 9c 3b 8e 28 57 ba 2c b5 0a bb
       -0.0023674176 0.004763851 -0.0008207642 -0.0021165116
000010 de 00 6e bb 4b 0c 93 ba b9 ac 30 ba 53 e6 a8 ba
       -0.0036316435 -0.0011218874 -0.0006739605 -0.0012886025
000020 c4 73 15 bb fa f2 c2 ba ed 7b ac ba 80 60 40 bb
       -0.0022804597 -0.0014873438 -0.0013159491 -0.0029354393
000030 fa 95 4c bb cd 54 83 bb 81 12 77 bb 27 5e 0b ba
       -0.0031217323 -0.004007912 -0.0037700238 -0.0005316459
000040 cb 74 b2 39 49 fa 51 bb 04 b8 1d bb 78 2c 6b bb
       0.00034037823 -0.003204005 -0.002406598 -0.003588466
000050 d1 8a c6 ba 41 b2 7b bb 96 cd 3c 3a d1 2d 5f ba
       -0.0015147572 -0.0038405808 0.00072022656 -0.0008513602
000060 8c c4 99 bb 3d 96 31 bb a7 22 4a bb 8a 64 d8 ba
       -0.0046926197 -0.0027097606 -0.0030843408 -0.0016509455
000070 94 90 72 bb 0f 9c 11 bb a2 3a 3e bb 78 88 08 bb
       -0.0037012445 -0.0022218262 -0.0029026647 -0.0020833295
000080 a9 5f 0e bb 47 fe c7 3a df 2b 21 bb bc 46 84 3a
       -0.0021724498 0.0015258276 -0.00245928 0.0010091881
000090 7b de 4d bb 4b 52 50 3b d4 cd 3d 3b e0 f7 02 3c
       -0.0031413126 0.0031787332 0.0028961794 0.007993668
0000a0 8a 46 2f bb a0 2c 67 3a 4d c6 6e ba bb 8e bc ba
       -0.0026744925 0.00088186003 -0.00091085286 -0.0014385799
0000b0 31 ee 99 bb 6a 2e 6f 3b 9f d0 92 b9 d9 9f 4d bb
       -0.004697584 0.003649617 -0.00028002725 -0.0031375794
0000c0 7f 13 a8 38 0b 46 50 bb 59 29 be 39 fa f2 e9 3a
       8.014496e-05 -0.003178003 0.0003627043 0.0017848902
0000d0 d7 15 9f ba 97 d1 9b ba ee fe 6b ba 23 76 33 bb
       -0.0012137246 -0.0011888024 -0.0009002526 -0.0027383647
0000e0 36 3b 9f ba fa 44 f5 39 ea e7 77 39 af a9 4b bb
       -0.0012148384 0.00046781433 0.0002364215 -0.003107648
0000f0 a1 3b 38 3a 59 c9 4d bb 59 17 8b 3a
       0.00070279284 -0.003140053 0.0010611817

oconv2.weight f4 [1, 63, 3, 3]
000000 99 1d 8b 3c a5 cc 8b 3d b6 3e f2 3b 7f 55 11 be
       0.016981887 0.06826142 0.0073927296 -0.1419277
000010 7b 62 3a bd 6e c4 8e bd ae 28 3b bd 93 51 ff bc
       -0.045504075 -0.0697106 -0.045693092 -0.031166827
000020 cc c6 f8 bc fd 63 20 3d 58 2c 34 3d 52 68 8e 3d
       -0.030368231 0.039157856 0.043987602 0.06953491
000030 36 73 74 bd f7 82 ea 3b 66 ab 2e bc ac 06 21 bc
       -0.059680186 0.0071567255 -0.010660982 -0.009828251
000040 b6 e3 60 3d d0 a2 b1 bc d9 52 bc 3c 53 95 f7 3d
       0.054904662 -0.02168408 0.022988724 0.12089028
000050 b1 1b 84 bb 6f 48 d7 3c a8 b2 ac 3d 43 b1 0e bd
       -0.0040316214 0.026279656 0.084325135 -0.03483702
000060 cf ad 03 bd 26 a1 cf 3d d4 29 91 bc 0f b9 9c bd
       -0.03214818 0.101381585 -0.01772014 -0.076524846
000070 4f aa af 3d 59 a6 0c bc a2 ae 67 bd 68 d5 5e bd
       0.08577406 -0.008584582 -0.056563027 -0.05440274
000080 66 80 a1 3d 0e 18 43 3c ab 52 eb 3d 03 dd 47 bd
       0.07885818 0.011907591 0.11490377 -0.048794758
000090 0d a4 a7 3d bf 85 b1 3c 7a c6 3f bd 2c 63 bf bb
       0.08185587 0.02167022 -0.04682014 -0.0058406796
0000a0 ee 3c 8a bb b3 c2 be bc 73 05 a9 bd 20 38 01 3d
       -0.004218689 -0.0232862 -0.082529925 0.031547666
0000b0 6d d4 92 3d 5f 5a 59 3d 61 85 78 3d c0 6c c5 bd
       0.07169423 0.0530647 0.060674075 -0.09639883
0000c0 7d c3 41 3d c8 95 48 3d 9f 31 5a 3d 81 5b 9b 3d
       0.047305573 0.048970968 0.05326998 0.07585812
0000d0 d4 c6 8e bb 5f f5 5b 3d 9e 21 79 bd b7 7b 6e 3d
       -0.0043571983 0.0537008 -0.060823075 0.058223452
0000e0 5f cd cd 3c f4 c0 f7 3d 8e 89 3d 3d 82 7c 1a 3e
       0.025122343 0.1209735 0.04627376 0.15086558
0000f0 c5 2f de 3d bd 8e 04 3d 3b d4 8d 3c d7 71 90 bc
       0.10848955 0.03236269 0.017313113 -0.017632408
000100 41 5a 20 3d 71 2f e5 3c 03 76 68 3d 67 db 4d bc
       0.039148573 0.027976723 0.05675317 -0.012564517
000110 ec 35 9a 3d d1 c5 e8 bc 0c 38 ef 3c d7 df 04 bd
       0.07529816 -0.028414639 0.02920153 -0.032440033
000120 45 a5 fb 3c 78 5e 77 3d 74 69 51 3d 85 d9 fb 3c
       0.030718455 0.060392827 0.05112596 0.03074337
000130 48 0e 8b ba 1b d9 6b bd 15 42 f5 bd 57 af 06 3e
       -0.0010609115 -0.057580095 -0.11975495 0.13152824
000140 73 c5 ca 3d 01 ba bb 3b af 99 76 bd a2 1c 6c 3d
       0.09900942 0.0057289605 -0.060205158 0.057644494
000150 41 3a d0 3d ac 8c 4e 3c 4b a7 40 bd 7f 13 90 bc
       0.10167361 0.012606781 -0.047034543 -0.017587421
000160 4b fa 3f 3c 5e a0 15 3d 0a 3f 2c 3e d4 7f ba 3d
       0.011717389 0.03652989 0.16820922 0.091064125
000170 95 cd e6 3d b3 ec 3d bc a3 c9 99 bd 2f 2d d0 3d
       0.112696804 -0.011592078 -0.07509162 0.10164868
000180 7f c9 27 3d cd d3 75 bd f8 3f d9 bd fa e0 57 bc
       0.040963646 -0.060016442 -0.10607904 -0.013176197
000190 12 a7 5d bc 94 06 8b 3d 52 e4 6c bd 3e bd 81 bd
       -0.013528602 0.06788364 -0.05783493 -0.06334923
0001a0 03 2e 19 bd e7 e1 25 bd 1a 12 a4 bd 07 14 87 3d
       -0.037397396 -0.04049864 -0.08011265 0.06595617
0001b0 f8 cc 97 3d d5 8d c0 3d fe 40 8b 3d 1c 28 55 bd
       0.074121416 0.09402052 0.06799506 -0.052040204
0001c0 d7 57 c3 bc 78 11 89 3d 6c ab 40 3a 9b 04 14 bd
       -0.023845596 0.06692785 0.00073497626 -0.036137205
0001d0 b6 fa 21 bd c5 d0 31 3a bb a2 f9 bd 06 ba d4 3c
       -0.039545737 0.0006783123 -0.121892415 0.02596761
0001e0 8c 0f 40 bd 74 89 fd bd 5b 2b 6e 3d 21 92 08 3d
       -0.046889827 -0.12379733 0.058146816 0.033342484
0001f0 55 62 11 bd 39 9d fe 3a ca ab ba 3c 5a 1f 97 bd
       -0.035494167 0.0019425518 0.022786994 -0.07379027
000200 36 14 b3 bd f1 b3 0a 3d 3f ec a8 bd 9d 82 65 bd
       -0.08744089 0.03386301 -0.08248185 -0.056032766
000210 df dc f3 3b a1 24 99 3d 42 18 39 3e 16 75 69 bd
       0.0074421014 0.074776895 0.1807566 -0.056996427
000220 b2 ba 5b 3d b9 b2 94 bc aa 95 4d 3d 63 9a d9 3d
       0.053644843 -0.018151628 0.05019156 0.1062515
000230 a1 05 94 3d ef eb dc bd f6 e0 6a 3c e2 25 48 bc
       0.07227636 -0.10787188 0.014335861 -0.012216063
000240 10 55 19 3d 85 d7 4a 3d 31 ea 4d bd 6e 48 38 bd
       0.037434638 0.04952194 -0.05027217 -0.04499095
000250 ea 97 74 bd c7 e0 42 bd 10 10 72 bd 5e 7a 80 bb
       -0.05971519 -0.047577646 -0.05909735 -0.0039208373
000260 f8 c9 b8 3c 85 dd c8 bd e0 15 9d bb 67 52 d7 3c
       0.022557244 -0.098078765 -0.0047938675 0.02628441
000270 b3 1c 55 bc e2 c7 6c 3d 47 92 7e bd 43 4f 19 3d
       -0.013007331 0.05780781 -0.06215122 0.037429105
000280 56 48 a9 3d e4 47 4e 3c 83 50 82 3c 8b 19 7f bd
       0.0826575 0.012590382 0.015907532 -0.06228022
000290 d8 60 a5 bd 27 46 cd 3d 22 6f ef bc a7 92 17 bd
       -0.08075112 0.10023146 -0.029227797 -0.037005093
0002a0 7a 3c 1a 3d e7 cb 4d 3d 5e f4 e6 3c 14 4c c3 3d
       0.03765533 0.050243285 0.028192695 0.09535995
0002b0 29 03 0e be b5 07 17 3d 73 83 42 3b c0 d0 01 3d
       -0.13868393 0.036872584 0.00296804 0.03169322
0002c0 94 46 d4 3d a2 f7 89 bb ce 3a 89 3c 57 cd 5e 3c
       0.10365024 -0.0042104283 0.016751673 0.0135987615
0002d0 82 8e 38 3d 05 3b 58 bd eb db 26 3d ac 52 70 3c
       0.04505778 -0.05279066 0.040737074 0.014668148
0002e0 89 5f 47 3d d4 fa 68 3d cf 9b 79 3d 54 f9 a5 bc
       0.048675094 0.056879833 0.060939606 -0.02026049
0002f0 99 d4 16 bc d7 a6 a9 3b 75 ff 8c 3d 89 9e 2b 3d
       -0.009205961 0.0051773596 0.06884662 0.041899238
000300 8e ca 70 bd 37 c7 43 bd 61 34 a1 3c 8a f9 58 bd
       -0.05878692 -0.047797408 0.019678297 -0.052972354
000310 31 97 c5 bd 0b 06 7a 3d 6a cc 5c 3d b9 f2 58 bd
       -0.09647978 0.06104092 0.053905882 -0.052965853
000320 93 52 13 bc b6 ec 56 3d 85 69 39 3c c0 86 7b 3c
       -0.008991855 0.05247184 0.011316662 0.015351951
000330 c1 91 09 bd 0c 46 e4 3c d8 59 e7 3b 2c 65 23 bd
       -0.033586267 0.027865432 0.0070602708 -0.039891407
000340 a4 48 0a bc f7 f7 c2 bd 8e ec 80 3d 97 9b 8f bd
       -0.00844017 -0.09519952 0.06295119 -0.07012098
000350 02 ff e2 bc a0 f8 8b bd 27 1d 14 bd d0 5a ab bb
       -0.027709488 -0.06834531 -0.036160614 -0.0052293316
000360 91 71 0b 3b cd cc 65 3c 53 aa 63 3e aa 67 94 bd
       0.0021277408 0.014025879 0.22232942 -0.07246335
000370 63 db 91 bd 63 47 04 bd 7a 0c da bd a8 e9 af 3c
       -0.07121923 -0.032294642 -0.10646911 0.02147372
000380 de a2 77 3d 8d d3 4b 3b c5 bb 24 3d dc 7b 61 3d
       0.060458057 0.0031101436 0.040218133 0.055049762
000390 c6 b3 20 bd f6 46 ed 3c 7c 7c fb 3d 4b 7d 02 3e
       -0.039233945 0.0289645 0.12279603 0.12743108
0003a0 a7 2e a0 3d b6 23 a0 3c e3 18 ce bc 04 ea bc bc
       0.07821398 0.019548278 -0.025158351 -0.023060806
0003b0 c6 bc a8 bc 88 8a 46 bc 60 9e 9a bc a9 4b 22 bd
       -0.020597827 -0.012117989 -0.018874347 -0.039622936
0003c0 4d 3e 0c bd 8c b9 8c bc 70 23 0c bd 70 27 a6 3d
       -0.034239102 -0.01717832 -0.034213483 0.08112991
0003d0 4d 35 4c bc 59 82 15 3d 3f 0f 4a bd b0 8a ab bd
       -0.01246388 0.036501262 -0.049330946 -0.08376062
0003e0 31 12 22 bc 83 d6 3d bd 02 d4 eb 3d af 9d 83 bd
       -0.0098920325 -0.046347152 0.11515047 -0.0642656
0003f0 94 91 38 3c 3c ab 04 bd df 9f 02 bd 32 35 89 bd
       0.011265177 -0.032389864 -0.031890746 -0.06699599
