Models/model15.pth (torch, 151375 bytes, 6 tensors)

oconv1.weight f4 [1, 1, 3, 3]
00000000: fa9a e23e fff7 1bbe f9af 02bf 7b70 3c3e
00000010: 6849 293e 50f8 3fbe 91c8 b03e b8c3 ebbe
00000020: 1411 55be
0.44258863 -0.15231322 -0.5104976 0.18402283 0.16531909 -0.18747067 0.3452802 -0.4604776
-0.20807296

conv1.weight f4 [63, 1, 3, 3]
00000000: d90c c7bf 61e2 963e 287a 3f3e c4a5 19bd
00000010: 6588 66bf 0726 ab3e e27c 03be 26ba 143e
00000020: b54e 46be dfa7 2bbe 3c34 d4be 8270 f1bd
00000030: 1db5 e0be 3fc4 a03f 8e9b a23e 433b 673e
00000040: b2f9 43bf ff9d 8d3e 4db1 663e a48b 0dbf
00000050: fa36 073f 41bd 30bf 9ef6 ed3e 6c1a a13e
00000060: 160d 98be b03c 2e3f b528 02be 8f55 a83e
00000070: a3d5 16bf 1a71 f63e 708d 893f 69a9 213b
00000080: 99bc 213f 24b9 13bf f1a6 333e 2347 2e3f
00000090: 89f9 74bf b27e 5dbe eab2 0a3f bc15 3b3e
000000a0: 303d ea3d e00d 30bd 2613 e7bd 662c 51be
000000b0: a994 a53e 17b5 0cbe 7e16 1fbf 98d7 b2be
000000c0: 6091 2dbf 586f a9bd c38f 123f fc5e 863f
000000d0: a6d4 9d3c 13a2 b9be 4980 b23d 59a3 8cbe
000000e0: ceb6 f83d 0e01 69be 1d11 d43e 54b9 b6bd
000000f0: f409 0fbf b6f6 a83e 4920 353c fdb8 a63e
00000100: 4f3e dd3e 06ee 7cbd 0f1a f93d 3470 c5be
00000110: 5f1c 493f 3e5d 4abf 71b1 f43e 80cf 313e
00000120: 7051 003f 32af bc3e 333c 96bf 9fcc 30bc
00000130: 7557 02bf 86be 8f3f 3d8e 103e 4dff 123e
00000140: 2afd f93c b95c c93e 4734 9f3d 4373 1dbf
00000150: 5309 ccbe 966a 42bb 609b 8d3e a8e6 e9be
00000160: b3d3 9cbc c1af 15be 12e3 1c3f 36ec 18be
00000170: 742e 39bf 31fb e8be b1e1 05bf 667f 84be
00000180: 91c8 493f 4ae6 90be 426a e8be 2b34 3cbe
00000190: 6251 1cbd 5f0e 3e3e 1c99 363f 505e e53d
000001a0: 7820 5bbf ae5a 073f 4169 033f 6933 0c3f
000001b0: 39ed 513f 1514 a53e 6fdd 05bf b26d e3be
000001c0: d868 473e d7d2 503f 93a7 023f da3f a03d
000001d0: c391 ba3f a66d 3b3f 0dfb c0bd 015a 85be
000001e0: 299b 47bf 80cc b8bd c4fb ba3d deb8 033f
000001f0: 9a9f e63d 64fb 843e 2896 3d3e 8316 e2bc
00000200: d719 0ebf 6923 203d 38d4 2b3b 7f9d c1bd
00000210: bbd4 373e c90b febe 08d8 d33e 59b8 96bc
00000220: 803e 5d3e af92 eebe ab82 eb3e d2c1 c33e
00000230: 7eaa 70be 3917 1dbf e654 37bf 4410 0fbf
00000240: a05d c13e 9912 393e b59c 2c3f 1012 163f
00000250: 8fe6 39bf 3507 e83e 65cd 833d 0f87 bd3e
00000260: 1304 c1bd d178 b6bd 1815 95be 5cef 38bf
00000270: b886 df3d fb45 46bf 6603 7dbf 92df 0d3f
00000280: abcf 5a3f 3b96 4fbf 64aa 1a3e 7223 7c3f
00000290: e30a 8dbf f46c 303f 0fe2 35be 685c 4d3e
000002a0: d142 86be 7927 d7bd b519 9dbe 1f97 91bd
000002b0: 008f f63d a5fe 083f 83c2 38bf a163 5b3e
000002c0: 0102 b63e 1468 d13d 4a10 d03e 5600 1a3f
000002d0: 0eba e73e 0236 923e 2e08 9dbe 044a e43d
000002e0: f40d 723f 28f6 183e ce1a ce3e 69dd 79be
000002f0: a4b3 31be 110e 56be d1aa a2be 6309 b2be
00000300: 321a 8a3e 4a24 193f b4e3 2a3c 401d e4bc
00000310: 9956 2cbe ef1c 63bd b3c1 02bf 039d 40be
00000320: af17 07bf 4a4a f23e 1094 f83d 34c7 843e
00000330: 300e 093f 62da 1fbe bb70 81be c737 2cbe
00000340: 9b4f 56bf 36d9 6a3f 890d df3d dfb7 8d3e
00000350: 2253 75bc b725 dbbe a3fe b23e e13b fd3e
00000360: 2d77 30be 6a02 e43e 9560 2e3e 021e 383d
00000370: f189 c33e 5361 89bc 080a a1bf 6b44 d2be
00000380: c863 b23e 2f90 023e 1195 323e a526 c8be
00000390: 4ff0 a33e 7c00 ce3e b2e3 49be 5823 113e
000003a0: 9cf7 103f 9993 f13d 3c6e 4abf 0c8c a9be
000003b0: 32d4 bdbe 5f8e 30bf 0d66 78be bed3 c6be
000003c0: 3e1e 7e3e bce9 993d 17c4 60bf 4e89 493e
000003d0: 82f0 013f dc6f 2e3f eda3 663e c1b9 f6bd
000003e0: 025a 08bf aa1d b4be 0fd9 cd3c cac6 623e
000003f0: 8e7a 0a3e 414f 12be dee7 30bf b86a 60bf
-1.5550796 0.29469588 0.18698943 -0.037511602 -0.9005187 0.3342745 -0.12840608 0.14524135
-0.19365962 -0.16763256 -0.41446102 -0.11789037 -0.43888178 1.255989 0.31759304 0.225812
-0.7655288 0.27659604 0.22528572 -0.552912 0.5281826 -0.6903878 0.46477216 0.3146547
-0.29697484 0.6806135 -0.12710841 0.32877776 -0.58919734 0.48133165 1.0746288 0.0024667627
0.631784 -0.5770438 0.17544152 0.68077296 -0.9569326 -0.21630362 0.5417925 0.1827001
0.11437452 -0.042981982 -0.11282949 -0.20427093 0.3233998 -0.13740955 -0.62143695 -0.3493011
-0.6779995 -0.0827319 0.5725061 1.0497737 0.019266438 -0.36256465 0.08715875 -0.27468374
0.12144242 -0.22754309 0.41419306 -0.08922067 -0.5587456 0.33000726 0.011055061 0.3256301
0.432116 -0.061750434 0.121631734 -0.38562167 0.78558916 -0.79048526 0.47791627 0.17364311
0.50124264 0.36852413 -1.1737121 -0.010790973 -0.509147 1.1230018 0.1411676 0.14355202
0.030516226 0.39328554 0.07773643 -0.61504 -0.39850864 -0.002966558 0.27657604 -0.4568379
-0.019143915 -0.14617826 0.6128398 -0.14933857 -0.72336507 -0.45504144 -0.522975 -0.25878447
0.78821665 -0.28300697 -0.45393568 -0.18379276 -0.03816355 0.1856017 0.71327376 0.11199629
-0.8559642 0.5287274 0.5133248 0.54765946 0.820026 0.32241884 -0.52291006 -0.44419628
0.19473588 0.81571716 0.5103695 0.07824679 1.4575733 0.73214185 -0.09422884 -0.2604523
-0.7797113 -0.0902338 0.09130052 0.5145396 0.1126091 0.25973046 0.18514311 -0.027598625
-0.5550818 0.03909627 0.0026219022 -0.09453868 0.17952244 -0.49618366 0.41375756 -0.01839845
0.21605873 -0.46596286 0.4599813 0.3823381 -0.23502538 -0.6136356 -0.7161392 -0.55884194
0.37766743 0.180735 0.67426616 0.5862131 -0.7261743 0.45318 0.0643566 0.37017104
-0.09424605 -0.08909763 -0.29117656 -0.72240233 0.109143674 -0.7745053 -0.9883331 0.55419266
0.85473126 -0.8108861 0.15104061 0.98491585 -1.1018947 0.6891625 -0.17762016 0.20054781
-0.26222852 -0.10505576 -0.30683675 -0.07108902 0.12038994 0.53513557 -0.721718 0.21424724
0.35548404 0.102249295 0.40637428 0.6015676 0.45259136 0.2855683 -0.30670303 0.1114693
0.9455254 0.14937651 0.40254825 -0.24400868 -0.17353684 -0.20903803 -0.31770948 -0.34772786
0.2697311 0.59821 0.010430265 -0.027845979 -0.1682991 -0.055447515 -0.5107681 -0.18809895
-0.52770513 0.47322303 0.12137616 0.2593323 0.53537273 -0.1561065 -0.2528132 -0.16818152
-0.8371522 0.9173769 0.108912535 0.27679345 -0.014973434 -0.42802212 0.34959897 0.49459746
-0.17232962 0.44533092 0.1702903 0.044950493 0.38191178 -0.01677004 -1.2581186 -0.41067824
0.34841752 0.12750314 0.17439677 -0.39091983 0.32019278 0.40234745 -0.19715765 0.14173639
0.5662782 0.1179573 -0.79074454 -0.3311466 -0.37075955 -0.6896724 -0.2425768 -0.3883342
0.24816224 0.075152844 -0.8779921 0.19681284 0.5075761 0.68139434 0.2252347 -0.120471485
-0.5326234 -0.35178882 0.025127916 0.22146145 0.13523313 -0.14288045 -0.691038 -0.8766284

conv1.bias f4 [63]
00000000: 5c2d 0f3b 03de 94b9 126e 203b 14c5 343b
00000010: 128a 6c3b 055f 7f3b 924a 5c3a cc70 133b
00000020: 6ac2 dbbb 73c1 6a3b 025b ed3a 5d3b ee39
00000030: 7eb2 9bbb 322d 923b 3007 61bb e1bf 63bb
00000040: 2008 7ebb 1914 58bb 5e7f 6abb a9d8 4ebb
00000050: 371b 86bb 9531 30bb 2595 6ebb 085e 4b3b
00000060: 23e4 0d3b 704f 6cbb 5373 edba bb82 6fbb
00000070: b638 42bb 040c a2bb 6d69 8dbb 31c7 2fbb
00000080: 4af0 093b e195 84bb edf0 b93a e8ec 96ba
00000090: 9dc6 103b 4a97 7ebb f13c 54bb 4ba7 3bbb
000000a0: 46bc 6bbb 4b1a 93ba 79c6 1dbb ba63 68bb
000000b0: bf5a a6bb a58b 85bb e30d 98ba 58c8 76bb
000000c0: 1eb0 a93a 5cc5 78bb 4977 5bbb 98f9 433b
000000d0: 2875 9dbb 1346 65ba d654 8c3b 411c 2c3b
000000e0: 70d5 4ebb 64cf 243b cc2c cc3a 5d03 6bbb
000000f0: e786 4fbb 7f04 9ebb be63 9abb
0.0021847105 -0.0002839417 0.002447967 0.0027583288 0.0036093039 0.0038966548 0.0008403446 0.0022497652
-0.0067065256 0.003582087 0.0018108787 0.00045439127 -0.0047515025 0.004460954 -0.003433656 -0.003475182
-0.0038762167 -0.0032970964 -0.0035781483 -0.0031562245 -0.0040925997 -0.0026885022 -0.0036404815 0.0031031389
0.0021650873 -0.003605809 -0.0018116034 -0.0036546427 -0.0029635853 -0.00494528 -0.0043155462 -0.0026821608
0.0021047764 -0.0040461873 0.0014186181 -0.0011514695 0.002209104 -0.00388475 -0.0032384957 -0.002863365
-0.0035970374 -0.0011223046 -0.0024074598 -0.0035459832 -0.0050767357 -0.004075485 -0.0011600818 -0.0037656035
0.0012946164 -0.0037959432 -0.0033487848 0.0029903408 -0.004805226 -0.00087460986 0.004282574 0.0026261958
-0.0031560324 0.0025148029 0.0015577315 -0.003586016 -0.0031666101 -0.0048223133 -0.004711597

vgg.0.weight f4 [63, 63, 3, 3]
00000000: db1a cb3c 04c5 3bbd 6b97 a3bd 4789 013c
00000010: 4915 2ebd 0e56 bfbc 1245 303d 76d4 afbc
00000020: bca6 533c 8667 b23d ddab 513d 28be bc3d
00000030: 1bd2 233d e71d a2bd c956 c2bb 664a 4fbb
00000040: 7b39 88bd e7f5 b1bd da36 cf3c b2f2 3fbd
00000050: 31dd e33c 4441 83bb 0c09 153c 689a 963d
00000060: 2056 253d 99c9 e13b be23 9f3a 2748 9f3d
00000070: 73d2 933d 05d7 4e3d 22d8 993c 3a07 a7bc
00000080: 44e8 11bd 90be 87bc a56f e3bd bc52 8c3c
00000090: 60fe faba b4a6 473c ab1c 06bd 744f 8ebd
000000a0: 934a 3cbd d048 85bd f13d d2bd 5d27 2abc
000000b0: b829 f23c 6cd0 d5bc 1f74 65bc 385b c93d
000000c0: 3127 c83d 70e1 993d 1ec7 ebbc a64f 2abc
000000d0: 36a5 17b9 2547 8e3d 5bf2 a03d 098b b93d
000000e0: cd19 ea3d 4d6a ccbd 9a80 83bb 61a8 613c
000000f0: b2fa 9abd b314 ebbc d268 b1bc bd77 75bd
00000100: 0e40 f93d 6750 313c 4f58 eb3c 7e0d 053d
00000110: a1d0 173d a692 a8bd 291a 863d b1c0 9cbb
00000120: 6805 f9bc aa38 c6bc 1f21 2b3c 1535 6dbd
00000130: 0bb8 e23d 0638 133d 37a3 843c 6466 4b3c
00000140: 03b5 60bd 3f02 573d 8f9c 653d 71d6 8bbd
00000150: 39dc 003d 3a59 8a3c c5b8 f83c ff62 0bbc
00000160: 287f 30bc 82de a3bc 5f7e b9bc 762e dd3b
00000170: 8237 183c 4ec9 5e3d 635e d03d 9dc0 37bd
00000180: d2d0 e53c 6024 b73d 3b99 1cbd 0c85 34bd
00000190: 7fba 95bc f3de b83c 456a f8bc 781a 89bd
000001a0: 232a 28be c495 d2bc 18fb 3bbc 8c14 d3bc
000001b0: f371 c1bb 74ef 083d 10dc e2bd 2773 173d
000001c0: 75b6 cd3b 4569 703d 7727 5bbc cc08 23bd
000001d0: 5d47 d8bc de28 dc3c 32fe b53c 4829 8fba
000001e0: e141 da3c 25d6 08bc 89db 3bbd 5190 c6bd
000001f0: 0396 013e 5fd4 dcbc 8ac2 c4bb 19a6 3dbd
00000200: 0881 84bd 7b4b 44bd 3981 89bd e0fd abbd
00000210: 9c71 05bd c3d8 ee3d 7afd e03c d42d 24bc
00000220: a07a d6bd 2ae0 21bc 26c5 71bc 466d bf3d
00000230: 4acb 3cbc dafa 763d b988 a13c 4644 043e
00000240: 6e8f 733c 234c 743d 425c 24be 9c50 50bc
00000250: d342 0fbc 13f4 183d 3828 01bd cd90 00bd
00000260: 6188 f73c 147b e3bc 5af1 8f3d a541 73bd
00000270: 158d c6bc 1cb7 073d 7513 0a3d eefd c93c
00000280: 2cbb 7cbd 84b9 733b 200a 7a3d ae07 143d
00000290: bc81 84bd 987b e0bc 9009 ecbd 5902 5ebc
000002a0: 23fc 573c c747 873c d965 4dbd df64 153d
000002b0: 1dc5 97bc 6f19 153d a46d a73c ab77 913d
000002c0: c130 55bd 7be7 373d 88bb 8c3c b0db 653d
000002d0: 887c 6e3c 2163 73bd 7645 80bd 97e2 5fbc
000002e0: 02d1 a7bc 7319 cdbb bead 623c aabb 0fbd
000002f0: e25e 45bc 836a e7bb c452 22bb c3f5 1d3d
00000300: 8204 85bd 8c10 f53c eb97 df3d 0f12 60bc
00000310: ae64 223d 24d2 283c 8328 2bbc d7d0 83bc
00000320: 724f b0bd 6241 803c ecdd 2bbd c7f9 42bd
00000330: a53c 0abb 185e 89bd 839e a23d 3ac7 9ebc
00000340: 3572 8a3d 3086 783d 4d72 07be b97b 403c
00000350: 0591 5d3c 63bf f4bd 093e 5abd 7067 e63d
00000360: e2ef 98bc 11b4 f73b acfc 303d b873 493d
00000370: f249 d6bc 54cb 6ebd 62ea 17bd 7777 2bbc
00000380: 6113 573c 0b7f 4abd ff5a f23b 2122 073d
00000390: d0c7 123d e2d0 8dbd dbf7 1ebd fbb4 0abc
000003a0: 4076 62bd f985 8f3d d859 aebd 608d fd3c
000003b0: f79b a5bd 039a 103d 5e1a 983d 245b d9bc
000003c0: 3e1e fd3d 4de3 7abc dae2 a1b9 8b91 c63c
000003d0: 1b4b 9ebd e9c9 28bc 3160 ba3c 7300 7f3c
000003e0: ec0b 813d d0ec a43d 62f9 dbba d238 32bd
000003f0: 98a0 b63b 329f 34bd 36c0 80bd f13b 1e3e
0.02479308 -0.045842186 -0.07987865 0.007906265 -0.042500768 -0.023356464 0.04303462 -0.021463614
0.012918171 0.08711152 0.051189292 0.09215957 0.039995294 -0.0791586 -0.0059307558 -0.0031630038
-0.066515885 -0.0868948 0.02529471 -0.04686231 0.027815433 -0.004005583 0.009096395 0.073536694
0.04036534 0.0068904874 0.0012141389 0.07777434 0.072178744 0.050498027 0.018779818 -0.020389188
-0.035621896 -0.01657036 -0.11105279 0.017129295 -0.0019149296 0.012185741 -0.032742184 -0.06948748
-0.045969557 -0.065080285 -0.10265721 -0.0103853615 0.029560909 -0.02610036 -0.014004736 0.09831852
0.097731 0.07513702 -0.02878147 -0.010394966 -0.00014462028 0.069471635 0.07858726 0.09059722
0.11430702 -0.09981213 -0.0040131332 0.013773055 -0.075673476 -0.028696394 -0.021656428 -0.059928644
0.121704206 0.010822392 0.028728632 0.03248357 0.0370642 -0.08231096 0.065479584 -0.004783713
-0.030398086 -0.024196941 0.010444908 -0.05791195 0.1107026 0.0359421 0.016191108 0.012414549
-0.054860126 0.052492376 0.05605751 -0.06828011 0.03146002 0.01688825 0.030361542 -0.008507489
-0.010772504 -0.02000356 -0.022643266 0.0067499233 0.009290578 0.054391198 0.10174253 -0.044861425
0.028053675 0.08942485 -0.03823207 -0.044072196 -0.018277405 0.022567248 -0.03032411 -0.06694502
-0.16422324 -0.02570618 -0.01147344 -0.025766633 -0.0059034764 0.033431485 -0.1107713 0.036975052
0.006277854 0.058694143 -0.013376108 -0.03980331 -0.026401216 0.026874956 0.022215936 -0.0010922337
0.026642742 -0.008351837 -0.045863662 -0.09695495 0.12654881 -0.026956735 -0.006004636 -0.04630098
-0.06469923 -0.047923546 -0.067141004 -0.08398032 -0.03257905 0.11662438 0.027464617 -0.010020692
-0.104726076 -0.009880105 -0.0147564765 0.09347014 -0.011523077 0.060297824 0.019718515 0.12916669
0.014865739 0.059642922 -0.16050819 -0.012714531 -0.0087439595 0.037342142 -0.031532496 -0.031388093
0.030216398 -0.02776865 0.07028456 -0.059388775 -0.024237195 0.03313361 0.033709962 0.024657216
-0.06170194 0.0037189433 0.061044812 0.036140136 -0.06470057 -0.027402684 -0.115252614 -0.013550364
0.013182673 0.016513718 -0.050145958 0.03647315 -0.018526608 0.03640121 0.020438023 0.07102903
-0.05204845 0.04489849 0.017179266 0.056117713 0.014556058 -0.05942071 -0.062632486 -0.013664863
-0.020485405 -0.0062591373 0.013835369 -0.03509108 -0.012046548 -0.0070622577 -0.002476857 0.038564455
-0.064950004 0.029915117 0.10917648 -0.0136761805 0.039646797 0.010304008 -0.01044667 -0.016090794
-0.08608903 0.015656177 -0.041959688 -0.047601487 -0.0021093276 -0.067074 0.0794039 -0.019382108
0.067600645 0.060674846 -0.13227196 0.011748248 0.013523345 -0.119505666 -0.053281818 0.11250198
-0.018669073 0.0075593074 0.043209717 0.049182624 -0.026158307 -0.058299378 -0.03708876 -0.010465494
0.013127179 -0.049437564 0.0073961015 0.032991532 0.035835087 -0.06924607 -0.038810592 -0.008466001
-0.055288553 0.07007975 -0.0851323 0.030951202 -0.080863886 0.035303127 0.07426904 -0.026532717
0.12359284 -0.015312982 -0.0003087733 0.024239322 -0.07729169 -0.010302045 0.022750946 0.015564072
0.06301102 0.08052981 -0.0016782696 -0.04351122 0.0055733435 -0.044097133 -0.06286661 0.15452553

vgg.0.bias f4 [63]
00000000: 0bd2 3fbb 10fd 8a3b aca2 24ba fa29 0ebb
00000010: 38e5 85bb 55c6 d2ba 355a cab9 a5e7 b7ba
00000020: 6138 29bb 7e99 99ba 2722 e2ba a0a9 61bb
00000030: 5186 62bb 3225 93bb 6a24 89bb d089 9fb9
00000040: 069b f239 defc 72bb 839f f8ba 7e70 83bb
00000050: 8fff f3ba 0e5c 87bb e254 0d3a 0fda c4ba
00000060: 62bd a9bb 7261 55bb 6ce0 6ebb 2d20 02bb
00000070: 0d07 88bb 6443 11bb e498 5dbb 3913 32bb
00000080: cd87 27bb 4450 7a3a f9bb 3dbb 8046 b339
00000090: 5b4a 6ebb f6bc 3e3b 0c8c 573b 9899 033c
000000a0: d12e 52bb 023f c03a 0c99 c3ba da9b 04bb
000000b0: 194a a9bb 0f0c 813b 34a1 65ba 188e 6fbb
000000c0: ecd2 52b9 c53f 6fbb 4788 b6b9 75ff 023b
000000d0: 8648 89ba 0d73 deba d5eb 45ba 35a0 57bb
000000e0: 5478 63ba 9b4f 243a 1296 bc39 3ddd 72bb
000000f0: e210 2a3a 57fd 76bb f151 ca3a
-0.0029269482 0.004241593 -0.00062803435 -0.00216925 -0.004086163 -0.0016080836 -0.00038595652 -0.0014030827
-0.0025820958 -0.0011718718 -0.001725261 -0.003443338 -0.0034564922 -0.004490518 -0.004185249 -0.00030429522
0.00046273338 -0.003707699 -0.0018968437 -0.004011213 -0.0018615591 -0.004130847 0.00053913717 -0.00150186
-0.005180047 -0.0032559303 -0.0036449684 -0.0019855604 -0.004151231 -0.0022165412 -0.0033813054 -0.0027172102
-0.0025563121 0.00095487037 -0.0028951152 0.00034194067 -0.0036360237 0.0029104329 0.003288987 0.008032225
-0.0032071362 0.0014667215 -0.0014922931 -0.0020234496 -0.005166304 0.003938205 -0.0008759678 -0.00365532
-0.00020105735 -0.0036506515 -0.0003481528 0.001998869 -0.0010473884 -0.0016971544 -0.00075500953 -0.0032901887
-0.0008677293 0.00062679657 0.00035969965 -0.0037058138 0.0006487501 -0.0037687623 0.0015435797

oconv2.weight f4 [1, 63, 3, 3]
00000000: 4bc1 8f3c efa8 8a3d e2db f63b 1650 11be
00000010: 2819 38bd c3ef 8fbd 6395 38bd 708b 01bd
00000020: d013 f4bc ef1a 1e3d 9c64 363d 9749 8d3d
00000030: ea39 72bd 6cb2 db3b 21a3 39bc 8c7c 2abc
00000040: 66d7 623d 7f65 acbc 6f2d c03c 8067 f63d
00000050: 3732 90bb fdc8 db3c 35d2 ab3d e8c9 0dbd
00000060: 8b6d 02bd fd8e d03d 1334 93bc 9ea9 9bbd
00000070: b690 ae3d c608 05bc 704a 65bd 538e 5cbd
00000080: a96b a03d be77 3b3c d8fe eb3d 39a6 49bd
00000090: 6272 a63d e33a b63c 3680 3fbd 41a1 d0bb
000000a0: 23ba 78bb 9e91 c3bc c3ca a7bd 93a3 033d
000000b0: 3eea 913d 43e1 563d 186a 7b3d 0991 c6bd
000000c0: 6488 3f3d 663f 463d 7f28 5c3d 9ac4 993d
000000d0: 53c1 98bb 8ac2 5d3d 99e3 76bd 0203 6c3d
000000e0: fae1 c93c 3aa0 f83d 7517 3f3d 80e5 193e
000000f0: 215a de3d 929e 063d 0244 923c 70e2 8ebc
00000100: ea41 1e3d 7d70 e13c 793d 673d fdab 54bc
00000110: af41 993d f7ca e3bc 71b3 ea3c c3b5 06bd
00000120: ccdb f63c 1ee5 743d ee61 4f3d 20b2 f73c
00000130: 8f85 d4ba faf4 6bbd f52a f4bd 0126 063e
00000140: dd98 c93d 3254 cb3b 19d2 73bd f828 6e3d
00000150: 78e4 cf3d b950 433c 050c 3ebd edfe 8bbc
00000160: dfa7 383c 151b 133d 2488 2b3e e15b b93d
00000170: bd89 e53d 80a0 34bc cb0b 9bbd c862 cf3d
00000180: c3f4 283d 78b1 73bd 0749 dabd 0e02 5abc
00000190: 94b5 67bc 7d04 8a3d d1e1 6abd 1f84 80bd
000001a0: 708e 1abd 8ed3 27bd 510a a3bd aa2e 883d
000001b0: 22b5 963d 03c0 c13d 9d1e 8a3d 0e2f 53bd
000001c0: dec9 bfbc 82df 873d 3d93 a73a 7700 12bd
000001d0: 3c30 24bd f8e1 ca38 acc6 f8bd 3eeb cf3c
000001e0: 02bd 3dbd 5fab febd 30d3 6f3d 9548 053d
000001f0: e16e 0fbd d77e b53a 987d bc3c cffb 95bd
00000200: 63f5 b3bd 845e 083d 4ec2 a7bd 84cd 67bd
00000210: 4deb 023c e3f0 973d 7f66 383e b840 67bd
00000220: 7ea0 593d 7c3d 90bc 06e3 4e3d 4c3c d83d
00000230: 12d8 923d 0bb6 dbbd d78a 733c 0f4e 45bc
00000240: b5ae 1b3d d704 4b3d c9e4 4fbd 9e30 36bd
00000250: b38b 72bd 5bfe 44bd 78f7 6fbd cbdb 5abb
00000260: daf4 b53c b4b8 c7bd 2f82 afbb 994e d23c
00000270: 84ab 5cbc ebce 6c3d 813c 7cbd 0997 183d
00000280: 731d a83d e439 583c 373b 863c a494 80bd
00000290: 2ab6 a4bd df15 cc3d 7372 ebbc 8576 19bd
000002a0: 0063 1c3d d874 4b3d 77f3 e53c 1a28 c23d
000002b0: dd64 0dbe 823a 183d 9a48 643b 7c42 003d
000002c0: 8829 d33d 523f 71bb d056 863c 38aa 5f3c
000002d0: 9f24 363d a249 57bd e651 283d aec3 673c
000002e0: 9204 453d df05 6b3d 86b2 773d 3352 a1bc
000002f0: 3a9c 1abc e065 973b 71c3 8d3d 6e75 293d
00000300: f162 6ebd 350f 46bd b1c5 a43c fe4d 5bbd
00000310: 727e c4bd 919b 7c3d e7fd 5a3d 6ba9 58bd
00000320: 766e 14bc 5967 583d 84b0 323c 6509 713c
00000330: d410 08bd 3cc6 e53c fbd0 d83b adfc 20bd
00000340: 5a8f 06bc 1549 c1bd 1ef9 813d 3d49 8ebd
00000350: 388f e7bc 2139 8bbd 92e9 12bd 651b bbbb
00000360: 5390 d33a dd0c 6f3c 5c12 633e a358 93bd
00000370: 54a9 90bd 7088 06bd 0cd1 d8bd 2e3e ab3c
00000380: d513 7a3d 475f 2b3b 0364 223d 93a8 633d
00000390: 8a9b 1ebd df90 ee3c 3e5e fa3d 240c 023e
000003a0: 3730 a13d 14fe a03c e871 cabc 26ec b8bc
000003b0: 7afc a6bc 97fd 3fbc ea26 97bc c604 20bd
000003c0: 57f6 09bd 9c5c 88bc a1e0 09bd 58e8 a43d
000003d0: 7670 55bc 22e0 173d 3ffa 47bd d632 abbd
000003e0: 5804 1abc 1f3d 40bd a88c ea3d 961f 84bd
000003f0: c9ab 2f3c 7b76 02bd 8b79 04bd 9c0c 88bd
0.017548224 0.06770503 0.0075335363 -0.14190707 -0.044945866 -0.07028153 -0.04506434 -0.03162712
-0.029794604 0.038599905 0.044529542 0.06898802 -0.059137262 0.006704619 -0.011330397 -0.010405671
0.0553812 -0.02104449 0.023459164 0.1203146 -0.0044005173 0.026829237 0.08389703 -0.03461638
-0.03184275 0.10183523 -0.017969167 -0.07600711 0.08523695 -0.0081197675 -0.055979192 -0.05384667
0.078330345 0.011442123 0.11523217 -0.049230788 0.081272855 0.022244876 -0.04675313 -0.006366879
-0.0037952743 -0.023873147 -0.081929706 0.03213842 0.07124756 0.05246092 0.061380476 -0.09695632
0.04676093 0.048400305 0.053749558 0.07508202 -0.004661718 0.054140605 -0.060275648 0.057620056
0.024643887 0.12139936 0.04665323 0.15028954 0.108570345 0.03286607 0.017854694 -0.017441958
0.03863708 0.027519459 0.05645511 -0.012980458 0.07483231 -0.027806742 0.028650017 -0.032888185
0.030134104 0.059788816 0.050630502 0.030236304 -0.001621412 -0.057606675 -0.11922256 0.13100435
0.098436095 0.006205105 -0.059526537 0.05814454 0.10150999 0.011921101 -0.04639818 -0.017089332
0.011270492 0.0359145 0.16751152 0.09050728 0.11207912 -0.011024594 -0.07570609 0.10126263
0.041249048 -0.05949542 -0.1065846 -0.013306154 -0.014142413 0.06739137 -0.05734426 -0.062752
-0.037733495 -0.04097324 -0.07960952 0.066495255 0.07358767 0.094604515 0.0674412 -0.051558547
-0.023411687 0.066344276 0.0012784969 -0.035644975 -0.040085062 9.6742006e-05 -0.12147269 0.025380727
-0.04632283 -0.1243503 0.058551013 0.032539923 -0.03501785 0.0013847005 0.023009107 -0.07323419
-0.08787038 0.033293262 -0.081913576 -0.05659248 0.00799067 0.07418992 0.18007849 -0.056458205
0.053131573 -0.017607443 0.050509475 0.10558376 0.071701184 -0.10728081 0.014864645 -0.012042536
0.03800841 0.049565163 -0.050755296 -0.04447996 -0.05921526 -0.048094135 -0.058585614 -0.0033395167
0.02221148 -0.09752026 -0.0053560953 0.025672244 -0.013468627 0.05781452 -0.06158114 0.037253413
0.08208742 0.013197396 0.016385658 -0.06278351 -0.080425575 0.09965109 -0.028741097 -0.037466545
0.03818035 0.049671978 0.028070195 0.09480305 -0.13808008 0.037165172 0.0034833313 0.031313404
0.10310656 -0.0036811423 0.016398817 0.013651423 0.04446852 -0.052560456 0.04109373 0.014145775
0.04810006 0.057378646 0.060472988 -0.019692516 -0.009436661 0.0046202987 0.06922043 0.041371755
-0.058199827 -0.048354346 0.020113798 -0.053541176 -0.0959443 0.061671797 0.053464796 -0.052895945
-0.009059539 0.052832935 0.010906342 0.0147117125 -0.033219174 0.028048627 0.0066167093 -0.03930347
-0.008212889 -0.094377674 0.063463435 -0.06947563 -0.028266534 -0.06798006 -0.03586728 -0.005710053
0.0016141034 0.014590469 0.22174972 -0.071946405 -0.07063547 -0.03284496 -0.105867475 0.020903673
0.06105407 0.002614932 0.03964616 0.055580687 -0.038722552 0.029121814 0.122250065 0.12699944
0.078705244 0.019652404 -0.024712518 -0.022573542 -0.020384062 -0.011718175 -0.018451173 -0.039067052
-0.033682194 -0.016645722 -0.03366149 0.080521286 -0.013027301 0.037078984 -0.048822638 -0.083593056
-0.00940045 -0.04693329 0.11452609 -0.06451337 0.010722109 -0.031851273 -0.032342475 -0.0664303
